ppo_algorithm/checkpoints/ppo_critic_cat_mouse.pth (torch, 22538 bytes, 5 tensors)

critic.0.weight f4 [64, 10]
00000000: fad2 6ebe 35bc 63be d0a9 9dbd 6fc1 8b3e
00000010: fc27 48be f5b9 693e 8732 613e 24ca d3bd
00000020: cc7d 333e 957b dabd 0677 fdbc fe40 ee3d
00000030: 4b18 883e db49 8bbe 1422 9dbc a61b 8bbe
00000040: 8ee9 75be 37c1 7ebe f75b 7a3e 75e4 8fbe
00000050: 289c 383d 891f c73c fec8 043e e78d 633e
00000060: a5b1 61be b7c5 5b3e f150 4cbe 5548 cd3d
00000070: 2ff9 4b3d 144f 3ebd bea7 6fbe 7e90 563e
00000080: 8a44 35be 3547 9d3d 2248 593c a2d0 84bd
00000090: 3914 fbbc 46bf 98be ea90 83be 1ff3 803e
000000a0: f8be 94be ab63 adbd 6068 763e 5368 d6bd
000000b0: 4286 a4bb a4ae 113e 8772 a73d 7eb3 88be
000000c0: e56f ae3c 0c02 963e bb01 72be 7e68 943e
000000d0: 1a06 54be bac9 9bbd 8369 d73d 3187 963e
000000e0: 4606 743d 460c 7e3e f1ad 96be 7ab1 3bbe
000000f0: 38ae c63c e880 4f3e 26e7 d8bd 82ce 86be
00000100: 8250 7dbe 2445 343e 5c7e 04be 5379 f5bd
00000110: 75f6 113e 9745 58bd d7f0 813e e8bf 913e
00000120: 334c 993c d75c 9bbe 83c9 d03d 702f d33b
00000130: d604 83be 970f 81be d1a4 67be 5a6f e83d
00000140: 7d23 8ebe 76ce 833e ec37 5dbe a083 493e
00000150: c2a0 65bd 4071 b6bd 4fa8 fe3d 3896 31be
00000160: d8e7 9c3e 0f99 05be ba62 3e3e 89fe 073e
00000170: f98d 103e a470 02bd 4cf5 51be 63c8 95bd
00000180: 6b09 993d 9d64 46be e211 053d 4753 06bd
00000190: 6c04 e6bd 18ea 453e a34b 103e 5fbd 9fbe
000001a0: d559 223d 5926 8cbe c765 e6bd 5e45 74be
000001b0: 3424 b7bd 7908 163e 5add 70be db28 56be
000001c0: 6957 84be be25 b7bc c9ad 8c3e 598f 8f3e
000001d0: a7c5 bd3d 9d4d 9a3e 1a60 c53d ab10 af3c
000001e0: 863f 2abe 2b25 a1be 77b9 933d 3e51 453e
000001f0: 7383 8d3e 8edb 35be 6100 473e a973 91bd
00000200: fadc e6bd 41cb 973c 1cf6 2abe 71eb 0c3e
00000210: a4b8 6a3e e679 a4be 86ed 40bd 27df 183d
00000220: b8fa 91be d373 0c3e 8193 8abe 37fa 34be
00000230: 0031 543c 4141 8b3d 0d5e 07be 3914 f9bd
00000240: 0fc0 723e 4cc9 193e bc8d 72be 7f09 fabd
00000250: 83dd b9bd 264a 26bd 9e5d 85bd 9e32 873e
00000260: fde1 383e c7fa 81be 9db5 043e ecb3 f43d
00000270: 66ef 833e cebc aa3d a27e f1bc 1b67 da3d
00000280: 23dd bf3d 857e 9cbe e187 8d3e ea48 493e
00000290: ccfd a53d 074c 58be cebc 453e 4d83 73be
000002a0: 55c2 2abd 3b58 ff3c 5ed0 4a3e 9d33 8bbd
000002b0: 7cd0 4c3e 40a2 8b3e 1796 d1bb e3f4 92be
000002c0: ba75 b4bd e6dd 113d 559e 90be 8962 3bbe
000002d0: 0cdb 8bbe ff68 5f3e 1231 92be 72b8 873b
000002e0: 1bc5 633e 89cb 293e c399 9e3e bbc1 fc3c
000002f0: 8de9 b3bc 11fb 683e dc90 603d 2429 08be
00000300: b751 993e 0c5b a53d 566d 9dbe eb14 8abe
00000310: 3aeb 983e e704 573e 3e91 a0be 8f43 65be
00000320: 286e d9bd e3be 5e3e f2c4 2b3d 049c 10be
00000330: 0006 53bd edcd 5bbd ad35 83be 030f 3bbe
00000340: b73e 8dbd 4af7 c1bd 2956 3c3d e090 023b
00000350: 56ed 93be d304 18be 7a82 533e fb71 14be
00000360: 4cb3 91be 16ad 26be b82f 07be 2fe5 1c3e
00000370: 282f 193e ea9a 7a3e 9f3d 2dbe 1cf3 9f3e
00000380: b436 33be 9cef c4bd cf7f 593d 6570 073c
00000390: 00a3 a23d ec1f 9ebd 0571 4c3e 5d6f e7bd
000003a0: d803 06be b17d bcbd 82a4 9c3e 9d17 3c3e
000003b0: 1af8 183e c94d 06bc c56d 6f3e 7477 843e
000003c0: 374d e03d f225 64be 311e 973e 65a0 793e
000003d0: b140 623e c67e 27be 8613 81be fa38 3e3e
000003e0: f2fb 523d 78b3 ac3d 5811 8c3e 5dfa a1be
000003f0: 08ca 6b3c 80df 3cbe 619d 1fbe ed9d 00be
-0.23322669 -0.22239764 -0.07698405 0.27296016 -0.19546503 0.22824843 0.21991931 -0.1034129
0.17528456 -0.10668103 -0.030940544 0.1163349 0.26581034 -0.27204785 -0.019181289 -0.27169532
-0.24014875 -0.24878393 0.24449144 -0.28103986 0.045070797 0.02430703 0.12967297 0.222221
-0.22040422 0.21462141 -0.19952752 0.10023562 0.049798187 -0.046462134 -0.23403832 0.20953557
-0.17701927 0.07679597 0.013261827 -0.06485106 -0.030649291 -0.2983343 -0.25696498 0.25185487
-0.29051948 -0.08466276 0.24063253 -0.10469117 -0.0050208876 0.14226776 0.08176141 -0.26699442
0.02129359 0.29298437 -0.23633473 0.2898597 -0.20705453 -0.07606836 0.10518172 0.29400018
0.059576295 0.2480937 -0.29429582 -0.1832942 0.024252996 0.20264018 -0.10590963 -0.26329428
-0.24737743 0.176045 -0.12938827 -0.119860314 0.14254172 -0.05280074 0.2537906 0.28466725
0.018713092 -0.3034427 0.10194685 0.006444864 -0.25589627 -0.25207207 -0.22621466 0.113493636
-0.2776145 0.25743455 -0.21603364 0.19679117 -0.056061514 -0.089083195 0.12434446 -0.1734246
0.30645633 -0.13046668 0.18592349 0.13280691 0.14116658 -0.031845704 -0.2050373 -0.07313611
0.074724995 -0.19374318 0.032487758 -0.032794263 -0.11231312 0.19327581 0.14091353 -0.31199166
0.03963645 -0.27373007 -0.11249881 -0.23854586 -0.08942452 0.1465167 -0.23521939 -0.20914023
-0.2584794 -0.022356864 0.27476338 0.28039053 0.09266215 0.3013734 0.096374705 0.021370253
-0.16625795 -0.3147367 0.07213109 0.19269273 0.2763935 -0.17759535 0.19433738 -0.071021385
-0.11272617 0.018529536 -0.16695446 0.13761689 0.22921997 -0.3212425 -0.04710152 0.03732219
-0.28511596 0.13716058 -0.27065662 -0.17673574 0.012951136 0.067995556 -0.13219471 -0.1216206
0.23706077 0.15018195 -0.2368688 -0.122088425 -0.09075453 -0.040598057 -0.06511997 0.26405805
0.18054958 -0.2538664 0.12959905 0.1194838 0.25768584 0.08336793 -0.029479329 0.10664197
0.0936835 -0.30565277 0.2764273 0.19656721 0.081050485 -0.21122752 0.19310305 -0.23780556
-0.041689236 0.031170001 0.19806048 -0.06796954 0.20001405 0.27272224 -0.006396066 -0.2870246
-0.08811517 0.03561201 -0.28245798 -0.18299307 -0.27315557 0.21817397 -0.28553063 0.0041418606
0.22243159 0.16581549 0.30976686 0.030854097 -0.021961952 0.22752024 0.05482565 -0.13296944
0.29945156 0.080740064 -0.3074748 -0.26969084 0.29866964 0.20997964 -0.3136081 -0.22389053
-0.10616714 0.21752505 0.04193587 -0.14122015 -0.051519394 -0.053663183 -0.2562689 -0.18267445
-0.068967275 -0.09470995 0.045980606 0.0019922778 -0.2889201 -0.1484559 0.20655242 -0.14496605
-0.28457105 -0.16276965 -0.13201797 0.15321802 0.14959395 0.24473158 -0.16918038 0.31240165
-0.17501336 -0.09616014 0.053100403 0.008266543 0.07941246 -0.07720932 0.19964989 -0.11300538
-0.13087404 -0.09203661 0.3059426 0.18368383 0.14938393 -0.008197256 0.23381718 0.25872386
0.109522276 -0.222801 0.29515222 0.24377592 0.2209499 -0.16356954 -0.25210208 0.18576422
0.051509805 0.084326684 0.27356982 -0.31636325 0.01439143 -0.18444633 -0.15587379 -0.12560244

critic.0.bias f4 [64]
00000000: 075f 3c3d d18b 1b3d a442 963e 5b77 0d3e
00000010: edaf b73d bfc3 53bd 346a 67bd 45fa c53d
00000020: e70e 9fbc e7c9 3e3b 4942 8fbe 73fc 53bd
00000030: 80e2 6f3c bf38 2dbd 054a 28bd 878d 573e
00000040: 6bb4 9abd bd3e a0be 64bf 44bd e2df 813c
00000050: c3ad 40be 6f62 023e ba5f 473e 54aa 9bbe
00000060: 91ca 7b3e b870 a4be ad4e ca3d d650 983d
00000070: de58 bbbd 8699 6e3e 4dc5 d7bd e139 94be
00000080: 5196 3a3e ce95 093e 6099 56be 3551 a8bd
00000090: 0858 07be 043a 543e 90e0 1ebd 0683 023e
000000a0: f488 1a3e e13b 13be d464 ffbd 0fe9 ffbc
000000b0: 826f 41be 525c 82bd 9aff 563e 7abc 533e
000000c0: 1a55 e93d ff3c f6bd 0dc5 403d 735f b6bd
000000d0: 6742 313e 602b 65be 7711 3dbe 8c4e 8ebe
000000e0: c101 953e b6c3 3b3e 9235 6dbe fadb b83d
000000f0: f232 4abe 6aba 71bd d5c2 b7bd d597 1ebe
0.045989063 0.037975136 0.29347718 0.13815062 0.08969102 -0.05170035 -0.056497768 0.09666876
-0.019416286 0.0029112042 -0.2798026 -0.051754426 0.014641404 -0.042290445 -0.041086216 0.21050082
-0.07553943 -0.31297866 -0.048034087 0.015853826 -0.18816285 0.12732862 0.1947011 -0.30403388
0.24588992 -0.32117248 0.098782875 0.07437293 -0.091478094 0.23300752 -0.10535679 -0.28950408
0.18221404 0.13436052 -0.20956945 -0.08218614 -0.13217175 0.20725256 -0.03878838 0.12745294
0.15091306 -0.1437831 -0.12470403 -0.03123906 -0.18890193 -0.06365265 0.20995942 0.20677367
0.11393185 -0.12023353 0.047062922 -0.08904924 0.17310487 -0.22379827 -0.18463694 -0.27794302
0.291029 0.18336377 -0.23164967 0.09026332 -0.19745997 -0.05901567 -0.08972708 -0.15487607

critic.2.weight f4 [64, 64]
00000000: 1cde 30bd 8075 0e3c ac70 babc e06b b5bd
00000010: 240d d5bd 5628 ebbd c486 c4bd e2c2 40bb
00000020: 77ec a93d c17c 15bc c66d e6bd a423 1e3d
00000030: aa5f 53bc 4230 01be 895b 003d 2228 aa3d
00000040: d6b2 593d 7f7e dcbd 95c9 2dbc cea6 39bd
00000050: e07c 86bd 291a 703c 18e8 d6bd 2943 e7bc
00000060: 5dd6 073e 9149 b9bd 452b cf3d ebab cdbd
00000070: 3666 893d 68f8 a03d e09d 33bd 4aa9 6b3d
00000080: e88a afbd 02dd 41bc 94db 17bd 8e7e fbbc
00000090: 3941 c13d b03d fd3d 7024 18bd 1222 eabd
000000a0: 3f58 0cbd 970e e3bc cb99 9bbd 4ee6 223d
000000b0: e5c2 ca3c d02f c4bd d990 9d3d b7e1 d53d
000000c0: 2da4 973d f841 083d d652 1cbc d373 4abb
000000d0: 811d 69bd 6392 083d 79b7 a93d fd32 253d
000000e0: f81f adbd 71a7 f8bc f537 02be b351 a43c
000000f0: 943d f0bd 68e4 013e 96a0 c7bd 6f99 c43c
00000100: da84 d0bd 578f babd f9b6 413d 7981 c33d
00000110: 3a17 653d 2970 0fbd ae1f d33d edde 81bd
00000120: 50cf bbbc ad14 23bd d2c5 fbbc c552 01bc
00000130: 5e5c 083e 4572 b83c 762b f63d 0d64 42bd
00000140: afa6 853d 7efa 553d 5798 a73d 3675 233d
00000150: e8d4 e23d 1b90 e7bc afbb c83c a349 bebd
00000160: 763b 09be e934 87bd 0881 433c 6dbd 763d
00000170: 2728 dc3c 5c6f c5bc 6778 813d 4c5c 66bd
00000180: 4bf3 ec3c 7ca7 1fbd 034e e73c f8e1 f13d
00000190: d6b2 90bd 860c 903d 6e31 88bd 110a ebbd
000001a0: 5bfa a5bc 6699 a6bd 7668 8d3d c344 853d
000001b0: 2802 be3b b958 8f3d ee3b aa3d 6618 463d
000001c0: 4612 06be ebe9 033c ca37 dd3d b979 0b3d
000001d0: 2779 7d3d ba79 bc3c a063 353d 3fbe 99bd
000001e0: d16b 923c 411a 0e3d 6c8c e2bd 1245 23bd
000001f0: 8e5d b33a c91e 65bd 5ad3 80bd f83f c53d
00000200: 8fab fe3a afac 5dbd 956a 5abd 440d 043e
00000210: cae3 ff3c 90ad da3d e5a4 b13d a166 cc3d
00000220: 567c 2abd 840d c23d f000 063e acfa bebd
00000230: a1bc c93d 3cc4 ad3d d4f5 abbc 0435 c1bd
00000240: 5fb7 b5bc 8424 773d 622d c63c 0874 f43d
00000250: 77da 3ebb 3283 db3d f981 f2bd 6a9e 81bd
00000260: 91b0 b8bd fe02 c03d 85a6 93bd 4bdb cebd
00000270: 2f6b f93d ba31 dcbd 5fb2 303b a05e e23d
00000280: 09bd d3bb 58ef dc3d f8f7 e33d 48b7 96bd
00000290: 186f 36bd d2a3 b83d 22da df3d 02c8 d3bd
000002a0: 6b52 24bd 8112 b0bd 33d2 d1bd f02f e1bd
000002b0: 07da a0bd c379 8abc 3215 f8bd 9eca c6bd
000002c0: e0a3 68bd 273c a23d 9a00 6f3c 8948 b73c
000002d0: 7002 873d 171b ff3c 00c7 a13d 3351 85bd
000002e0: d726 ea3d 993f d33d c21c 843d 9416 cabc
000002f0: 3f88 48bd bb03 eb3d b89e 08bd 9b41 1e3d
00000300: 6d66 e9bc 910f 84bd d026 a3bc 7437 943c
00000310: c7d4 d83d f42e d13d fcdc b13d 8dbb fbbc
00000320: 0958 1c3b a58d 74bd 11c1 cabc 7380 d53d
00000330: c31c ea3d f7ca b63d f807 aebd 6d8e 9c3d
00000340: 40f6 c03d 9133 5ebd a1ad e83d 1df7 d63d
00000350: 7680 56bd ef76 753d e624 3d3d b367 7c3d
00000360: 1b53 babc e98e 67bd b81d 1ebd bb3a a63c
00000370: f1ab 323d 145e 043d b117 573d cceb c9bd
00000380: e95e 85bd 731e dc3d a588 f93d 6d71 2d3b
00000390: bbe2 6b3d fb40 dd3d bc8a b73d a0ae b4bc
000003a0: 55f4 9d3d 66a4 d5bd a47a ec3d e460 be3d
000003b0: e098 d83d 766a e33d fe7d 4a3d 7227 e3bd
000003c0: 6926 dfbc d609 083d 3d7d aebd f1b7 79bd
000003d0: 4f2e 6cbd 136f 6cbd fe15 e3bd 52f9 9d3d
000003e0: f050 ddbd fed4 8dbb 18e8 923d f595 f43c
000003f0: d57c a83d 3317 bbbb 4858 cebd 0f77 9ebd
-0.04318057 0.008695006 -0.022758804 -0.08858466 -0.10402897 -0.11482303 -0.09596017 -0.0029413034
0.08297055 -0.009123982 -0.11251406 0.03860821 -0.012901226 -0.12616065 0.031337295 0.08308436
0.053149067 -0.10766315 -0.010607143 -0.045325093 -0.06566787 0.014654675 -0.10493487 -0.028230267
0.13265367 -0.09047235 0.10115675 -0.100425564 0.06708948 0.0785988 -0.043851733 0.057534494
-0.08571416 -0.0118324775 -0.03707464 -0.030699994 0.09436268 0.123652816 -0.037144125 -0.1143228
-0.034263846 -0.027716918 -0.07597693 0.039770417 0.024751136 -0.09579432 0.07693643 0.10443442
0.07404361 0.033266038 -0.009541234 -0.003089179 -0.056912903 0.03334273 0.08286948 0.04033183
-0.08453363 -0.03035328 -0.12716658 0.020058488 -0.11730495 0.12684786 -0.09747426 0.023998944
-0.101815894 -0.09109371 0.047293637 0.09546179 0.055930354 -0.035019074 0.10308777 -0.06341348
-0.022926003 -0.03981464 -0.030733977 -0.007893269 0.13316485 0.022515425 0.12020008 -0.047458697
0.06525933 0.05224084 0.081833534 0.039906703 0.11075765 -0.028266957 0.024503557 -0.09291389
-0.13401589 -0.06601889 0.011932619 0.060239244 0.026874615 -0.024100952 0.06321793 -0.056240365
0.028924605 -0.038978085 0.028235441 0.11810678 -0.0706536 0.07033639 -0.06650053 -0.114765294
-0.02026098 -0.08134727 0.0690469 0.06507256 0.005798597 0.069993444 0.08312212 0.048363112
-0.13092908 0.008051376 0.108016565 0.03405163 0.061883118 0.023007262 0.044284463 -0.0750699
0.017873676 0.034693006 -0.110619396 -0.039860792 0.0013684498 -0.055937562 -0.06290312 0.09631342
0.001942979 -0.054119762 -0.0533243 0.12895685 0.031236548 0.10677636 0.08674029 0.099805124
-0.041622482 0.09475234 0.13086295 -0.093251556 0.09850431 0.08484694 -0.020991243 -0.0943394
-0.022182165 0.06033756 0.024191562 0.11936194 -0.0029121914 0.10718383 -0.118411966 -0.06329043
-0.09018052 0.09375571 -0.072094955 -0.101004206 0.12178647 -0.10751672 0.0026961786 0.110532045
-0.0064617437 0.10787839 0.11131281 -0.07359177 -0.04453954 0.09015621 0.109302774 -0.10340883
-0.040117662 -0.08597279 -0.102451704 -0.109954715 -0.078540854 -0.016903764 -0.12113418 -0.09706615
-0.05679691 0.079216294 0.014587546 0.022373455 0.06592262 0.031140847 0.07899284 -0.06509628
0.11433189 0.10314865 0.064507976 -0.02466897 -0.04895806 0.11475321 -0.03335449 0.038636785
-0.028491223 -0.064482816 -0.019915968 0.018092848 0.10587459 0.10214034 0.086847275 -0.03072908
0.0023856184 -0.059705395 -0.024750264 0.1042489 0.11431267 0.08925431 -0.08497614 0.07644353
0.094219685 -0.054248396 0.11361242 0.10496352 -0.052368604 0.059927877 0.046177767 0.061622333
-0.022744706 -0.056532774 -0.03860256 0.020291677 0.043621007 0.032316282 0.05251283 -0.09859428
-0.06512243 0.10747995 0.12184266 0.0026465312 0.057589274 0.1080341 0.08962008 -0.022055924
0.07712618 -0.10431747 0.11546829 0.09295824 0.105760336 0.1110429 0.04943656 -0.11091508
-0.027239995 0.033212505 -0.08519981 -0.060966436 -0.05766135 -0.057723116 -0.11088179 0.0771357
-0.10806453 -0.004328369 0.071731746 0.029856661 0.08226935 -0.0057095527 -0.10075432 -0.077375524

critic.2.bias f4 [64]
00000000: 738a a1bc eed3 da3b c58a efbd 7f42 dfbd
00000010: 863f 19bd 9215 8ebd 2e9c eabd 3877 363d
00000020: e377 03be 9785 3c3d d9db 8dbd bfc2 843c
00000030: e0d7 c83c 6554 dc3c 590e 063d 946f ef3d
00000040: ff92 6d3d fe52 f63c 96a1 813d ab14 923d
00000050: db1d 9e3d 4806 903c 8423 d33d e685 333d
00000060: ad95 5d3d ff0d 96bc e92f b1bc 541c d6bd
00000070: d6ad cdbd 6782 0f3d 76c9 8e3d 249b f03c
00000080: 1959 da3d 6d24 05bd 4f30 d9bd 7c9c ed3d
00000090: 36e5 203d 26ed 67bc 3af4 49bd 2f23 503d
000000a0: 1b15 9fbd f953 adbc d9d0 b4bd 12b9 b73d
000000b0: c8e8 e5bd a5b0 213d 0d72 ba3b 3321 9bbd
000000c0: d1f9 893d 56ea 113d 9c16 05bd 6e36 9fbc
000000d0: baa5 0a3d 6491 32bd 79be 20bd c914 d23d
000000e0: 0c68 213c 92ca ef3c 663a dabd 0ea0 02bd
000000f0: 1620 77bd 63ab dfbd 8851 753d 8b88 e1bd
-0.019719338 0.006678096 -0.1169639 -0.10901355 -0.037414096 -0.06937708 -0.1145557 0.04454729
-0.12838702 0.04602584 -0.06926698 0.016206143 0.024517 0.026895711 0.032728527 0.11691204
0.058001515 0.03006887 0.06329648 0.07132848 0.07720538 0.01758112 0.103095084 0.043828867
0.05409782 -0.01831722 -0.02162929 -0.10454622 -0.10042922 0.03503647 0.069720194 0.029370852
0.10661525 -0.03250544 -0.10604917 0.11602113 0.039281093 -0.014155662 -0.04930518 0.050814804
-0.077676974 -0.021158205 -0.08828897 0.08970846 -0.1122604 0.039475102 0.0056898654 -0.075746916
0.06737102 0.03562387 -0.032492265 -0.019435134 0.033849455 -0.043595687 -0.03924415 0.10257871
0.009851467 0.029271398 -0.1065567 -0.03189092 -0.060333334 -0.10921361 0.059892207 -0.11012372

critic.4.weight f4 [1, 64]
00000000: 2b9e 45bd cdbe 913d f5a7 653d d6bc 1a3d
00000010: 7032 d73d 50de 873d 9452 b9bd b2a0 a4bd
00000020: ca61 cd3c 4bee e73d 3989 3fbd 4e09 59bd
00000030: ddcf de3d b0df bd3d 8791 e9bd a674 85bd
00000040: 43e0 9b3c 5313 573d daa2 d8bd 6d76 6bbd
00000050: 97fe b43c f41b b33d 8ff1 343d 4e2a 20bd
00000060: b127 d43d 7083 5b3d 0b3e f23d 14f7 d0bd
00000070: a6d9 b0bd 5436 b53c 6158 93bd dcda 81bc
00000080: 8e1a e8bd 8c94 f13c 2d32 003e d243 1bbd
00000090: 8ba4 80bd 7b51 91bd 65db be3d 5ef0 fabc
000000a0: b269 b43d f1dd f83d d8ff 4d3d 5e56 8ebd
000000b0: 751e 7e3c 4d04 a63b 70eb 7e3d a6fe 8abd
000000c0: 9f40 e63d a696 c73d 88da 8e3d 96a8 7dbd
000000d0: bac0 1e3d d5d8 7bbd aa76 8ebd 0cc6 87bd
000000e0: 4f9d 993d f662 42bd 34cb 9fbd 3ff9 b3bc
000000f0: 9098 163c 991f 86bd 9d68 57bd c35d e23d
-0.048246544 0.071164705 0.05606838 0.037777744 0.10507667 0.066341996 -0.09048954 -0.08038463
0.025071044 0.11324748 -0.046761725 -0.05298739 0.108794905 0.09271181 -0.1140471 -0.065163895
0.019027835 0.052508663 -0.105779365 -0.057485987 0.022094054 0.08745566 0.04417568 -0.039102845
0.10359133 0.053592145 0.1182824 -0.102033764 -0.08635263 0.022120632 -0.07194591 -0.01585143
-0.1133319 0.029489778 0.1251914 -0.037906475 -0.06281384 -0.07095619 0.0931919 -0.030632194
0.08809222 0.12151707 0.05029282 -0.06950067 0.015510191 0.0050664307 0.06223625 -0.067868516
0.11242794 0.09745531 0.06975275 -0.061928354 0.038758017 -0.061486084 -0.06956227 -0.06629571
0.07500707 -0.047457658 -0.0780243 -0.021969436 0.009191647 -0.065489955 -0.05259 0.1105304
