ppo_algorithm/checkpoints/ppo_actor_num_agent_exp_2run_0_lumberjacks.pth (torch, 127718 bytes, 6 tensors)

actor.0.weight f4 [128, 88]
00000000: daba babd d121 343d 6db3 b23d 24f7 58bd
00000010: 620f b7bd 5538 6f3d d7d2 423d 060f bf3d
00000020: d656 bf3d da2d 7bba 2718 13bd d0a4 b73c
00000030: 36cd 9ebd 4d8d a4bc c62d bd3b e728 6a3c
00000040: 1a3a d2bb 3b92 22bd 0edb 54bd 01ca 15be
00000050: cc4b debd 9a50 ac3c b5c8 353d 49d5 f73d
00000060: 2262 c73d d220 9a3d 3064 93bc fa20 fcbb
00000070: 4dad 64ba 12d9 003d 9e4d 81bd d303 05bd
00000080: d6ff babd 99cc 29be 9816 d13c d88f c2bd
00000090: 8ea8 183e 061e b8bc f22e 3abd a182 09bc
000000a0: c254 96bd 4eb2 6bbd b8ff 323d 8a3e f03b
000000b0: c816 ed3c 1db6 553d a420 e2bc c85d e03d
000000c0: 3284 a33c 6bdb 88bd 80bf 9dbd 00f4 013e
000000d0: 9057 2bbd 213e a13d 3733 8d3d f5ae 893d
000000e0: 8fde 00bd 3cbc 0e3d 3abf 12bd 9bda 9cbc
000000f0: 19cc adbd fffc 413d 86a1 a2bd 779a c4bd
00000100: fe7b 53bd 1c1c ebbd 1657 823d c00d 723d
00000110: c0d8 89bd d820 9f3c 1e90 99bc 1e38 33bd
00000120: b38a 1a3d a790 adbd 0793 6cbd 627a fb3d
00000130: 56f9 03be 4a5c 05be 3e44 a1bb 3b69 dc3c
00000140: 40ec 0e3e 5154 f83d 4d43 99bc a735 4bbd
00000150: 2ada 7d3c a4e8 c83d 3479 45bd b497 e43d
00000160: 659b b63d 5df1 f9bc 5144 7cbc 9483 f0bc
00000170: 85b5 d7bd 909f 03bd 5acc 57bc fd08 c3bc
00000180: 4481 e6bc a1b9 9d3d b84d a8bd 8dc5 79bd
00000190: 3d09 393d 6788 d0bd a41f b9bc 7dcd aebd
000001a0: 7299 843d 1153 e33c 0b48 09bd bbb1 a23c
000001b0: f8cb 7c3c 5167 c0bc d27b d43c 96e0 d43d
000001c0: eb5d a03c 9300 b93d 362f 90bc 4e03 6b3d
000001d0: daee e03a d913 c6bc 47da fdbb c3bd 823d
000001e0: 603a a13d 3b5d a4bd a6d2 b23d b825 b7bd
000001f0: c318 123d 4b06 40bc 3480 763c 96e1 0abd
00000200: bfc0 b83d bc2b 1fbc 587b dcbc 3e2d a6bd
00000210: ebab d13d 4198 ad3d 8f2a c2bc a819 26bd
00000220: f3ed 603c 4d0d 253c 0b40 8abd c2f4 2dbc
00000230: 7019 d5bc 8b93 a8bc 8eed b3bd 9bee 22be
00000240: 1d76 fb3c bb59 d0bd 974d bfbd 8ab4 cabd
00000250: a81c cfbc 762c a03d a287 23bd 8bfc a4bb
00000260: ea84 83bc 1c21 00bd 2ba3 48bd 528b c73d
00000270: dca6 b13d 6dd1 5bbd c512 073d 0ae0 b1bc
00000280: 62b8 c73d f003 69bd 19ce 383d d4b5 da3d
00000290: ac6a f7bc 67d9 a4bd 66ae 2a3a f17d 5fbd
000002a0: f6b5 9abd 0cf7 9ebd 6eef 433d 942c 88bd
000002b0: 07b2 373d 0bd7 623c a413 1dbd 5c74 3e3d
000002c0: 57b0 723d d8ed 07be a57c c5bb f0dd 23bd
000002d0: 7e78 d63d 2157 56bd 530f d0bd 5ec2 42bd
000002e0: 7d1a 143d 120c 943d 58ec 7c3d 02b3 b4bc
000002f0: 80cf a43d 2e45 8d3d 8928 e43b 8d98 d0bd
00000300: 6cd7 5abc a5c3 6a3d 295f 103c 950d e5bc
00000310: 2298 f5ba 0675 953d 8dfc cdbd d5a4 d6bc
00000320: 198a bf3c 3693 723d 8ce5 333d a6c4 99bd
00000330: 67cc 6bbc e0f4 8c3c 7e26 2c3d 23d6 453d
00000340: ef10 6a3c fb3f c23d 575b 0e3d 4ef5 98bd
00000350: 253b a83d ef11 9e3b 252e e9bd 25da 57bd
00000360: 2e00 d6bc 715a 6abd d5f6 95bb 8ff0 71bd
00000370: f043 8bbd df07 e8bd 562a a03d bc9d a53d
00000380: 2cac 85bd ca13 bfbc 59f6 7ebc 9a10 2a3d
00000390: 82e5 ffbd d75b eb3c f379 843d 6777 7f3d
000003a0: 9f99 2a3d 50ac 803d ec1a 8dbd 3fcd 4bbb
000003b0: c91f 57bd 5229 b03d f4b6 b3bc e305 ed3d
000003c0: 9852 a23d 29c5 0abd 4367 bcbd 37df 65bc
000003d0: 254e a6bc d4ea 0fbd 1ef5 5c3d a356 0c3d
000003e0: aec2 fabd 7fae 37bd f3aa c83c b1ed 233d
000003f0: 4b40 2e3b 17e1 38bc b854 9f3d f4bc e6bd
-0.0911767 0.043977562 0.08725629 -0.052970067 -0.08938481 0.05840333 0.047564354 0.09329037
0.093427345 -0.00095817226 -0.035911705 0.022417456 -0.07753985 -0.020086909 0.005773279 0.014291978
-0.0064156177 -0.039690237 -0.05196672 -0.1462784 -0.10854301 0.021034528 0.044380862 0.12101228
0.09735514 0.07525791 -0.017992109 -0.007694361 -0.00087233336 0.031457014 -0.063136324 -0.03247435
-0.09130828 -0.16581954 0.025523469 -0.09500092 0.14908049 -0.022475254 -0.045454927 -0.008392961
-0.07340385 -0.05754309 0.043700904 0.007331674 0.028941527 0.05217563 -0.027603455 0.10955387
0.019960497 -0.06682476 -0.07702541 0.12690735 -0.041831553 0.07873178 0.06894534 0.067228235
-0.03146225 0.034847483 -0.0358269 -0.019147208 -0.08486194 0.047360417 -0.079409644 -0.09599774
-0.05163192 -0.11479971 0.063642666 0.059095144 -0.06730795 0.01942484 -0.018745478 -0.04375469
0.03772993 -0.08474856 -0.057757404 0.12279202 -0.12888083 -0.13023487 -0.004921465 0.026905647
0.1395731 0.12125457 -0.01870885 -0.049611714 0.015493909 0.09809998 -0.04821129 0.111617476
0.08916358 -0.030510599 -0.015397147 -0.029359616 -0.10532669 -0.032134593 -0.01317128 -0.023807997
-0.02813781 0.077014215 -0.08217949 -0.060979415 0.045174826 -0.10182267 -0.022598095 -0.085352875
0.0647458 0.02774957 -0.03351597 0.01986014 0.015429489 -0.023486765 0.025937948 0.10394399
0.019576034 0.09033313 -0.017600637 0.0573762 0.0017161027 -0.024179386 -0.007746968 0.063838504
0.07872462 -0.08025595 0.08731584 -0.08942741 0.035668146 -0.01172025 0.015045214 -0.03390654
0.090211384 -0.009715017 -0.026914284 -0.08114098 0.10237869 0.08476306 -0.023701934 -0.04055181
0.0137286065 0.010073972 -0.067504965 -0.010617437 -0.026013106 -0.020578166 -0.08785544 -0.15911333
0.03069597 -0.10173365 -0.09340971 -0.09897716 -0.025282219 0.0782098 -0.03992427 -0.0050349883
-0.01605459 -0.031281576 -0.048983734 0.0974337 0.08674404 -0.05366652 0.032976884 -0.021713275
0.09751965 -0.05688852 0.045118425 0.10679212 -0.030202232 -0.08049279 0.0006510973 -0.054563466
-0.075542375 -0.07761964 0.04783576 -0.066491276 0.044847514 0.013845216 -0.03834881 0.046497688
0.059250202 -0.13274324 -0.0060268217 -0.040006578 0.10472201 -0.052329186 -0.10159173 -0.047548644
0.036158074 0.07228865 0.061748832 -0.022058014 0.0804739 0.068979606 0.00696284 -0.10185347
-0.013357025 0.057315487 0.00881175 -0.027960578 -0.0018737356 0.07297711 -0.10057936 -0.026201645
0.02338128 0.059222423 0.043920085 -0.07508211 -0.014391995 0.01720661 0.042028897 0.04829992
0.014286264 0.094848596 0.034755077 -0.07468663 0.08214406 0.004823915 -0.113857545 -0.052698273
-0.026123133 -0.057215158 -0.004576544 -0.059067305 -0.068000674 -0.11329626 0.07820575 0.08086726
-0.0652698 -0.023324866 -0.015561664 0.04151974 -0.12494947 0.028730316 0.064685725 0.06236973
0.04165041 0.06282866 -0.068899006 -0.0031097678 -0.052520547 0.08601631 -0.021937825 0.115733884
0.0792591 -0.033879433 -0.09199383 -0.014030269 -0.020300934 -0.03513606 0.0539447 0.03426231
-0.122441635 -0.044844147 0.024495577 0.040021602 0.0026588615 -0.011284134 0.07779831 -0.11266509

actor.0.bias f4 [128]
00000000: 88aa 9bbb 6745 19bd 4958 f6bd 2bd0 37bd
00000010: 046c 113d d46a a4bd b27c cabd 64ba ab3d
00000020: eea2 8c3d 2f5e 6dbc b661 303b 0319 7bbd
00000030: 78b4 9a3a 3f1a 663d 136e e7bd 99b5 0a3e
00000040: e8c9 9c3c 64ce 20bd 18b6 523d 82fd 62bd
00000050: 3903 203d a404 e8bd be38 40bd 7707 7f3c
00000060: 8d19 ca3b e3a8 0a3d 6397 b4bc c597 4c3d
00000070: a0e4 93bd 0d8d 8b3c 9c5e 1a3d a1ce a9bd
00000080: d810 a9bd 0b74 d73c fa9e 1bbd 90d9 25bc
00000090: 6316 d63c 4618 05bd cd52 dfbc 660b ad3d
000000a0: c0f0 85bc b332 e43d 053d 8e3c c881 353c
000000b0: 1fe3 1cbb c0a7 413b 31dd f63c f4f3 85bd
000000c0: 318e 283d 5437 0fbb 53f2 83bd 901e ccbd
000000d0: 1c87 c23d eaf2 8abd 9261 d7bc f5a1 8abd
000000e0: b673 193d 6ca9 473d 23ae 3d3c 081a bd3d
000000f0: 19b6 48bd b735 89bc 6255 7c3d c22f 983d
00000100: bb1c 2dbd 6fe2 29bd 1beb 85bd 2366 93bd
00000110: 632c d0bc 15b3 bd3d 41aa 1abd 662a 343d
00000120: cb92 8ebd 1578 a8bc d35c 90bd 1242 993d
00000130: 312b 91bd 4920 57bd bdf3 993d 2f2a 5fbd
00000140: 6f84 043d 7ebc 303d aa15 4ebd fc1e 643d
00000150: 4816 b63d b695 1cbd ba7d 55bd e00e 8cbd
00000160: 6d71 953d dc8d 323c 22be a7bd b848 9a3d
00000170: 1891 7cbd d0c2 aebc 4b7a d33c f793 20bd
00000180: 5eae 00bd b911 cbbd 744a 23bd c33c d43d
00000190: 5a16 f73b 9952 2a3d eb48 e93c 7d2b dbbb
000001a0: 5e53 d43c bfcb 17bd 5f17 68bb 4b56 d03c
000001b0: 744c 10bd db0a 7c3d 6d02 b7bd 66f4 f6bc
000001c0: 3db0 333c b70f 36bc 734d 2d3c 36e9 88bd
000001d0: 22c9 28bd c7a4 d03d d528 c43c 619a c13d
000001e0: 2d07 df3c 6916 4a3d e6e9 91bd 64e0 9abd
000001f0: af62 dc3c d62a 19bd 5c2e 973d d30b 2abd
-0.0047505535 -0.037419703 -0.12028558 -0.04487626 0.035503402 -0.08028188 -0.09887065 0.083851606
0.06867014 -0.014487787 0.002691371 -0.06130315 0.0011803051 0.056177374 -0.11300292 0.13545837
0.019139245 -0.03925933 0.05144319 -0.055417545 0.039065573 -0.1132901 -0.046929114 0.015565745
0.0061675967 0.03385247 -0.022044843 0.049949426 -0.07221341 0.017035032 0.037687883 -0.082913645
-0.08255166 0.02630045 -0.03799341 -0.010122672 0.026133722 -0.032493852 -0.027261162 0.0844944
-0.01635015 0.111424826 0.01736308 0.011078306 -0.0023939086 0.002954945 0.03013477 -0.06540671
0.04115123 -0.0021853046 -0.06442704 -0.09966767 0.09498426 -0.067846134 -0.026291642 -0.06769172
0.037463866 0.048745558 0.011577162 0.09233481 -0.049001787 -0.016749246 0.061604865 0.07430984
-0.042263728 -0.04147571 -0.065389834 -0.071972154 -0.02541179 0.09262673 -0.037760023 0.043985747
-0.06961592 -0.020565072 -0.07048955 0.07483305 -0.07088316 -0.052521024 0.075171925 -0.05448359
0.03235286 0.04314851 -0.05031363 0.05569361 0.088909686 -0.038228713 -0.052121855 -0.06838775
0.07297025 0.01089808 -0.08190562 0.07533401 -0.06166181 -0.021333128 0.02581515 -0.03920361
-0.03141629 -0.0991549 -0.039865926 0.10363152 0.0075405063 0.041582678 0.028477153 -0.006688534
0.025918659 -0.03705954 -0.003541432 0.025431773 -0.03522916 0.06153379 -0.089360096 -0.030145835
0.010967311 -0.011112145 0.010577547 -0.066851065 -0.04120744 0.10187679 0.023945251 0.094532736
0.027225101 0.04933778 -0.07124691 -0.0756233 0.026902525 -0.037394367 0.07381889 -0.041515183

actor.2.weight f4 [128, 128]
00000000: f748 cfbc e6ab 003d b184 493c f064 74bd
00000010: 4a4f 28bd 2e4a 9cbc 4c13 443c 0473 d43c
00000020: 3abc c33c 9f3a d1bd 61b3 8dbd 9705 cbbb
00000030: cf8b 4fbd 3b1d bd3d 3b58 993d 3e68 613c
00000040: cede 043c 3cd5 20bd 5adc 9f3b 721b 15bd
00000050: 2d29 7d3d 45cd 873c 7e4f afbd 645d a03d
00000060: f5c6 723c ecc6 d53d 2e17 883d 28a8 a8bc
00000070: 938b 503d 60f1 27bd bf37 9a3d 25f3 2d3d
00000080: 188c 283d 4343 6bba 2ba9 293d ea1d 8ebd
00000090: a8d2 3cbc 0afe 7abc 70f6 9bbd 1756 5abd
000000a0: d740 a5bd 5221 e43d 3072 bd3d 98ed 2ebd
000000b0: 6d19 383c a558 a23b 24b6 8ebc 7305 a6bb
000000c0: c2e4 fa3c 7b80 483d aa1c 023d ca8a c23c
000000d0: 702c e1bb 433a b5bc b4ec f93c 2717 5fbd
000000e0: 6880 ddbd ab4e 7cbd 37ba 82bc 5673 e73d
000000f0: e9ea 82bd a499 03bc 5a41 453d eeb7 7b3d
00000100: a583 693d 3b2d d3bd dd85 c1bd ebb1 923d
00000110: 271b 4cbd 4765 b43b d4ac 083d 3a2d c83d
00000120: 830f debc b734 803c ad54 82bc 067a a6bc
00000130: eada dbbd a67c 143d 60ea bfbc a1af ac3c
00000140: c7ed afbb 6b05 013e 8236 b93b 33e2 c2bd
00000150: e6d3 4d3d 3d22 1d3d 45a5 0a3d a3cf 4d3c
00000160: c469 a23c da0b e93c 5fd6 cb3c 6f12 5bbd
00000170: d123 833d 8345 c3b9 d35c b1bd 0f74 b1bc
00000180: 00c8 953c 40b0 b3bd b558 abbd 7c99 14bd
00000190: f6d5 f2bd 3eae 37bd 4f9a 1c3d a740 f03c
000001a0: d264 4ebc 3211 09bc be96 dabc 8b01 5cbd
000001b0: 3de1 2abc 1d62 c1bd f7fb 67bd e0fd b53c
000001c0: 56c7 36bd 6e32 833d a644 44bb 2bff 293c
000001d0: 0f1f b63c d17e f3bc a33a 6cbd 2841 6d3c
000001e0: f555 6fbd 0a31 cf3c e526 6fbb 4f31 543c
000001f0: 921a 10bd d1cd 23bd 9114 ed3b 03b5 83bc
00000200: 306e b73b 80af 7d3d 1d7e d2bc 40bd 243d
00000210: bf27 0e3c 28de 68bd 23c7 0f3d b1b5 b1bd
00000220: a586 813d f0c5 48bc 7d59 59bd 2a9e 1cbd
00000230: 3d84 8e3d 4569 65bd d0f9 9c3d d4a6 163d
00000240: f52b 97bd 640f 793c 891b a33d 28c1 a4bd
00000250: db16 e83c 9249 96bd 27fe f03c f67a 9c3d
00000260: 566b 42bd faea 373d 6b34 0e3d f83b 413c
00000270: 4a2e 51bd 48a2 c2bd cac4 483d 2199 153d
00000280: fc88 a4bc efcd 653d 2056 303d cea3 083d
00000290: 9939 48bd c9af a4bd a93d 06bc e3bb 2d3d
000002a0: ecd6 843d b90e 8e3b f792 92bd d2bb 05be
000002b0: 8e72 bc3d b000 e5bc 7238 773d 256e 8ebc
000002c0: 4982 2e3d 86c5 39bd bc3e ccbc 50f2 53bb
000002d0: c3df 913d 514c 763d 612c aa3d eea3 a83d
000002e0: d6ed 003d 5fd1 89bc 9e8b 06bd c5af e3bb
000002f0: 4de3 52bc c49e e33b c96b af3d 12df 69bd
00000300: 7d3e eabd cfbe 7c3d 3619 173d 23e1 133c
00000310: 0ca2 353d 4879 a2bd 70fc 01bd ffe4 7d3d
00000320: 6fea 95bc 5e8f 673c f476 fb3c aec9 f6bc
00000330: 6463 8fbd a542 c63c ed56 da3d b843 98bd
00000340: a1ad 713c 6e0e 0e3c f176 76bd 062c 94bd
00000350: edc8 ca3c 168d af3c 95e6 81bd 1014 983d
00000360: 027c 8d3d 367b bc3c 103f 703d 5722 433b
00000370: d88c 69bc 3dec d5ba 2a88 f1bc 3ab1 9f3d
00000380: 755b e33c e937 003c cfd1 d6bd a85c 403d
00000390: 02a5 b2bc c348 a6bd d086 cfbc a941 ad3d
000003a0: 01b9 e23c 799e bc3a a98f b83b 97ad 5dbd
000003b0: 1a60 62bd 3aba af3d bc9b 073d 84f1 8d3d
000003c0: d6b9 a83c a4d7 9fbc b69c cabb ea6c be3c
000003d0: a013 143c b9d8 59bd 9d76 483d 00b4 6fbc
000003e0: e7c7 93bd 5487 ff3c 5a76 a43d f128 443d
000003f0: 64cf 54bd 2cea 89bd 75f5 8ebd e3bb b6bd
-0.025303347 0.031413935 0.0122997025 -0.059666574 -0.04109124 -0.01907834 0.011967491 0.02593375
0.023893464 -0.10216259 -0.069189794 -0.0061957347 -0.05067044 0.09234091 0.07487532 0.013757763
0.008109761 -0.039265856 0.004878563 -0.036403127 0.061806846 0.016577372 -0.08560084 0.07830313
0.014817943 0.10438332 0.06645046 -0.020587996 0.05091436 -0.041001678 0.07530164 0.04246821
0.04114923 -0.00089745614 0.041421097 -0.069392994 -0.011524834 -0.015319357 -0.076153636 -0.053304758
-0.08069008 0.11139168 0.09250295 -0.042707056 0.011236531 0.004954415 -0.017420836 -0.0050665676
0.030626658 0.048950654 0.031765617 0.02374782 -0.0068717524 -0.022122508 0.030508377 -0.05446544
-0.10815507 -0.06159846 -0.015957935 0.113012955 -0.06392462 -0.008032236 0.048158027 0.061454706
0.05701031 -0.103113614 -0.094493605 0.071628414 -0.049830582 0.0055052373 0.033367947 0.09774251
-0.027107006 0.015650136 -0.015909517 -0.020321857 -0.10735114 0.036251687 -0.023427188 0.02107984
-0.0053689214 0.12599723 0.00565225 -0.095158 0.05025091 0.03836273 0.03384902 0.0125617115
0.019825824 0.028448034 0.024882494 -0.053484377 0.06403316 -0.0003724509 -0.08660283 -0.021661786
0.018283844 -0.087738514 -0.08366529 -0.036279187 -0.11857216 -0.044843905 0.038233098 0.029327704
-0.01259728 -0.008365916 -0.026683208 -0.05371241 -0.010429678 -0.09442542 -0.056636777 0.022215784
-0.044623695 0.06406103 -0.0029948144 0.010375778 0.022231607 -0.029723557 -0.057673108 0.0144808665
-0.058431584 0.025291938 -0.0036491689 0.012951209 -0.03518159 -0.039991204 0.0072351177 -0.016077524
0.005597852 0.061934948 -0.025694901 0.040219545 0.008676468 -0.05685249 0.03510202 -0.08677233
0.063245095 -0.012254223 -0.05306386 -0.038236775 0.06958816 -0.056008596 0.076648355 0.036780193
-0.07381431 0.015201423 0.07964236 -0.08044654 0.02833121 -0.07338251 0.029418064 0.076406404
-0.047465645 0.044901825 0.03471796 0.011794083 -0.051069535 -0.09503609 0.049015798 0.03652299
-0.02008485 0.056104597 0.043050885 0.03335934 -0.048883054 -0.08041341 -0.008193412 0.04241551
0.064863056 0.004335251 -0.071569376 -0.13059929 0.09201537 -0.02795443 0.060356565 -0.017386505
0.04260472 -0.04535439 -0.024932258 -0.0032340474 0.07122757 0.060131375 0.08309246 0.08234392
0.031476818 -0.016823469 -0.032847993 -0.0069484436 -0.012871576 0.0069464166 0.0856548 -0.057097502
-0.114377 0.061705407 0.036889277 0.009025845 0.044343993 -0.07933289 -0.031734884 0.061985966
-0.018300263 0.0141333025 0.03069637 -0.030125465 -0.07001379 0.0242017 0.10661111 -0.07434791
0.014750869 0.0086704325 -0.060172025 -0.07234959 0.024754012 0.02142958 -0.06342808 0.074257016
0.06908418 0.02300797 0.05865389 0.0029775107 -0.014254771 -0.0016321015 -0.029483873 0.07797475
0.027753571 0.00782583 -0.104892366 0.046963364 -0.021807197 -0.08119347 -0.025332838 0.08459789
0.027676107 0.001439049 0.00563236 -0.054120626 -0.05526743 0.08580442 0.033107504 0.06930831
0.020596426 -0.019512005 -0.006183232 0.023245294 0.009037882 -0.0531852 0.048941243 -0.014630318
-0.07215863 0.03119246 0.08030386 0.047890607 -0.051955596 -0.06734118 -0.06980411 -0.08922555

actor.2.bias f4 [128]
00000000: 3a5d 683c 4c18 2b3d 082b fabc d320 913d
00000010: 182f a63a c031 f73c 7d93 68bd 025a 52bc
00000020: 0892 afbc 9fcc 03be d388 96bc aeed ae3b
00000030: 176f b53d f66f 393b 0de2 bb3b a409 b53c
00000040: f7ab c83d 13a4 08bd 81c2 a9bd 7a74 18bb
00000050: a4b7 c9bc 2d97 a93d f7c8 cf3d 1cd0 163d
00000060: 3743 9c3d 812c 5d3d 99f0 8c3c a6ff be3d
00000070: 55c3 73bd a25a 5b3d b3f1 113c bd2b 943d
00000080: 3c9b 12bb fb74 0a3d a7ee 393d 853b 39bc
00000090: 5279 e23b cbe2 9c3d dea8 0b3d 4c3d 8b3d
000000a0: ed01 bc3d bc9a 323c 611c 80bd d439 2a3a
000000b0: 94b4 a13d 9f1a 57bc 94b0 913d 9b8b b1bc
000000c0: 4557 a7bc 0dda 87bc c748 b2bd 6c59 f8bb
000000d0: 3281 513d c7a6 93bd 0d8c e6bd 8692 8abd
000000e0: 5de3 1dbd 782b 353c d91a c2bd d5dd 5dbd
000000f0: 08c8 3cbb 0103 8b3c 9948 b1bd b7ef aebd
00000100: e1a4 1b3d 684e 163d db5e bb3d e272 c7bd
00000110: ed01 b93b e172 7d3c 478b 5d3a 5a5d 5cbd
00000120: 69d5 fabd 6601 7dbc 8e5e 12bd dbd2 843d
00000130: 23cf f13d c32f 3abd ec1b a0bd 30c7 4d3d
00000140: 99a9 b53d 6c9a 2cbd 3502 f6bc d02b 8fbd
00000150: e279 6ebb 4b91 d13d a6c7 92bd c6c2 9dbd
00000160: 9458 a5bd c513 3cbd 9291 1c3d d84b 213d
00000170: 46b0 08bd 095e 293d d532 c6bb a407 e5bd
00000180: 26d8 a23d f0ba acbb 7b25 ee3c ef16 a7bd
00000190: 3d83 d9bd fc62 25bd 781d 0ebc 1ee5 c93d
000001a0: 9ce2 7dbc a887 ee3c 0882 22bc 46f2 babd
000001b0: 225c e13c 705b 0d3d d383 eabc e2ef 813c
000001c0: 053b 38bd 40e3 963a 9d3a 303d 919a c93d
000001d0: 1d1c 823b 430c 953d a88d 383d f8c6 ac3d
000001e0: 1a47 80bd b370 553b 5fca 813d c9e1 32bd
000001f0: f528 a3bc 696b 84bd b494 6c3d c793 0abd
0.014182383 0.04177122 -0.030538097 0.07086339 0.001267883 0.03017509 -0.05678128 -0.012838842
-0.021431938 -0.12871026 -0.01837579 0.005338392 0.08859079 0.0028295494 0.0057337345 0.022099324
0.09798425 -0.0333596 -0.08289052 -0.0023262785 -0.0246237 0.082807876 0.10145753 0.036819562
0.07630008 0.05399752 0.01720457 0.09326105 -0.059512455 0.05355323 0.008907723 0.07234905
-0.002237036 0.033802968 0.045393612 -0.0113056945 0.006911435 0.07660445 0.03409659 0.06798801
0.09180055 0.010901149 -0.06255413 0.00064936024 0.07895771 -0.013128906 0.07113758 -0.021673014
-0.020427356 -0.016583467 -0.087052874 -0.0075790193 0.0511486 -0.07209545 -0.11257181 -0.067662284
-0.03854691 0.011057727 -0.09477777 -0.054166634 -0.0028805751 0.016969206 -0.08656425 -0.08541816
0.037999038 0.036695868 0.091489516 -0.09738709 0.0056459815 0.015469284 0.0008451235 -0.053799964
-0.12247736 -0.015442228 -0.035734706 0.0648553 0.11807086 -0.045455705 -0.07817826 0.050238788
0.08870239 -0.042139456 -0.03003035 -0.069907784 -0.0036388566 0.102327906 -0.07166986 -0.07703166
-0.080735356 -0.04591729 0.038224764 0.03937897 -0.033371232 0.041349445 -0.00604854 -0.11183098
0.07951383 -0.005271308 0.029070606 -0.08158671 -0.10620735 -0.040377602 -0.008674018 0.09858154
-0.015495922 0.02911742 -0.009918697 -0.09128241 0.027509753 0.03451103 -0.028627312 0.015861455
-0.04497816 0.0011511818 0.043024648 0.09843934 0.0039706365 0.07277729 0.04505697 0.08436388
-0.062635615 0.0032568395 0.06337427 -0.043672357 -0.01991699 -0.06465799 0.057759 -0.033832338

actor.4.weight f4 [25, 128]
00000000: 1beb 2d3d de82 83bc 76f8 563d 1fe2 4fbd
00000010: aa2a ebbb 237d 683b f6a8 debc e1a5 35bd
00000020: a18e 74bd 7f87 1abd 1530 153d 2f0a 85bd
00000030: 3b3a be3d a51d 68bd 8020 1a3d 2258 e9bc
00000040: 225a 683c 1eea fabc f89d ee3c 5a37 ab3c
00000050: da55 5bba fbc1 63bc 1cb2 b63d 87f5 8ebd
00000060: 6bc7 32bd 6cf3 253d 09f5 5dbd d8b5 92bd
00000070: 82b0 b23d f026 b9bd 31a5 053d 696a 2abd
00000080: 4690 a43a 47a0 1b3c 447e 5e3d a4c0 ab3d
00000090: 5cdc 183d b440 793d 4539 6bbd e99f 913d
000000a0: 4f3e da3d 675b 8dbd 321f b9b9 a4ad 963d
000000b0: e869 5a3d 4847 b2bd a770 c8bd 5f97 9f3d
000000c0: c767 813d c498 71bd 1abd a83d 0efe 133c
000000d0: 22e4 8c3d c13b 64bc 212d 133d 2902 243c
000000e0: a7c9 80bd 3117 a63d 2fad 693d a5ea 3ebd
000000f0: 9e3b fb3c f948 8abd d3db 7f3c 38e6 d6bc
00000100: aad6 ae3d 9fad a43d 89ac 3b3d a332 2fbd
00000110: 6a47 debc 13cc f63c 737f 31ba f416 9fbc
00000120: 8b8a 3d3d b7bb aabd 5333 f03c 91eb de3c
00000130: c7e9 30bd 8481 4e3d b861 b8bc 6699 d8bd
00000140: 9e84 cdbc d7fa 2ebd 3a9c 8dbd 4ab7 0e3d
00000150: 56f8 ba3d 785a 3ebd 61a4 043e 6815 5dbd
00000160: ff96 1fbb b165 68bc eee4 b1bd c5a6 13bc
00000170: dab9 a0bd 9479 86bd fb4f 5dbd 87b0 dfbb
00000180: 92a8 e4bc 434a 70ba cabc 80bd 0143 fd3c
00000190: c7af bfbc 7d13 053e fb5b 4ebd aee3 8cbd
000001a0: de38 d63d dbc2 8a3d 1133 9b3d 8557 eabd
000001b0: 770c e23c 97cd 8b3d 9fc4 47bd 85ad 11bc
000001c0: 7910 9ebc db0e a73b f001 533c 751d 833d
000001d0: c07f e33d c6e8 a3bb c89f 863d d664 db3b
000001e0: 9b14 c03c 988f 2bbd cda3 503d 69da d6bc
000001f0: 5ef8 8cbd 5447 1a3d 90c4 a5bd 7e17 39bd
00000200: a0dc c1bd bfa8 e739 d28a 893d 48c3 fdbd
00000210: 3034 463d 8d92 b0bd 0c29 d63c 9ac4 ed3d
00000220: 46f0 233d c979 5bbc 1432 403d 5d70 863b
00000230: 0789 99bd 2501 a33d 3d98 3dbd dc93 503d
00000240: a6f2 07bd 0ad0 1ebc 520d 7e3d 8979 d2bd
00000250: 233d 8cbd 26c4 cc3c e8b1 0cbc c2ab b63d
00000260: b022 3f3a 343e 703d 0dbb 763d d0db c0bb
00000270: 3410 0cbd 5ca7 453d fc8b 1ebd 4651 f73c
00000280: a17a 3abc 58a3 48bd 2aba 023d 4d93 503d
00000290: cee7 96bd 050c 91bc 285c fe3c 00b7 493d
000002a0: 0479 28bc 9686 e7bc 27ac 083d 7ec7 c3bc
000002b0: ae4b 103d 66da 263d a11b 023d 7228 cc3d
000002c0: ea95 6ebc 4775 80bd a4a7 7fbd eaa6 ee3d
000002d0: cede 5bbd e3ea 9e3d b708 633d b89c a53d
000002e0: b918 87bd 8050 89bd 8c65 eabc 909a 933d
000002f0: 861c 803c f1b0 433d 1d68 4cbd 741f 2f3d
00000300: 6444 60bc e0ac a83c d793 99bc b766 32bc
00000310: 918d 99bd 273a 003e 297a 2ebd 7f53 8b3d
00000320: a5e0 173d f3c5 ea3c 17a1 d5bd 04fa b3bc
00000330: 0a0b 933d 152b 0e3d e3b7 98bc 45a8 c83d
00000340: a73d 59bd 3562 883d f29a 5c3c ee25 b53d
00000350: 69f0 913c fa25 f1bd 3ae3 3b3d b05b b4bd
00000360: d564 143d d683 e4bb e246 88bc 178b ce3d
00000370: 7477 633c 1434 de3c 8f4c 95bd 41d4 d7bc
00000380: 414d c1b9 bddd febd ce22 7cbc ccdc 013d
00000390: 4783 a23d 1eb3 ad3a ec68 9abd 6e7f b7bd
000003a0: 8176 b8bd 4ec7 6cbd f717 cc3d db1d 6c3d
000003b0: a355 39bd 6d33 4dbd aa9a 43bd 147e 9dbd
000003c0: b1ec 3c3b 02d2 1fbd e3cd b9bd d0a2 6abd
000003d0: de81 81bd ca66 ebbb 67b2 963c acba 8c3d
000003e0: 2e1a 6c3d 72bc 873c 53fa ffba 1816 80bd
000003f0: da53 8e3d 2085 c73d 981b 1abb 424d 9dbd
0.042460542 -0.016053613 0.052483045 -0.050752755 -0.007176717 0.0035474978 -0.027180176 -0.044347648
-0.059706334 -0.037726875 0.036422808 -0.06496083 0.0928845 -0.056668896 0.03762865 -0.028484408
0.014181646 -0.030629214 0.02912806 0.020900417 -0.000836698 -0.013901229 0.089206904 -0.069804244
-0.04364721 0.04051535 -0.05418876 -0.0716359 0.087250724 -0.0904063 0.032628242 -0.041605387
0.0012555204 0.009498662 0.054319635 0.08386353 0.037319526 0.06085272 -0.057427663 0.071105786
0.10656416 -0.06902199 -0.00035309192 0.07357338 0.053323656 -0.08705002 -0.09787112 0.077925436
0.06318622 -0.05898358 0.08239193 0.009032739 0.068794504 -0.013930262 0.03593171 0.010010281
-0.06288462 0.08109892 0.057049926 -0.046610493 0.030668076 -0.067522 0.015616375 -0.026232824
0.08537038 0.08040928 0.04581884 -0.0427729 -0.027133662 0.030126607 -0.00067710056 -0.019420125
0.046274703 -0.08336585 0.029321348 0.027211936 -0.043191697 0.050416484 -0.022507533 -0.105761334
-0.02508765 -0.04271969 -0.069145635 0.034842767 0.091293976 -0.046472996 0.1295333 -0.053975493
-0.0024351475 -0.014184401 -0.08686243 -0.009011929 -0.07847948 -0.06566158 -0.054031353 -0.0068264636
-0.027912412 -0.00091663393 -0.06286009 0.030915739 -0.023399247 0.12995715 -0.05038069 -0.06879364
0.10460065 0.06775447 0.075780995 -0.11442474 0.027593834 0.068263225 -0.048771497 -0.008891468
-0.019294964 0.0050982065 0.01287888 0.06402103 0.11108351 -0.005002114 0.065734446 0.00669537
0.023447325 -0.04188499 0.050937463 -0.026227193 -0.0688331 0.03766568 -0.08094132 -0.04518842
-0.09465909 0.0004418548 0.06715931 -0.123907626 0.048389614 -0.08621702 0.02614262 0.116097644
0.040024064 -0.013395735 0.04692276 0.00410275 -0.07496839 0.07959203 -0.046287764 0.05092226
-0.033190392 -0.009693155 0.062024422 -0.10277087 -0.068475984 0.024995875 -0.008587338 0.08919479
0.00072912406 0.05865307 0.06023698 -0.0058855787 -0.03419514 0.04825531 -0.03870772 0.030190121
-0.011381776 -0.0489839 0.03191582 0.050921727 -0.07368432 -0.017705927 0.031049803 0.049246788
-0.010282759 -0.028262418 0.033367302 -0.023898836 0.035228424 0.040735625 0.03176463 0.09968652
-0.0145621095 -0.06272369 -0.062415734 0.1165293 -0.05367928 0.07759645 0.055428233 0.08086532
-0.06596512 -0.06704807 -0.028612874 0.07207215 0.015638601 0.047776166 -0.049903978 0.042754605
-0.013688181 0.020590246 -0.018747253 -0.010888747 -0.07497705 0.12522183 -0.04259697 0.06803035
0.037079472 0.028658843 -0.10431116 -0.021969803 0.0717984 0.034709055 -0.018642372 0.0979772
-0.053037312 0.066593565 0.013464676 0.08845125 0.017814832 -0.117748216 0.045870997 -0.088065505
0.036228973 -0.006973724 -0.016635362 0.10085123 0.01388346 0.027124442 -0.07289993 -0.026346328
-0.00036869387 -0.12444637 -0.015389157 0.03170471 0.079351954 0.0013252234 -0.075395435 -0.08959852
-0.09006978 -0.05780726 0.099655084 0.05764566 -0.045247685 -0.05009787 -0.04775492 -0.07690063
0.0028827603 -0.03901864 -0.09072473 -0.057284176 -0.06323598 -0.0071838843 0.018395616 0.06871542
0.057642154 0.01656935 -0.0019529558 -0.06254214 0.06949587 0.097421885 -0.0023514982 -0.076807514

actor.4.bias f4 [25]
00000000: 39b7 27bd e070 fd3c cd5c c1bd ade8 ba3c
00000010: 6ba6 88bd 5033 2f3d 3332 0d3d 2c46 833d
00000020: 3162 3ebd 03d4 d43c fba7 85bb 2d8f 92bd
00000030: 9f27 a7bd bd3f 37bd 3af3 c0bc 0823 5dbd
00000040: ddbd 2cbd de2f b43c b82f 1bbd b1e5 0cbd
00000050: 3131 733c d40f 4dbd 882c b83c 8d58 82bc
00000060: 182c 8bbd
-0.04094622 0.030937612 -0.094415285 0.022816027 -0.06672367 0.042773545 0.0344717 0.064098686
-0.04648036 0.025980001 -0.0040788627 -0.07156215 -0.08161854 -0.04473852 -0.02355348 -0.053988487
-0.042173255 0.021995481 -0.037887305 -0.03439874 0.014843271 -0.050063923 0.022482172 -0.015911365
-0.067955196
