ppo_algorithm/checkpoints/ppo_actor_comm_rad_exp_1run_0_lumberjacks.pth (torch, 127708 bytes, 6 tensors)

actor.0.weight f4 [128, 88]
-0.019561986 0.17510313 0.06645804 0.09296218 0.0013229494 0.0126343025 0.014607282 0.10494304
-0.029414125 0.0095149325 -0.015908184 0.11523072 0.0014208646 -0.07668479 0.101430394 0.10771782
-0.01799775 0.029733742 0.038809378 -0.07325806 -0.004835602 -0.17569326 -0.073241554 0.05204254
-0.038926516 0.027160581 -0.12898876 0.048724387 0.040412825 0.08626164 0.15748326 -0.10192007
0.019558424 -0.090676434 0.040462833 0.0551757 -0.016876781 0.13214982 0.100339174 -0.04285862
-0.017926933 0.07535602 0.018868424 0.07361106 -0.062438793 0.07776463 0.01055385 0.11005468
-0.10230561 -0.098281346 0.11937939 -0.034250606 -0.034357183 0.0643456 0.059861988 -0.050667085
0.026331801 0.040030524 0.025295144 -0.022235287 0.09145834 0.034440402 0.0040430473 -0.019158367
-0.18089607 -0.093644425 0.00947753 -0.11341384 -0.11026143 0.07120823 -0.024595946 0.08796758
-0.11566109 0.1549343 0.08514378 0.10723342 0.07825196 0.0095132375 -0.08990958 0.03539602
-0.052759707 0.09255307 0.043368734 0.027776577 -0.04811188 -0.08875928 -0.0907949 -0.07283858
0.011976053 -0.113085166 0.0013206742 -0.0036484764 -0.052908096 0.114027195 0.098940834 -0.14248927
-0.039880272 0.08375664 -0.11130067 0.03538882 -0.04835995 0.06810441 -0.007692887 -0.11644329
-0.010368789 0.072645135 0.093879595 -0.08639748 -0.032715213 -0.11870666 0.06935811 -0.05592868
-0.0561272 0.003469192 0.067398235 0.014956548 -0.009996839 -0.13056572 0.08528305 -0.032897506
-0.09767426 0.03996463 0.08077761 -0.0714181 -0.13323684 -0.019813059 0.06050993 0.121652864
-0.07534951 0.086904675 0.043109085 -0.06274079 -0.06344652 0.002424253 -0.02114711 -0.041375358
-0.06491012 -0.0031322846 0.043052748 0.034222305 -0.08347101 -0.016290901 -0.018566905 0.058686502
-0.03235576 -0.011329905 -0.054456614 0.005899856 -0.012629764 0.08227205 -0.055207737 -0.08512648
0.07376083 0.019607235 -0.0046488256 0.018697787 -0.08761881 -0.07137666 0.07070763 0.0011187999
-0.0138474535 -0.11694564 -0.061115094 -0.06781129 -0.038464107 -0.122103155 -0.059492998 0.050803468
-0.003043857 0.055838004 -0.041030508 0.11710023 0.04387583 -0.0063138893 0.008319771 0.013754186
0.10475438 -0.02187593 0.011929635 -0.059746817 -0.10794576 -0.049244124 0.057746023 -0.18860236
-0.08414726 0.05160399 0.022540957 0.028819233 -0.027587581 -0.057745095 -0.070324376 0.028464977
0.14075449 0.0024097736 0.13719557 -0.044346876 -0.12007265 -0.087997176 0.05618316 0.048131436
-0.056152552 0.10268453 -0.076968886 0.036637977 0.07451196 -0.055207934 0.10185897 0.034830496
0.068151176 -0.049922753 -0.07678684 -0.069205634 -0.12608026 0.04113613 0.055515468 0.10318045
0.036698207 0.07153283 0.05439014 -0.093022905 -0.043706488 0.070050605 0.019994143 0.010133888
-0.09021347 -0.08073015 0.075098194 -0.109012924 0.04235678 0.10808959 -0.07753955 0.03304511
0.02375358 0.064404085 0.0007594658 -0.0049497145 0.0908052 0.08538445 -0.06211668 0.056972645
-0.024311928 0.00622434 -0.05247006 0.096536845 -0.04868725 0.05937209 -0.049328405 0.12841718
0.13380085 -0.03012026 0.13688771 -0.0145471925 0.09786433 -0.041924767 0.03414661 -0.03876936
00000000: 7540 a0bc 3c4e 333e 271b 883d f562 be3d
00000010: d166 ad3a 1b00 4f3c 6253 6f3c 60ec d63d
00000020: e4f5 f0bc 85e4 1b3c e151 82bc 15fe eb3d
00000030: 4e3c ba3a ea0c 9dbd bdba cf3d 299b dc3d
00000040: 0470 93bc 2d94 f33c 95f6 1e3d 5208 96bd
00000050: f873 9ebb efe8 33be abff 95bd 8f2a 553d
00000060: 6971 1fbd de7f de3c a115 04be 3993 473d
00000070: eb87 253d f1a9 b03d 4b43 213e 78bb d0bd
00000080: fd38 a03c 91b4 b9bd 5bbc 253d eaff 613d
00000090: 2d41 8abc 4852 073e a07e cd3d 858c 2fbd
000000a0: 81db 92bc 4254 9a3d f491 9a3c 65c1 963d
000000b0: d2bf 7fbd 1043 9f3d 0eea 2c3c 5964 e13d
000000c0: 9b85 d1bd bb47 c9bd 2e7d f43d 5d4a 0cbd
000000d0: 1eba 0cbd a0c7 833d d831 753d 4a88 4fbd
000000e0: cab5 d73c 0cf7 233d c337 cf3c c726 b6bc
000000f0: 834e bb3d 6111 0d3d 8a7b 843b 02f2 9cbc
00000100: d23c 39be a6c8 bfbd a447 1b3c 8445 e8bd
00000110: bfd0 e1bd 9fd5 913d 707d c9bc 5928 b43d
00000120: b9df ecbd 19a7 1e3e dd5f ae3d 329d db3d
00000130: 9042 a03d 69dd 1b3c 8422 b8bd 6bfb 103d
00000140: 901a 58bd 778c bd3d 6aa3 313d b48b e33c
00000150: f610 45bd 6dc7 b5bd adf2 b9bd 652c 95bd
00000160: 3537 443c 3299 e7bd 791a ad3a 471b 6fbb
00000170: 29b6 58bd 1787 e93d 7ea1 ca3d b5e8 11be
00000180: 7f59 23bd 9a88 ab3d 9bf1 e3bd def3 103d
00000190: 1515 46bd 537a 8b3d 9d14 fcbb d279 eebd
000001a0: dae1 29bc f9c6 943d f243 c03d 29f1 b0bd
000001b0: 6300 06bd 7a1c f3bd a00b 8e3d 7915 65bd
000001c0: a3e5 65bd 625b 633b 1608 8a3d 4f0c 753c
000001d0: c8c9 23bc 05b3 05be e1a8 ae3d 89bf 06bd
000001e0: 7109 c8bd f4b1 233d bb6e a53d a743 92bd
000001f0: 3d6f 08be ff4e a2bc 43d9 773d 2325 f93d
00000200: d850 9abd 14fb b13d 2793 303d 3e7e 80bd
00000210: 40f0 81bd 37e0 1e3b b43c adbc 3579 29bd
00000220: 99ef 84bd 0447 4dbb 1458 303d b02c 0c3d
00000230: d9f2 aabd 7f74 85bc 9f19 98bc 4261 703d
00000240: 7987 04bd 11a1 39bc e60d 5fbd 9453 c13b
00000250: 12ed 4ebc 407e a83d 8221 62bd cb56 aebd
00000260: eb0f 973d 5a9f a03c 2d55 98bb 1a2c 993c
00000270: 7e71 b3bd ed2d 92bd 29cf 903d b2a4 923a
00000280: 6ee0 62bc 3281 efbd d253 7abd a5e0 8abd
00000290: 8a8c 1dbd 3811 fabd eeae 73bd 4c17 503d
000002a0: 727b 47bb 64b6 643d 9b0f 28bd 3fd2 ef3d
000002b0: 24b7 333d bee4 cebb a64f 083c 3d59 613c
000002c0: 7789 d63d 2635 b3bc 8474 433c 14b9 74bd
000002d0: ab12 ddbd 35b4 49bd 1887 6c3d fa20 41be
000002e0: 6655 acbd b55e 533d d0a7 b83c 5016 ec3c
000002f0: 5aff e1bc 1f86 6cbd 3a06 90bd 622f e93c
00000300: f221 103e 4bed 1d3b ff7c 0c3e 12a5 35bd
00000310: a6e8 f5bd dd37 b4bd 5020 663d 7825 453d
00000320: 3800 66bd 444c d23d dda1 9dbd b411 163d
00000330: ba99 983d b721 62bd 709b d03d 6caa 0e3d
00000340: d892 8b3d cd7b 4cbd 6b42 9dbd afbb 8dbd
00000350: 2f1b 01be 5c7e 283d 3064 633d 4650 d33d
00000360: dc50 163d ce7f 923d 32c8 5e3d cb82 bebd
00000370: 9305 33bd b176 8f3d c2ca a33c 9b08 263c
00000380: d7c1 b8bd d955 a5bd 15cd 993d 2b42 dfbd
00000390: 4e7e 2d3d 135e dd3d 0ecd 9ebd 4f5a 073d
000003a0: de96 c23c 4ae6 833d e316 473a 3731 a2bb
000003b0: 14f8 b93d 0bde ae3d 0f6e 7ebd 265c 693d
000003c0: cf29 c7bc 8cf5 cb3b d8ea 56bd 1cb5 c53d
000003d0: 486c 47bd 2630 733d 950c 4abd cb7f 033e
000003e0: 1703 093e c3be f6bc 4b2c 0c3e 5957 6ebc
000003f0: 186d c83d 4eb9 2bbd 51dd 0b3d 9fcc 1ebd

actor.0.bias f4 [128]
0.023236012 -0.031166032 -0.09582335 -0.04604528 -0.045896612 -0.018948566 -0.056261234 -0.061260883
0.06827419 0.040027745 0.08396763 -0.017014397 -0.01616266 -0.039862283 0.112010375 0.07506419
-0.13372397 0.1172827 -0.06144995 -0.05813561 0.009284082 0.042656943 -0.026574548 0.093810745
0.029806228 0.10358522 0.04620859 -0.042934455 -0.10087729 -0.031098196 0.015824543 -0.044001613
0.007800156 -0.09212575 0.021661311 -0.08955175 0.12182901 -0.07312073 0.06772327 -0.059016068
-0.06287755 -0.02017834 -0.034669787 -0.005700425 0.083817296 0.014954227 -0.11605778 -0.015757484
0.059312657 -0.014662284 -0.06365484 -0.01359848 0.035230037 -0.102439985 0.03615536 0.013240639
0.022346167 -0.08607432 0.06592289 -0.0459869 0.032200504 0.09284719 -0.070821546 -0.09316509
-0.006622531 -0.119706705 0.07159849 -0.003995575 0.088577 -0.04935439 -0.070651546 -0.10641383
0.06700485 0.05045183 -0.08013747 0.025991982 0.07954354 0.08225575 0.085680604 0.062003374
0.04985442 0.071754985 0.043930396 0.00022449288 0.052763622 -0.04563978 -0.06456727 -0.05963022
0.007099988 0.044990424 0.02218392 0.04972558 0.023197202 -0.10458025 0.04435561 -0.013907871
0.102247536 0.09506807 0.008439968 -0.023913011 -0.0881056 -0.108051494 -0.028398452 -0.111189164
0.004130349 0.03051899 -0.024463646 -0.08066927 -0.10718775 0.020329187 -0.063638285 0.09205475
0.09527017 -0.10120881 0.10158522 -0.10516952 0.03230609 -0.06696492 0.04022484 -0.03656541
0.07153916 -0.023998322 -0.0058755125 0.051762566 -0.028571472 -0.050231412 0.02269151 -0.074834816
00000000: 7359 be3c e84f ffbc 083f c4bd fa99 3cbd
00000010: 16fe 3bbd 063a 9bbc 2e72 66bd b1ec 7abd
00000020: 57d3 8b3d 22f4 233d 39f7 ab3d c761 8bbc
00000030: 8e67 84bc a246 23bd b265 e53d 41bb 993d
00000040: f0ee 08be ea31 f03d f1b2 7bbd 9b1f 6ebd
00000050: 431c 183c 0cb9 2e3d deb2 d9bc d91f c03d
00000060: 312c f43c 7d24 d43d 3845 3d3d 0adc 2fbd
00000070: c198 cebd a5c1 febc 79a2 813c 093b 34bd
00000080: 7398 ff3b 6dac bcbd 1073 b13c e866 b7bd
00000090: 7d81 f93d 52c0 95bd 7fb2 8a3d d5ba 71bd
000000a0: f2c5 80bd 0c4d a5bc e801 0ebd a1ca babb
000000b0: 67a8 ab3d 9302 753c b4af edbd d715 81bc
000000c0: d4f1 723d 143a 70bc 785d 82bd 29cc 5ebc
000000d0: 5f4d 103d 0ecc d1bd a517 143d 44ef 583c
000000e0: 4f0f b73c bc47 b0bd 9502 873d c25c 3cbd
000000f0: ade4 033d ab26 be3d e30a 91bd 57cd bebd
00000100: d101 d9bb ca28 f5bd 3ba2 923d 50ed 82bb
00000110: dc67 b53d d427 4abd c2b1 90bd 7eef d9bd
00000120: d739 893d 94a6 4e3d 1d1f a4bd 23ed d43c
00000130: b9e7 a23d b475 a83d 5079 af3d 40f7 7d3d
00000140: 2634 4c3d 47f4 923d 5cf0 333d d965 6b39
00000150: ab1e 583d c7f0 3abd d83b 84bd d13e 74bd
00000160: 04a7 e83b e147 383d 0dbb b53c 0dad 4b3d
00000170: 0f08 be3c 2c2e d6bd 3aae 353d d7dd 63bc
00000180: 2867 d13d 0cb3 c23d cb47 0a3c 38e5 c3bc
00000190: b570 b4bd 1a4a ddbd dfa3 e8bc 25b7 e3bd
000001a0: e157 873b f602 fa3c fc67 c8bc ee35 a5bd
000001b0: 4085 dbbd 6589 a63c ca54 82bd 3387 bc3d
000001c0: 021d c33d 9146 cfbd e90b d03d 1e63 d7bd
000001d0: 6453 043d e724 89bd cdc2 243d 9dc5 15bd
000001e0: 2083 923d 2198 c4bc 5f87 c0bb fc04 543d
000001f0: b80e eabc 74bf 4dbd 8ce3 b93c ff42 99bd

actor.2.weight f4 [128, 128]
-0.024964668 -0.012875855 0.07811544 0.070406176 -0.06824063 -0.014997098 -0.0004459147 0.02278997
-0.061725423 -0.07003377 -0.008450099 -0.035237346 0.030358214 0.09174323 -0.02703554 -0.024029145
0.025776558 -0.04375392 -0.02258069 -0.0052903243 -0.07958859 0.08253782 -0.0744092 0.01783451
0.061584312 -0.01368472 -0.06890075 0.09916708 0.09562303 -0.049119193 0.040664326 -0.06757649
-0.022175953 0.033006404 -0.044883035 0.019247262 -0.08368696 -0.0684564 0.04057343 0.054729138
-0.10173581 -0.058530275 0.066489324 -0.014064775 0.009335681 0.060899395 0.027962537 -0.10687311
-0.04767061 0.029318018 0.037768327 0.0039052079 0.029228456 0.0570359 -0.02160863 0.015971161
-7.9162e-05 -0.05764967 0.031267107 0.108632505 -0.03405379 -0.06554517 0.05126981 0.07967269
0.022595428 0.024814365 0.09303239 -0.045056902 -0.022445684 0.06307588 -0.063357286 0.07669117
-0.031139452 0.061002687 0.05050086 0.05108009 -0.06965833 -0.09241444 0.06775485 -0.035216637
-0.014370405 0.05900701 -0.021648979 0.101492375 0.106983 0.06506727 -0.06441095 -0.07135308
0.052426904 0.015032052 -0.036116503 0.0033543312 0.07612168 0.08960842 0.018215522 -0.07066527
0.05444381 -0.04062655 -0.079863004 0.018729728 -0.015158871 -0.000831353 -0.055910047 0.079314865
-0.0151717495 -0.024523238 -0.07135124 0.0031105897 -0.030684266 -0.018041346 0.09839636 -0.035689846
-0.032657616 0.004807057 -0.060401145 -0.056315105 0.030172465 0.058231484 -0.0150483325 0.058919124
-0.043084443 -0.02899743 -0.0048524644 0.0472597 -0.11480858 0.060934443 0.049291614 0.02492598
-0.040560484 0.0161491 -0.008011204 -0.079173736 0.06290624 -0.0340035 0.02850002 -0.10164955
-0.005922202 0.060577888 -0.1355505 0.14091727 -0.04991011 0.04334158 -0.030167151 -0.0048680827
0.113207795 -0.049988735 -0.005139791 0.093065344 -0.044527072 0.07469877 -0.0129113635 0.0054751458
-0.07115761 -0.044807713 -0.09292735 -0.0033152518 0.07072103 0.08594762 -0.012367585 -0.017739948
0.05267241 -0.060939446 0.018357396 -0.057147913 -0.07858155 0.034020316 -0.034542274 0.04922566
0.06296379 -0.032610446 -0.04360977 -0.05590658 -0.004054976 -0.0374873 0.06170246 -0.030915994
-0.134581 -0.07867873 -0.020221941 0.0358081 0.08280794 0.10380961 -0.0154646 -0.023936566
-0.10087873 -0.03821453 -0.058791015 0.08358516 0.07497701 0.012123405 -0.037265047 0.053962257
0.011704125 -0.04976185 0.020713892 -0.045280293 0.03423012 0.018449567 -0.05355946 -0.053924877
-0.13138501 -0.013900684 -0.061368756 0.099613234 -0.08558315 0.124262884 -0.021394216 0.110410824
-0.12420081 -0.06254717 -0.06356628 0.010194293 -0.0057444023 0.07401323 0.07647848 -0.082336135
-0.0623865 0.0025020025 -0.09010902 0.0723405 0.09592029 0.13148695 0.04970951 0.050344102
-0.036855936 -0.04830036 -0.099429384 0.117763825 -0.055983476 0.100991406 -0.029432122 0.038536146
-0.07082229 -0.043909907 -0.074829675 0.014362985 -0.026371887 0.038437497 0.015400772 0.06672758
-0.007015409 0.113115706 0.03894324 -0.018160397 -0.018745756 -0.0066591874 -0.02915336 0.043725286
-0.07321002 -0.05568852 -0.04485042 -0.030107522 0.021298515 0.03485761 -0.027292235 0.058235876
00000000: b482 ccbc 40f5 52bc fdfa 9f3d 1d31 903d
00000010: bec1 8bbd 63b6 75bc a8c9 e9b9 08b2 ba3c
00000020: ccd3 7cbd dd6d 8fbd 4972 0abc 0955 10bd
00000030: cab1 f83c e0e3 bb3d a379 ddbc c5d8 c4bc
00000040: 5c29 d33c 4f37 33bd 24fb b8bc 755a adbb
00000050: 58ff a2bd 9709 a93d da63 98bd ae19 923c
00000060: d53f 7c3d e035 60bc d61b 8dbd 1c18 cb3d
00000070: 02d6 c33d 3531 49bd a38f 263d 8b65 8abd
00000080: 58aa b5bc b931 073d 46d7 37bd 6fac 9d3c
00000090: 1264 abbd de32 8cbd 5330 263d a92b 603d
000000a0: dd5a d0bd 71bd 6fbd 8e2b 883d f16f 66bc
000000b0: aff4 183c a571 793d b111 e53c 4ae0 dabd
000000c0: 4242 43bd 572c f03c f6b2 1a3d 84ee 7f3b
000000d0: 8470 ef3c 7a9e 693d 9504 b1bc f4d5 823c
000000e0: c603 a6b8 0f22 6cbd f011 003d b87a de3d
000000f0: fd7b 0bbd 8c3c 86bd 4b00 523d 6f2b a33d
00000100: 0c1a b93c 7f47 cb3c c487 be3d 968d 38bd
00000110: 03e0 b7bc ed2d 813d 77c1 81bd 4310 9d3d
00000120: 2a18 ffbc f4dd 793d fdd9 4e3d 5b39 513d
00000130: 07a9 8ebd c843 bdbd 0ec3 8a3d 523f 10bd
00000140: d971 6bbc 56b1 713d 3359 b1bc 3cdb cf3d
00000150: e719 db3d fd41 853d e3e9 83bd 9021 92bd
00000160: 98bd 563d ff48 763c e6ee 13bd 57d4 5b3b
00000170: afe5 9b3d 9f84 b73d b838 953c f4b8 90bd
00000180: 7900 5f3d 0668 26bd 378f a3bd 166f 993c
00000190: ea5c 78bc 28ef 59ba ef01 65bd d56f a23d
000001a0: ee92 78bc f5e4 c8bc 9920 92bd 09db 4b3b
000001b0: 925d fbbc 72cb 93bc 0884 c93d 842f 12bd
000001c0: fec3 05bd 8484 9d3b 3167 77bd abaa 66bd
000001d0: 3f2c f73c 2384 6e3d 488d 76bc 2e55 713d
000001e0: 5079 30bd 058c edbc 6c01 9fbb 6393 413d
000001f0: c320 ebbd 6596 793d 01e6 493d 9231 cc3c
00000200: c022 26bd 1e4b 843c 6d41 03bc d725 a2bd
00000210: fdd4 803d 4147 0bbd e078 e93c a42d d0bd
00000220: 080f c2bb 8520 783d c0cd 0abe 9e4c 103e
00000230: 8b6e 4cbd f186 313d 1a21 f7bc 7084 9fbb
00000240: 7dd9 e73d fdc0 4cbd b16b a8bb 0b99 be3d
00000250: 0562 36bd abfb 983d 2f8a 53bc da68 b33b
00000260: 15bb 91bd 4b88 37bd b250 bebd b244 59bb
00000270: 30d6 903d 4e05 b03d 69a1 4abc 5e53 91bc
00000280: 06bf 573d a49b 79bd 4062 963c ee13 6abd
00000290: 5def a0bd e358 0b3d 337c 0dbd d8a0 493d
000002a0: 29f3 803d 8892 05bd 28a0 32bd 4cfe 64bd
000002b0: 9bdf 84bb 488c 19bd b8bb 7c3d 8a43 fdbc
000002c0: 9acf 09be 5022 a1bd 7ca8 a5bc 84ab 123d
000002d0: 3697 a93d 229a d43d 3c5f 7dbc 9e16 c4bc
000002e0: 8299 cebd d786 1cbd d9ce 70bd b22e ab3d
000002f0: 8c8d 993d 3fa1 463c 3ca3 18bd 8707 5d3d
00000300: a9c2 3f3c 15d3 4bbd 2eb0 a93c d477 39bd
00000310: e234 0c3d 8c23 973c 2a61 5bbd 55e0 5cbd
00000320: cb89 06be b2bf 63bc ce5d 7bbd 0602 cc3d
00000330: 3846 afbd 8a7d fe3d ec42 afbc 121f e23d
00000340: ff5c febd bb18 80bd 0a2f 82bd f705 273c
00000350: 8a3b bcbb 4094 973d c0a0 9c3d d99f a8bd
00000360: fd88 7fbd a3f8 233b 148b b8bd 4227 943d
00000370: db71 c43d 84a4 063e 339c 4b3d 9e35 4e3d
00000380: 40f6 16bd 99d6 45bd a2a1 cbbd 292e f13d
00000390: ee4e 65bd 95d4 ce3d a21b f1bc 14d8 1d3d
000003a0: 470b 91bd e0da 33bd 4d40 99bd ba52 6b3c
000003b0: db09 d8bc a370 1d3d 8553 7c3c 78a8 883d
000003c0: 84e1 e5bb 35a9 e73d f282 1f3d 1dc5 94bc
000003d0: b390 99bc 5035 dabb 07d3 eebc 4919 333d
000003e0: 23ef 95bd a519 64bd 13b5 37bd 0da4 f6bc
000003f0: 397a ae3c dac6 0e3d f793 dfbc be88 6e3d

actor.2.bias f4 [128]
0.06436775 0.0382014 -0.057937477 -0.003722303 0.043970358 0.032299932 -0.03468743 0.09064366
0.036202233 -0.050261095 -0.08448874 0.040545285 -0.06907783 0.066173255 -0.050084487 0.060179755
0.032449882 -0.065353416 0.026404826 0.03855465 0.04736163 -0.06430129 0.048640624 0.059960853
0.09357267 0.044778172 -0.016806543 -0.0520428 0.0531836 0.053612214 0.10284073 0.09249711
0.025616175 0.046866614 0.04222073 0.021588473 -0.08320467 0.09086816 -0.018873997 -0.05919066
0.0057915295 -0.027515274 0.08606356 0.031020809 0.020716071 0.012112853 0.016840465 0.096335225
0.02593335 0.10047742 -0.022001846 0.0101151215 -0.016210703 0.027220374 -0.032569397 0.11135031
0.011210947 0.07379162 -0.012737452 -0.03839757 -0.008834869 0.054935012 -0.03700191 0.046074938
0.07013364 0.057244398 -0.03814831 0.004243531 0.047751125 0.019792065 -0.09530305 -0.08678484
-0.03158523 -0.07245656 -0.039933003 -0.0231898 0.012609477 -0.010317742 0.010467074 -0.018630775
0.02101905 -0.017268093 -0.05361171 -0.027328951 -0.085839026 0.026198791 -0.05710611 0.06372868
-0.12424898 0.08253227 0.04489281 -0.018343806 -0.017331453 0.057184357 -0.061708532 0.050654914
-0.020742862 -0.028418368 0.09293439 -0.005409114 0.05568376 0.06427727 -0.11332654 -0.004796004
0.017710911 0.032557715 0.06384054 -0.093121074 -0.09975569 0.042183954 0.004998744 -0.05909551
0.04496436 -0.0352172 0.09412027 0.08707259 0.050323877 0.03132814 -0.06819622 -0.03748164
0.0102126505 -0.064940095 -0.008965945 0.06102335 0.02478739 0.025235655 0.06863341 0.04467082
00000000: 3dd3 833d 1279 1c3d d94f 6dbd e2f1 73bb
00000010: 431a 343d ef4c 043d 6814 0ebd 62a3 b93d
00000020: cb48 143d 94de 4dbd 6f08 adbd d012 263d
00000030: ad78 8dbd d885 873d 6425 4dbd 0c7f 763d
00000040: 2bea 043d 03d8 85bd ef4e d83c 7beb 1d3d
00000050: 45fe 413d 65b0 83bd 643b 473d 8399 753d
00000060: 07a3 bf3d 5169 373d e0ad 89bc d52a 55bd
00000070: 0cd7 593d 7b98 5b3d 299e d23d 206f bd3d
00000080: 03d9 d13c 35f7 3f3d a5ef 2c3d 4fda b03c
00000090: 3667 aabd 1619 ba3d a49d 9abc e871 72bd
000000a0: dfc6 bd3b b667 e1bc 1742 b03d 5a1f fe3c
000000b0: c0b4 a93c fd74 463c 04f5 893c 674b c53d
000000c0: 2d72 d43c 1bc7 cd3d 373d b4bc e5b9 253c
000000d0: 4fcc 84bc 43fd de3c 7d67 05bd a20b e43d
000000e0: 1fae 373c 1020 973d bfb0 50bc c546 1dbd
000000f0: 20c0 10bc 8903 613d 518f 17bd 13b9 3c3d
00000100: 3aa2 8f3d 1a79 6a3d 6741 1cbd 510d 8b3b
00000110: af96 433d f822 a23c 3f2e c3bd 40bc b1bd
00000120: 845f 01bd 1b64 94bd ca90 23bd 89f8 bdbc
00000130: fb97 4e3c bf0b 29bc 177e 2b3c 919f 98bc
00000140: 2530 ac3c d175 8dbc f497 5bbd f7e0 dfbc
00000150: 5fcc afbd d99e d63c 19e8 69bd 2f84 823d
00000160: 4076 febd ae06 a93d 86e1 373d c045 96bc
00000170: b1fa 8dbc 253a 6a3d 16c2 7cbd 877b 4f3d
00000180: efec a9bc a3cd e8bc 6354 be3d f03e b1bb
00000190: a814 643d cda3 833d bf17 e8bd cc27 9dbb
000001a0: 7916 913c 3d5b 053d d4be 823d 43b6 bebd
000001b0: b64c ccbd 15c9 2c3d 81cc a33b 220e 72bd
000001c0: 8c2c 383d e93f 10bd 21c2 c03d 1d53 b23d
000001d0: 6920 4e3d f051 003d 76aa 8bbd 5986 19bd
000001e0: f652 273c 50ff 84bd e6e5 12bc 9ff3 793d
000001f0: ed0e cb3c 01bb ce3c ac8f 8c3d c0f8 363d

actor.4.weight f4 [25, 128]
-0.040476497 0.02801027 0.0025448268 -0.044588406 -0.012945955 -0.10688637 -0.066959314 -0.04345467
-0.018188637 0.018907806 0.00048343794 -0.09306373 0.043057144 -0.103277214 -0.09709358 -0.0758207
-0.034134034 -0.0076031336 -0.11923524 -0.02558369 -0.09844793 0.03536112 -0.117586516 0.08985452
-0.09770298 -0.04861139 0.040183544 0.09464013 -0.019135013 -0.036345076 -0.054601364 -0.10907967
-0.08320216 -0.015037814 0.03496181 -0.0013443875 0.019326057 -0.08440982 0.04796491 0.048560068
0.024877885 0.02083671 -0.078781724 0.03728898 -0.084682226 -0.026654838 -0.0034212891 -0.104682356
-0.024959458 -0.081561945 -0.07850354 -0.07296713 -0.013642351 -0.11815696 -0.0645985 -0.05614361
-0.028011568 -0.043882668 0.052206382 0.11734211 0.0817017 -0.046249963 0.0047512357 -0.10500425
0.048442017 -0.11657783 -0.035570174 -0.114911266 -0.042823892 -0.029029738 0.0420546 0.113395125
-0.043567166 -0.018076863 -0.05567335 -0.08332652 0.08908387 0.08458921 -0.05738099 -0.05126699
-0.06064244 0.050440818 0.021645732 -0.11996821 0.043962944 -0.06265493 -0.02568111 -0.038120832
0.13159864 0.012362422 0.13202472 -0.03671119 0.038624834 -0.031868648 0.021121608 -0.09904373
-0.102780975 0.022002246 -0.041862205 -0.010162568 0.012939604 0.021348182 0.052382544 -0.04051668
0.060595557 -0.02787605 -0.10459983 0.03035477 -0.017651508 0.044000242 0.022882847 0.01745883
-0.0032786916 -0.046512254 -0.0395791 -0.05909903 0.0037946606 -0.013325057 0.006020315 0.13275039
-0.03604021 0.007914352 0.10533485 -0.065279655 -0.079434015 0.0040284013 0.02991562 -0.018720128
0.07962245 0.04814022 -0.08696175 0.0632627 0.02268518 0.07627666 0.080568045 0.05233034
-0.011997576 -0.03959212 -0.002508997 -0.04732155 0.002371399 0.023423456 0.07719392 0.07379557
0.0143679585 0.010134005 -0.04061311 0.048514575 0.044196386 -0.012715728 0.06930353 -0.04706458
0.019112905 0.026247174 0.039558534 -0.0594292 -0.06348666 -0.013569739 -0.01148819 0.071479626
0.073502764 0.059860986 -0.007792034 0.019132134 -0.044012602 0.057760246 0.06529877 -0.07438141
-0.034057558 -0.061752263 -0.034624197 -0.08223268 0.043461133 -0.01841297 0.078647755 0.03242445
-0.07138679 -0.04271945 0.014485556 -0.035824127 0.07491788 0.038061567 -0.07461099 -0.055220783
-0.05493051 0.060768344 0.058040917 -0.0447802 -0.046906266 -0.03727193 -0.044291932 0.054610904
-0.07308159 0.026505588 -0.013138452 0.056722533 -0.018817384 0.047207266 -0.0065503432 -0.03342329
-0.054823328 0.073982686 -0.00060481846 0.018870467 0.0012045038 0.041217837 -0.08744546 0.08472054
0.014017 0.03816997 -0.036609445 -0.011159035 0.11842268 -0.015721824 -0.053806156 0.023696784
0.039522365 -0.086584106 -0.09168703 -0.074183665 0.012296007 0.07654255 -0.00812826 0.0015109077
-0.044742838 -0.07655305 -0.055219576 -0.0048933225 0.05053694 0.09060736 -0.04588275 0.05234353
0.10993038 -0.007059862 0.0032426356 -0.023758318 -0.09521132 0.05662043 0.05811132 0.009478454
-0.052734103 0.059638344 -0.09355756 -0.0071097687 0.052986987 0.09182002 0.024954397 -0.038839318
0.08342514 -0.012343659 -0.069521226 0.05169933 0.032537032 0.004397345 -0.058047473 -0.039039183
00000000: afca 25bd cb75 e53c 1cc7 263b 55a2 36bd
00000010: 451b 54bc 3ee7 dabd f721 89bd 86fd 31bd
00000020: 5600 95bc 8be4 9a3c f175 fd39 3298 bebd
00000030: b05c 303d 0183 d3bd 00d9 c6bd e247 9bbd
00000040: 21d0 0bbd b523 f9bb 9b31 f4bd e394 d1bc
00000050: 119f c9bd d2d6 103d 33d1 f0bd a605 b83d
00000060: 8018 c8bd bd1c 47bd 8097 243d afd2 c13d
00000070: 08c1 9cbc 93de 14bd aea5 5fbd 2965 dfbd
00000080: e565 aabd 2a61 76bc 1d34 0f3d 2936 b0ba
00000090: ae51 9e3c 0edf acbd da76 443d ece6 463d
000000a0: b5cc cb3c c0b1 aa3c 5058 a1bd 54bc 183d
000000b0: e06d adbd 3f5b dabc b537 60bb b463 d6bd
000000c0: c777 ccbc f309 a7bd 77c6 a0bd ca6f 95bd
000000d0: 2b84 5fbc 47fc f1bd 384c 84bd d8f6 65bd
000000e0: 8478 e5bc 50be 33bd 5cd6 553d 0f51 f03d
000000f0: 3953 a73d 9a70 3dbd 41b0 9b3b 780c d7bd
00000100: 236b 463d 5bc0 eebd 08b2 11bd 9956 ebbd
00000110: 1b68 2fbd c6cf edbc 7241 2c3d b43b e83d
00000120: 7c73 32bd ee15 94bc bd09 64bd 18a7 aabd
00000130: 9b71 b63d 1c3d ad3d 5408 6bbd 56fd 51bd
00000140: 3564 78bd 089b 4e3d 6452 b13c e5b1 f5bd
00000150: 7d12 343d 3a51 80bd 3161 d2bc 9724 1cbd
00000160: cbc1 063e c28b 4a3c 7d31 073e 795e 16bd
00000170: 1335 1e3d b388 02bd 3907 ad3c 70d7 cabd
00000180: d57e d2bd 0e3e b43c b477 2bbd e680 26bc
00000190: a200 543c 62e2 ae3c 148f 563d d1f4 25bd
000001a0: 0c33 783d 505c e4bc 7038 d6bd 91aa f83c
000001b0: e599 90bc 9939 343d cf74 bb3c d205 8f3c
000001c0: 51df 56bb a283 3ebd b21d 22bd d311 72bd
000001d0: d7af 783b 5751 5abc 1046 c53b b8ef 073e
000001e0: e69e 13bd 33ab 013c ccb9 d73d 57b1 85bd
000001f0: 4dae a2bd ae00 843b 9a11 f53c f45a 99bc
00000200: 1811 a33d ae2e 453d 0119 b2bd e08f 813d
00000210: 45d6 b93c f036 9c3d dc00 a53d 5758 563d
00000220: 7b91 44bc 592b 22bd fc6d 24bb 3ed4 41bd
00000230: 7969 1b3b 8ce2 bf3c d917 9e3d 2222 973d
00000240: 9667 6b3c 1909 263c ef59 26bd 38b7 463d
00000250: 4507 353d a155 50bc 02ef 8d3d cac6 40bd
00000260: ab92 9c3c 5004 d73c 2108 223d 086c 73bd
00000270: 4b05 82bd 9c53 5ebc f638 3cbc e963 923d
00000280: 9e88 963d cb30 753d 5254 ffbb feba 9c3c
00000290: 8f46 34bd 0296 6c3d 5dbb 853d 4855 98bd
000002a0: f07f 0bbd f1ef 7cbd 1ad2 0dbd 9b69 a8bd
000002b0: 4d04 323d ccd6 96bc 1312 a13d 80cf 043d
000002c0: 3d33 92bd 97fa 2ebd d354 6d3c 52bc 12bd
000002d0: 8c6e 993d 72e6 1b3d a6cd 98bd 302f 62bd
000002e0: d1fe 60bd 3ae8 783d 50bc 6d3d 716b 37bd
000002f0: c920 40bd 74aa 18bd 756b 35bd afaf 5f3d
00000300: cdab 95bd 3f22 d93c a942 57bc e355 683d
00000310: ea26 9abc 685c 413d 43a4 d6bb dce6 08bd
00000320: 6d8e 60bd 3c84 973d ae8c 1eba 3d96 9a3c
00000330: 71e0 9d3a 09d4 283d 9b16 b3bd f681 ad3d
00000340: 8fa7 653c 1d58 1c3d c9f3 15bd 63d4 36bc
00000350: 9787 f23d 0ecb 80bc d863 5cbd c21f c23c
00000360: 34e2 213d 0253 b1bd 69c6 bbbd 9bed 97bd
00000370: 3175 493c 57c2 9c3d 652c 05bc a609 c63a
00000380: 4444 37bd d8c7 9cbd ec2d 62bd 2a58 a0bb
00000390: d3ff 4e3d 5a90 b93d 8def 3bbd 2b66 563d
000003a0: 2e23 e13d 6a56 e7bb 6682 543b cea0 c2bc
000003b0: 27fe c2bd d3ea 673d 2306 6e3d 844b 1b3c
000003c0: b7ff 57bd 5647 743d 1b9b bfbd 10f9 e8bb
000003d0: e208 593d 220c bc3d 2a6d cc3c fa15 1fbd
000003e0: cdda aa3d 0f3d 4abc 2561 8ebd adc2 533d
000003f0: 8d45 053d 9a17 903b 30c3 6dbd 8de7 1fbd

actor.4.bias f4 [25]
0.04011944 -0.03914402 0.037917912 0.03140353 -0.010697528 0.021386085 0.010068657 0.013272255
-0.03753345 -0.009582563 0.028531056 0.057547897 -0.03546366 0.028723584 0.11200204 -0.013530866
-0.0979839 0.046790686 0.016766218 -0.07730109 -0.021600654 -0.02955418 0.041028816 -0.0064100116
0.044236943
00000000: 4854 243d 7b55 20bd d04f 1b3d fda0 003d
00000010: af44 2fbc df31 af3c 02f7 243c df73 593c
00000020: adbc 19bd 2f00 1dbc f6b9 e93c 58b7 6b3d
00000030: 5842 11bd b94d eb3c 5361 e53d 91b0 5dbc
00000040: c8ab c8bd 97a7 3f3d 4f59 893c 0950 9ebd
00000050: dbf3 b0bc 9c1b f2bc d50d 283d 130b d2bb
00000060: cc31 353d
