ppo_algorithm/checkpoints/ppo_critic_num_agent_exp_3run_0_lumberjacks.pth (torch, 171632 bytes, 5 tensors)

critic.0.weight f4 [128, 198]
-0.0024526643 -0.010308623 0.0027303668 0.0052591073 0.086137906 0.060583193 0.0127040455 0.08800184
0.031056669 -0.025099754 0.046127137 -0.015006637 0.107449226 -0.0022457393 -0.00914651 0.08723308
0.010467029 -0.00035728433 0.041999366 0.07424347 0.0892615 -0.006751136 0.04035386 0.07039795
0.097331524 0.06380993 0.006032886 -0.01650816 0.094492376 0.09259971 0.053816464 0.03642468
-0.0014255461 0.02839024 0.06856057 0.019184157 0.043497134 0.026356282 -0.015376848 0.043969225
0.053528495 -0.0106458785 0.020726126 -0.03633514 0.04029982 0.061545316 0.058658585 0.029890766
0.06364809 0.029165853 0.08631069 0.04060748 0.016887454 0.042008188 0.098517776 -0.044545464
0.016653577 0.103379644 0.054618273 0.050042097 0.0058322228 0.05629244 0.05991477 0.09453936
0.05873878 0.085130624 -0.006671274 -0.011851379 0.06807315 0.02051879 0.10051563 0.03978719
0.07180874 0.007726521 0.09069422 0.066745676 0.018679485 -0.019098373 0.027425742 0.04255745
0.023859803 -0.043238766 -0.005180557 0.046438288 -0.0046984646 0.032470454 -0.0045836642 0.027698832
0.030915631 0.06389862 -0.014063072 0.0882292 -0.013958091 0.06320718 -0.0019416896 0.08766609
0.058887277 0.0045271334 0.024363574 0.02179559 0.07192268 0.069331095 0.005739788 0.074620456
-0.03396997 -0.015747948 -0.009907701 -0.040853757 0.023933593 0.07454237 0.03689965 -0.021572476
0.0969696 -0.022186663 0.030120268 -0.028681252 0.03108725 -0.0153552815 0.009513836 0.0065467246
-0.03310816 0.052385375 0.09419414 0.02744717 0.023742044 0.047876287 0.09668509 -0.011072169
0.007742686 0.014649853 0.0030169233 -0.022395855 0.036110166 0.019289296 0.022786405 0.083845355
0.049125146 -0.008550061 0.028436419 0.002155896 0.021536583 0.013995107 0.009243591 0.09014208
0.08449844 0.036136054 -0.032475542 -0.020209352 0.03406695 0.065509066 0.008753653 0.07571566
-0.036799416 0.06612655 0.09657051 0.005783503 0.044578794 0.08848285 -0.034543213 -0.030171078
0.06561324 0.06371356 0.049864728 0.09122873 -0.030931674 -0.006068698 0.0005574346 0.014975354
0.038758706 0.021814974 -0.006941635 0.01629811 0.07533433 0.06418757 0.026328709 0.046304498
-0.024067337 0.05519583 -0.011988385 0.08953791 -0.005963466 0.08178575 0.062845334 0.04002107
0.09004624 0.033959076 -0.028397229 0.09156013 0.029389659 0.00475119 0.060755644 0.059160855
0.050138704 0.07418815 0.08471005 -0.012719233 0.02142013 0.04180739 0.04381036 -0.029087592
-0.041928343 -0.054921906 -0.010055717 -0.08779072 0.002813955 0.035758786 0.0024932623 -0.041198734
-0.061227925 -0.053093836 -0.0032869796 -0.0985283 -0.026389394 -0.093767785 -0.06549421 -0.08549132
0.026458986 -0.018753612 -0.06623471 -0.07005144 0.0023265122 -0.02470238 -0.014324916 0.0069631366
-0.08868911 -0.011393832 0.019696005 0.01698077 -0.037256353 -0.088668525 -0.050464503 0.010558854
-0.09353535 0.037967145 0.0040040254 0.011171813 -0.064860396 -0.030743454 -0.09646724 -0.0723
0.021258442 -0.046572033 -0.07718303 -0.086860865 0.030131452 -0.08916089 0.042239126 0.039482668
0.0399085 0.012812931 -0.06530287 0.041758925 -0.03284478 -0.05653185 -0.017600387 0.025591407
00000000: e1bc 20bb 80e5 28bc f4ef 323b 9754 ac3b
00000010: 1269 b03d 1526 783d a124 503c 4f3a b43d
00000020: 8e6a fe3c 009e cdbc cfef 3c3d 66de 75bc
00000030: 570e dc3d 412d 13bb 3edb 15bc 42a7 b23d
00000040: e77d 2b3c e451 bbb9 8707 2c3d f60c 983d
00000050: bcce b63d a238 ddbb 174a 253d cd2c 903d
00000060: c055 c73d c8ae 823d 84af c53b 1f3c 87bc
00000070: 3885 c13d eba4 bd3d a76e 5c3d 0c32 153d
00000080: 64d9 baba a692 e83c 7c69 8c3d 1828 9d3c
00000090: 0d2a 323d 21e9 d73c 2def 7bbc 1319 343d
000000a0: b240 5b3d 0d6c 2ebc d6c9 a93c 28d4 14bd
000000b0: 6d11 253d f116 7c3d fc43 703d 7bdd f43c
000000c0: ee59 823d 3aed ee3c a9c3 b03d 0754 263d
000000d0: 8f57 8a3c c710 2c3d b0c3 c93d 4e75 36bd
000000e0: 156d 883c b5b8 d33d 69b7 5f3d f1f8 4c3d
000000f0: 3b1c bf3b e792 663d 3169 753d da9d c13d
00000100: 1398 703d f758 ae3d b49a dabb 492c 42bc
00000110: f069 8b3d 0617 a83c 23db cd3d e4f7 223d
00000120: 7610 933d c22e fd3b e4bd b93d f5b1 883d
00000130: b805 993c 3174 9cbc f3ab e03c b850 2e3d
00000140: a275 c33c 221b 31bd a9c1 a9bb 1336 3e3d
00000150: 94f5 99bb bdff 043d 9032 96bb a9e8 e23c
00000160: c742 fd3c 48dd 823d cd68 66bc 83b1 b43d
00000170: 7ab0 64bc c472 813d 4b80 feba 478a b33d
00000180: c933 713d 5958 943b 1e96 c73c aa8c b23c
00000190: 334c 933d 76fd 8d3d d514 bc3b 9cd2 983d
000001a0: 1824 0bbd d701 81bc e953 22bc 4556 27bd
000001b0: 6210 c43c aca9 983d 1624 173d c3b8 b0bc
000001c0: ff97 c63d cec0 b5bc c8be f63c f2f4 eabc
000001d0: b0aa fe3c b894 7bbc ecdf 1b3c e885 d63b
000001e0: 6c9c 07bd 0c92 563d dbe8 c03d e3d8 e03c
000001f0: ad7e c23c ed19 443d d502 c63d 0b68 35bc
00000200: 5cb6 fd3b f005 703c 93b7 453b 8377 b7bc
00000210: 41e8 133d 9604 9e3c 8eaa ba3c 1db7 ab3d
00000220: 7337 493d 8e15 0cbc 7ef3 e83c ef49 0d3b
00000230: 7d6d b03c bc4b 653c 6e72 173c 699c b83d
00000240: 850d ad3d 6603 143d 1305 05bd 158e a5bc
00000250: c989 0b3d 9e29 863d 7b6b 0f3c d010 9b3d
00000260: fcba 16bd 5b6d 873d c2c6 c53d 8a83 bd3b
00000270: 4198 363d 7f36 b53d 2f7d 0dbd 5629 f7bc
00000280: 3c60 863d 417c 823d f53e 4c3d 21d6 ba3d
00000290: 6c64 fdbc eedb c6bb ce20 123a 305b 753c
000002a0: 73c1 1e3d 51b5 b23c a876 e3bb 9d83 853c
000002b0: e348 9a3d c674 833d 4eaf d73c c9a9 3d3d
000002c0: dd28 c5bc 0615 623d ee6a 44bc a75f b73d
000002d0: 2e69 c3bb 4a7f a73d 0eb5 803d 22ed 233d
000002e0: 2a6a b83d ac18 0b3d 4ea1 e8bc e183 bb3d
000002f0: 95c2 f03c dfaf 9b3b e9da 783d a752 723d
00000300: 3e5e 4d3d f5ef 973d 767c ad3d 5464 50bc
00000310: 4579 af3c 3a3e 2b3d 7e72 333d 1a49 eebc
00000320: 0ebd 2bbd cbf5 60bd bcc0 24bc 9fcb b3bd
00000330: 556a 383b ce77 123d 0066 233b 01c0 28bd
00000340: 22ca 7abd ec78 59bd 5e6a 57bb 35c9 c9bd
00000350: 922e d8bc 5309 c0bd d421 86bd 1316 afbd
00000360: 84c0 d83c 2da1 99bc 10a6 87bd 2177 8fbd
00000370: 6678 183b a55c cabc 0db3 6abc 062b e43b
00000380: a3a2 b5bd 32ad 3abc 8459 a13c 411b 8b3c
00000390: 1e9a 18bd d897 b5bd deb3 4ebd 0bff 2c3c
000003a0: 768f bfbd 7083 1b3d 3334 833b fb09 373c
000003b0: 87d5 84bd b2d9 fbbc 9e90 c5bd 0612 94bd
000003c0: 2f26 ae3c 51c2 3ebd 2312 9ebd 1ce4 b1bd
000003d0: 3cd6 f63c fc99 b6bd ef02 2d3d 94b8 213d
000003e0: 1877 233d 54ed 513c 83bd 85bd 680b 2b3d
000003f0: 3f88 06bd f18d 67bd b02e 90bc 12a5 d13c

critic.0.bias f4 [128]
0.036334436 -0.017056229 -0.04686312 -0.031597476 -0.07315984 0.032738443 0.061022587 0.05812482
0.056478392 0.08184989 -0.024544839 -0.081355564 -0.07282866 -0.015941037 -0.026107943 -0.07310901
-0.05464257 0.09875899 -0.029886084 0.053739488 0.029045846 0.07458298 -0.046379033 0.058075182
0.029025996 0.09832949 0.0334358 0.03564874 0.013712626 -0.035070512 -0.013872194 0.02865606
-0.081247725 0.08135744 0.10179963 0.089633845 -0.07778172 -0.010241528 0.010109106 -0.010046142
-0.08635121 -0.03297175 -0.07007289 0.08107482 -0.009011392 0.034628965 -0.027627395 -0.081908576
0.086934775 0.063538276 -0.063637845 0.033984847 0.048174948 0.010184369 -0.08307065 0.07895707
0.066455334 0.048052065 0.09217164 -0.0049404847 0.004996523 -0.100500554 0.020082328 0.0064480985
0.025035031 -0.011126591 0.00022241147 0.013402016 0.08482108 0.075161144 -0.07369275 0.045017265
0.034055267 0.049388997 0.09200108 -0.013447634 -0.076544665 0.010751395 0.026731402 -0.022446938
-0.013795893 0.017660815 -0.08447274 0.03899182 0.07978356 0.05353334 -0.094806105 0.08691615
0.043437514 0.012559727 -0.0062466296 0.020429844 0.06367493 -0.013652146 -0.0077605327 0.019510375
-0.05963952 0.024656253 -0.025066495 0.0020116456 0.07776502 -0.02296833 0.07183688 0.021557035
0.038973283 0.067862496 -0.063258566 -0.014654371 -0.057193317 0.07724862 -0.059072096 0.10056703
-0.026098644 -0.06115412 -0.001200416 0.004219112 0.10275802 0.07984756 0.09070591 -0.031045627
-0.034180414 0.022986129 0.0117138345 0.041737642 0.0078206835 0.09512387 -0.04264333 0.09070024
00000000: 6bd3 143d 81b9 8bbc 8bf3 3fbd 5b6c 01bd
00000010: d4d4 95bd bf18 063d d2f2 793d 4b14 6e3d
00000020: e355 673d eaa0 a73d 4212 c9bc bf9d a6bd
00000030: 3127 95bd c796 82bc 53e0 d5bc 2dba 95bd
00000040: e3d0 5fbd 2742 ca3d a9d3 f4bc f01d 5c3d
00000050: 8ef1 ed3c f6be 983d f1f7 3dbd 3ee0 6d3d
00000060: edc7 ed3c f960 c93d faf3 083d 6a04 123d
00000070: ecaa 603c 19a6 0fbd 3348 63bc 1dc0 ea3c
00000080: 3565 a6bd bb9e a63d 537c d03d f391 b73d
00000090: 064c 9fbd 15cc 27bc aaa0 253c 9398 24bc
000000a0: e7d8 b0bd 630d 07bd 6082 8fbd 8e0a a63d
000000b0: 84a4 13bc 1ad7 0d3d d952 e2bc afbf a7bd
000000c0: dc0a b23d 5b20 823d 8f54 82bd b233 0b3d
000000d0: 1853 453d 57dc 263c f220 aabd 3fb4 a13d
000000e0: bc19 883d 3ed2 443d 7cc4 bc3d cae3 a1bb
000000f0: dfb9 a33b 3cd3 cdbd b283 a43c 924a d33b
00000100: 4416 cd3c 4e4c 36bc 2037 6939 2194 5b3c
00000110: adb6 ad3d 16ee 993d 39ec 96bd 0664 383d
00000120: 897d 0b3d 1e4c 4a3d 106b bc3d 7753 5cbc
00000130: 73c3 9cbd 9e26 303c d0fb da3c a4e2 b7bc
00000140: 2b08 62bc 6aad 903c 0b00 adbd e3b5 1f3d
00000150: 9065 a33d c745 5b3d b429 c2bd 1801 b23d
00000160: 89eb 313d 50c7 4d3c 87b0 ccbb 7d5c a73c
00000170: 0068 823d 40ad 5fbc 114c febb 39d4 9f3c
00000180: 9248 74bd e9fb c93c 4058 cdbc d0d5 033b
00000190: 4443 9f3d 1428 bcbc 371f 933d 6198 b03c
000001a0: 73a2 1f3d 7efb 8a3d b58d 81bd e318 70bc
000001b0: 8a43 6abd 8634 9e3d 95f5 71bd 16f6 cd3d
000001c0: d3cc d5bc be7c 7abd 4757 9dba 7a40 8a3b
000001d0: cc72 d23d 1e87 a33d 05c4 b93d 6653 febc
000001e0: c300 0cbd 684d bc3c 62eb 3f3c 17f5 2a3d
000001f0: 5322 003c 4ed0 c23d c6aa 2ebd 0cc1 b93d

critic.2.weight f4 [128, 128]
0.046432193 -0.016258845 -0.03458642 -0.116473354 0.037573844 0.11739616 -0.023049843 -0.028415387
-0.0014511987 0.11330611 0.028531214 -0.08437436 -0.023223842 -0.056387763 0.020236049 -0.030074896
-0.09560657 0.008924808 -0.03821209 -0.04067394 -0.07008679 -0.017968709 -0.088198446 -0.047241814
-0.06411806 0.11741418 -0.013166388 0.11882906 0.041429665 -0.069047935 -0.11616075 0.046152722
0.03650047 -0.048553504 0.064357 0.027437715 -0.012753953 0.05961708 0.06939571 0.046415053
-0.09677474 0.022392316 -0.0130282445 -0.0019749827 -0.11730016 -0.08608396 -0.12123186 -0.007321603
-0.04962906 0.011886875 -0.020934986 0.1100127 0.08744813 0.027538624 0.016532501 -0.015170219
-0.009828617 0.094993606 0.0965362 -0.07171236 -0.0030266084 0.027286448 0.08516449 -0.050680634
0.0101774745 0.11314665 -0.054033507 0.037375342 -0.0002258409 0.0385197 0.023202356 0.042821262
-0.046083856 0.044830814 0.10926167 -0.06361166 -0.026684668 -0.071369015 -0.100010954 0.048831165
-0.04696593 0.10733742 -0.039677773 0.026102291 0.06063184 -0.040292006 -0.07420922 0.117838405
0.08858892 0.07388422 0.06015916 0.03161708 0.100736156 -0.019629154 0.055384837 -0.0049550524
-0.08316997 0.049791116 -0.08950584 0.04504066 0.017808983 -0.007923783 -0.00029309114 0.06359044
0.004629094 -0.0013514985 -0.12700815 -0.031993315 -0.112710506 0.001727873 0.037844274 0.039912816
-0.0493513 -0.006954648 0.046769727 -0.07866262 0.058658432 0.048199553 0.054284748 0.03583767
-0.12206878 -0.0028709418 -0.018156752 -0.013719283 0.06733828 0.00020502454 -0.0260054 0.06697878
-0.095970124 0.0924705 0.10757377 -0.04881905 0.10803663 -0.068742245 0.020550113 -0.009703835
-0.055166095 0.044511683 -0.08428926 -0.053345256 0.069699526 0.063696265 -0.0037860393 0.086652406
0.11511824 -0.037543982 -0.10101043 0.08663967 0.113289766 0.039117172 -0.037813794 -0.09853915
-0.026555687 -0.060021218 -0.01340642 -0.09831057 0.009833704 -0.01744749 -0.009027542 -0.00738771
-0.033861037 -0.11949081 -0.12678228 -0.09473213 0.114733815 -0.082390845 -0.09115307 0.04538678
0.10941315 0.05922325 0.027582655 -0.11703054 -0.044002157 -0.04224487 0.024725093 0.06528455
0.0047937525 -0.074040905 0.06219638 -0.10490042 -0.0039910227 -0.089792915 0.019610198 0.042408716
-0.029907776 0.04791019 -0.11616199 0.120819144 -0.07371506 0.08520132 0.01589201 0.022268541
0.024551565 -0.05871435 0.030321583 0.04624397 -0.05248008 -0.11027856 0.078758836 0.010997903
-0.045155287 0.006831823 0.030733345 -0.004338204 0.11056373 0.07314837 -0.01080336 -0.010815283
0.12588836 -0.07009354 -0.022429867 0.066005275 -0.100548595 -0.042255238 0.030697955 -0.011145198
-0.009629428 0.021021962 -0.0803983 -0.02307453 0.02080478 0.0060683074 0.038964532 0.009319639
0.0794311 0.12553602 -0.0010096844 -0.08954587 -0.11152271 -0.1264079 -0.042268842 -0.060946383
-0.039573155 -0.08350911 0.06232149 -0.031885903 0.04830476 0.037566878 -0.049328063 -0.013748995
0.014493931 -0.030835057 -0.10778955 -0.042132508 -0.06339142 -0.002870459 -0.08012218 0.02437264
-0.008642814 -0.08999221 -0.07513419 0.020845959 -0.051487297 -0.037609823 0.10236162 -0.10280385
00000000: af2f 3e3d 4531 85bc 7daa 0dbd 9589 eebd
00000010: 08e7 193d 666d f03d 06d3 bcbc 63c7 e8bc
00000020: 2636 beba 090d e83d 4bba e93c 77cc acbd
00000030: ed3f bebc dbf6 66bd 12c6 a53c a15f f6bc
00000040: 61cd c3bd 5c39 123c 4884 1cbd b899 26bd
00000050: aa89 8fbd 1d33 93bc 63a1 b4bd a280 41bd
00000060: 5450 83bd d876 f03d d5b7 57bc a65c f33d
00000070: 27b2 293d 0169 8dbd b0e5 edbd a30a 3d3d
00000080: 8481 153d 0ae0 46bd 9acd 833d 0fc5 e03c
00000090: f5f5 50bc 0a31 743d 571f 8e3d b61d 3e3d
000000a0: d631 c6bd 1770 b73c 6b74 55bc b66e 01bb
000000b0: 113b f0bd ca4c b0bd 6948 f8bd 0fea efbb
000000c0: d747 4bbd 2bc1 423c d97f abbc 574e e13d
000000d0: 0118 b33d ae98 e13c 2b6f 873c 838c 78bc
000000e0: 3508 21bc 028c c23d c5b4 c53d eedd 92bd
000000f0: 105a 46bb d487 df3c b86a ae3d 7f96 4fbd
00000100: 6cbf 263c 6eb9 e73d 3d52 5dbd e316 193d
00000110: b4cf 6cb9 d5c6 1d3d de12 be3c 5965 2f3d
00000120: 6dc2 3cbd 84a0 373d 95c4 df3d d446 82bd
00000130: ce99 dabc eb29 92bd 8bd2 ccbd 3003 483d
00000140: 595f 40bd b9d3 db3d 2985 22bd 79d4 d53c
00000150: 1859 783d 3b09 25bd 01fb 97bd 4355 f13d
00000160: 1c6e b53d 9c50 973d 7469 763d e980 013d
00000170: c24e ce3d 52cd a0bc 36db 623d fe5d a2bb
00000180: 0455 aabd c5f1 4b3d d64e b7bd 8e7c 383d
00000190: 25e4 913c c1d2 01bc 07aa 99b9 b43b 823d
000001a0: a8af 973b c424 b1ba 6d0e 02be 6c0b 03bd
000001b0: c4d4 e6bd cc79 e23a 9902 1b3d 9f7b 233d
000001c0: 9724 4abd d1e3 e3bb 9d91 3f3d de19 a1bd
000001d0: d343 703d e56c 453d af59 5e3d 85ca 123d
000001e0: 32ff f9bd 6926 3cbb 78bd 94bc d8c6 60bc
000001f0: a7e8 893d dbfb 5639 4709 d5bc 2c2c 893d
00000200: fc8b c4bd 2c61 bd3d a34f dc3d 7cf6 47bd
00000210: 4f42 dd3d bcc8 8cbd b658 a83c d5fc 1ebc
00000220: d8f5 61bd e251 363d d99f acbd 8e80 5abd
00000230: a0be 8e3d 3073 823d 331f 78bb d176 b13d
00000240: 1dc3 eb3d b8c7 19bd 8ede cebd 2470 b13d
00000250: 7704 e83d 5439 203d a3e2 1abd e5ce c9bd
00000260: 508b d9bc cfd8 75bd 9aa6 5bbc 0d57 c9bd
00000270: 8b1d 213c 0aee 8ebc 41e8 13bc 9a14 f2bb
00000280: dfb1 0abd 99b7 f4bd 37d3 01be eb02 c2bd
00000290: 90f9 ea3d 88bc a8bd 76ae babd 7de7 393d
000002a0: 0014 e03d 1494 723d 05f5 e13c b5ad efbd
000002b0: 9b3b 34bd f508 2dbd 478c ca3c e8b3 853d
000002c0: e914 9d3b c2a2 97bd a2c1 7e3d 08d6 d6bd
000002d0: 20c7 82bb 59e5 b7bd 91a5 a03c c3b4 2d3d
000002e0: 2701 f5bc 7a3d 443d 56e6 edbd 0770 f73d
000002f0: ecf7 96bd 087e ae3d f62f 823c 846c b63c
00000300: 5d20 c93c 757e 70bd f864 f83c 516a 3d3d
00000310: 5af5 56bd bad9 e1bd 504c a13d 8c30 343c
00000320: c0f4 38bd 7cdd df3b 7fc4 fb3c 7e27 8ebb
00000330: 3d6f e23d d0ce 953d 9300 31bc 9632 31bc
00000340: e1e8 003e 348d 8fbd d7be b7bc c62d 873d
00000350: 6cec cdbd d413 2dbd 477a fb3c 599a 36bc
00000360: c0c4 1dbc 4036 ac3c dda7 a4bd cc06 bdbc
00000370: c96e aa3c a7d8 c63b 4699 1f3d 66b1 183c
00000380: c6ac a23d 848c 003e 6357 84ba d363 b7bd
00000390: 0566 e4bd 1371 01be 1822 2dbd eaa2 79bd
000003a0: 7617 22bd d306 abbd d244 7f3d cb9a 02bd
000003b0: 36db 453d badf 193d 390c 4abd 7743 61bc
000003c0: f477 6d3c cd99 fcbc c5c0 dcbd 2393 2cbd
000003d0: 5cd3 81bd 501e 3cbb 1917 a4bd 21a9 c73c
000003e0: 979a 0dbc d64d b8bd f4df 99bd 25c5 aa3c
000003f0: 58e4 52bd c20c 1abd f8a2 d13d d38a d2bd

critic.2.bias f4 [128]
-0.053165063 0.053139165 0.046547636 0.05464193 0.04083425 0.10649698 0.007763052 0.093084805
-0.029447446 0.061473414 -0.045972757 0.018219395 -0.032041427 0.090027146 -0.0009800893 -0.029701967
0.06490984 0.018945077 0.05072265 0.04777217 -0.009495912 -0.031437762 -0.021202521 0.006981706
-0.051812768 0.072257385 0.030838788 0.095008865 0.017183086 0.09373021 0.035212874 0.012974867
-0.05737847 0.10336922 -0.076761045 -0.08326913 0.025483117 -0.08947662 -0.06208381 -0.0039328267
-0.044636965 0.075654976 -0.1001311 -0.054345936 0.009287887 0.032801107 -0.071188085 -0.10711131
0.004436991 0.0756993 -0.005013066 0.016965147 -0.10357218 -0.05380815 -0.04876024 0.10521463
-0.03736947 -0.056709446 -0.05642745 -0.049684405 0.07100751 -0.012105945 0.035333008 0.049289007
0.01937454 0.017756786 0.004771432 -0.002025525 0.031825133 0.09425112 0.10059836 -0.08007242
0.00063248636 -0.007969721 0.06357578 -0.07935976 -0.060715947 0.0026600005 0.014353189 -0.048370507
0.05244905 0.08895512 0.049576722 -0.02801568 0.089624725 -0.030854402 -0.037128825 0.097085916
-0.05412368 0.08613615 0.019860944 -0.08456573 0.05186854 0.040835693 -0.04861236 -0.026919138
-0.073481746 -0.10429667 0.049997915 -0.11383367 0.096806824 -0.039562922 0.10185922 -0.10328986
0.037983194 0.1004132 0.013411021 -0.016360996 0.06378945 0.05687214 0.046543766 0.01396682
0.022588117 -0.03182876 -0.062009435 -0.018654158 0.018144669 -0.013062895 -0.03292023 0.08449624
0.06508466 0.020720864 -0.04689934 0.09617294 0.07987596 0.10490087 0.03750478 0.0040293583
00000000: 9cc3 59bd 74a8 593d bca8 3e3d 37d0 5f3d
00000010: d141 273d 171b da3d 3361 fe3b 3fa3 be3d
00000020: c53b f1bc 8ccb 7b3d ee4d 3cbd d740 953c
00000030: df3d 03bd 2760 b83d 5776 80ba 8a51 f3bc
00000040: 73ef 843d b532 9b3c 8ec2 4f3d c0ac 433d
00000050: be94 1bbc e2c4 00bd e9b0 adbc cbc6 e43b
00000060: a039 54bd aefb 933d a0a1 fc3c 0294 c23d
00000070: 8bc3 8c3c a0f5 bf3d 603b 103d 8994 543c
00000080: b005 6bbd 3eb3 d33d e534 9dbd 0189 aabd
00000090: f8c1 d03c 853f b7bd 984b 7ebd f1de 80bb
000000a0: 40d5 36bd fff0 9a3d 8911 cdbd d899 5ebd
000000b0: 392c 183c 745a 063d 0fcb 91bd 2d5d dbbd
000000c0: 2e64 913b 3c08 9b3d a544 a4bb 7efa 8a3c
000000d0: a71d d4bd ef65 5cbd d1b8 47bd c57a d73d
000000e0: bb10 19bd 2a48 68bd 7820 67bd e081 4bbd
000000f0: 636c 913d 0358 46bc 58b9 103d 45e3 493d
00000100: 5bb7 9e3c ae76 913c ac59 9c3b acbe 04bb
00000110: 125b 023d bb06 c13d 8306 ce3d 02fd a3bd
00000120: 71cd 253a 6f93 02bc 0534 823d 5f87 a2bd
00000130: 49b1 78bd 6753 2e3b a329 6b3c 2720 46bd
00000140: d1d4 563d 1a2e b63d f610 4b3d 2481 e5bc
00000150: 2b8d b73d 5fc2 fcbc 6514 18bd fbd4 c63d
00000160: cbb0 5dbd 2668 b03d 6bb3 a23c cc30 adbd
00000170: 1b74 543d 5443 273d c11d 47bd 8685 dcbc
00000180: 997d 96bd 7e99 d5bd 9dca 4c3d a121 e9bd
00000190: a842 c63d bb0c 22bd 919b d03d a289 d3bd
000001a0: 4494 1b3d 70a5 cd3d e6b9 5b3c 7f07 86bc
000001b0: 0ba4 823d c3f2 683d ada4 3e3d 17d5 643c
000001c0: b70a b93c e05e 02bd 9bfd 7dbd 9bd0 98bc
000001d0: 21a4 943c c105 56bc 5dd7 06bd 5d0c ad3d
000001e0: 1b4b 853d cdbe a93c 8619 40bd 52f6 c43d
000001f0: 0296 a33d 44d6 d63d 9d9e 193d b508 843b

critic.4.weight f4 [1, 128]
-0.1892577 0.14983062 0.19274367 0.18472937 0.15909982 -0.19239074 0.13774809 -0.21196847
0.12768462 -0.14751111 -0.20496105 0.20202921 0.20614748 -0.18107529 -0.20150349 0.20397015
-0.13643427 -0.17959866 -0.1909466 -0.18841511 -0.17416601 -0.1456284 0.14748277 -0.19896254
-0.16161132 -0.13089637 -0.13546719 -0.14114286 0.20581564 -0.22156568 0.1666897 -0.21040341
0.16810566 -0.18986928 0.20468186 0.1801188 -0.18833812 0.17329 0.13052337 0.21006007
-0.12932408 -0.15757015 0.15553002 -0.17819011 -0.12722264 0.1452104 0.15718505 0.16690542
0.13412185 -0.122805715 -0.15384576 0.13482808 0.18190128 -0.19703107 0.20813942 -0.20970201
-0.17045988 0.19682905 -0.20216043 0.12977567 -0.20077431 0.18792966 0.20878658 0.13396168
0.17501242 0.16217417 -0.19994892 -0.15320286 -0.16192172 -0.1462269 -0.14098388 0.19377674
-0.19777837 0.17242673 0.19578563 0.13299008 0.14614363 -0.1279272 0.1998704 0.16769588
0.20867984 -0.20347267 -0.20655863 -0.12706095 -0.13979474 0.14062242 0.13475059 -0.21806332
-0.2025384 -0.1821923 0.1390478 0.19128591 0.13147974 0.15497437 -0.12917694 0.15426844
0.19831993 0.14451212 -0.20433092 0.15450957 -0.19048825 -0.20861584 -0.16685218 0.13000417
-0.21331777 -0.18400948 -0.16073991 0.16685656 -0.19351602 0.12766549 0.2007383 0.1953529
-0.13235079 0.17986535 -0.17066707 0.18814395 0.2039545 -0.14301232 0.14884233 -0.20127614
-0.16437247 0.19636044 0.14276013 -0.16892697 -0.14823152 -0.20511766 0.1483473 0.15485181
00000000: c5cc 41be 336d 193e 995e 453e b229 3d3e
00000010: 10eb 223e 1402 45be d60d 0d3e 430e 59be
00000020: c2bf 023e 270d 17be 4fe1 51be bfe0 4e3e
00000030: 5318 533e cd6b 39be ee56 4ebe 8ddd 503e
00000040: 6db5 0bbe b6e8 37be 8187 43be e4ef 40be
00000050: 9358 32be 9c1f 15be b905 173e d6bc 4bbe
00000060: 707d 25be b309 06be e9b7 0abe c187 10be
00000070: 56c1 523e 1de2 62be b4b0 2a3e fe73 57be
00000080: e423 2c3e 186d 42be 1f98 513e 1071 383e
00000090: b5db 40be ef72 313e eba7 053e fd19 573e
000000a0: 886d 04be 125a 21be 4343 1f3e 7877 36be
000000b0: a746 02be 09b2 143e 1ef5 203e 41e9 2a3e
000000c0: 3d57 093e 9081 fbbd be89 1dbe 5f10 0a3e
000000d0: 5444 3a3e 83c2 49be 8022 553e 20bc 56be
000000e0: 098d 2ebe 8e8d 493e 2503 4fbe eae3 043e
000000f0: c897 4dbe a270 403e 26cc 553e 402d 093e
00000100: 7536 333e fc10 263e 69bf 4cbe 36e1 1cbe
00000110: cfce 25be 81bc 15be 145e 10be 696d 463e
00000120: 6a86 4abe a290 303e 077c 483e 8d2e 083e
00000130: ada6 153e 59ff 02be d3aa 4c3e 78b8 2b3e
00000140: 2bb0 553e 245b 50be 1b84 53be 441c 02be
00000150: 5a26 0fbe 53ff 0f3e 0ffc 093e fe4b 5fbe
00000160: 3a66 4fbe 9e90 3abe 8c62 0e3e 74e0 433e
00000170: a0a2 063e 9ab1 1e3e f646 04be 8cf8 1d3e
00000180: 6114 4b3e fcfa 133e 203c 51be c237 1e3e
00000190: 5a0f 43be 649f 55be 4cdb 2abe d01f 053e
000001a0: f96f 5abe fb6c 3cbe 0199 24be 72dc 2a3e
000001b0: 1029 46be beba 023e 578e 4d3e 970a 483e
000001c0: f786 07be 9f2e 383e 59c3 2ebe cfa8 403e
000001d0: 73d9 503e d271 12be 206a 183e 551b 4ebe
000001e0: 4251 28be b612 493e b62f 123e 31fb 2cbe
000001f0: 01ca 17be 5d0a 52be 5be8 173e 7991 1e3e
