ppo_algorithm/checkpoints/ppo_actor_env_comp_exp_0run_0_lumberjacks.pth (torch, 127708 bytes, 6 tensors)

actor.0.weight f4 [128, 88]
00000000: 37c0 e3bb 99cf 783d 3468 1bbd 1832 d2bc
00000010: 62f1 4e3d f677 bcbd 3479 1d3c 6c5c ab3d
00000020: be39 3dbd a4ac 973d 6183 403d 81f4 283c
00000030: 1e35 5bb9 34be a0bd 0706 d1bb 69fa 0c3e
00000040: d383 7abd 4d45 55bd 5974 b4bb aa88 f5bd
00000050: eb4b 13bd 4111 f2bb ae0d 1d3d 6281 7c3d
00000060: 745d 2cbd 9185 1f3d a498 013e b6e5 1dbc
00000070: 98a8 893d 85df 17bd 2a60 523d 3c57 cfbc
00000080: 1d9a 833c e210 f2bd f343 b63d e02e eabd
00000090: 7f36 1c3d 8d95 10bd 5a4a e43c 6bdf 83bd
000000a0: 8135 02bd 088e 47be 08f2 583c 0948 bf3d
000000b0: c3ac 233b 8642 ad3d f7db a9bc 3fb9 3ebd
000000c0: 8cb7 3c3d 47cd 423c 1483 8cbd 847c 49bd
000000d0: 8952 b7bd d42e 49bc e2aa 1fbd 7d05 813d
000000e0: 62f8 2c3c 11a9 1fbe b74b de3c e97b 71bd
000000f0: 9e4e 1fbd 848a 87bd 131b 593d 496e 17bd
00000100: 320a 703d 6feb 683d 76d2 b0bd 9243 7e3d
00000110: 42ac bbbc 6411 a53d 45b1 a53d d988 00bc
00000120: ff2b 543d 5e19 e3bd 62f9 233d 8ba2 243e
00000130: 0f67 2ebd bcf1 d6bd d747 a7bd 4f3c aebb
00000140: f483 ca3d e796 173d 7c66 31bc bb63 04be
00000150: 18c3 9cbc 561d 8cbd 9ecc 2dbb 8b6b 953d
00000160: ae35 7bbd 2558 93bd a32e 3b3d d6f4 d23d
00000170: 4da8 5cbd 86b1 883c 3558 a43c 41f5 a7bc
00000180: ade1 fd3c da4b 363d f245 07bd ea39 873d
00000190: 270d 793d 36c7 abbd cfb6 42bc 52b5 4a3c
000001a0: 78f1 9c3d abf5 c3bc 2a14 2d3d 993a a3bd
000001b0: 06f2 53bd 5161 48bc 08ce 753d 1315 f9bc
000001c0: 645b b5bc 2d09 fd3c e647 503d 8676 0abd
000001d0: 136e 4dbc 5b25 01be 04ed 9d3d 8903 7fbd
000001e0: 97a8 e43d 5ac0 313e 1a21 ee3c b0a1 84bc
000001f0: dd56 e93c 943e fd3d 7711 593b f7b0 383d
00000200: 06a5 12bd d792 ba3d 509e 553d 0328 bbbc
00000210: f587 443a deb9 02bd b40b df3d 7c5b 3c3d
00000220: 99b0 bc3d 1bdd adbd 84e2 343d 2b05 f0bd
00000230: 7f26 25bd 1a5e 983d 318a a13d 9807 ab3c
00000240: 7cfc 9d3c c632 973c 6a37 3bbd d6ad a83d
00000250: c8de 483d 80f4 743d 6a34 2bbd 248d 11bd
00000260: 716b b3bd bd0a 083e a025 1abc d127 3d3d
00000270: db83 e83d c995 6a3b 9ec3 393d cbf9 99bd
00000280: e410 b3bd e959 0ebe 4dc0 dd3c e011 22bd
00000290: f695 4c3d 0490 b23d 03bf f03d f18f 893d
000002a0: 20fe 6b3d 506a 41bd 55ff ffbb 615e ed3c
000002b0: ddbf da38 1488 07bd 2a9d 273d 7efe 943d
000002c0: 0d69 4ebd d95a 2b3d c7d1 fcbc 335a 883d
000002d0: 809f cdbd 0b47 9f3c 7731 f33d b787 94bb
000002e0: 6ddd 1fbd 8d3a ae3d 6ece 15bd 9345 1bbd
000002f0: 6404 83bc d22f 75bd a96b 3ebc 61ab 86bd
00000300: c10a b2bd d076 0bbb c1e5 e5bc 47cb 94bc
00000310: 4318 e73c b1dd a8bc d7fb 92bd d6ea f4bc
00000320: 52f0 1dbe c6c7 aabc c186 1f3d 109a d7bd
00000330: d32d b5bd 8eb2 e33c 8e1c 9a3d d8e2 893b
00000340: 567b a43c d93c f13a 4e60 b4bc 63be 6c3d
00000350: 52af 333d ed77 983d 4751 edbd 05a3 e7bc
00000360: 4b6b 813d a595 97bc 1854 46bc a430 723d
00000370: 1abd 9dbd f817 c1bd 2168 e1bd 1c90 923c
00000380: 1351 3e3d 97d7 863d 361a ff3d 4ba4 463d
00000390: 0371 c0bd 5902 893d 2262 213d 6605 8fbb
000003a0: 0ad5 66bd dade b8bd 1a29 8fbd 5483 fbbd
000003b0: 280e 333d 6c4c a9bd 3ceb 963d 01f1 f9bc
000003c0: 09ac 1abd 6ad1 07ba 61ce 1ebd c423 f6bc
000003d0: bbb0 1cbe 70db 88bd 24ba e5bd b77f 29bd
000003e0: 7eff 463d 80c1 a03d 9b11 bfbc 7c33 80bc
000003f0: 4d9a ddbb f194 10be 1a04 bd3c b516 85b9
-0.006950404 0.060744856 -0.037941173 -0.025658652 0.05052317 -0.09202568 0.009611417 0.083672374
-0.046197645 0.074059755 0.047000293 0.0103122005 -0.00020905255 -0.07848778 -0.0063788923 0.13767399
-0.061160874 -0.052068044 -0.005507034 -0.11988957 -0.035961073 -0.0073873107 0.038343124 0.061646827
-0.04208131 0.03894574 0.12655884 -0.009637287 0.0672161 -0.0370784 0.05136124 -0.025310151
0.016064698 -0.118196264 0.08899679 -0.11434722 0.03813791 -0.035298873 0.027867485 -0.06439098
-0.031789307 -0.19487774 0.0132412985 0.093399115 0.00249748 0.08459954 -0.02073477 -0.046563383
0.04607348 0.011889762 -0.06860939 -0.049191013 -0.08951289 -0.012279231 -0.038981326 0.06299875
0.010557266 -0.15591837 0.027135713 -0.05895606 -0.038893335 -0.06618217 0.053004336 -0.03697041
0.058603473 0.056865152 -0.08633892 0.06207616 -0.022909287 0.080599576 0.08090452 -0.007845127
0.05179977 -0.11088823 0.04003275 0.1607763 -0.042578753 -0.10495326 -0.08167999 -0.005317248
0.09888449 0.037009146 -0.010827657 -0.12928669 -0.019135997 -0.06841533 -0.0026519666 0.07295903
-0.06133049 -0.071945466 0.045698773 0.10300605 -0.05387144 0.016686212 0.020061592 -0.020502688
0.0309914 0.04450593 -0.03302569 0.06602843 0.06080356 -0.08387606 -0.011884405 0.012372332
0.07663244 -0.023920855 0.042255558 -0.07970161 -0.051744483 -0.012230233 0.06001094 -0.030405557
-0.022138305 0.030888164 0.050849818 -0.03380444 -0.012538451 -0.12611906 0.07711223 -0.06225923
0.111649685 0.17358533 0.029068518 -0.01619038 0.028483802 0.123654515 0.0033121982 0.04509064
-0.03580191 0.09110039 0.05215293 -0.022846228 0.0007497066 -0.031915538 0.10890904 0.045985684
0.09213371 -0.08489438 0.044161335 -0.11719736 -0.040319916 0.074398234 0.07887686 0.020877644
0.019285433 0.018456828 -0.045707144 0.082362816 0.049040586 0.059803486 -0.041798033 -0.035534993
-0.08760727 0.13285346 -0.009408385 0.04618055 0.113532744 0.0035794845 0.04535257 -0.07518347
-0.08743456 -0.13901486 0.027069235 -0.03956783 0.0499477 0.08718875 0.117551826 0.06716908
0.0576154 -0.047220528 -0.0078124204 0.028975667 0.000104307874 -0.03308876 0.040921368 0.07275103
-0.050393153 0.041834686 -0.030861748 0.06657829 -0.10040188 0.019443056 0.11874669 -0.00453278
-0.039029527 0.085072614 -0.03657382 -0.037908148 -0.015993305 -0.059860058 -0.011622348 -0.06575657
-0.086934574 -0.0021280535 -0.028063657 -0.018163336 0.028209811 -0.020613523 -0.07176941 -0.029897135
-0.15423706 -0.020847213 0.03894687 -0.10527432 -0.08846631 0.027795102 0.075249776 0.00420795
0.020078342 0.0018404975 -0.022018578 0.057798754 0.04386837 0.07444749 -0.11587768 -0.028275976
0.06319293 -0.018503973 -0.01210501 0.05912842 -0.07702084 -0.094284 -0.11006189 0.017890982
0.046464037 0.06584089 0.12456171 0.048496526 -0.09396555 0.06689901 0.039400227 -0.004364657
-0.056355514 -0.090268806 -0.069902614 -0.12280908 0.043714672 -0.082665294 0.07369086 -0.030510427
-0.03776172 -0.00051810464 -0.038771037 -0.030046351 -0.15301792 -0.066824794 -0.11217144 -0.041381564
0.0485835 0.07849407 -0.023323825 -0.01564955 -0.006762779 -0.14119317 0.023073245 -0.00025384655

actor.0.bias f4 [128]
00000000: 59f5 d8bd 638d f13d 7541 2e3c d43f acbc
00000010: 2186 83bd ce24 fb3b 3514 093d a1fc d3bd
00000020: 9103 a0bd 8408 8b3c 4215 6b3d dcde a038
00000030: a92a 893c c785 05bd 1154 c4bd 574d e3bd
00000040: c82b 8a3d be89 0d3d 65d9 dc3d 88e1 c7bd
00000050: 9acd 603a 43c3 e8bd 800c f83c 8dc1 053d
00000060: 23b1 e3bc 764f 6c3c 9db7 aabd ac82 a9bd
00000070: bbc8 92bd 269c 23bc c290 bf3b c0a6 d73c
00000080: 64cf b73b bd2f 003d ed92 d93c 7df9 40bd
00000090: 9539 963d 65b9 8ebd 0909 cbbd 7595 ad3d
000000a0: 9f9b d6bd 6c4c bcbd 5c96 8d3d eb58 463d
000000b0: 00de b93d dded 9bbd d2e0 263d 7f00 30bc
000000c0: da3f 4c3d a6d5 ffbc 05b3 67bc 43d2 833d
000000d0: 849c 743d 9d6c 49bb c4f1 cbbd 8a45 993d
000000e0: 8c1c 1b3d d01f f1bb 1254 3b3d 3f07 ce3c
000000f0: 46b8 0c3c 5c79 a1bd 8b7c e23d 08ff 083d
00000100: 20af 533d 08bb 943d cb14 be3d 5fb9 c63d
00000110: 6b89 ce3c ac83 0ebd 07b5 76bd 53af 473d
00000120: 5a1f 9c3d 712e 903c 772a 06bd 78b7 c43d
00000130: 2900 8dbc 6a66 bf3c 6688 cb3d 54ed 44ba
00000140: e7bf 43bd 8f0f 62bd 4923 053d ab01 d93d
00000150: 6300 1e3d 872f 8cbd 8094 a83d 459c 8abd
00000160: e9af bdbc 90e8 643d f080 a7ba 3ab6 0cbd
00000170: 93d2 543c d923 283d 8d9a 923d 452e a23c
00000180: 6e15 443a 94c7 15bd e6b6 c9bb 4d45 a63d
00000190: ab09 a63c 75c3 9a3d 3b46 03bd df3e 353d
000001a0: 3221 eb3d 80fc 4bbd af95 afbd 0b13 cd3d
000001b0: a220 6bbc fab7 1a3c 2fda 48bd e5c1 96bc
000001c0: a4aa 23bc 48d4 64bd 26bf 9b3d 81f8 1abc
000001d0: 2e64 b5bc fe74 13bd 4349 8cbc 42f3 6bbd
000001e0: 5e19 c23c 02e0 9dbc 8918 ab3c 6872 9cbc
000001f0: 4f96 603c 5cd7 bd3d cf30 b2bd 3082 3cbd
-0.10593671 0.117945455 0.010635723 -0.02102653 -0.064220674 0.0076642996 0.033466537 -0.103509195
-0.0781318 0.016971834 0.05739332 7.670905e-05 0.016743975 -0.032598283 -0.09586347 -0.11098736
0.06746632 0.03455519 0.10783652 -0.097598135 0.0008575559 -0.11365368 0.030279398 0.032655288
-0.027794426 0.014423242 -0.08335803 -0.08276877 -0.071671925 -0.009985959 0.005846114 0.02632463
0.0056094397 0.031295527 0.026559317 -0.04711293 0.07335202 -0.06968955 -0.09913833 0.08475772
-0.10478901 -0.09194264 0.069134444 0.048424643 0.09075546 -0.07613728 0.04074175 -0.010742306
0.04986558 -0.031229805 -0.014141803 0.064365886 0.059719577 -0.0030734905 -0.099582225 0.07483967
0.03786902 -0.0073585287 0.045734473 0.02514994 0.008588856 -0.078844756 0.11058911 0.03344634
0.051680684 0.07262236 0.0928131 0.097033255 0.02521201 -0.03479354 -0.060231235 0.048751187
0.07623167 0.01760027 -0.03275534 0.096053064 -0.01721199 0.023364265 0.09938125 -0.0007512171
-0.047790434 -0.05519062 0.032504354 0.10596021 0.038574588 -0.068450026 0.08231449 -0.06768087
-0.02315517 0.05588585 -0.0012779515 -0.034353472 0.012989658 0.041049812 0.071583845 0.019797454
0.000748 -0.036567286 -0.0061558364 0.08118687 0.020268282 0.07556812 -0.0320494 0.04424941
0.11480941 -0.04980135 -0.08573472 0.10013398 -0.014351042 0.0094432775 -0.0490362 -0.018403003
-0.009989414 -0.05586651 0.07604818 -0.009458662 -0.022142496 -0.036000244 -0.017124778 -0.057605036
0.023693737 -0.019271854 0.020885723 -0.019097522 0.013707711 0.09269592 -0.08700716 -0.046022594

actor.2.weight f4 [128, 128]
00000000: 3767 06bd 0acb 2fbd 4844 be3d 5a48 2cbd
00000010: 9729 eb3d 3c04 2bbd c74a a73d d484 b03d
00000020: 3f2d 4fbd 8284 8fbd 1cad 69bd 0ec2 bf3c
00000030: 6ec4 5bbc 19db 3d3d 3e74 4bbc 2a7d aa3d
00000040: 4822 09bd be91 6bbd ad42 d1bd 6c24 c9bc
00000050: 1a50 4cbc a43e f8bc 72c1 f93c 6752 803c
00000060: 1961 a63d 241d 853d d02d 0dbd d99c c6bd
00000070: e817 273d c6be 56ba 79d4 a9bd 32b4 d6bd
00000080: b4ca 21bc ae96 74bd c3aa c4bd 4c40 ab3c
00000090: 266c 59bc d886 aebb 4480 a1bb 45f4 293b
000000a0: 9286 debd e0ce a73c e4d8 893d 78ca 9f3d
000000b0: eef0 dfbc c2b9 82bd 1c1a b7bc 6876 963c
000000c0: d6d2 ccbc cc4b e4bb bbcd 9abd e7b7 88bd
000000d0: 1778 1d3d f59e d93c 94ab ca3d 5333 d2bc
000000e0: 9599 b43d 77e6 97bc dfad ed3d b528 6b3d
000000f0: 6dbb ed3c 3d0a 063e 3d7d f83c 0fd7 e1bd
00000100: 596c 953d acfe f5bd bd28 033e 9157 8d3d
00000110: 9b19 8cbd 0296 dabc 9461 8c3d 43f4 463c
00000120: 1fa1 b1bd f946 10be 40e5 c33d bb50 fe3c
00000130: 19f9 4abc 3299 cbbd ade0 ae3d 471c 2a3d
00000140: ecb9 4ebb 051f c83d 611e 2abd 3014 793d
00000150: 59c9 d4bb 4a0a 633d 8803 9d3d 9ef8 0d3d
00000160: fe12 43bd b4f8 f63b daf9 e03d ef17 c23c
00000170: d6a3 bf3d db4a 09bc 9642 eabc a033 debc
00000180: 79e0 fabd 88b4 7d3c 190a af3c ee75 86bd
00000190: 31ad ef3b 48ad 03be b08b 2ebd 6b82 afbb
000001a0: c937 323c 5477 27bd 01ea f13b e245 91bd
000001b0: 8ad4 3e3d ee34 c1b9 c74a a63d 2d49 c3bd
000001c0: fb6f cdbc 3e04 4ebc 2550 9c3c 18f6 4bbd
000001d0: 1c28 f03c 1b60 b43b 90d4 8fbd 2b24 8e3d
000001e0: b78a 193c 8fa2 863d b948 bebd 75f6 63bc
000001f0: a667 debd df44 1abd 38d9 c13c 54bc 393d
00000200: 01fd 8b3c c14c b53d d02f eabb 6146 85bd
00000210: faad 68bd 7b0d 38bd b88f 05be 3020 133d
00000220: 9dd3 22bd f6c4 1c3d d2e0 20bd ac73 cbbc
00000230: 58be 403d edce e73d f59b b83b 32d2 47bd
00000240: d34c 6a3c 78e3 443d 9cb2 b9bc f98b aebd
00000250: 81f7 d13a 1238 30bb d39f 9e3c 437c 64ba
00000260: e060 12bc f265 cd3d 2984 acbd f9d0 edbd
00000270: fc5d bfb9 81d9 863c a544 e2bc d64c 00bd
00000280: f76c 2db9 d311 833d b666 abbd 853d c63d
00000290: a543 45bc 29ce f23c f708 6abc b557 e9bb
000002a0: 2c76 aa3b d6c5 133d 71b5 0bbe 9b44 7c3c
000002b0: 2c40 033d 7b5a aebd 5db1 febd 65dd 0fbd
000002c0: d671 81bd 8a69 733b d341 b73c 6690 8d3d
000002d0: deba c63d 63ff f33c 7717 87bc 9d7d adbd
000002e0: b777 e0bc bcba dd3d 8a88 203d 8f66 94bc
000002f0: 64fe 74bd 4d18 313c 2fb6 c2bd b4c1 83bd
00000300: 2627 55bd 9cb9 05bd c694 7e3c d377 24bd
00000310: 3a05 fc3c b66d 8fbd 6e03 d13b 7ef3 303c
00000320: ee20 af3c e88a 203d c0a3 06bd a6a3 af3d
00000330: 4d13 57ba 2075 113b 4df0 08bd 4706 c1bb
00000340: e32a ed3d 98c0 0bbc 433c 193e 8139 8e3c
00000350: 7126 3c3d 1dfb 11bd 5e9c 29bb 3eee 58bd
00000360: 3ff9 243d 2458 533d 15a2 a23d 3d43 0d3d
00000370: 0d56 09bd a3a2 59bd ca95 a7bd 3f87 8cbc
00000380: 802a 58bd 2f46 61bc 114e 97bd 798f afbd
00000390: 7df4 613c c98b 693c 2f0e bd3b 8f84 f1bb
000003a0: 52a2 933d 2e42 813d 9dd9 c43d d188 6dbd
000003b0: 0aaa 463c eedd 06bd 9904 8a3c 47d3 d8bc
000003c0: faae 9f3d 184e 723b caf1 923d 512f 9a3d
000003d0: ea4f 303d 4c78 043d de4f 473b b121 103c
000003e0: 783b 02bd 5a3b b8bc c336 83bd 3354 7c3d
000003f0: 27e9 ba3d 9ed3 d3bd d62d 24bd 5c20 ddbc
-0.032813277 -0.042918243 0.09290367 -0.042061187 0.11482542 -0.041752085 0.081685595 0.08619085
-0.05058026 -0.07007696 -0.057049856 0.023407962 -0.013413532 0.046351526 -0.012417851 0.083246544
-0.03347996 -0.057512037 -0.102177955 -0.0245535 -0.01247027 -0.030303307 0.03048775 0.015664292
0.08123989 0.06499699 -0.03446752 -0.09697885 0.040794283 -0.00081918796 -0.08292479 -0.10483588
-0.009874988 -0.05971401 -0.09602883 0.020904683 -0.0132704135 -0.005326133 -0.0049286205 0.002593295
-0.10865511 0.020484388 0.06730822 0.0780229 -0.027336564 -0.06383087 -0.022351317 0.018367007
-0.025002878 -0.0069670435 -0.07558771 -0.066757016 0.038444605 0.026565054 0.09896007 -0.025659239
0.08818356 -0.018542511 0.11605429 0.057411868 0.029020036 0.13089843 0.030333156 -0.11027347
0.07296056 -0.120114654 0.12808509 0.069014676 -0.06840821 -0.026682857 0.06854549 0.0121431975
-0.086733095 -0.14089574 0.0956521 0.031044355 -0.012388491 -0.09941329 0.08538947 0.041530874
-0.0031543924 0.097715415 -0.041532878 0.060810268 -0.006493729 0.055429734 0.07666689 0.034660928
-0.047625534 0.007536972 0.109851554 0.023693053 0.09357421 -0.008379663 -0.028596204 -0.027124226
-0.12249846 0.015484937 0.02136712 -0.06565462 0.007314347 -0.1285907 -0.042613685 -0.005356123
0.010877558 -0.040885285 0.007382632 -0.07093407 0.04658941 -0.00036851264 0.081197314 -0.095354415
-0.02507781 -0.012574254 0.019081185 -0.04979524 0.029316 0.0055046207 -0.07022965 0.06940492
0.009371451 0.06573974 -0.092912145 -0.01391374 -0.10859613 -0.037663337 0.023663148 0.04534562
0.017088415 0.0885253 -0.007146813 -0.06507564 -0.056806542 -0.04493473 -0.13043106 0.03591937
-0.03975259 0.038273774 -0.039276905 -0.02483543 0.047056526 0.11318765 0.005633826 -0.048784442
0.014300543 0.048068494 -0.022668175 -0.085227914 0.0016019196 -0.002688889 0.01936332 -0.0008716026
-0.00893423 0.1002921 -0.08423645 -0.11612124 -0.00036500383 0.016461136 -0.027620623 -0.031323276
-0.00016539158 0.06399884 -0.083692 0.09679703 -0.0120400535 0.02963932 -0.014284364 -0.007121051
0.0052020755 0.036077343 -0.13643433 0.015397216 0.03204362 -0.085133515 -0.12436173 -0.035123248
-0.063205406 0.0037141764 0.022370255 0.069123074 0.09703611 0.029784864 -0.016490681 -0.084712245
-0.027400834 0.108266324 0.039192714 -0.01811531 -0.05981292 0.010809016 -0.09507405 -0.0643343
-0.052039288 -0.032647714 0.0155384 -0.040153336 0.030764211 -0.070033476 0.0063785827 0.010800241
0.021378007 0.03919497 -0.032871008 0.08576135 -0.0008204475 0.0022195056 -0.033432294 -0.005890641
0.115804456 -0.008529805 0.14964394 0.017361404 0.045935098 -0.03563987 -0.0025880556 -0.05296158
0.040276762 0.05159773 0.07941071 0.03448795 -0.03352933 -0.053133618 -0.08182867 -0.017154334
-0.052774906 -0.013749643 -0.07387937 -0.08572287 0.013791201 0.014254519 0.005769513 -0.0073705385
0.072086945 0.06311451 0.09611819 -0.057991806 0.012125501 -0.032926492 0.016847895 -0.026467932
0.07797046 0.0036972817 0.07175024 0.07528556 0.043044962 0.032341287 0.0030412595 0.008797095
-0.031794995 -0.022489239 -0.06406929 0.061603736 0.091265015 -0.10343097 -0.040082775 -0.02699297

actor.2.bias f4 [128]
00000000: d3c5 073d c7c8 30bd 6896 cd3d 019f 12bd
00000010: 6b88 a2bd b73d 2a3c 2e38 2c3c 2a96 38bc
00000020: 8973 30bd 6b9e 3abd 796f 5c3d 3c9f 823d
00000030: eb35 6dbd a674 8e3d fddc 843d d0a9 2d3d
00000040: ce1d 4dbd 6bdf 32bd 3720 61bd 4d21 18bd
00000050: 9439 21bd efe6 28bb 6b36 b8bc ec4a bdbd
00000060: 62df 38bd 9c22 60bd 7caa a7bd 4abb 1e3d
00000070: 9439 58bd 3c93 933d bf1b 45bd 908c c53c
00000080: 8056 0f3d 8791 733c 328e 693d ecfe 8ebd
00000090: d375 b5bd df47 9e3d b8be 873c abf3 8bbd
000000a0: d829 27bc 6052 ff3c 52ba c53d af97 3bbd
000000b0: 9e45 893c dee4 2fbd 2a88 b2bd bf78 abbc
000000c0: 50db de3c e320 803d 8628 953d dfb8 303d
000000d0: 7fab ecbc 66bf bbbc ef6f e9bc 50ca a0bc
000000e0: 9578 b53c 2556 91bd cff2 443d d1b1 05bd
000000f0: 9a17 12bc 8be3 8d3d 59ff 983d c327 cc3d
00000100: 1ecf 37bd 60cb 5c3d 76b3 b83d 92a3 aebd
00000110: e5ec 12bd 9ee3 12bd ab14 003c da1d eebd
00000120: d2ca 10bd b260 abbd 97a7 3ebc 41bf a7bb
00000130: a355 e63d cbc5 9dbd b54e c5bd a9b1 6c3d
00000140: c5ff a5bc e9b8 94bd 93b1 02bd fe51 48bc
00000150: b0f4 3bbd 9982 37bd 7883 2abd 5be9 203c
00000160: b0b1 0b3c fd75 9a3d 24f5 a33c b6b5 aebd
00000170: 7957 1db9 72ae e5bc cdab 9a3d d080 b43c
00000180: cbc3 87bd 42cc 8fbd 206d bdbd 882a 79bd
00000190: c545 97bd 7839 4a3c e0d2 3d3d 531f 4fbd
000001a0: e247 8dbd 9c2a 153d 0627 aebc ed06 ad3d
000001b0: 0d2d 9bbd 428d 99bc 0833 9e3d ed41 0abd
000001c0: 52fe 883d 602e 93bd f485 9cb9 0783 de3d
000001d0: c963 1abd cda3 bcba e9e2 a6bd 6311 2ebd
000001e0: 0897 9637 350e 94bd 1e71 b93d c41c 6abd
000001f0: 3123 95bd c31c f6bc 8adc 76bd 15d4 c1bd
0.033147644 -0.043160226 0.10038453 -0.03579617 -0.07936176 0.0103906905 0.010511441 -0.011266271
-0.043078933 -0.045561235 0.053817246 0.06378028 -0.05791275 0.06955843 0.06487463 0.042398274
-0.050077252 -0.0436701 -0.054962363 -0.037141133 -0.03936155 -0.0025772413 -0.022486886 -0.09242806
-0.04513491 -0.054720506 -0.08186814 0.03875283 -0.052789286 0.07205817 -0.048122164 0.024114877
0.034994602 0.014866239 0.057020374 -0.06982216 -0.08860364 0.07728552 0.016570434 -0.06833585
-0.010202847 0.03116721 0.096546784 -0.045798954 0.016756829 -0.042942874 -0.087173775 -0.0209316
0.027204186 0.06256273 0.0728312 0.043145057 -0.02889037 -0.022918414 -0.028495757 -0.01962772
0.022152225 -0.07096509 0.048083123 -0.032640282 -0.00891676 0.06928166 0.07470579 0.099685214
-0.044875257 0.05390489 0.090186045 -0.08527292 -0.03587045 -0.035861604 0.007817428 -0.116267875
-0.035349675 -0.083680525 -0.011636636 -0.005119235 0.11246803 -0.07703742 -0.09634153 0.057786617
-0.020263562 -0.07261831 -0.03190763 -0.01222658 -0.04588765 -0.044802282 -0.041629285 0.009821261
0.008526251 0.07542036 0.020014353 -0.08530752 -0.00015005273 -0.028037284 0.075523 0.022034079
-0.066291414 -0.07021381 -0.092493296 -0.060831577 -0.07386354 0.012342803 0.046343684 -0.050566982
-0.06898476 0.03641759 -0.021258842 0.084485866 -0.07576952 -0.018744115 0.07724577 -0.033754278
0.06689133 -0.0718658 -0.00029854442 0.10864835 -0.03769282 -0.0014392078 -0.081487484 -0.04249705
1.7951723e-05 -0.07229272 0.090547785 -0.05715634 -0.07282103 -0.030043012 -0.060268916 -0.094642796

actor.4.weight f4 [25, 128]
00000000: 6449 03bc e9b6 8abd 73f3 c4bd a081 92bc
00000010: 7a5d 1e3a aba3 0bbd 71c3 9d3b 0243 91bd
00000020: 6f89 063d 57ea dd3c 436d 42bb 02a3 b13c
00000030: 20cd d73b 80f1 963d 776e 3b3c b250 dabb
00000040: 84de ae3b 8fdc 833d eb9a ce3c 39aa aa3d
00000050: 5bef b7bc 5e1f 973b f1f5 36bc a964 b53d
00000060: a81a 9c3c 5cd0 1dbd 0593 91bd ee05 2dbd
00000070: c332 ec3c 8a0e d1bc d5ee 223d 7841 74bd
00000080: e0f1 893d 34b2 ac3d a7b4 573d bdf8 823d
00000090: b6b5 8b3d 3642 0bbb 4497 6ebc 661c d9bd
000000a0: 7eff b63d a593 afbd 696f aabd 3f61 003d
000000b0: 1540 943d 98a9 91bd b26b c93d 65ef 923b
000000c0: 3589 c03c 0afc 8dbd a3d0 523d 5369 8bbd
000000d0: 9bb5 b6bd e070 2d3d 298c c03d 881d 9b3d
000000e0: 0ef2 c3bd b4cc b9bc deab a2bd 249f 8ebc
000000f0: 1f75 5fbd a06c 143d 68fa 373c b43c 94bd
00000100: f9c9 803c 5a0d 26bd 55e6 0abd d0f8 923d
00000110: 8037 3bbd 33fb 853b af82 343d ab83 e13d
00000120: 1802 fbbc 0629 0a3b fbaf dc3b 66af 683d
00000130: 9427 823d 15e7 8d3c 60d7 65bc b162 52bd
00000140: 5d9a a03c ad1f 99bd 6b67 2c3d 25ae 39bd
00000150: b7ab 11bd 7c7a 153d 0b24 9bbd 7335 213d
00000160: 6ebb 52bd 9316 e0bd 8991 923b 00ce 50bc
00000170: cfd7 ae3c b5c7 4c3c 1b65 a6bd b1d6 dbbd
00000180: d30e b43c d28a de3c 4ac6 bdbd 6565 4a3d
00000190: 2784 ff3c 8266 f5bc 7235 383d e050 d8bb
000001a0: 58f0 763d d0a7 6c3c fca9 a43d 0a1b 083c
000001b0: 13ac 353d 9309 28bd 77b8 173d 423d ca3d
000001c0: 43ac 243d 8c14 743d 6e14 d5bc dc63 04be
000001d0: cf16 c4bc f595 90bd ffc7 943d cf52 20bc
000001e0: 4c13 6abd 5d02 893b d864 dcbd 684b 7f3d
000001f0: 91ac 9b3d 427e f2bc 0bbb 363d b73c 183c
00000200: c157 9b3d 6e52 7fbd 2557 3cbd 6435 b8bd
00000210: 070c 51bb fce3 5cbd 4ab0 6bbd 7099 903c
00000220: bc97 3bbd b2e1 9639 d0b3 773d f219 8e3d
00000230: e33c ce3b 29e9 fabd 807b 49bd 8888 99bd
00000240: 75e8 1a3d 14e7 70bb c87b 4c3d 7bce 783d
00000250: 9d17 b53d 089e 573d 41a5 9f3c 0ce2 8f3d
00000260: 1266 963c fabf 043d a2c6 e93d a03e 153c
00000270: 1892 6d3d 3e6b 1ebd 6843 943d 03c0 a5bc
00000280: 7eb5 02bd c7db 9bbd a454 9cbd e6fc 0a3d
00000290: a0bf a33b fb78 dabd 17b5 97bb 761f 11bc
000002a0: 8b69 b23d c258 143d 52d0 973d 6d19 2e3b
000002b0: 8bf3 f03b 0dc4 cdbb 0c58 a2bd eaa2 193d
000002c0: 260a 1abd c25c 5dba d9a8 443d b8f4 07bd
000002d0: 69dd debc 0c95 853d 6df7 97bd 3145 943d
000002e0: bfc9 88bd ff29 413d 7905 fcbc a331 12bd
000002f0: 1e48 d3bc 1430 9b3c 3d9c 0cbd 3db3 8c3c
00000300: 7e75 c7bd b123 a63d 8b95 1cbd 78b3 853c
00000310: bcc8 cebb a7e2 a4bd c6d4 ac3d 3481 7ebd
00000320: cefa d7bc 7491 c3bd 36fc b43d 7495 34bc
00000330: 5ad5 b9bd b3fd 573d d39a 3f3c d9b9 2a3b
00000340: 04c7 b3bd cf10 ad3c 6bef 8b3c 4c8e fbbc
00000350: 58e2 693d d5cf aa3d b8cf a9bd 0aa8 79bd
00000360: 758b b13d f91e 8ebd 4d5e 1abd edff 563d
00000370: 6b69 a0bd 5765 68bd 6c0f d6bd 64af 66bb
00000380: b7e8 c43d 03c2 8f3c 0fa2 a0bc a084 bf3c
00000390: e413 aabd 9b76 933d eda0 f9bb c9da 333d
000003a0: 6bfd 85bd d03f 7b3c 5419 8f3d cb73 bb3d
000003b0: 463e 833d 2b8d 313d e8fd 80bd 66c0 29bd
000003c0: 9057 a03c c041 13bc 89c4 583c 1ad8 883c
000003d0: 3d40 fa3d 83f4 90bb c0b8 c23d a1a2 de3c
000003e0: b3e9 0d3c a114 0abb 2266 12bd d0fe 6e3d
000003f0: 7b03 423d eb1e 63bd 1be1 273d 29ac 4bbd
-0.008013103 -0.067731686 -0.09616747 -0.017884076 0.0006041151 -0.034091633 0.004814558 -0.07092859
0.03284591 0.027089281 -0.0029667176 0.021684173 0.006585732 0.07370281 0.011439911 -0.0066624517
0.0053365845 0.064385526 0.025220355 0.08333249 -0.022453 0.0046118936 -0.011167035 0.0885709
0.01905568 -0.038528785 -0.0710812 -0.042241983 0.028832799 -0.025519628 0.03977855 -0.05963275
0.06735587 0.08432427 0.052662518 0.06395099 0.06821768 -0.0021249182 -0.014562432 -0.1060112
0.0893545 -0.08573083 -0.08322031 0.03134274 0.07238785 -0.071124256 0.098349944 0.0044841045
0.023502925 -0.06932838 0.051468503 -0.068071984 -0.08921357 0.042343974 0.094017334 0.07573992
-0.09567653 -0.022680618 -0.07942937 -0.017409869 -0.054555055 0.036236405 0.011229135 -0.07238141
0.015721308 -0.040540077 -0.033911068 0.071763635 -0.045707226 0.004088783 0.044069942 0.11011442
-0.030640647 0.002108158 0.0067348457 0.056807898 0.06355205 0.017322103 -0.0140284 -0.05136365
0.019604856 -0.07476745 0.042090815 -0.045332093 -0.03556415 0.036493763 -0.07575234 0.039357614
-0.051448278 -0.10941806 0.0044729155 -0.012744427 0.02134314 0.012498786 -0.08124753 -0.107343085
0.021979725 0.027165804 -0.09266336 0.049413104 0.031190945 -0.029956106 0.044972844 -0.006601438
0.060287803 0.0144443065 0.080402344 0.008307228 0.044353556 -0.041024756 0.037041154 0.09874965
0.040203344 0.059589908 -0.026010718 -0.12928718 -0.023936657 -0.07059852 0.07264709 -0.009785368
-0.05714731 0.00418119 -0.10761422 0.062327772 0.07601274 -0.02960122 0.04461197 0.009291819
0.07585097 -0.06233447 -0.045981545 -0.089945585 -0.0031898038 -0.05392836 -0.05754117 0.01765129
-0.045799002 0.00028778386 0.060474217 0.069385424 0.0062938794 -0.12251503 -0.049190044 -0.074967444
0.037819345 -0.0036758827 0.049922734 0.06074379 0.088423945 0.052640945 0.019487979 0.07025537
0.018359218 0.032409646 0.11414839 0.009109169 0.058000654 -0.038676493 0.07239419 -0.02023316
-0.031911366 -0.076102786 -0.076333314 0.03393259 0.0049972087 -0.106676064 -0.004629742 -0.0088575985
0.08711537 0.03621746 0.07412781 0.0026565448 0.0073532513 -0.0062794746 -0.0792695 0.037508883
-0.037607335 -0.0008444303 0.04801259 -0.033192366 -0.027205186 0.06522569 -0.074202396 0.0723976
-0.06679105 0.04715919 -0.030764328 -0.03569187 -0.025791224 0.018943824 -0.034328688 0.017175311
-0.09739207 0.08112276 -0.038228553 0.016320929 -0.0063105505 -0.08051043 0.08439021 -0.062134936
-0.02636471 -0.09549227 0.08837168 -0.0110219605 -0.09073897 0.05273218 0.011694628 0.0026050715
-0.087781936 0.021126179 0.017081937 -0.0307075 0.057100624 0.08340422 -0.08291572 -0.06095127
0.086691774 -0.06939501 -0.03768759 0.052490164 -0.07832607 -0.05673727 -0.1045216 -0.0035199756
0.09614699 0.017548567 -0.019608526 0.02337867 -0.08304575 0.072003566 -0.007618061 0.04390982
-0.06542476 0.015335038 0.06987253 0.09152945 0.06408362 0.04334752 -0.06298429 -0.04144325
0.019573003 -0.008987844 0.013230451 0.016704608 0.12219284 -0.0044236793 0.095078945 0.027177157
0.008661675 -0.0021069425 -0.035741933 0.058348477 0.0473666 -0.055449408 0.04098616 -0.04972473

actor.4.bias f4 [25]
00000000: 44b2 9fbc 1d35 243d 10b8 70bd 1915 9f3c
00000010: 3d0c 0bbd 5d1c 993d c0c9 643d 2921 dcbb
00000020: 5c07 37bd cdcd adbc f3d8 643d 0c44 713c
00000030: 71cc b0bc 7b2d aa3d ff51 543c de93 483c
00000040: 548b 753d ebc7 a7bd 90e7 9b3d e273 c73b
00000050: f5b0 b03d 2a3d 873c 3a84 63bd fb29 013d
00000060: 9c11 253d
-0.019494183 0.040089715 -0.058769286 0.01941924 -0.03394722 0.07476113 0.055856466 -0.00671782
-0.044684753 -0.021216298 0.05587096 0.014725696 -0.02158186 0.08309456 0.0129590025 0.012242286
0.059947327 -0.08192428 0.076125264 0.0060868124 0.08627502 0.016508657 -0.055546023 0.031534176
0.040299997
