unused/multi_ppo_algorithm/checkpoints/ppo_critic_lumberjacks.pth (torch, 92510 bytes, 5 tensors)

critic.0.weight f4 [128, 44]
0.11902985 -0.10567614 0.06801064 -0.020138867 0.007383465 0.017040793 0.12778315 0.07948447
0.1114108 -0.11322854 -0.040973928 -0.1103735 -0.013824246 0.00073828 -0.099780336 0.09011156
0.06783942 -0.05244838 0.069384485 0.015183784 0.119032286 -0.02459101 0.09372525 -0.04070693
0.013759419 -0.034729462 0.009564055 0.029998317 -0.03157926 0.012948512 -0.05228595 -0.006938424
-0.006026438 0.06703685 0.05364152 -0.00150787 -0.09126332 -0.052104726 0.07324062 0.029445834
0.015915904 0.06400639 -0.002154537 -0.058971323 0.11498038 0.001558186 -0.03946468 0.06481565
0.0637899 0.016813422 -4.2480002e-05 0.09693259 -0.08100802 0.05839037 0.06670801 0.054139175
-0.005601717 0.014494857 -0.035366718 -0.012769531 -0.03095746 0.016157033 0.04878992 -0.014872477
-0.020578142 0.0049239155 -0.11791715 -0.032633286 -0.006184495 -0.051815175 -0.09126392 0.040021904
0.03992009 -0.0009502303 0.053135477 0.014218519 -0.07113629 -0.021555508 0.06622075 -0.001294998
0.027044596 -0.050335534 -0.03217605 0.03384015 -0.106239624 -0.051440913 0.032463435 0.028580058
0.07012756 -0.0678222 0.054664753 0.09674531 -0.022465978 -0.053248 0.040633183 -0.02451519
-0.10424504 0.11226049 -0.044457667 0.05703129 -0.08994697 0.009780274 0.028873034 -0.0017172436
0.016898958 -0.02821438 0.08003122 -0.060182508 -0.07821789 0.0380518 -0.006625534 0.07633353
-0.0060409205 -0.08686486 -0.06390432 0.054823305 0.07744407 0.05071748 -0.04487705 0.022811105
-0.04353801 0.0001493117 0.13949676 0.043788634 0.040706776 0.04148742 0.03036065 0.0368398
-0.027417153 -0.04296387 0.11872277 -0.03679399 -0.1461029 0.062351126 -0.014534613 0.009305207
0.12120904 0.00084051053 0.070566244 -0.08796648 -0.13541482 -0.020881416 0.044981536 0.07294774
0.10880428 -0.06257329 -0.019208653 -0.012585367 0.032367527 -0.015846772 -0.031649195 0.033207823
-0.139399 0.036630865 -0.07087337 0.035799332 0.05209363 0.08819145 0.055765048 0.042559426
0.047306165 0.063047394 -0.003480793 -0.050094184 0.027309095 -0.059242986 -0.010660153 0.027651487
0.051299673 0.032097336 -0.08968047 0.004955045 0.067607 0.0003730051 -0.06939323 -0.022441817
-0.11730993 -0.041757386 -0.014663719 0.053919118 -0.057016 -0.040117808 0.10701631 0.13324799
0.06091507 -0.02316384 0.07965903 0.007827121 -0.14345244 -0.0025590255 -0.020088507 -0.017494455
-0.09293641 0.02880026 0.0659711 -0.079379745 0.044444233 -0.011748399 0.087904036 -0.08129632
-0.021563826 0.07263619 0.08868459 0.024272075 -0.029923227 0.038232546 0.05387454 0.028747445
-0.044600513 -0.003270863 -0.10104495 0.018423928 -0.019537771 -0.02083022 -0.04398972 0.02987351
0.02158138 -0.051613912 -0.057930484 -0.053030208 -0.07948556 0.057367615 0.031869907 -0.03504888
0.076252416 0.12215809 0.08777255 0.0015770899 0.0029604698 0.059821174 0.09790783 0.045689292
-0.0002512475 -0.04616851 -0.04877865 0.020008769 -0.02185324 0.03949457 0.017293701 0.05716664
0.044716742 -0.007495167 -0.060283933 0.10650094 0.020185983 -0.023561059 0.105999805 -0.079288155
0.15420763 0.04644753 0.092285365 -0.001416173 0.077851444 0.05983502 -0.0029595296 -0.02372616
00000000: ecc5 f33d bb6c d8bd 2a49 8b3d 44fa a4bc
00000010: fef0 f13b 2299 8b3c 96d9 023e c1c8 a23d
00000020: 582b e43d 5de4 e7bd 47d4 27bd 800b e2bd
00000030: 177f 62bc 2289 413a a259 ccbd 698c b83d
00000040: 65ef 8a3d 1dd4 56bd 7419 8e3d 68c5 783c
00000050: 33c7 f33d 1673 c9bc 06f3 bf3d 4fbc 26bd
00000060: 306f 613c 7b40 0ebd 8eb2 1c3c 08bf f53c
00000070: 4159 01bd ff25 543c cb29 56bd b85b e3bb
00000080: 6d79 c5bb 9e4a 893d 36b7 5b3d b9a3 c5ba
00000090: 43e8 babd c46b 55bd 2eff 953d 6438 f13c
000000a0: 1262 823c c815 833d 2233 0dbb ea8b 71bd
000000b0: d57a eb3d 0c3c cc3a b7a5 21bd 11be 843d
000000c0: 47a4 823d 4dbc 893c 8e2c 32b8 9884 c63d
000000d0: 88e7 a5bd be2a 6f3d 369e 883d 0ac1 5d3d
000000e0: 9c8e b7bb d67b 6d3c b1dc 10bd 4c37 51bc
000000f0: 809a fdbc c15b 843c f0d7 473d b1ab 73bc
00000100: 7e93 a8bc cc58 a13b 8c7e f1bd 7baa 05bd
00000110: 4ea7 cabb 263c 54bd 94e8 babd 02ee 233d
00000120: 4083 233d e018 79ba 96a4 593d cbf4 683c
00000130: e7af 91bd 2d95 b0bc bf9e 873d ecbc a9ba
00000140: a18c dd3c a22c 4ebd 09cb 03bd f89b 0a3d
00000150: 2994 d9bd b5b3 52bd 61f8 043d ba20 ea3c
00000160: 0a9f 8f3d 5ee6 8abd 26e8 5f3d 6822 c63d
00000170: 920a b8bc 931a 5abd fb6e 263d 14d4 c8bc
00000180: 6c7e d5bd d4e8 e53d 3e19 36bd a499 693d
00000190: 1e36 b8bd 713d 203c 2487 ec3c 2215 e1ba
000001a0: af6f 8a3c d821 e7bc 69e7 a33d ef81 76bd
000001b0: b330 a0bd 34dc 1b3d 021b d9bb c154 9c3d
000001c0: eaf2 c5bb 34e6 b1bd 45e0 82bd 678e 603d
000001d0: ff9a 9e3d 22bd 4f3d ffd0 37bd 5bde ba3c
000001e0: ea54 32bd 8e90 1c39 3dd8 0e3e b65b 333d
000001f0: 26bc 263d b7ee 293d e6b6 f83c 55e5 163d
00000200: f099 e0bc e2fa 2fbd ec24 f33d 4bb5 16bd
00000210: 009c 15be e563 7f3d 9622 6ebc de74 183c
00000220: 723c f83d b555 5c3a 0985 903d c527 b4bd
00000230: 2faa 0abe 810f abbc 8f3e 383d a065 953d
00000240: c7d4 de3d 6d26 80bd 775b 9dbc db32 4ebc
00000250: d093 043d 17d1 81bc 96a2 01bd ed04 083d
00000260: 9dbe 0ebe 3f0a 163d 0f26 91bd 52a2 123d
00000270: 2160 553d b89d b43d e469 643d cb52 2e3d
00000280: 1cc4 413d fe1e 813d 041e 64bb 8f2f 4dbd
00000290: 53b7 df3c c6a8 72bd eca7 2ebc 5f85 e23c
000002a0: 9b1f 523d 7f78 033d 65aa b7bd ee5d a23b
000002b0: 8a75 8a3d e68f c339 0a1e 8ebd e7d7 b7bc
000002c0: 3040 f0bd cb09 2bbd 1840 70bc 4bda 5c3d
000002d0: 9c89 69bd 9252 24bd 5e2b db3d 2972 083e
000002e0: 1582 793d 18c2 bdbc 4624 a33d 533d 003c
000002f0: 32e5 12be 53b5 27bb a790 a4bc 8850 8fbc
00000300: 7255 bebd 86ee eb3c db1b 873d d991 a2bd
00000310: 280b 363d 5b7c 40bc 0807 b43d af7e a6bd
00000320: 9fa6 b0bc 48c2 943d 44a0 b53d 3bd6 c63c
00000330: 8e21 f5bc bb99 1c3d 8dab 5c3d c37f eb3c
00000340: 07af 36bd fa5b 56bb a8f0 cebd c7ed 963c
00000350: ad0d a0bc 23a4 aabc 912e 34bd 4bb9 f43c
00000360: 6fcb b03c 1c69 53bd 8448 6dbd 3436 59bd
00000370: 53c9 a2bd 4efa 6a3d 058a 023d 6a8f 0fbd
00000380: 3a2a 9c3d 052e fa3d 18c2 b33d 5bb6 ce3a
00000390: 7104 423b 0c07 753d e683 c83d b224 3b3d
000003a0: deb9 83b9 311b 3dbd 1fcc 47bd 6ee9 a33c
000003b0: 9105 b3bc 0fc5 213d 85ab 8d3c 9127 6a3d
000003c0: e728 373d 059a f5bb 49ec 76bd 2a1d da3d
000003d0: 135d a53c 1f03 c1bc 6d16 d93d d461 a2bd
000003e0: 9be8 1d3e c43f 3e3d 1c00 bd3d e19e b9ba
000003f0: 9470 9f3d 9115 753d abf4 41bb 5d5d c2bc

critic.0.bias f4 [128]
-0.04316298 0.051066663 -0.10507078 -0.07347581 0.122153446 -0.0617304 -0.0770818 0.060767025
0.09618322 -0.018617773 -0.000708468 0.067255296 0.03656869 0.008938468 -0.009322799 -0.09758923
-0.05389452 -0.12951946 0.07373335 0.0065247156 0.00057026563 0.012646403 -0.061627887 0.04963895
-0.053174194 -0.040551677 0.09813584 0.08772209 -0.1136081 -0.022476798 0.03045715 -0.038164724
-0.010316579 0.034741506 -0.058322385 0.002697479 -0.060436327 0.05673505 -0.0060073063 -0.078398615
0.113479346 0.07990065 -0.072195455 0.013244213 -0.07802689 0.05850679 0.06335556 0.09811709
-0.05811857 -0.047070403 0.064887784 -0.084252894 -0.016805297 0.060538348 0.032383084 -0.08166992
0.10202906 -0.11286269 -0.13693047 0.07125697 0.089354716 -0.059217684 0.11093915 -0.068414
0.03259305 -0.02661361 0.08306794 -0.04430063 0.08879457 -0.047133297 -0.025882032 0.061714616
0.0389511 0.066274665 0.044927105 -0.063048005 -0.0112292655 -0.11936515 0.0030655956 0.12234397
0.044374786 -0.04674301 -0.06553359 0.08018512 -0.05347099 -0.102129094 0.06730018 0.03785134
0.036977116 -0.082973324 -0.08450752 0.046643823 -0.12605906 -0.05631231 0.034748305 0.096294194
0.10298254 0.09008403 0.06407854 -0.08161177 0.12151376 -0.051240694 -0.019252673 0.025305558
0.10080637 -0.13895293 -0.078676604 -0.13494943 0.06282642 -0.042296413 -0.056077026 0.04496752
-0.00036956533 -0.0116888825 -0.054903336 -0.0669168 -0.09761883 -0.10623482 0.10070696 -0.10196211
0.025279678 -0.09096573 -0.049754854 0.010699828 -0.04844857 0.084978 0.09800424 -0.115179196
00000000: aacb 30bd 472b 513d 592f d7bd 7c7a 96bd
00000010: 962b fa3d 04d9 7cbd 10dd 9dbd d8e6 783d
00000020: b5fb c43d 4d84 98bc 7cb8 39ba 25bd 893d
00000030: 0dc9 153d a772 123c a7be 18bc dddc c7bd
00000040: 80c0 5cbd c0a0 04be 8301 973d 48cd d53b
00000050: e17d 153a dc32 4f3c 866d 7cbd 3652 4b3d
00000060: 2fcd 59bd 8419 26bd 71fb c83d a4a7 b33d
00000070: 5dab e8bd 4321 b8bc 4681 f93c 9d52 1cbd
00000080: de06 29bc 1c4d 0e3d 74e3 6ebd 30c8 303b
00000090: 158c 77bd 0363 683d f0d8 c4bb 748f a0bd
000000a0: dc67 e83d f4a2 a33d 36db 93bd 41fe 583c
000000b0: 90cc 9fbd d1a4 6f3d 8fc0 813d 9df1 c83d
000000c0: bd0d 6ebd e5cc 40bd e3e3 843d c88c acbd
000000d0: 43ab 89bc 0ff7 773d 20a4 043d 8f42 a7bd
000000e0: 9df4 d03d 8e24 e7bd 8037 0cbe 2def 913d
000000f0: 9bff b63d 3e8e 72bd 1134 e33d a41c 8cbd
00000100: 4a80 053d c904 dabc 861f aa3d 9474 35bd
00000110: edd9 b53d d80e 41bd 8e06 d4bc 77c8 7c3d
00000120: 308b 1f3d 03bb 873d 7c05 383d 501f 81bd
00000130: f4fa 37bc b775 f4bd 29e8 483b 7a8f fa3d
00000140: 56c2 353d 9975 3fbd 7a36 86bd 1938 a43d
00000150: 6604 5bbd 0f29 d1bd add4 893d 020a 1b3d
00000160: 5175 173d ebed a9bd 4712 adbd 980d 3f3d
00000170: a015 01be bda7 66bd 3d54 0e3d e435 c53d
00000180: 83e8 d23d fa7d b83d 9c3b 833d 1224 a7bd
00000190: 35dc f83d c3e1 51bd c8b7 9dbc 9a4d cf3c
000001a0: 9273 ce3d ad49 0ebe 3321 a1bd 2f30 0abe
000001b0: 23ab 803d 013f 2dbd 06b1 65bd dd2f 383d
000001c0: 38c2 c1b9 ba82 3fbc 52e2 60bd ad0b 89bd
000001d0: 62ec c7bd a491 d9bd 733f ce3d 83d1 d0bd
000001e0: 5417 cf3c 3e4c babd bfcb 4bbd 554e 2f3c
000001f0: 0272 46bd f208 ae3d 72b6 c83d 12e3 ebbd

critic.2.weight f4 [128, 128]
0.029168932 0.018272892 0.027377183 0.05469295 -0.0057967375 0.030988248 0.09385107 0.041147828
0.04788104 0.03507195 0.0022601788 0.018706799 -0.04906142 0.001233738 -0.025724571 -0.034598406
0.03737997 0.0078001753 0.012780889 0.021166263 0.027329 0.022673165 -0.012417481 -0.030499885
0.019378113 -0.035515428 -0.029359065 0.057461493 -0.005499817 -0.017395644 -0.041105364 0.030328538
-0.09157908 0.027434412 -0.05065496 0.08564169 0.04580012 -0.009159635 -0.013700237 0.0028271049
0.060423333 -0.08359247 0.016145432 0.068003416 0.04905373 -0.042820156 0.06290388 0.07727941
0.05591201 -0.048883166 0.06439647 0.055306975 0.0118197035 -0.015198774 -0.047190327 -0.011086779
0.043481518 0.077750646 0.017799372 -0.04135321 -0.007277645 0.014155943 -0.055227563 -0.038287718
0.00093335804 0.053876184 0.0077097877 0.04247214 0.065964125 -0.044437557 0.03179001 -0.06941777
0.091563605 -0.052108206 -0.017644348 0.06003132 0.045033105 -0.016120987 0.03984627 -0.07145862
0.020841254 0.05526933 0.022256196 -0.047968373 0.05977635 -0.04323295 0.038281336 -0.028207732
0.058264207 -0.076457806 -0.015157372 -0.08837634 0.0073513454 0.014145062 -0.015134849 0.003198987
-0.031106448 0.025557578 -0.043775044 0.001162223 0.0108061945 -0.040902894 0.03589691 -0.06707599
0.023963213 0.04501969 0.034630336 -0.057114575 0.04605831 0.05701905 -0.086623736 -0.033155777
-0.049676973 0.09301016 -0.02170483 -0.048890445 0.055875264 -0.036632296 0.022815892 0.034376368
-0.012874858 0.04754013 0.029030615 0.06834472 -0.008626668 -0.0014652757 -0.005792618 -0.05716799
-0.051443633 0.07783398 -0.014273891 0.038984865 -0.032758508 0.043802794 -0.103532106 0.04670021
-0.024675956 0.05893133 -0.08076367 -0.00800409 -0.04606217 -0.04995994 0.030133115 0.008609906
-0.078992635 0.042946793 -0.016245428 0.020194892 0.039381653 0.048922844 0.031175846 -0.051498797
0.024524327 0.06561884 0.059061166 0.026744315 0.047433175 -0.008650369 0.037063237 0.030530097
0.011040445 0.06125118 0.0002946373 -0.031518232 -0.027728777 0.017212126 -0.04671916 -0.021471657
-0.03831005 0.09188126 0.00782524 -0.004830538 -0.027612548 -0.03116703 -0.03391229 -0.06367125
-0.049618132 -0.067582846 0.013753807 -0.01275818 0.022691641 -0.024598558 -0.04472276 -0.10902763
0.02379973 0.03509308 -0.06646619 0.03367544 0.022032352 -0.03506685 0.0024109283 -0.002947055
0.0021291017 -0.065203376 -0.057440743 -0.03949841 0.017395962 0.03483643 -0.070543244 0.02832111
0.008554773 0.08545013 0.004277591 0.012606003 0.080394804 0.030567171 -0.03200067 -0.019649332
0.0102251535 -0.059919048 0.0074422876 -0.041843213 0.03871609 -0.018786531 0.079907715 -0.006044879
0.039015505 0.056600023 -0.010482704 0.030237706 0.053339604 -0.023506358 0.039432228 0.039157767
-0.02903206 -0.043396074 0.022679318 0.051062066 0.004801733 -0.012219594 -0.027625952 0.045760874
-0.017417531 0.024070507 0.034084857 -0.004102181 -0.063876286 -0.022265928 -0.09000648 -0.0032043871
-0.071222186 -0.040212635 0.010941381 0.03292209 0.018537467 -0.039067727 0.011330326 -0.01032496
-0.032876536 0.03969619 0.0231473 -0.022447292 0.010833179 0.074430056 0.0017015134 0.02034226
00000000: aff3 ee3c 08b1 953c 1d46 e03c b705 603d
00000010: 8ff2 bdbb 11db fd3c fd34 c03d a08a 283d
00000020: e91e 443d 9ba7 0f3d 821f 143b 003f 993c
00000030: a1f4 48bd 61b5 a13a 56bc d2bc 0fb7 0dbd
00000040: bd1b 193d 9d98 ff3b ef66 513c df64 ad3c
00000050: 11e1 df3c 13bd b93c b172 4bbc e5da f9bc
00000060: d9be 9e3c a078 11bd 6c82 f0bc be5c 6b3d
00000070: cf37 b4bb 4f81 8ebc 195e 28bd 8e73 f83c
00000080: d08d bbbd 22be e03c 937b 4fbd e964 af3d
00000090: e898 3b3d 4b12 16bc f576 60bc f346 393b
000000a0: 757e 773d 8732 abbd 6d43 843c 6045 8b3d
000000b0: 90ec 483d 3064 2fbd c0d3 803d ab44 9e3d
000000c0: fe03 653d b739 48bd 4ce2 833d 9189 623d
000000d0: 6ea7 413c 4704 79bc a54a 41bd 52a5 35bc
000000e0: ad19 323d bb3b 9f3d fdcf 913c fc61 29bd
000000f0: 5079 eebb 54ee 673c 4c36 62bd 95d3 1cbd
00000100: 99ac 743a 46ad 5c3d 63a2 fc3b 44f7 2d3d
00000110: 3318 873d 2804 36bd 3e36 023d e72a 8ebd
00000120: b385 bb3d 6a6f 55bd e18a 90bc 67e3 753d
00000130: a274 383d 2910 84bc d835 233d e658 92bd
00000140: 47bb aa3c 1862 623d a052 b63c 7c7a 44bd
00000150: 0cd8 743d 0915 31bd e4cc 1c3d e713 e7bc
00000160: 73a6 6e3d e995 9cbd a056 78bc a8fe b4bd
00000170: 8ee3 f03b b1c0 673c 28f8 77bc 19a6 513b
00000180: f3d2 febc 205e d13c 764d 33bd bc55 983a
00000190: 770c 313c cb89 27bd a308 133d 235f 89bd
000001a0: 804e c43c 9166 383d 8ad8 0d3d f9f0 69bd
000001b0: a3a7 3c3d cf8c 693d c967 b1bd 5ace 07bd
000001c0: 157a 4bbd 1c7c be3d 54ce b1bc 5941 48bd
000001d0: 76dd 643d bf0b 16bd 65e8 ba3c 3cce 0c3d
000001e0: 12f1 52bc 70b9 423d 9dd1 ed3c 51f8 8b3d
000001f0: de56 0dbc 7e0e c0ba 00d0 bdbb fb28 6abd
00000200: 8fb6 52bd 6c67 9f3d 0add 69bc 98ae 1f3d
00000210: c92d 06bd 8f6a 333d a408 d4bd b848 3f3d
00000220: 3b25 cabc fa61 713d 6c67 a5bd 9623 03bc
00000230: b0ab 3cbd cba2 4cbd b9d9 f63c 9010 0d3c
00000240: e4c6 a1bd fae8 2f3d 2215 85bc c26f a53c
00000250: a84e 213d 5263 483d 7d64 ff3c 67f0 52bd
00000260: 3ee7 c83c 2c63 863d 1fea 713d e516 db3c
00000270: 4a49 423d 47ba 0dbc 9fcf 173d 411a fa3c
00000280: fce2 343c 84e2 7a3d 8d79 9a39 4319 01bd
00000290: 7627 e3bc 7200 8d3c 975c 3fbd 54e5 afbc
000002a0: 00eb 1cbd 3e2c bc3d 6f35 003c 7d49 9ebb
000002b0: b633 e2bc 0052 ffbc 9de7 0abd 1366 82bd
000002c0: 623c 4bbd e068 8abd a657 613c af07 51bc
000002d0: d2e3 b93c ea82 c9bc 362f 37bd e149 dfbd
000002e0: a7f7 c23c c3bd 0f3d 6d1f 88bd 42ef 093d
000002f0: 317d b43c 42a2 0fbd aa00 1e3b 6123 41bb
00000300: 6688 0b3b 5989 85bd fc46 6bbd 16c9 21bd
00000310: fa81 8e3c a5b0 0e3d fa78 90bd ac01 e83c
00000320: 5229 0c3c 7a00 af3d 092b 8c3b 6989 4e3c
00000330: 08a6 a43d 0168 fa3c 2213 03bd a3f7 a0bc
00000340: 6787 273c ad6d 75bd 6fde f33b ca63 2bbd
00000350: c394 1e3d 36e6 99bc a8a6 a33d 1f14 c6bb
00000360: b9ce 1f3d 6dd5 673d a6bf 2bbc 11b5 f73c
00000370: a17a 5a3d 6890 c0bc b083 213d e563 203d
00000380: a5d4 edbc 15c0 31bd fac9 b93c 7526 513d
00000390: db57 9d3b b134 48bc d24f e2bc c16f 3b3d
000003a0: 36af 8ebc 832f c53c 909c 0b3d 976b 86bb
000003b0: 92d1 82bd 0967 b6bc 5155 b8bd b200 52bb
000003c0: f0dc 91bd 01b6 24bd 7a43 333c 50d9 063d
000003d0: e3db 973c 7b05 20bd d5a2 393c 052a 29bc
000003e0: 8ca9 06bd 7998 223d 689f bd3c 62e3 b7bc
000003f0: a57d 313c c96e 983d 5105 df3a d0a4 a63c

critic.2.bias f4 [128]
-0.00077280257 0.00044178296 0.00016630419 -0.0011677598 -0.0019004501 -0.06154795 0.039133143 0.008398913
-0.005582391 -0.0011528389 0.001984512 0.048704486 0.08012457 -0.0036613636 -0.03962853 0.051898196
0.0026586673 -0.032626476 0.071051285 2.356766e-05 0.065686606 0.0033744478 0.0058933827 -0.072627656
-0.006052556 0.0003358244 -0.0009189391 0.005582094 0.0050708074 -0.0693045 -0.0121767605 0.056437973
-0.029781982 -0.043472406 -0.00010115545 -0.062216345 -0.0024176459 0.06533543 7.76079e-05 -0.0049665375
-0.07153967 -0.00075754506 0.054609343 0.0026676243 -0.0018766054 0.01198395 -0.006949753 0.0020321466
-0.0020045124 -0.005905782 0.0021634302 0.050631322 0.002770956 -0.04180996 0.062960826 0.0029315047
0.0056870207 -0.004969191 0.037554488 0.006804029 0.043303594 0.0005966373 0.001786575 0.0063568
-0.011130244 -0.06754827 0.0018264618 0.0030166006 0.06799729 -0.018595858 0.0013039947 0.07947332
0.07716851 0.077242 -0.0039083366 -0.0018794421 -0.03683062 -0.07137405 0.051255096 0.0014560984
-0.07557938 0.000109234694 0.056577355 -0.0019152224 0.0022460923 -0.07920567 -0.018467579 -0.0037003565
-0.054651476 -0.00019289427 -0.0033122061 -0.07529048 0.0023448488 0.0013247983 0.0012841083 0.06393231
-0.044087794 -0.0627156 -0.0017883095 0.0039065504 -0.04454589 0.0067732725 -0.007642729 -0.008004824
0.000667118 0.028002737 -0.013101119 -0.0071927933 0.042616513 -0.0036621855 -0.0038565532 -0.0030411424
-0.07156341 -0.009043748 -0.0021065709 0.0005563055 0.026189204 -0.0002687275 -0.058020934 -0.0036772275
-0.05785742 -0.00467547 0.035378963 -0.003917742 0.0362975 0.0009027387 5.0051574e-05 0.0012002125
00000000: e795 4aba 1b9f e739 f161 2e39 840f 99ba
00000010: 8618 f9ba b419 7cbd 134a 203d 989b 093c
00000020: 7dec b6bb db1a 97ba 960e 023b 5b7e 473d
00000030: 5a18 a43d 7df3 6fbb 8751 22bd 3493 543d
00000040: 093d 2e3b 57a3 05bd 5683 913d 2ab3 c537
00000050: b386 863d d725 5d3b 471d c13b cfbd 94bd
00000060: 8554 c6bb 9711 b039 f6e4 70ba 00ea b63b
00000070: 0429 a63b 85ef 8dbd 0981 47bc 812b 673d
00000080: 58f9 f3bc 1f10 32bd 6b23 d4b8 91d6 7ebd
00000090: 5e71 1ebb 95ce 853d 6dc1 a238 56be a2bb
000000a0: 6483 92bd fd95 46ba 0cae 5f3d 4fd3 2e3b
000000b0: 6ef8 f5ba 5458 443c c1ba e3bb c32d 053b
000000c0: 235e 03bb 4a85 c1bb 56c8 0d3b ca62 4f3d
000000d0: ed98 353b ec40 2bbd 9bf1 803d 7d1e 403b
000000e0: 305a ba3b 98d4 a2bb bcd2 193d 55f4 de3b
000000f0: 1c5f 313d a767 1c3a 822b ea3a b44c d03b
00000100: a05b 36bc bf56 8abd e365 ef3a 29b2 453b
00000110: 2a42 8b3d 5756 98bc cdea aa3a e8c2 a23d
00000120: 860a 9e3d 0e31 9e3d 8111 80bb 9d57 f6ba
00000130: b4db 16bd 8f2c 92bd ddf0 513d 8eda be3a
00000140: 5dc9 9abd ee14 e538 a8bd 673d 3308 fbba
00000150: 2d33 133b 9536 a2bd 5249 97bc ae81 72bb
00000160: 3ada 5fbd a943 4ab9 9911 59bb e531 9abd
00000170: 09ac 193b dba4 ad3a 864f a83a f1ee 823d
00000180: 6795 34bd 0971 80bd b665 eaba 8502 803b
00000190: c075 36bd 54f2 dd3b dc6f fabb aa26 03bc
000001a0: 88e1 2e3a ff65 e53c 13a6 56bc 86b1 ebbb
000001b0: a78e 2e3d 4701 70bb 3abe 7cbb e74d 47bb
000001c0: d68f 92bd 3a2c 14bc 650e 0abb 08d5 113a
000001d0: be8a d63c ffe3 8cb9 5ca7 6dbd a4fd 70bb
000001e0: e7fb 6cbd af34 99bb 88e9 103d 6760 80bb
000001f0: b0ac 143d c5a5 6c3a 78ee 5138 7350 9d3a

critic.4.weight f4 [1, 128]
-0.0010336604 0.00099241 -0.0007823881 0.0005031366 0.00046894638 -0.036625624 -0.015433184 0.00020057702
0.0001214135 -0.00029862527 -0.0009014653 -0.036745798 0.029561756 0.0010645832 -0.015499557 0.0149475485
-4.400379e-05 -0.010850703 -0.009225814 -0.0006613493 -0.045059714 -0.0010086377 0.0005161044 -0.022744602
3.05294e-05 -0.00060784025 0.0011479912 0.00014827336 4.2841508e-05 0.027796015 -0.0005404564 -0.0051213945
-0.021633608 0.0014433921 -0.00034812617 -0.00723316 0.001122792 0.029833954 -0.0010574475 0.00039756735
-0.012288402 0.00020281112 -0.023730528 -0.0005688642 -0.0007915393 -0.00071408594 0.0010555123 -0.0001587023
-0.0007889466 0.00073143217 -0.00021936875 -0.0053054895 0.0010352834 -0.012783445 -0.017779062 0.000424365
-0.00010228781 -0.00021479819 0.026555838 -0.0006645211 -0.00045970164 -0.0011667049 0.0018337178 0.0011070715
0.00058772165 -0.008598819 0.00022997022 -0.00033908032 -0.0062173773 -0.010210969 -0.00029191776 -0.04693577
-0.03344479 -0.05107052 -0.0016995284 -0.00023170488 0.006044258 0.04449466 0.033915732 -0.00039264193
-0.037326656 0.001583304 -0.011119347 0.0019478461 0.0004381826 0.042601984 0.010433419 0.00041849294
-0.04875856 -0.00047484878 0.00048179468 0.040914197 -0.00050556485 -0.00016255872 0.00032047956 -0.0063065295
0.036445487 -0.020412548 0.00068361516 0.0018388247 0.030309143 -0.0012725419 -0.00096477894 0.00089072785
-0.00030803683 0.0032823018 0.0005748171 4.7602716e-06 0.034416772 -0.0007469029 -0.0010104522 0.0007043922
-0.016151685 0.0007670666 0.000662454 -8.494139e-05 -0.016840987 0.00041233285 -0.047967542 -0.00021090776
-0.020806825 0.0008054768 -0.0034378918 -2.114609e-05 0.013682396 0.0008077539 0.0002228743 0.00027091563
00000000: e37b 87ba c113 823a 2d19 4dba ede4 033a
00000010: ebdc f539 c004 16bd 77db 7cbc fc51 5239
00000020: 609f fe38 ce90 9cb9 5050 6cba c382 16bd
00000030: 7f2b f23c 7c89 8b3a dbf1 7dbc 90e6 743c
00000040: b690 38b8 26c7 31bc de27 17bc 665e 2dba
00000050: 8990 38bd 4434 84ba 2e4b 073a e352 babc
00000060: b20c 0038 7857 1fba 3178 963a d479 1b39
00000070: b8b0 3338 78b4 e33c 6aad 0dba 5fd1 a7bb
00000080: f738 b1bc 3430 bd3a b484 b6b9 2504 edbb
00000090: a62a 933a 5666 f43c 0d9a 8aba 9670 d039
000000a0: 4b55 49bc b2a9 5439 8666 c2bc d51f 15ba
000000b0: 4e7f 4fba 7f31 3bba 1e59 8a3a 5369 26b9
000000c0: 4fd1 4eba 95bd 3f3a 5a06 66b9 acd9 adbb
000000d0: 59b2 873a a871 51bc 65a5 91bc 4e7d de39
000000e0: 5a83 d6b8 733b 61b9 a18b d93c 4233 2eba
000000f0: 1c04 f1b9 1fec 98ba 5c59 f03a 281b 913a
00000100: 5511 1a3a 10e2 0cbc 2924 7139 97c6 b1b9
00000110: 24bb cbbb e84b 27bc 8a0c 99b9 b93f 40bd
00000120: 67fd 08bd 522f 51bd b6c2 deba cef5 72b9
00000130: e90e c63b 0840 363d 39eb 0a3d 82db cdb9
00000140: d6e3 18bd de86 cf3a ec2d 36bc df4e ff3a
00000150: dfbb e539 6b7f 2e3d eef0 2a3c 2c69 db39
00000160: 0eb7 47bd 20f5 f8b9 6399 fc39 a595 273d
00000170: e287 04ba 8674 2ab9 0a06 a839 01a7 cebb
00000180: dd47 153d 3738 a7bc a334 333a b804 f13a
00000190: e14a f83c 6ccb a6ba 38e9 7cba bc7f 693a
000001a0: 0180 a1b9 e31b 573b 53af 163a 6cba 9f36
000001b0: 9af8 0c3d cecb 43ba 2671 84ba f6a6 383a
000001c0: 8a50 84bc f814 493a 89a8 2d3a 9022 b2b8
000001d0: 1cf6 89bc 612e d839 9d79 44bd 1f27 5db9
000001e0: 1373 aabc a226 533a 414e 61bb e262 b1b7
000001f0: 212c 603c 72bf 533a 5db3 6939 ae09 8e39
