ippo_algorithm_belief/checkpoints/ppo_critic_None_lumberjacks.pth (torch, 163824 bytes, 7 tensors)

critic.0.weight f4 [128, 53]
0.049884997 -0.0632065 -0.0059795324 -0.14055476 -0.07172819 -0.07910866 -0.120711714 -0.0026302035
-0.14144655 -0.046640918 -0.01723087 -0.09217012 0.10674101 -0.05054335 0.061727975 -0.016836183
-0.089972615 0.07905597 -0.009508419 -0.08480661 -0.031804588 0.07451346 0.12750164 -0.02845985
-0.096452855 0.020791318 0.12478398 0.12115317 -0.18452545 0.08920217 -0.07531887 -0.034065787
-0.106398 -0.021104017 -0.11767782 -0.09996948 -0.13617079 -0.14376517 -0.17811231 -0.1172657
-0.1249943 -0.035871994 0.064767 -0.037750136 -0.057602312 -0.05743069 -0.010726367 -0.16749963
-0.07259647 -0.1608969 0.08435852 -0.18029714 -0.0571181 0.027920155 0.03795082 -0.057630736
0.025966575 -0.088801436 -0.18092735 -0.13073741 -0.059387475 -0.10239982 0.030686343 -0.20590489
-0.21019451 0.00718105 -0.21381226 -0.002296835 -0.005073645 -0.046234142 0.060316753 0.039871026
-0.063996024 -0.063200824 -0.013953829 0.099205054 0.035214808 -0.037549276 -0.1373335 0.06974757
0.024534447 -0.06062881 -0.18588148 -0.061715428 -0.04263986 -0.047717035 -0.07223841 0.018902328
0.022873472 -0.15206794 0.084612146 -0.06612589 0.05258838 0.08515518 -0.0013797964 -0.08923765
0.11587258 0.008973151 -0.18961428 0.083104976 0.08162822 0.10840683 -0.1009223 0.047254965
-0.15306969 -0.06815474 -0.023661464 0.05642198 0.13566715 0.15602425 -0.007229404 0.11692516
0.052407514 0.00743881 0.14286585 -0.008005792 0.18662211 0.11477933 -0.06559195 -0.02451462
0.050271917 0.15936546 0.007988838 0.08152808 0.08525153 0.1525504 0.042330522 0.0017881098
-0.18864493 0.029955314 -0.13694994 0.04950831 -0.22589372 -0.20429716 -0.09810205 0.076501705
0.04999846 -0.024871238 0.13161118 0.11360229 0.13775802 0.11792555 -0.098141536 -0.04619715
-0.06465016 -0.079621874 -0.011150013 -0.013554249 0.11267898 -0.031979676 0.10735606 -0.025848595
0.12295568 -0.06417648 0.1382117 0.008489934 -0.055479586 0.07192139 -0.09591058 -0.03843219
0.082826145 -0.030936219 0.10102573 0.097057946 0.02151441 0.009508311 0.1263105 0.14591658
0.14573704 0.03561282 -0.04592063 -0.03842615 0.11255572 0.13504946 0.04251998 0.16134629
0.016698636 -0.07874983 0.103772685 -0.05223237 -0.05369555 -0.124632336 0.066224106 -0.09689197
-0.052190073 -0.21105714 -0.18218845 0.14384557 0.022758262 0.32298982 -0.12523322 0.06165911
0.07396978 -0.09127699 0.05776411 -0.1277615 -0.015245488 0.030861827 -0.06959892 0.031348787
0.15391132 -0.038237624 0.08811597 0.08292723 0.011065001 0.121147245 0.13863437 0.14415678
0.10605837 0.004478463 0.101220414 -0.09741543 -0.11712249 -0.068655156 0.013245237 0.05981457
0.00072417 0.05109488 0.13174622 0.16918042 -0.07617385 0.044817556 0.060409542 -0.012941351
-0.040132284 0.024040062 -0.11791836 -0.13280933 -0.10067485 -0.10181318 0.0076130596 -0.10297445
-0.058454644 0.0960301 -0.1095861 0.025760736 -0.015779993 -0.20201199 -0.1421672 -0.17013094
0.08906084 0.1428201 0.224697 0.12989506 0.15566249 -0.072643906 0.053299345 0.13441595
0.05761596 0.021776801 -0.098132536 0.14885162 0.067281425 0.2066237 0.07784587 -0.06779148
00000000: 3654 4c3d 6972 81bd f4ef c3bb 96ed 0fbe
00000010: 3be6 92bd b903 a2bd b437 f7bd 7e5f 2cbb
00000020: 5dd7 10be 8c0a 3fbd c127 8dbc b0c3 bcbd
00000030: 089b da3d 8b06 4fbd 79d6 7c3d 09ec 89bc
00000040: 9043 b8bd 19e8 a13d 33c9 1bbc 17af adbd
00000050: 8745 02bd 839a 983d ca8f 023e a224 e9bc
00000060: 1389 c5bd 8e52 aa3c be8e ff3d 271f f83d
00000070: 3df4 3cbe a1af b63d c840 9abd 9188 0bbd
00000080: 32e7 d9bd 55e2 acbc 1201 f1bd ccbc ccbd
00000090: 5b70 0bbe 2d37 13be 1363 36be 0029 f0bd
000000a0: 03fd ffbd 83ee 12bd 90a4 843d e39f 1abd
000000b0: 67f0 6bbd 713c 6bbd a5bd 2fbc 0685 2bbe
000000c0: 75ad 94bd 28c2 24be 29c4 ac3d d09f 38be
000000d0: abf4 69bd cfb8 e43c 5272 1b3d 350e 6cbd
000000e0: dbb7 d43c 87dd b5bd 0545 39be 07e0 05be
000000f0: 4840 73bd ffb6 d1bd ed61 fb3c bbd8 52be
00000100: 3b3d 57be 034f eb3b 9af1 5abe 7f86 16bb
00000110: d240 a6bb 0360 3dbd b30e 773d cd4f 233d
00000120: 5910 83bd 6f6f 81bd 9a9e 64bc 052c cb3d
00000130: 673d 103d 45cd 19bd 27a1 0cbe d0d7 8e3d
00000140: 77fc c83c ea55 78bd b757 3ebe 51c9 7cbd
00000150: 22a7 2ebd f072 43bd bbf1 93bd 0ed9 9a3c
00000160: 2661 bb3c b3b7 1bbe 2249 ad3d 036d 87bd
00000170: ea66 573d d765 ae3d 49da b4ba 3bc2 b6bd
00000180: 9a4e ed3d 2004 133c 3f2a 42be f132 aa3d
00000190: b22c a73d 6604 de3d 5ab0 cebd 6c8e 413d
000001a0: 4dbe 1cbe b694 8bbd b0d5 c1bc bc1a 673d
000001b0: 54ec 0a3e d2c4 1f3e a3e4 ecbb 7576 ef3d
000001c0: 43a9 563d 43c1 f33b 6d4b 123e ba2a 03bc
000001d0: de19 3f3e 6d11 eb3d 1355 86bd e2d2 c8bc
000001e0: ede9 4d3d b330 233e 9de3 023c 32f8 a63d
000001f0: 5b98 ae3d 2c36 1c3e c562 2d3d 025f ea3a
00000200: 232c 41be d964 f53c 9b3c 0cbe 3ac9 4a3d
00000210: af50 67be 4633 51be bae9 c8bd edac 9c3d
00000220: 2fcb 4c3d c4be cbbc 15c5 063e 51a8 e83d
00000230: 7010 0d3e f382 f13d 6efe c8bd 3939 3dbd
00000240: 4e67 84bd cb10 a3bd 8bae 36bc a412 5ebc
00000250: 3dc4 e63d 1ffd 02bd 7edd db3d 6fc0 d3bc
00000260: 30d0 fb3d f56e 83bd 5e87 0d3e 5d19 0b3c
00000270: 903e 63bd 864b 933d c46c c4bd 126b 1dbd
00000280: c1a0 a93d f46d fdbc 94e6 ce3d 51c6 c63d
00000290: fd3e b03c bfc8 1b3c 8a57 013e 286b 153e
000002a0: 173c 153e c0de 113d 4517 3cbd bd64 1dbd
000002b0: 9d83 e63d 684a 0a3e 6e29 2e3d f637 253e
000002c0: 94cb 883c 9747 a1bd c686 d43d 9cf1 55bd
000002d0: ddef 5bbd 3d3f ffbd 81a0 873d 4c6f c6bd
000002e0: 42c5 55bd 5d1f 58be 9c8f 3abe 414c 133e
000002f0: 896f ba3c ec5e a53e 233d 00be 438e 7c3d
00000300: 787d 973d 6eef babd 0f9a 6c3d e9d3 02be
00000310: 36c8 79bc f1d1 fc3c e189 8ebd 9667 003d
00000320: ee9a 1d3e 0e9f 1cbd 2576 b43d c0d5 a93d
00000330: fa49 353c 0c1c f83d 2bf6 0d3e d69d 133e
00000340: 2135 d93d 12c0 923b a64c cf3d be81 c7bd
00000350: ebdd efbd 139b 8cbd 8d02 593c 1f00 753d
00000360: 3ad6 3d3a dd48 513d 7be8 063e a23d 2d3e
00000370: 0901 9cbd 9d92 373d ff6f 773d f607 54bc
00000380: c061 24bd aaef c43c 2e7f f1bd 2bff 07be
00000390: 9e2e cebd 6e83 d0bd f976 f93b 45e4 d2bd
000003a0: 236e 6fbd 6eab c43d ad6e e0bd 2e08 d33c
000003b0: 0b45 81bc 3bdc 4ebe 4794 11be ce36 2ebe
000003c0: 8865 b63d 6f3f 123e f816 663e 3603 053e
000003d0: fd65 1f3e 54c6 94bd 6a50 5a3d 56a4 093e
000003e0: b6fe 6b3d 4365 b23c b6f9 c8bd 8f6c 183e
000003f0: d8ca 893d 2a95 533e a86d 9f3d 42d6 8abd

critic.0.bias f4 [128]
0.064174175 -0.16972266 0.17018051 0.044133283 -0.121828504 0.08826492 0.060338285 -0.004959441
-0.03415579 0.12358957 0.082065456 0.02570193 -0.094226845 0.10158294 0.08763916 0.15310918
-0.13830073 -0.07797597 0.060603578 -0.15835059 -0.07258767 0.055976517 -0.02851853 -0.10451468
0.04600953 0.017316697 -0.018975543 0.04687607 0.10818431 0.009336451 0.10696121 -0.077219404
0.05556169 -0.021990372 -0.07196862 -0.059788518 0.116338536 0.07901917 -0.077434644 0.10136289
0.0880933 -0.14245753 0.14251713 -0.044845533 0.062414043 0.13839273 -0.09246355 0.059011865
-0.07040823 0.09022772 -0.032009926 0.064352036 -0.11720035 -0.04446061 -0.040873792 -0.11219081
-0.08053484 -0.12127347 -0.02641976 -0.007638713 -0.017205356 -0.084655665 0.11878486 -0.021644767
-0.14993575 0.016996937 -0.05097186 0.14360768 -0.0056472104 0.019915488 -0.006267998 -0.04729025
-0.061057176 -0.092231184 -0.014989041 0.09741805 0.13837846 0.04902395 0.023141732 -0.09499802
0.12874694 -0.035964783 -0.094335526 0.110902615 -0.0012544343 0.012343477 0.015334672 0.08625195
0.0014687618 -0.13554601 0.022650497 -0.11218763 0.10988032 -0.057264764 -0.043398786 0.13060836
0.034161195 -0.052063882 -0.014040879 0.041793793 0.022020139 0.09818254 -0.04994415 -0.053058583
0.16448452 -0.09127086 0.13343038 -0.05188764 -0.13998716 -0.009799659 0.060998168 -0.15002447
-0.04673876 -0.06724101 -0.016045803 -0.15879388 -0.04953164 -0.019922994 0.10010395 -0.10192698
0.11258569 0.1021755 -0.048781686 0.067134425 -0.09843399 0.07008772 -0.06109804 -0.05250261
00000000: c06d 833d c7cb 2dbe cd43 2e3e 1ac5 343d
00000010: 3981 f9bd 3dc4 b43d 4725 773d ce82 a2bb
00000020: f1e6 0bbd 871c fd3d ef11 a83d db8c d23c
00000030: 01fa c0bd b70a d03d 297c b33d a7c8 1c3e
00000040: b59e 0dbe deb1 9fbd 753b 783d a826 22be
00000050: d8a8 94bd a247 653d b19f e9bc cb0b d6bd
00000060: 7d74 3c3d bfdb 8d3c 9972 9bbc 1f01 403d
00000070: bc8f dd3d eaf7 183c 7b0e db3d 3525 9ebd
00000080: a894 633d 2725 b4bc 4964 93bd cee4 74bd
00000090: e642 ee3d cdd4 a13d 0e96 9ebd 5997 cf3d
000000a0: 436a b43d 63e0 11be 03f0 113e f3af 37bd
000000b0: dea5 7f3d d3b6 0d3e 885d bdbd 6db6 713d
000000c0: 3132 90bd 50c9 b83d d71c 03bd 00cb 833d
000000d0: bd06 f0bd 541c 36bd 476b 27bd 4cc4 e5bd
000000e0: 73ef a4bd 3a5e f8bd 416e d8bc 2b4e fabb
000000f0: 3ff2 8cbc f35f adbd 7a45 f33d 5e50 b1bc
00000100: c288 19be 293d 8b3c dec7 50bd e40d 133e
00000110: 3c0c b9bb ce25 a33c c763 cdbb 6cb3 41bd
00000120: 1717 7abd b4e3 bcbd 9894 75bc 1d83 c73d
00000130: 15b3 0d3e 56cd 483d bb93 bd3c 528e c2bd
00000140: 3dd6 033e cf4f 13bd fc32 c1bd e920 e33d
00000150: d56b a4ba 4c3c 4a3c 473e 7b3c dda4 b03d
00000160: 7883 c03a 93cc 0abe 898d b93c a1c2 e5bd
00000170: ef08 e13d 758e 6abd edc2 31bd 33be 053e
00000180: 9cec 0b3d f040 55bd b70b 66bc f82f 2b3d
00000190: 9463 b43c ed13 c93d 3d92 4cbd f553 59bd
000001a0: a16e 283e 37ec babd f9a1 083e 2288 54bd
000001b0: cb58 0fbe c08e 20bc 37d9 793d 04a0 19be
000001c0: 2471 3fbd a8b5 89bd 7d72 83bc dd9a 22be
000001d0: b0e1 4abd 8c35 a3bc 4d03 cd3d 18bf d0bd
000001e0: 5493 e63d 6341 d13d 4ecf 47bd c67d 893d
000001f0: c297 c9bd 278a 8f3d f041 7abd fa0c 57bd

critic.2.weight f4 [128, 128]
-0.021099519 -0.08976736 0.021780508 -0.03579124 0.024190385 -0.13761838 0.039168462 -0.031035544
-0.08857814 0.010995899 -0.21425496 -0.13359253 -0.009922309 -0.03238428 -0.03234039 -0.014295031
0.041810527 -0.019253565 -0.1480457 0.074842714 0.0019434096 0.005284336 -0.03134623 -0.058011323
-0.081805274 0.08721993 0.043491635 0.025580145 0.09528921 -0.09874562 -0.079266734 -0.023980426
0.02771242 -0.07585336 -0.08032163 0.10756691 -0.0712137 -0.10724083 0.016418587 -0.08529208
0.053614154 0.0019930433 0.1485915 -0.021583416 -0.018054068 -0.07129243 -0.035890304 0.083482526
0.14122717 -0.101284 0.10992256 -0.16863449 0.018372243 -0.07607621 0.06856994 0.076891325
-0.059702832 -0.035553366 0.03972084 -0.062638484 0.06352128 -0.015101408 -0.023701021 0.24024756
0.0011403837 -0.011773518 -0.014328672 -0.061897688 -0.108211 -0.13808273 -0.10100049 0.032823328
0.04589437 -0.037403565 -0.17346857 -0.144002 -0.03454388 0.035469543 -0.08052434 0.12001193
-0.057194613 0.04924686 0.0036319315 0.08349249 -0.034508385 0.06621929 0.01034916 0.05257395
-0.09915868 0.15375206 -0.036479693 -0.021372724 0.035396792 0.000685951 0.037485335 0.022656703
-0.07749698 0.097556844 0.030838167 -0.082039185 -0.022306776 -0.025104718 0.01804617 -0.028048972
0.102272265 -0.10465867 0.077279866 -0.024275832 0.026505036 -0.03524468 -0.18736914 -0.043812215
-0.04242534 -0.03962717 0.05118926 0.060779803 -0.012160244 -0.044444896 -0.01219893 -0.06880771
-0.14926481 -0.00258006 0.08351227 -0.18748212 0.01454429 -0.032515936 -0.0128899 -0.03977093
-0.03372535 0.068726376 -0.041208554 0.07920469 -0.031444326 -0.037760757 0.015933506 0.017405331
-0.078907266 0.06265965 -0.07093383 0.0463654 0.06177071 -0.13190879 0.05427784 0.041788854
-0.05922308 -0.014377985 0.05691608 0.050152626 0.014596936 -0.064940766 0.004868347 0.09596072
-0.0155890975 -0.089599915 -0.04815366 0.06788683 -0.09123214 0.074875176 -0.08816356 0.10556318
0.035950128 0.0022928773 -0.075780556 0.07550522 -0.016932443 -0.03469218 -0.04438283 0.012415898
0.00033521507 -0.04103341 0.05820407 -0.02900463 -0.038245637 -0.03837786 0.08511674 0.047671683
-0.024138317 -0.0274436 -0.044386536 0.05719747 0.08112867 0.044619605 0.06538167 -0.021346062
0.020100273 0.04782317 -0.050574105 -0.090015456 -0.0068308553 0.07742744 0.040720515 0.04517227
0.033135746 0.1853089 -0.020105908 0.07703839 -0.009470457 0.050405137 -0.0925103 0.09331224
-0.020636242 0.053423442 -0.0033953004 -0.012746199 -0.035928246 0.012301494 0.022724824 0.072620325
-0.06759669 -0.03790567 0.027879253 0.073712364 0.10622423 -0.028762003 0.14789076 -0.12635723
0.057990186 0.012611413 0.015316995 -0.0050433856 0.040893745 -0.045602262 -0.027282944 -0.056755297
-0.016280716 -0.049025953 -0.023439098 -0.08690143 0.093055114 -0.10184769 0.06488257 0.031755798
0.06933241 0.0113904495 -0.077298604 -0.057278283 0.09000449 0.057819765 0.06760779 0.018352637
-0.04816979 -0.08825452 0.08220123 -0.0012901169 0.014705614 -0.07207379 -0.037637413 0.08068745
0.00665077 -0.008843566 0.10387633 -0.12450359 0.09187178 0.020791756 0.0836069 -0.008242941
00000000: e6d8 acbc f3d7 b7bd 096d b23c d699 12bd
00000010: ea2a c63c d5eb 0cbe 1c6f 203d 413e febc
00000020: 7568 b5bd 2528 343c a765 5bbe 7bcc 08be
00000030: 2e91 22bc 61a5 04bd 5b77 04bd b535 6abc
00000040: 8441 2b3d a7b9 9dbc 4b99 17be 2347 993d
00000050: 01ba fe3a 3928 ad3b e864 00bd 489d 6dbd
00000060: 8689 a7bd 5da0 b23d 4924 323d 748d d13c
00000070: fd26 c33d 253b cabd 9956 a2bd 9972 c4bc
00000080: 2805 e33c 0259 9bbd ab7f a4bd 0a4c dc3d
00000090: 7dd8 91bd 15a1 dbbd 4680 863c 9dad aebd
000000a0: 849a 5b3d b89d 023b 5f28 183e b4cf b0bc
000000b0: 20e6 93bc c401 92bd b601 13bd e3f8 aa3d
000000c0: db9d 103e fc6d cfbd 141f e13d 85ae 2cbe
000000d0: 6381 963c d8cd 9bbd 666e 8c3d 3379 9d3d
000000e0: f58a 74bd 68a0 11bd 52b2 223d 9b48 80bd
000000f0: 7217 823d e56b 77bc a528 c2bc 7503 763e
00000100: ed78 953a b7e5 40bc cec2 6abc 6e88 7dbd
00000110: bb9d ddbd 8f65 0dbe 58d9 cebd c171 063d
00000120: bcfb 3b3d 7b34 19bd bfa1 31be 4375 13be
00000130: e27d 0dbd 8348 113d f2e9 a4bd d1c8 f53d
00000140: e644 6abd 13b7 493d b305 6e3b 1cfe aa3d
00000150: aa58 0dbd fb9d 873d 868f 293c c857 573d
00000160: b513 cbbd 2e71 1d3e bb6b 15bd da15 afbc
00000170: 3afc 103d 64d1 333a 398a 193d 8d9a b93c
00000180: bdb6 9ebd e2cb c73d 53a0 fc3c 2904 a8bd
00000190: b3bc b6bc 69a8 cdbc 90d5 933c f5c6 e5bc
000001a0: 1f74 d13d 4957 d6bd e844 9e3d 1cde c6bc
000001b0: 1721 d93c ba5c 10bd b2dd 3fbe 7074 33bd
000001c0: 31c6 2dbd 1950 22bd d4ab 513d 3ef4 783d
000001d0: c33b 47bc da0b 36bd 05de 47bc 0feb 8cbd
000001e0: e0d8 18be 3916 29bb 7b08 ab3d 50fb 3fbe
000001f0: 2c4b 6e3c 6e2f 05bd 2930 53bc d8e6 22bd
00000200: 9823 0abd 6ac0 8c3d 4dca 28bd 1236 a23d
00000210: c4cb 00bd 06ab 1abd fc86 823c a095 8e3c
00000220: 229a a1bd b453 803d c245 91bd a5e9 3d3d
00000230: 4903 7d3d 1913 07be 7152 5e3d ca2a 2b3d
00000240: e693 72bd a491 6bbc d620 693d d76c 4d3d
00000250: fd27 6f3c aaff 84bd a886 9f3b 0e87 c43d
00000260: 6a69 7fbc 2980 b7bd c63c 45bd 4008 8b3d
00000270: ebd7 babd 2858 993d 198f b4bd 8231 d83d
00000280: 7140 133d 1944 163b d632 9bbd 7ba2 9a3d
00000290: e8b5 8abc 6319 0ebd c5ca 35bd 0d6c 4b3c
000002a0: cebf af39 a612 28bd 6467 6e3d 1e9b edbc
000002b0: 75a7 1cbd 1a32 1dbd af51 ae3d 6243 433d
000002c0: b8bd c5bc 67d1 e0bc a8ce 35bd e547 6a3d
000002d0: ca26 a63d 0cc3 363d d3e6 853d f0dd aebc
000002e0: 54a9 a43c 3ae2 433d cb26 4fbd 065a b8bd
000002f0: 5ed5 dfbb 4792 9e3d 8eca 263d 8f06 393d
00000300: 59b9 073d 9ec1 3d3e 25b5 a4bc 4ec6 9d3d
00000310: fa29 1bbc 9e75 4e3d 0a76 bdbd 7d1a bf3d
00000320: 560d a9bc 8ad2 5a3d b083 5ebb 6fd5 50bc
00000330: 7f29 13bd 358c 493c 6929 ba3c f7b9 943d
00000340: 2270 8abd fa42 1bbd 0863 e43c 82f6 963d
00000350: 178c d93d 4b9e ebbc ad70 173e ca63 01be
00000360: 1e87 6d3d 1aa0 4e3c 22f4 7a3c fc42 a5bb
00000370: 3380 273d 70c9 3abd 7b80 dfbc 3e78 68bd
00000380: 235f 85bc 70cf 48bd 5a03 c0bc 60f9 b1bd
00000390: ae93 be3d 8695 d0bd 27e1 843d 5e12 023d
000003a0: 27fe 8d3d 029f 3a3c bb4e 9ebd a29c 6abd
000003b0: 4654 b83d 6bd4 6c3d f475 8a3d 4558 963c
000003c0: b04d 45bd c9be b4bd 1e59 a83d 2419 a9ba
000003d0: d1ef 703c 6c9b 93bd b029 1abd 763f a53d
000003e0: b4ee d93b 9be4 10bc 1dbd d43d bdfb febd
000003f0: 4627 bc3d 7953 aa3c 183a ab3d 670d 07bc

critic.2.bias f4 [128]
-0.08077809 0.02801409 -0.019294325 0.05901079 -0.068875626 0.021953363 0.043783877 0.056935392
-0.01200442 -0.024024958 -0.0021343608 0.08457912 -0.013701356 0.07755378 0.02651334 0.010072172
0.07913948 0.00096482894 -0.016555322 0.03981637 -0.02392625 -0.06247081 0.00969266 -0.077493615
0.012590876 0.07049786 0.042396888 0.03896245 -0.114571564 0.050128344 -0.04236168 0.10669812
0.07189002 -0.061498262 -0.052952524 0.050537825 0.029022181 0.0633577 0.019520279 0.008007333
-0.063333035 -0.04778067 0.0074665626 -0.06166857 0.10600313 0.095185064 0.022612825 -0.0913234
0.09208684 -0.1111193 -0.077827886 -0.044771485 0.044034775 -0.053337663 0.052986912 -0.004443371
-0.0742171 -0.015701456 -0.00204962 -0.118485354 -0.015983308 0.019273777 -0.04526121 -0.009083959
-0.048190333 -0.019577991 0.059008855 0.035701457 0.0030863746 -0.051877875 0.008900078 0.026938584
-0.06084103 -0.046707712 -0.054615375 -0.055209626 -0.11532799 0.006929364 -0.08840516 0.057379335
0.07062069 -0.10281571 0.00030073422 0.033205107 0.023044234 -0.053709816 0.07640883 0.043654066
-0.023030102 -0.00925156 -0.08208577 -0.011790392 -0.033528168 -0.043969907 0.030817814 0.03354958
-0.0790757 -0.05719175 -0.102547474 0.042076997 -0.065169856 -0.04307523 -0.029564012 -0.051159546
-0.028559174 0.014127091 0.109242044 0.0064851474 -0.055166874 -0.033228595 0.07563514 0.021229167
-0.049307376 -0.036503337 -0.08202665 0.0081775095 0.052568328 0.060505953 -0.0713958 -0.06337845
0.08907846 -0.075146735 -0.01958042 0.0012425897 -0.016944537 -0.061627373 0.023664664 -0.043669082
00000000: fc6e a5bd ce7d e53c 220f 9ebc 4cb5 713d
00000010: aa0e 8dbd 8ad7 b33c b956 333d 1635 693d
00000020: 30ae 44bc fdcf c4bc a2e0 0bbb d137 ad3d
00000030: a77b 60bc 84d4 9e3d 8132 d93c c005 253c
00000040: e113 a23d 93ec 7c3a 079f 87bc 7d16 233d
00000050: fc00 c4bc 64e1 7fbd f6cd 1e3c f9b4 9ebd
00000060: f649 4e3c 2f61 903d 5ca8 2d3d 1797 1f3d
00000070: 7fa4 eabd 6153 4d3d 7183 2dbd 8b84 da3d
00000080: 133b 933d 9ae5 7bbd bfe4 58bd c000 4f3d
00000090: edbf ed3c afc1 813d fee8 9f3c 3031 033c
000000a0: c0b4 81bd aab5 43bd 11aa f43b 2f98 7cbd
000000b0: 2b18 d93d 63f0 c23d 883e b93c c307 bbbd
000000c0: 0698 bc3d 8492 e3bd 3a64 9fbd 4e62 37bd
000000d0: cf5d 343d 9878 5abd ce08 593d b399 91bb
000000e0: 23ff 97bd 57a0 80bc eb52 06bb 73a8 f2bd
000000f0: 6def 82bc 0ae4 9d3c d263 39bd e3d4 14bc
00000100: 3a63 45bd 0662 a0bc 45b3 713d b13b 123d
00000110: c644 4a3b e57d 54bd a2d1 113c 4eae dc3c
00000120: 7234 79bd 9650 3fbd 5fb4 5fbd 7d23 62bd
00000130: 1531 ecbd b80f e33b c40d b5bd 9806 6b3d
00000140: 95a1 903d 0b91 d2bd ddab 9d39 1402 083d
00000150: 43c7 bc3c d3fe 5bbd 3c7c 9c3d 9bce 323d
00000160: a0a9 bcbc db93 17bc 961c a8bd 7d2c 41bc
00000170: d554 09bd ca19 34bd a475 fc3c 496b 093d
00000180: 71f2 a1bd e541 6abd 6904 d2bd ee58 2c3d
00000190: c677 85bd a76f 30bd 3a30 f2bc ac8c 51bd
000001a0: eef4 e9bc 5075 673c 4bba df3d 5c81 d43b
000001b0: a9f6 61bd b51a 08bd 99e6 9a3d cae8 ad3c
000001c0: 88f6 49bd 8684 15bd 97fd a7bd f6fa 053c
000001d0: e351 573d 17d5 773d f637 92bd 90cc 81bd
000001e0: c56e b63d 88e6 99bd 1e67 a0bc 64de a23a
000001f0: 45cf 8abc fc6c 7cbd 66dc c13c 5ade 32bd

critic.4.weight f4 [128, 128]
-0.088838875 0.079043776 -0.10050326 0.0217162 0.05510024 0.06537091 -0.056812223 -0.020123372
-0.111445434 0.016918577 -0.043453585 0.04845683 0.029367875 0.030970288 0.061308928 -0.069347374
-0.016874574 0.04815667 0.059503462 0.023973346 0.014672889 -0.022363305 -0.0003745946 -0.0019556675
0.13603629 -0.044407558 -0.1394567 0.0766976 -0.052058235 -0.051390126 -0.011088203 0.09047555
0.040059544 -0.055116255 0.025411133 -0.055544283 -0.029250419 -0.01486039 -0.016932912 0.048571087
0.03651737 0.038872488 -0.07216704 0.010154029 -0.012924708 -0.035533167 0.056653935 -0.11227415
-0.00095295225 -0.019408882 0.033548728 -0.058045514 0.026453087 -0.019309182 -0.0077305734 -0.102296785
-0.052590538 0.14695987 0.014201474 -0.11391325 0.04298031 0.063950166 -0.10608087 0.034711417
0.020697834 -0.12824918 0.08824264 -0.02133538 -0.108630784 -0.0025385795 0.07273677 0.07914936
0.055933822 0.09524209 0.014418513 -0.11045493 -0.060577855 -0.05464746 -0.094559915 -0.048756067
0.048285425 0.021819955 -0.014671444 -0.08605209 0.11136466 -0.07198844 0.093000375 0.08673067
0.043667868 0.028349515 -0.12160971 -0.02630403 0.0069294227 -0.08782389 0.047702555 -0.09583301
-0.057529885 -0.08824257 0.02307464 0.10704675 -0.0004212174 -0.0927959 0.064568624 -0.008063672
-0.038104776 -0.018927392 -0.04546401 0.13626431 0.03958169 0.03386667 0.059007782 0.129129
0.01998772 -0.015345148 -0.009716339 0.11293993 0.032023348 0.025099626 0.016596364 -0.06519708
-0.04505299 -0.11736707 0.034859132 -0.105765276 -0.013936083 0.017623808 0.031041509 -0.100505106
-0.027146058 -0.018844346 -0.05905245 -0.08780296 -0.019865714 -0.0026180027 -0.08445751 -0.063407086
-0.06831328 0.019655935 -0.018163916 -0.053998075 -0.061000373 -0.06912485 -0.008870325 0.056839462
-0.07786245 0.09272295 0.024599908 -0.046010002 -0.045938715 0.03211102 -0.01988769 -0.04092923
0.054804992 -0.016982213 0.047832694 0.079465955 -0.052563194 -0.022366742 0.09911175 -0.023393888
-0.09852456 -0.045850974 0.015380231 -0.04377839 0.09055421 -0.050569963 0.07467924 0.056171943
-0.120962046 -0.03764223 -0.050942324 -0.064759925 -0.043485332 0.111323886 0.022232233 0.049813457
-0.047801588 0.018157532 -0.049676877 -0.029854333 0.007989359 -0.072562665 0.07730675 -0.11038674
0.099538796 0.114373535 0.04214181 -0.112933025 0.032412402 0.056036603 0.015790362 -0.06568689
-0.07776906 -0.12999621 0.066970624 0.086832255 -0.0003999651 -0.03197938 -0.036700293 0.05129823
-0.022753276 -0.020453122 -0.085550934 -0.0149927605 -0.113937385 -0.0123978425 0.051482335 0.0072611263
-0.05908027 0.039033856 -0.07039485 -0.015164406 0.11592402 -0.024852663 0.04485514 -0.030442279
-0.025535565 -0.028324243 -0.030845027 0.05604116 0.04986146 0.05949957 0.02288399 -0.063806854
-0.029093497 -0.030923136 -0.058052097 -0.061538372 0.05979235 0.04039857 0.112928815 0.026965627
0.07835935 -0.04809613 -0.09197568 0.008764467 0.08902888 0.09407201 0.11245407 -0.010634051
0.0029867939 0.05753933 0.002468681 0.07333885 -0.010776172 0.047058836 0.06901958 0.097345285
-0.006863196 -0.053371392 -0.011764461 -0.0639276 0.053678904 -0.05720405 -0.045476176 -0.06308793
00000000: 28f1 b5bd b4e1 a13d a7d4 cdbd 2ce6 b13c
00000010: cab0 613d 2fe1 853d efb3 68bd c5d9 a4bc
00000020: 813d e4bd d498 8a3c 63fc 31bd ab7a 463d
00000030: e694 f03c 67b5 fd3c 121f 7b3d ff05 8ebd
00000040: 8c3c 8abc ee3f 453d e7b9 733d c063 c43c
00000050: 8f66 703c 4033 b7bc 3c65 c4b9 a82a 00bb
00000060: 194d 0b3e b3e4 35bd bdcd 0ebe a213 9d3d
00000070: 043b 55bd 747e 52bd 4bab 35bc 3f4b b93d
00000080: 7a15 243d 95c1 61bd 022b d03c 6782 63bd
00000090: 939e efbc fe78 73bc e4b6 8abc 7af2 463d
000000a0: 3d93 153d c238 1f3d 50cc 93bd 165d 263c
000000b0: 28c2 53bc 3a8b 11bd f50d 683d fdef e5bd
000000c0: 8bcf 79ba 60ff 9ebc 646a 093d 22c1 6dbd
000000d0: 25b4 d83c 4a2e 9ebc c050 fdbb fa80 d1bd
000000e0: 2d69 57bd a67c 163e 4dad 683c 5a4b e9bd
000000f0: 1f0c 303d 4ef8 823d ed40 d9bd 8f2d 0e3d
00000100: 818e a93c c153 03be 8fb8 b43d 89c7 aebc
00000110: d179 debd 4c5e 26bb 04f7 943d 0f19 a23d
00000120: dd1a 653d 490e c33d a03b 6c3c 3236 e2bd
00000130: 7c20 78bd 04d6 5fbd a1a8 c1bd 71b4 47bd
00000140: f0c6 453d c3bf b23c 7f60 70bc 143c b0bd
00000150: 2813 e43d ad6e 93bd fb76 be3d d99f b13d
00000160: 14dd 323d 3e3d e83c 830e f9bd 8d7b d7bc
00000170: 3610 e33b 03dd b3bd c163 433d 1944 c4bd
00000180: 75a4 6bbd 85b8 b4bd 0707 bd3c 543b db3d
00000190: d8d6 dcb9 c70b bebd 8e3c 843d 7e1d 04bc
000001a0: c113 1cbd 9e0d 9bbc 7838 3abd df88 0b3e
000001b0: 6920 223d c7b7 0a3d 25b2 713d 643a 043e
000001c0: 49bd a33c 376a 7bbc 4831 1fbc 0d4d e73d
000001d0: ea2a 033d bb9d cd3c 19f5 873c 0c86 85bd
000001e0: 7c89 38bd 255e f0bd 73c8 0e3d 779b d8bd
000001f0: 2b54 64bc ce5f 903c c34a fe3c 9fd5 cdbd
00000200: 6961 debc 755f 9abc fbe0 71bd 0ad2 b3bd
00000210: 6cbd a2bc cc92 2bbb 0ff8 acbd 93db 81bd
00000220: d5e7 8bbd 7c05 a13c 7ecc 94bc 162d 5dbd
00000230: 87db 79bd 5491 8dbd d754 11bc 7fd0 683d
00000240: 5976 9fbd 88e5 bd3d bf85 c93c fc74 3cbd
00000250: 3c2a 3cbd d886 033d 82eb a2bc 69a5 27bd
00000260: 337b 603d 481e 8bbc 37ec 433d 0cbf a23d
00000270: 814c 57bd 753a b7bc 1afb ca3d 8aa4 bfbc
00000280: 3fc7 c9bd 3bce 3bbd 5dfd 7b3c f850 33bd
00000290: 7c74 b93d 7322 4fbd 6ef1 983d 8d14 663d
000002a0: f3ba f7bd bd2e 1abd e6a8 50bd daa0 84bd
000002b0: ad1d 32bd c7fd e33d 5f20 b63c 3209 4c3d
000002c0: 99cb 43bd 1bbf 943c fb79 4bbd 1391 f4bc
000002d0: cde5 023c bc9b 94bd 0053 9e3d 7112 e2bd
000002e0: ffda cb3d ac3c ea3d e49c 2c3d 6e49 e7bd
000002f0: dec2 043d a386 653d ca5a 813c d986 86bd
00000300: 6345 9fbd ba1d 05be e527 893d 1cd5 b13d
00000310: 68b2 d1b9 cffc 02bd 0c53 16bd 181e 523d
00000320: 1465 babc 4e8d a7bc 5435 afbd 32a4 75bc
00000330: 0158 e9bd 5220 4bbc 24df 523d beee ed3b
00000340: 27fe 71bd f7e1 1f3d 2d2b 90bd 2174 78bc
00000350: 9369 ed3d d097 cbbc 06ba 373d 1662 f9bc
00000360: f62f d1bc 3e08 e8bc b6ae fcbc 6a8b 653d
00000370: 883b 4c3d d2b5 733d 3577 bb3c 2bad 82bd
00000380: 7c55 eebc 8452 fdbc 09c8 6dbd a90f 7cbd
00000390: d3e8 743d f978 253d 3947 e73d 05e7 dc3c
000003a0: de7a a03d 7300 45bd bf5d bcbd d798 0f3c
000003b0: c654 b63d d3a8 c03d 524e e63d 713a 2ebc
000003c0: 16be 433b 5cae 6b3d 98c9 213b ae32 963d
000003d0: 8b8e 30bc c4c0 403d 235a 8d3d f75c c73d
000003e0: a9e4 e0bb f69b 5abd babf 40bc 79ec 82bd
000003f0: 69de 5b3d cb4e 6abd 3a45 3abd 3f34 81bd

critic.4.bias f4 [128]
0.04947426 0.015498754 -0.053152952 -0.046952594 -0.04668606 0.060523912 -0.039684445 -0.09815812
0.08832588 0.04391675 -0.12388027 -0.07568523 -0.0798476 0.05497876 0.011527769 0.062261116
-0.003169209 0.007202651 -0.08512321 0.056406453 -0.012116594 -0.02630692 0.027027102 0.108276755
0.016265258 -0.037556767 0.053364962 0.01592617 -0.003376865 0.005796099 0.040816966 -0.04486142
-0.00086513977 0.021819532 -0.033379324 0.084078684 -0.04440849 -0.00045855925 -0.0033078247 -0.00671007
0.08988528 -0.008101981 -0.0141523685 -0.053105935 -0.01029508 -0.03667838 -0.07683133 0.11202868
0.07972643 -0.053467907 0.032903645 0.07873297 0.08061209 -0.02503327 0.0076772114 0.03350116
-0.01599478 -0.07775971 -0.060687546 0.07863417 0.09194337 -0.11634542 -0.050150614 -0.0044530137
0.041137334 0.027742894 -0.05595646 -0.098711304 0.06774251 -0.034410737 -0.05996124 -0.039261553
-0.07457314 -0.040390033 0.050947636 0.0053977896 -0.036907557 -0.08559048 -0.009974032 0.057938054
0.11610963 -0.06398629 0.049363922 -0.09623952 -0.083675556 -0.019233834 -0.016806524 0.06770294
-0.097729295 -0.012392098 -0.03936078 -0.0787802 -0.002316019 0.026803555 0.016098104 0.049238857
0.019195355 -0.03057542 -0.02469042 0.018886153 0.028143711 -0.0674948 -0.08010932 -0.10207389
-0.016996505 -0.039295852 -0.022261018 0.0017072269 0.050419528 -0.018772079 0.015574888 0.04038582
-0.00050530833 -0.031237783 0.04861611 -0.051486634 0.09892084 0.07178661 0.04091152 0.014623242
-0.032535583 0.056061234 0.0940603 -0.010836071 0.03260088 0.014501117 -0.026122486 0.09948063
00000000: 86a5 4a3d 7cee 7d3c e9b6 59bd 5d51 40bd
00000010: e239 3fbd ece7 773d 288c 22bd 2007 c9bd
00000020: 33e4 b43d 0de2 333d f0b4 fdbd dc00 9bbd
00000030: 2387 a3bd 6931 613d f8de 3c3c 8305 7f3d
00000040: 81b2 4fbb 3704 ec3b 1455 aebd 740a 673d
00000050: ae84 46bc 9c81 d7bc f167 dd3c 34c0 dd3d
00000060: b83e 853c 20d5 19bd 3895 5a3d 9977 823c
00000070: 654e 5dbb 34ed bd3b b12f 273d 9cc0 37bd
00000080: 8cca 62ba e0be b23c c2b8 08bd 7231 ac3d
00000090: ade5 35bd c86a f0b9 17c8 58bb 26e0 dbbb
000000a0: c615 b83d 2cbe 04bc 56df 67bc 9c85 59bd
000000b0: b2ac 28bc 123c 16bd bf59 9dbd 4b6f e53d
000000c0: 9c47 a33d 2a01 5bbd f9c5 063d c03e a13d
000000d0: f417 a53d 9212 cdbc 1e91 fb3b 8338 093d
000000e0: 7c07 83bc 7c40 9fbd 8193 78bd f40a a13d
000000f0: ce4c bc3d 8246 eebd bb6a 4dbd 96ea 91bb
00000100: 9f7f 283d 1145 e33c 9a32 65bd 2729 cabd
00000110: 96bc 8a3d 46f2 0cbd eb99 75bd b9d0 20bd
00000120: cdb9 98bd 0570 25bd 78ae 503d f1df b03b
00000130: 612c 17bd 104a afbd 1f6a 23bc 7450 6d3d
00000140: e3ca ed3d 3e0b 83bd d331 4a3d 3a19 c5bd
00000150: 175e abbd 4690 9dbc d6ad 89bc d7a7 8a3d
00000160: 4c26 c8bd 3a08 4bbc c538 21bd 8357 a1bd
00000170: 5ac8 17bb 2193 db3c 2ce0 833c afae 493d
00000180: 943f 9d3c 4e79 fabc 9043 cabc 22b7 9a3c
00000190: a48d e63c b73a 8abd 5b10 a4bd 1e0c d1bd
000001a0: 413c 8bbc b0f4 20bd bd5c b6bc 07c5 df3a
000001b0: b584 4e3d e7c7 99bc d12d 7f3c 9a6b 253d
000001c0: ab76 04ba 61e6 ffbc b021 473d a6e3 52bd
000001d0: 0297 ca3d dc04 933d d792 273d 5396 6f3c
000001e0: 0844 05bd 77a0 653d b0a2 c03d c789 31bc
000001f0: 8088 053d 1896 6d3c d3fe d5bc 80bc cb3d

critic.6.weight f4 [1, 128]
0.12063148 0.040681466 -0.069611154 0.02812409 0.07501479 -0.10697877 0.099822104 -0.099471696
0.05253486 0.034253668 -0.099665545 -0.071537204 -0.12472412 0.15214348 0.069595695 0.1498137
0.124785386 0.045813784 -0.101339094 0.120435566 -0.099329375 0.12076643 0.10287902 0.054886725
0.0011783537 0.031041462 -0.10638564 0.077382706 0.10953076 0.109810986 -0.11161728 0.041556235
-0.05575089 0.043591805 0.05879997 0.08194928 0.05831187 0.06713352 0.12294617 0.079122245
0.07836979 -0.13759689 -0.054969203 0.06458033 -0.0740835 -0.09965481 -0.07979144 0.14136347
-0.04361998 -0.061262142 -0.067035764 0.08194729 0.07470901 -0.10429395 0.07298731 -0.010389034
0.1095342 -0.09539065 -0.086261325 0.12552255 0.07278335 -0.115641415 -0.13714421 0.051734697
0.07755027 -0.11275899 0.05883959 -0.040558185 0.038391627 0.08121729 -0.11206231 0.069508985
0.02836469 -0.014823883 -0.06251946 -0.08626186 0.10805015 -0.044385776 0.05077851 0.064669564
0.13933317 0.045056283 0.0826556 -0.11892026 -0.118163705 0.061337166 -0.08590951 0.12531523
-0.060465198 0.030885544 0.08117106 -0.0971554 -0.08388658 0.12714657 0.117130786 0.05558285
0.11129147 0.05903344 -0.11862406 -0.09405131 -0.1310094 0.07547572 -0.085692085 -0.08876211
0.08558371 0.049566973 0.093462996 -0.04723469 -0.12735213 0.091855995 -0.08693981 -0.107773855
0.030530872 -0.0893187 -0.09134665 0.07378852 0.1119237 0.04671141 -0.14289851 0.1325307
-0.06081553 0.09410016 0.107375085 0.04561722 -0.1334782 0.06345303 -0.12683564 0.079652436
00000000: a30d f73d 9ca1 263d 4b90 8ebd 7e64 e63c
00000010: 5ba1 993d af17 dbbd 886f cc3d d1b7 cbbd
00000020: cb2e 573d 934d 0c3d 731d ccbd 1982 92bd
00000030: 5c6f ffbd 80cb 1b3e 3088 8e3d c368 193e
00000040: 7b8f ff3d 3ca7 3b3d df8a cfbd eca6 f63d
00000050: 336d cbbd 6454 f73d 3cb2 d23d e7d0 603d
00000060: fd72 9a3a aa4a fe3c b7e0 d9bd d37a 9e3d
00000070: aa51 e03d 95e4 e03d 9a97 e4bd df36 2a3d
00000080: 0c5b 64bd 528d 323d 3dd8 703d 06d5 a73d
00000090: 6dd8 6e3d 4d7d 893d 34cb fb3d d80a a23d
000000a0: 5780 a03d 33e6 0cbe 6327 61bd b142 843d
000000b0: 17b9 97bd d217 ccbd b269 a3bd 96c1 103e
000000c0: ddaa 32bd 03ee 7abd 0c4a 89bd fbd3 a73d
000000d0: 0a01 993d 1198 d5bd 5f7a 953d c436 2abc
000000e0: 7753 e03d 2c5c c3bd c7a9 b0bd fc88 003e
000000f0: 700f 953d 68d5 ecbd 886f 0cbe c3e7 533d
00000100: add2 9e3d 2fee e6bd c801 713d 5720 26bd
00000110: 8a40 1d3d 4055 a63d ed80 e5bd ba5a 8e3d
00000120: 115d e83c dfdf 72bc 340a 80bd 0faa b0bd
00000130: 6649 dd3d dccd 35bd 20fd 4f3d 7a71 843d
00000140: 5bad 0e3e f08c 383d 5747 a93d 778c f3bd
00000150: d0ff f1bd ae3c 7b3d 53f1 afbd a352 003e
00000160: 5baa 77bd ae03 fd3c 033d a63d 69f9 c6bd
00000170: bacc abbd b632 023e 44e2 ef3d d8aa 633d
00000180: c8ec e33d 0ccd 713d 2cf1 f2bd f99d c0bd
00000190: 5427 06be 0493 9a3d 557f afbd e9c8 b5bd
000001a0: 8346 af3d bd06 4b3d 8769 bf3d 2a79 41bd
000001b0: 9968 02be ff1e bc3d 800d b2bd 8ab8 dcbd
000001c0: e11b fa3c b9ec b6bd f413 bbbd 701e 973d
000001d0: 4138 e53d 7754 3f3d fd53 12be 21b6 073e
000001e0: b519 79bd 96b7 c03d 78e7 db3d 1fd9 3a3d
000001f0: 82ae 08be aaf3 813d 34e1 01be d120 a33d
