ippo_algorithm_belief_catmouse/checkpoints/ppo_actor_2num_agent_exp_3_run_0_catmouse.pth (torch, 179992 bytes, 8 tensors)

actor.0.weight f4 [128, 76]
000000 11 a1 43 3d f2 d4 93 3d 84 44 32 3c ce 41 f6 3c
       0.047761027 0.072183505 0.010880593 0.030060675
000010 42 fd 1b bb 1b 5a 9b 3d 7b ca 87 3d a9 e7 97 bd
       -0.0023802076 0.07585546 0.06630417 -0.074172325
000020 ee bf e7 3d 98 d4 68 3c 2f 0f f0 3c b7 3d f3 bd
       0.113159046 0.014210843 0.029304115 -0.118770055
000030 af a8 d5 bd 3a c9 82 3d e3 73 e1 bd 31 c6 5a 3d
       -0.104325645 0.06386037 -0.11008432 0.053411666
000040 e7 76 f0 bd c5 a2 68 3d 16 27 82 3d dd 71 80 3c
       -0.11741429 0.056795854 0.06355111 0.015679294
000050 1c 4b 16 3d 26 53 1f bb e5 04 a5 3d 0f b1 e8 bd
       0.036692724 -0.0024311035 0.08057574 -0.11361896
000060 f3 7f 2a 3d 1f 83 e9 bd b0 c8 0b bb a5 7f 33 bc
       0.041625928 -0.114019625 -0.0021329336 -0.010955726
000070 f0 29 83 bd dd a2 c8 bd 83 3c bd 3d bf 66 ac 3d
       -0.06404483 -0.09796689 0.09240057 0.08418035
000080 f6 51 5b 3d f6 c2 2f bd 51 81 99 bd 0a 19 47 bd
       0.05354496 -0.04291054 -0.07495368 -0.048607863
000090 13 a6 01 be c4 f6 fe bd 32 d7 16 bd aa 6c b6 3c
       -0.12661009 -0.124494106 -0.03682632 0.022268612
0000a0 f7 c9 85 3d 99 b3 c0 bd 19 a4 f8 bc 88 dd ad 3d
       0.06532662 -0.094092555 -0.030351685 0.08489519
0000b0 ff 8e fd bb c5 66 29 bd 21 44 74 bd 60 46 75 3c
       -0.0077379937 -0.041357774 -0.059635285 0.014970392
0000c0 1b ca 5f 3c 17 fb 19 3c 5c a0 a8 3d b6 ca 88 bd
       0.013659026 0.009398243 0.08233711 -0.06679289
0000d0 37 11 82 bd 26 ff c6 bd 70 dd d8 3c 7e 89 d5 bd
       -0.0635094 -0.097166345 0.026472777 -0.10426615
0000e0 8c e6 f9 3d 45 0a 69 3c a5 09 a3 3d 1f 44 2f bd
       0.122021765 0.01422364 0.07960824 -0.042789575
0000f0 f0 60 8b 3d b3 aa 9a bd be 98 b8 3c 4b 4c 7d bd
       0.06805599 -0.075520895 0.02253377 -0.061840337
000100 1b 0e 00 3e 6a a0 23 3d ed be 09 bd 44 0f fc bd
       0.12505381 0.039947905 -0.033629347 -0.12307599
000110 32 f3 f2 ba 76 b4 9e bc 1a 44 09 be 82 7c be 3d
       -0.0018535613 -0.01937316 -0.13404885 0.09301092
000120 28 ef fb bc f0 ed 95 3c a3 c5 da 3d b4 a6 79 bd
       -0.030753687 0.018301934 0.106822275 -0.060949996
000130 d7 c3 8b 3b de f6 e3 3c 8f 80 c1 3d 79 5f e0 bd
       0.0042652893 0.027827676 0.09448349 -0.1095571
000140 ea 5d d1 3d e6 d1 a5 3d 05 b6 f4 3d 29 cd f8 3c
       0.10222991 0.080966756 0.1194878 0.030371265
000150 d7 4d 58 3d 6e b8 5e bc 45 55 d3 3d 84 27 fa bd
       0.05280861 -0.013593776 0.10318998 -0.12214568
000160 57 02 39 3d 41 cf 0b 3d 35 ce 82 bd f1 01 9f bc
       0.045168247 0.0341332 -0.06386987 -0.019410105
000170 e6 a8 45 3d 72 7c eb 3d 1d d8 c8 39 00 6d 05 3e
       0.048256777 0.114983454 0.0003830799 0.13029861
000180 0f ea ea 3d ef 1f 22 3d 14 4a b4 bd d4 b7 dc bd
       0.114704244 0.039581235 -0.08803192 -0.1077725
000190 e8 f3 11 3b e6 9f 84 3d fc e0 28 bd 62 6a 8e bd
       0.0022270624 0.06475811 -0.041230187 -0.06953885
0001a0 a1 1d 8f bb f3 66 ab 3d bb 41 bb 3d be 68 f3 3d
       -0.0043675457 0.083692454 0.091433965 0.11885212
0001b0 3a b0 a4 3a 49 da ac 3d 42 93 8d bc 75 a2 a5 bc
       0.0012564727 0.08440072 -0.017282132 -0.020219067
0001c0 18 1a 25 bd 4a b7 11 3e bd 7f 96 bd 85 01 44 3d
       -0.040308088 0.14230075 -0.07348583 0.04785301
0001d0 44 0b a9 3d 75 2c d8 bd fc c7 a7 3d 72 53 cd bd
       0.08254102 -0.105553545 0.08192441 -0.100256816
0001e0 11 e7 e8 3c 06 89 ba 3d 67 03 44 bd 0f 67 35 3d
       0.028430494 0.091081664 -0.047854807 0.044287737
0001f0 cc 05 78 3b d5 84 65 bd cd bd 16 3d a4 29 a3 bc
       0.0037845252 -0.05603488 0.036802102 -0.019917317
000200 ed e5 79 bd c0 80 7d bd 7f 61 f8 3d 44 d5 20 bc
       -0.06101029 -0.061890364 0.12127971 -0.0098164715
000210 c1 45 bd bd 65 e3 66 be f7 71 57 bd 65 18 fd 3d
       -0.0924182 -0.22547682 -0.05259892 0.123581685
000220 4d c2 89 3d f1 56 c5 bd ea a2 f0 bc 66 7a 9f bd
       0.06726513 -0.096357234 -0.029374558 -0.077870175
000230 ee 7c 04 3c 7e 20 e4 3c 17 f3 0f bd e2 b9 61 3d
       0.008086426 0.027847525 -0.035143938 0.055108912
000240 d3 81 d1 bc fb 29 9c 3d e8 88 a3 bd af 52 eb 3d
       -0.0255746 0.07625195 -0.07985097 0.1149038
000250 b8 79 c5 bd 92 35 99 bd 2e 1c 2b bc 64 0a 6e 3d
       -0.09642357 -0.07480921 -0.01044373 0.058115378
000260 5b 1e 57 3d 0a 8a 78 bc ee 0a ea bc 8e bf 5b 3b
       0.052519184 -0.01516963 -0.028569665 0.0033530924
000270 52 4c 93 3c 7a f0 c4 3d ae 9d c4 3b a0 c7 44 bd
       0.017980728 0.0961618 0.006000242 -0.04804194
000280 83 75 b1 bd 7b c1 b4 3d 1f 6f e1 3b 24 f0 8a bd
       -0.08664992 0.08825966 0.0068797017 -0.067840844
000290 be 0c 73 bd 5d 7d 81 3c c5 f0 03 3e 51 af dc bd
       -0.059338324 0.015806848 0.12884815 -0.107756265
0002a0 02 d4 bf 3a 43 10 ed 3d 81 cb 43 3d 70 df 96 bd
       0.0014635327 0.11575367 0.0478015 -0.07366836
0002b0 42 ad 7f bc 81 84 4d bd 1d c9 86 bd a9 cb 46 bd
       -0.015605273 -0.050175194 -0.06581328 -0.04853407
0002c0 88 69 4d 3d 7c 4f b8 3d 7e 24 d6 3c 6b 7a 54 bd
       0.05014947 0.089995354 0.026140448 -0.05187456
0002d0 16 af 8f bd 88 20 bf bd 17 42 af bc 3b de 88 3d
       -0.07015817 -0.09332377 -0.021393819 0.06683012
0002e0 1a e0 7d 3d fe 6f a0 bd d4 0b 87 3d 60 a2 b1 3c
       0.061981298 -0.07833861 0.06594053 0.021683872
0002f0 9c 75 89 3d 94 16 14 3d 1f c3 06 3d 95 ef 85 bd
       0.06711885 0.036154345 0.032900926 -0.06539837
000300 25 22 fb 3b 8f 39 f9 3d 6e a9 8b 3a a5 d7 d0 3c
       0.0076639825 0.121691816 0.0010655352 0.025493452
000310 c8 c1 9d bb 0f f4 6c 3d 43 40 1c 3d 4d 82 de 3d
       -0.0048143603 0.05784994 0.038147222 0.10864697
000320 ba 14 7d 3c 21 ca 85 3c 8b 3a 9e bd 7a c6 14 bd
       0.015446836 0.016331734 -0.0772601 -0.036322095
000330 0c f2 61 3d 06 ea f7 3d c4 53 17 bd c9 0b e4 3d
       0.055162475 0.12105183 -0.03694512 0.1113506
000340 b9 16 c2 3d e1 99 24 3c d1 eb 10 3e 57 c1 d4 3b
       0.0947699 0.010046453 0.14152457 0.0064927745
000350 46 01 a3 3d 99 ce 3d 3d cf 8d 49 3d 47 68 a9 bd
       0.07959227 0.046339605 0.049207505 -0.082718424
000360 30 50 c6 bc b8 7e a4 bd b3 08 96 bd da 38 ae bd
       -0.024208158 -0.08031982 -0.07325878 -0.08506937
000370 0d 4e 2b 3c 96 d5 68 bd 39 d4 d8 bd 98 c3 a8 bc
       0.0104556205 -0.056844316 -0.10587353 -0.020601079
000380 7c d6 bf 3d 15 c1 29 3d 35 32 92 bd 91 55 b5 bd
       0.093670815 0.041443903 -0.071384825 -0.08854211
000390 35 04 a0 bd dd c8 cf bd 44 99 8d 3c 09 48 11 3e
       -0.078133024 -0.101457335 0.017284997 0.14187635
0003a0 2b e4 c4 3d d6 14 55 3d 4f ae de 3d a9 9e 40 3d
       0.09613832 0.052021824 0.108730905 0.04702631
0003b0 a6 67 ad 3d 9b cc 05 3d 52 41 92 3b 66 44 5a 3d
       0.08467035 0.03266583 0.004463353 0.053287886
0003c0 fb 25 69 bd ad 2e 65 bd da 24 b1 3d 4b 75 a4 3d
       -0.056920987 -0.055952717 0.08649607 0.08030184
0003d0 46 f6 db 3d ec fa 3e 3c 96 ab b0 bd 3a fd 6f bd
       0.10740332 0.011656504 -0.086264774 -0.058591105
0003e0 e0 c9 28 3d 81 55 b6 bd c5 fa 85 3d 3c 56 34 3d
       0.041208148 -0.08903027 0.06541971 0.044027552
0003f0 19 79 b7 3d b4 f7 2a bc 4a bd ee ba 03 f7 cf bd
       0.089586444 -0.010435034 -0.0018214372 -0.101545356

actor.0.bias f4 [128]
000000 e4 df b4 bd ee a4 66 bc da 9c 5d bd c8 44 0c 3d
       -0.08831766 -0.014077408 -0.054104663 0.034245282
000010 12 34 78 bb 55 6e a3 bd f3 92 b3 bc 1f 72 d7 bc
       -0.0037872833 -0.079800285 -0.021920657 -0.026299534
000020 51 10 4b bd 26 26 d6 bd 0a 96 9d 3c 50 39 d0 bd
       -0.049576107 -0.10456495 0.019236583 -0.101671815
000030 2e aa 1a 3d b1 79 ca 3d ed 44 5a bd 85 74 9d 3a
       0.037759952 0.09886492 -0.05328839 0.0012012875
000040 0c 48 97 3d bf 55 9a 3d 0f 36 19 3c 29 db 51 3d
       0.07386789 0.07535886 0.0093512675 0.051234398
000050 37 d0 07 bd 12 a1 81 3d 69 77 99 3d ef 2d 58 bd
       -0.033157554 0.0632955 0.07493479 -0.05277818
000060 2a 4c 8f 3d bf db 94 3d 5d 72 88 3d 2b b8 84 3d
       0.06996949 0.07268476 0.06662438 0.0648044
000070 1a 3d 57 bd e5 62 91 3d 18 6c da 3b 5d b3 8a 3d
       -0.052548505 0.07098941 0.006665718 0.06772492
000080 78 da c5 bb 37 fe 78 3d 4f e4 ae 3c d0 b1 1e bd
       -0.0060380064 0.060789313 0.0213491 -0.038743794
000090 45 d5 dd bc 23 cb 6d 3d 33 ee dd bd e0 b5 c1 3d
       -0.027079234 0.058055054 -0.108364485 0.09458518
0000a0 b3 0f 95 3d 6e d2 40 bd 79 09 80 bd 88 a6 aa 3b
       0.07278385 -0.04707568 -0.06251807 0.0052078404
0000b0 64 5c 40 bd e7 ac 62 bd 61 f2 b6 3d 0b ec b8 3c
       -0.04696311 -0.055340674 0.08932949 0.022573492
0000c0 91 19 99 3d 4c 28 a0 bc 84 16 6b 3d cc 70 b0 3d
       0.074755795 -0.019550465 0.05739452 0.08615264
0000d0 e3 1b ff bc e3 08 4e 3d f3 ac 84 bc 2f ef a5 3c
       -0.031141227 0.050301444 -0.01619575 0.020255653
0000e0 6c ab b9 3a e1 2a 6d 3d a8 6a bb 3d 39 bf e0 bd
       0.0014165468 0.05790222 0.091512024 -0.10973973
0000f0 ad 78 d2 3d 9e 59 bc 3d 46 bc cc bc a8 af 96 3c
       0.10276923 0.091967806 -0.02499212 0.018394306
000100 7f dc 7a 3c e3 9d bf bd f5 6b 1c 3c 8a ea d3 3c
       0.015311359 -0.093562864 0.009547223 0.025868673
000110 d2 cc 79 bd 5f 7d d4 3d 7b fd fd 3c 89 3d b5 3d
       -0.060986347 0.10375475 0.031004658 0.088496275
000120 7f a0 49 3d 29 2b c0 3d e2 a5 52 bd d9 6c 91 bd
       0.049225327 0.09383232 -0.05142773 -0.07100839
000130 af 33 d0 3d 56 34 ab bb ff d6 d5 3d 31 79 c0 bd
       0.10166108 -0.005224745 0.10441398 -0.093981154
000140 2f c5 d9 3d 59 f0 cb 3d 22 a6 0a bc dd e3 ec bc
       0.10633313 0.09957952 -0.008462461 -0.028917247
000150 6d bd 69 bd 25 f4 83 bd fe c0 db bd 2d 57 15 bc
       -0.057065416 -0.06443051 -0.1073017 -0.009115023
000160 60 12 43 bd 64 e0 b7 bd 11 4d a9 3d 65 16 e1 3d
       -0.047624946 -0.08978346 0.082666524 0.109905995
000170 24 e6 80 3c 10 12 95 3d 84 46 4c 3d 2c 71 cc 3d
       0.01573474 0.07278836 0.049871936 0.09982523
000180 b0 87 0d 3d d5 62 d1 3b f4 62 c6 3c bb 7d b9 bd
       0.03455323 0.0063899555 0.024217106 -0.09057184
000190 92 20 2c 3d 8d 0e ec 3c b5 32 84 bd 96 c8 d4 3d
       0.04202325 0.028815532 -0.06454984 0.10389821
0001a0 e1 b7 d9 bc 15 15 6c 3d 5a 63 67 bd 41 e7 10 bd
       -0.026576938 0.057637293 -0.056491233 -0.03537679
0001b0 74 6e c7 3d d4 82 81 bd 57 1b d7 3d 9a 4b cc bd
       0.09737864 -0.063237816 0.105032615 -0.09975357
0001c0 6a 55 e9 3c 07 3b 4c bc a1 3c 74 3d 22 7f 6e 3d
       0.028483111 -0.012465245 0.059628133 0.058226712
0001d0 06 53 c2 3d 5e d7 e9 bd c3 f0 c9 bd 70 44 d6 3d
       0.09488492 -0.11418031 -0.09860375 0.10462272
0001e0 53 0c f4 bc 6c 9a a2 3d cc 14 6b bd 59 01 84 bc
       -0.029791033 0.0793961 -0.05739288 -0.016113924
0001f0 8d 54 bc bd c2 f1 22 bd 69 19 70 bc cc c7 18 3d
       -0.09195814 -0.03978134 -0.014654496 0.037299916

actor.2.weight f4 [128, 128]
000000 09 d5 56 3d 22 6b 24 bd 7b fd 8f bd f0 30 38 bd
       0.05244926 -0.040141232 -0.070307694 -0.044968545
000010 c9 c2 a6 3d 01 a1 b8 3b bd 78 62 3c 08 6f d2 3c
       0.08142621 0.0056344275 0.013822732 0.02568771
000020 d1 d1 ce 3d 02 27 4b bd d2 ca 61 3d 43 1e 3c bc
       0.10098613 -0.049597748 0.055125065 -0.011481824
000030 72 9c 37 bd 32 63 bb bc 5a 88 68 3c e3 59 af 3d
       -0.044826932 -0.022874448 0.014192665 0.085620664
000040 8c 49 0b 3d 6d 94 da bd 89 27 89 3d b2 ce 9d bd
       0.034005687 -0.10672841 0.06696994 -0.077054396
000050 8e 2b d4 bd fe 6c c1 bd 1f c3 cb bd ce 20 6a 3c
       -0.1035987 -0.09444617 -0.09949326 0.014290048
000060 e1 cb 3e 3d ef fb 85 3d 93 20 48 bd 8a a7 81 3d
       0.046581153 0.06542193 -0.04885919 0.06330784
000070 b3 34 f3 3c af 8c c8 bd 80 49 71 bd 87 56 e6 3c
       0.029688215 -0.09792458 -0.058907986 0.028117431
000080 c2 25 f7 3c d6 af 21 3d ef 07 b2 bc e6 ab c9 bc
       0.030169372 0.03947433 -0.021732299 -0.0246181
000090 51 c4 05 3d cf 25 a8 bc 51 16 24 bd 56 57 ad bd
       0.032657925 -0.020525841 -0.040060345 -0.08463924
0000a0 24 b4 60 3d 9e 2e d4 bd e4 4a ae bd d7 e7 48 3d
       0.054859295 -0.10360454 -0.08510378 0.049049225
0000b0 29 24 e6 bd c1 4c 21 bd 34 90 47 3d 2a f9 30 3d
       -0.11237366 -0.03937984 0.048721507 0.04320637
0000c0 d1 cd 73 3d b1 df 73 bd fe 47 d2 3c 81 a0 8a bd
       0.059522454 -0.0595395 0.025669094 -0.06768895
0000d0 9d 4d db bd 31 87 ab bc 09 a8 80 bd 4c 94 8f bd
       -0.10708163 -0.020938488 -0.0628205 -0.07010707
0000e0 c6 a9 a2 3d 32 b1 8d bb 6c 1a bd 3d ae 2a 52 3d
       0.07942538 -0.004324102 0.09233555 0.051310234
0000f0 a9 93 80 bc 20 7c 97 bd 97 64 d5 3d 24 e3 9d 3c
       -0.01569541 -0.07396722 0.104195766 0.019273348
000100 15 0c 94 bd 17 11 86 3d 6d 3c ac bd 7c ec 7d bd
       -0.07228867 0.065462284 -0.08409963 -0.061993107
000110 e1 2f 35 3d 80 c1 24 3d cb 91 9b 3d 10 79 bd bd
       0.044235114 0.0402236 0.07596167 -0.092516065
000120 ae 23 b4 bd 67 56 19 3a 0e d9 ee 3c c7 45 71 3c
       -0.08795868 0.0005849362 0.029156234 0.014726109
000130 01 d4 68 3d e5 0d 71 bd d5 5d 09 3d 5c cc 6f 3d
       0.056842808 -0.05885114 0.03353675 0.0585445
000140 d0 1a c4 3b 06 02 03 3d 5a f3 21 3d 86 06 13 bd
       0.0059846416 0.03198435 0.03953872 -0.035894893
000150 08 36 88 bd 59 f4 03 bd c0 38 05 bc ee 25 72 3d
       -0.06650931 -0.03221545 -0.008131206 0.059118204
000160 b9 d0 16 bd c2 e8 28 3c 24 90 ff 3b ca 55 89 3d
       -0.036820147 0.0103094 0.0077991653 0.06705816
000170 35 ae 44 3d 17 3e 08 bd 97 25 c8 bc 1d 85 cf 3c
       0.0480177 -0.03326234 -0.024431987 0.025332028
000180 29 a9 bd bd 10 f5 cb 3c e4 1e a0 ba 60 f4 b5 ba
       -0.0926078 0.024897128 -0.0012216237 -0.0013882034
000190 9f d2 53 bd d5 3a 9e 3d b9 bc a3 3a 2b f3 2f bd
       -0.051714536 0.07726065 0.0012492157 -0.042956512
0001a0 95 c6 d2 3c 16 3d 88 bd ca 2b c2 38 4e 13 82 bd
       0.025729457 -0.06652276 9.258797e-05 -0.06351338
0001b0 29 06 9c bd b3 82 c1 3d 82 90 cb bc 3f ca 29 3d
       -0.076183625 0.09448757 -0.02484918 0.041452643
0001c0 c1 86 43 3d b4 05 61 bd 0f 95 12 3d cb 0f ef 3b
       0.047735933 -0.05493708 0.035786685 0.007295584
0001d0 7f 39 7f bd 83 13 94 3d ed 0f 76 3c a7 8c 7a 3c
       -0.062310692 0.07230284 0.015018445 0.015292323
0001e0 ee 39 20 bc a6 22 cb bd e3 28 41 bd 14 72 6e bd
       -0.0097794365 -0.09918718 -0.047158133 -0.058214262
0001f0 24 11 a7 3c 12 94 6c 3d 5a a7 95 bc c5 90 f2 3c
       0.020393915 0.0577584 -0.018268276 0.029610047
000200 51 7f c3 bc e4 ed 4f 3d 6b 03 86 bd 8d fb 9f 3d
       -0.02386442 0.05076398 -0.06543621 0.078116514
000210 72 1f 90 bc 16 5e ea 3d 79 87 a9 bd 1a 62 36 3d
       -0.01759312 0.11443727 -0.082777925 0.04452715
000220 e1 43 41 bd 4a 09 db bc 6c 1d 26 bd cc 63 f8 bb
       -0.047183875 -0.026737828 -0.040555403 -0.007580256
000230 2b 2f b2 bd 65 b4 a6 bd e9 1d 90 3d a6 14 ba 3c
       -0.08700403 -0.08139876 0.07036955 0.022714924
000240 1d 97 6a bd 16 3c 12 bc 9a 0b 55 3d c2 a2 81 bd
       -0.05727302 -0.008925458 0.052013017 -0.06329872
000250 ce c0 f5 3c 8d 6e 59 bd 3f c4 8c bc 57 08 5f 3c
       0.029999163 -0.053083945 -0.017183421 0.013612828
000260 e7 ac 4e 3d d7 fb b0 3d d5 9e c7 bd 77 f5 34 3d
       0.05045786 0.08641785 -0.09747092 0.044179406
000270 8a 1a 9a bd 72 9b 8d bb 67 0d a8 3d 6a 35 b6 bd
       -0.07524593 -0.004321509 0.08205681 -0.08896907
000280 ee c9 03 3d a8 d0 67 3d a1 27 c2 bc 90 18 d0 bd
       0.032174997 0.056595474 -0.023700537 -0.10160935
000290 6c dc bf 3d 21 e5 57 3c 11 c2 8e 3d d3 bd a7 3d
       0.09368214 0.013177187 0.06970609 0.08190503
0002a0 89 76 0d 3d 88 b4 09 3d 31 d3 06 be 58 7a a9 bd
       0.034536872 0.033619434 -0.131665 -0.08275288
0002b0 f0 a8 41 ba 1c 83 4b bc 95 9b ad bd 35 d8 3c 3d
       -0.00073875394 -0.012421396 -0.084769405 0.04610463
0002c0 01 61 95 bd d6 e8 04 3c 6f b2 3f bc 88 a6 00 bd
       -0.07293893 0.008112153 -0.011700257 -0.031408817
0002d0 00 31 4f 3c 8a f7 c3 3d 6e 9f aa 3d 15 c1 a4 3d
       0.01264596 0.09568699 0.0833119 0.0804464
0002e0 2b 01 b5 bd 3a 8b a8 3c 18 b3 8b bc ec 31 63 bd
       -0.088381134 0.0205742 -0.017053172 -0.05546753
0002f0 96 d1 f6 3b 58 ad 9f bc 5c 1f 33 3d 67 5d 6a bd
       0.007532309 -0.019491836 0.04373108 -0.05721798
000300 aa ef d4 3c ca be 85 3d cb cd e7 3c df bf 81 bd
       0.025993187 0.06530531 0.028296372 -0.06335425
000310 5f d2 4a 3c d3 1c 30 bc c8 61 7a 3d 82 21 31 bd
       0.012379258 -0.01074906 0.061128408 -0.043244846
000320 5d b7 04 bd 94 34 24 bd 49 eb dc bc 92 c6 47 bd
       -0.03240143 -0.040089205 -0.026967661 -0.048773356
000330 9f 0b 05 bc 20 c3 0f 3c 49 62 4f bd d7 48 23 3d
       -0.0081204465 0.008774549 -0.05063084 0.039864387
000340 ea 2b 45 3c c2 4a 8b 3d da 56 b5 3d 3d dc 9f bc
       0.012034396 0.06801368 0.08854456 -0.019514197
000350 df a6 1d bd 0a ef 88 bc cc cd 8a bd 0e 4d c0 bd
       -0.03848922 -0.016715545 -0.06777534 -0.09389697
000360 2f 8c 95 3c 10 24 70 bc d2 07 85 bd e4 33 92 bd
       0.018255321 -0.0146570355 -0.06495632 -0.071388036
000370 a7 b6 ec 3d 47 5a ee ba 0e 6d a7 3d 9e 66 f5 3c
       0.11558276 -0.0018184864 0.081750974 0.029956158
000380 f9 26 24 bd 5d ff 84 3b a3 1a 49 bd 97 0c ed 3c
       -0.04007623 0.004058762 -0.04909767 0.028936667
000390 e0 59 8e bc 07 d1 ad bd 9a f0 d3 ba 09 54 1f bd
       -0.01737684 -0.084871344 -0.0016169727 -0.0388985
0003a0 2c ab 45 bc 69 e5 82 bd 33 72 80 3d fc 9a 7f bd
       -0.012064736 -0.06391413 0.06271782 -0.062403664
0003b0 df 99 20 3d 83 32 47 3d 85 03 4f 3c 6a be 3f 3d
       0.039209243 0.048632156 0.012635116 0.046812452
0003c0 40 54 17 3d 4d d6 15 bd d7 77 ff 3c 49 ef 01 3c
       0.03694558 -0.036581326 0.031185074 0.007930585
0003d0 39 14 8d bd 68 c5 58 bd ab 11 47 3d fe 92 b3 bd
       -0.06888623 -0.052922636 0.048600834 -0.08768271
0003e0 5f 0f ac 3c 42 55 3a 3d 8a df 28 3d 76 8a 38 3d
       0.021003423 0.045491464 0.04122881 0.04505392
0003f0 61 db 4b 3d 69 e5 a2 3d 6c 55 2d bd bf 11 20 bb
       0.049769763 0.07953913 -0.042317793 -0.002442464

actor.2.bias f4 [128]
000000 2f 35 bb bc 93 3e 3e bd 47 05 b5 bd c3 f7 6b 3d
       -0.022852508 -0.046446394 -0.08838897 0.05760933
000010 64 78 db bd 7c c7 c4 3c e7 bf 0c bd 1f 41 38 bd
       -0.10716322 0.024020903 -0.0343627 -0.04498398
000020 49 8d 4e bd 8a ad 0d bd 0e 68 4a bd 63 11 84 3d
       -0.05042771 -0.034589328 -0.04941564 0.06448629
000030 10 1b 82 3a d9 25 b0 bc c8 6b df 3b 26 f1 a5 bd
       0.0009926278 -0.021502422 0.0068182684 -0.08102636
000040 0a 1f 85 bd d0 24 e6 bc 3f 74 9d bd 2f f2 cc 3c
       -0.06500061 -0.028093725 -0.07688188 0.025017826
000050 09 d9 46 bd 79 7c c0 3b 4c a1 d8 3d 24 ef cc bc
       -0.048546825 0.0058742133 0.1057764 -0.025016375
000060 11 b5 b1 bd 8a bb 5d 3d ca f3 c1 3b 29 ad 60 bd
       -0.08677114 0.05413393 0.0059189545 -0.05485264
000070 8b f8 08 bd d7 5e 25 bd 9c 30 3d bd da a9 60 bc
       -0.033440154 -0.04037365 -0.046188936 -0.013712371
000080 23 a9 36 bb 87 28 b2 bb e5 90 7f 3d 1b a4 48 bc
       -0.002787181 -0.00543696 0.06239404 -0.012246157
000090 07 92 ab bd b4 d3 ba 3d 43 82 61 bd 5d 59 aa bd
       -0.08377462 0.091224104 -0.055055868 -0.08317826
0000a0 ad e3 c8 3d e3 a5 8b bc 98 54 ac 3d 35 62 7b bb
       0.09809051 -0.017046874 0.084145725 -0.0038358096
0000b0 e3 be c3 bc 0f fe 51 bd 4d 0e 4c bd f6 90 71 3d
       -0.023894733 -0.05126768 -0.049818326 0.058976136
0000c0 a6 7f db 3c 70 15 ad 3d 10 9c 6b 3d a4 f8 bc 3b
       0.026794266 0.084513545 0.05752188 0.005766945
0000d0 8e be b2 3d b0 58 98 bd a1 99 98 3d 88 18 54 bd
       0.08727752 -0.07438791 0.074511774 -0.051781207
0000e0 71 26 21 3c a2 77 a1 bd e2 46 87 bc 79 c6 b5 3c
       0.009835825 -0.07884146 -0.016513292 0.022189366
0000f0 8e 88 d1 3b 98 02 b0 bc 1c 90 a1 3d ea ab 6a 3c
       0.0063944524 -0.021485612 0.07888815 0.014323214
000100 29 5c a4 3d 5b 6b 99 3d 6d eb 30 bd 48 0c ac bd
       0.08025391 0.074911796 -0.04319327 -0.0840078
000110 ca 1a 34 bd 6e b8 a8 3c 8b 70 a4 bd df 4e 8e bd
       -0.04397086 0.020595755 -0.08029278 -0.06948637
000120 cd 8e e2 bc 02 c9 9d 3b 0e 08 c9 bc 03 cd 2a bc
       -0.027655983 0.0048152218 -0.024539974 -0.010424855
000130 52 13 1d 3d cc a3 91 ba 67 17 8e 3d ca 91 12 3c
       0.038348503 -0.0011111437 0.069380574 0.008945892
000140 ff 0c bc bd e7 e1 3b 3d a5 f1 ea 3d e7 70 6c 3d
       -0.09182166 0.045869734 0.11471871 0.05772486
000150 75 ee 56 3d 34 94 ba bd 47 ba 86 bc 83 c6 8b 3c
       0.052473504 -0.09110299 -0.016446246 0.017062431
000160 b8 66 7e bd cd ce 81 3d b9 2c 24 bc 7a c6 a9 bc
       -0.06210968 0.06338272 -0.010020428 -0.020724524
000170 37 0f a9 3d 47 c0 02 bd 9a fc ba 3d 70 9e 8d 3d
       0.08254855 -0.03192165 0.09130211 0.06914985
000180 2d 49 23 bd 91 94 fc 3b a7 32 f3 3c 84 96 4c bd
       -0.039864708 0.00770814 0.029687239 -0.04994823
000190 f2 23 5b 3b c3 a2 00 3d e0 ef b4 3d 07 78 d2 3c
       0.0033438173 0.03140522 0.08834815 0.025692
0001a0 55 97 22 bd 54 44 2c 3d 28 4a 3d 3b 20 de 5e bd
       -0.039695103 0.04205735 0.0028883312 -0.054411054
0001b0 00 32 df 3c 90 37 43 3d a0 34 ac bd 94 9e c1 bd
       0.027245522 0.04766041 -0.08408475 -0.094540745
0001c0 a9 e4 75 3d 8b bb 3e 3c c5 9a 86 3d 08 3a 7b 3d
       0.06003252 0.011641393 0.06572489 0.06133464
0001d0 a4 f1 86 bd a1 f8 92 bd af 1e 69 bd 20 e5 cc 3c
       -0.06589058 -0.071763285 -0.056914028 0.025011599
0001e0 71 46 bd 3d 9c 0a 37 bc 04 bc 6f bc 4d bb 57 3d
       0.09241951 -0.011171963 -0.014632229 0.05266886
0001f0 ec 57 59 3d a8 e4 9c 3d a3 f0 87 bd 35 1b 73 3c
       0.053062364 0.076608 -0.06637695 0.01483803

actor.4.weight f4 [128, 128]
000000 53 f3 35 bc 3f 99 96 bd 4c 5b 53 3c 50 59 d2 bc
       -0.011105376 -0.07353448 0.012900185 -0.025677353
000010 86 1d 73 3d 4a ff 58 bd 28 bd 46 3d 93 34 1e bc
       0.059354328 -0.052977838 0.048520237 -0.009656089
000020 bb 63 39 bd 49 f3 9a 3d 06 92 6b 3d d4 c1 b2 3d
       -0.045261126 0.07565934 0.057512306 0.08728376
000030 33 50 2a bd f3 0c 36 3c 73 ff 98 3d 74 af 60 3c
       -0.04158039 0.011111486 0.07470598 0.013713706
000040 ad da 84 3d 18 98 b4 bd ef 34 25 bd 6e 87 7e 3d
       0.064870216 -0.08818072 -0.040333685 0.062140875
000050 6c 0d fe bd f5 5e 87 3d 7d 51 c9 3c 36 0b 40 3c
       -0.12404904 0.066099085 0.02457499 0.011721423
000060 bf ab a4 bd 0f c2 ad bd b1 d0 0e bc 9b 0c 6e bc
       -0.080405705 -0.08484279 -0.008716748 -0.014529373
000070 d9 c7 58 bb 94 0b d5 3d 54 db e0 bc 5f 4a ee 3d
       -0.0033078103 0.10402599 -0.027448334 0.11635279
000080 cf 33 8a bd 34 31 b2 3d 04 6c 4b bc f9 58 9c bd
       -0.06748163 0.08700791 -0.01241589 -0.07634158
000090 75 f5 8e 3d e6 87 fc bc 45 4e a0 3d ea c7 b0 3d
       0.06980411 -0.03082652 0.07827429 0.086318806
0000a0 02 53 f7 bc d0 95 38 3d b6 10 a1 3d 3d 4e 35 bd
       -0.030190948 0.045064747 0.078645155 -0.044264067
0000b0 96 c9 14 bd cf ae c1 3d 19 21 58 3c b0 9e d0 3c
       -0.03632506 0.0945717 0.013191485 0.025466293
0000c0 4e 0b 89 bc bf 69 0c bb cb 58 b5 3d b7 c4 47 3d
       -0.016729023 -0.0021425334 0.088548265 0.048771586
0000d0 05 31 a0 3d ea 7b 88 bb ec ce 7b bc 5d fe d9 bd
       0.0782185 -0.0041651623 -0.015369158 -0.10644219
0000e0 10 2c b0 3a 30 18 7f bd fd 0c c7 bc 72 d5 d8 bc
       0.0013440866 -0.062278926 -0.024298185 -0.026468966
0000f0 3a 9b 59 bc 7a 12 56 39 86 4e 7c bd 80 4f da 3d
       -0.013281638 0.00020415513 -0.061598323 0.10659695
000100 71 34 1d bd 68 cc af 3d 05 84 f3 3c bb 14 d2 3c
       -0.03838009 0.08583909 0.029726038 0.02564465
000110 56 ad 5e 3d ca 80 55 3c 70 21 1d 3c 4a ae 83 3d
       0.054364525 0.013031194 0.009590492 0.064297274
000120 f1 4a 91 bc 15 d1 62 3d 8c 12 5b bd 0e c6 45 3d
       -0.01773593 0.055375177 -0.053484485 0.048284583
000130 b1 cf a2 bd 37 f2 53 3d f8 b2 82 bc 6d 95 10 3d
       -0.0794977 0.051744666 -0.01595448 0.035298754
000140 3f ff d5 bc 90 e7 a2 bc e1 a1 62 3d cc be d8 3d
       -0.026122687 -0.019885808 0.05533016 0.105832666
000150 6c f3 21 bd 4c 3e 42 bd af 27 33 3c 51 a5 15 bd
       -0.039538786 -0.047422692 0.010934754 -0.03653461
000160 db 05 43 bd 27 7e c8 bc 8c 56 13 3d 5e f7 6e 3d
       -0.047613006 -0.024474217 0.03597121 0.058341376
000170 79 a3 82 3c 1d 3d a8 3d 8d 12 c7 3c 4b e3 e2 bd
       0.01594709 0.082147814 0.024300838 -0.11078509
000180 50 b6 71 bb d6 9d 6e bd 11 1b f4 bd 1a 79 5e bd
       -0.0036882348 -0.058255993 -0.11919225 -0.05431471
000190 75 bc 97 bd 10 b6 af 3d c0 df 50 3d 49 13 1e 3d
       -0.07408992 0.085796475 0.050994635 0.03859261
0001a0 19 a5 56 bc f2 c5 8c 3c dc 49 7f 3c 8e 32 85 bd
       -0.013100886 0.017184231 0.015581574 -0.06503783
0001b0 17 28 94 bc 69 16 52 bd 93 37 44 bd 4d 43 89 bd
       -0.018085523 -0.051290903 -0.047904562 -0.0670229
0001c0 33 7e a4 bd 30 93 20 bd 31 28 4e 3d 36 5a c5 3c
       -0.08031883 -0.03920287 0.0503313 0.024090867
0001d0 9e 81 17 3d 49 fa 2e bc f6 e9 75 bd bf c5 59 bd
       0.036988847 -0.01067979 -0.060037576 -0.0531671
0001e0 9a dd cf bd 9e 1c 05 3e fe a1 99 3d a7 ee f2 bc
       -0.10149689 0.12999198 0.07501601 -0.029654814
0001f0 cf 16 d8 3d e0 3a c2 bc 7b 41 a8 3d 30 08 b6 3d
       0.105512254 -0.023709714 0.082156144 0.088882804
000200 de 85 93 bc e8 94 ab bd a0 73 1e 3d 2f 3c 35 3d
       -0.018008169 -0.08378011 0.038684487 0.04424685
000210 4b 59 f9 bc f3 25 38 3d 44 5d bb 3d c4 ad 2e 3d
       -0.030438086 0.044958066 0.091486484 0.042646185
000220 3e 1d 50 bd de fe 59 bd c3 7e 4b bd fe a9 38 3d
       -0.050809138 -0.053221576 -0.049681436 0.045083992
000230 5d 49 25 3d 92 4f 4c 3d 1a 1a 9b bc 9d 72 c0 3d
       0.040353168 0.04988057 -0.018933345 0.09396861
000240 4b 60 66 3d 9c 01 b5 3d ea d4 fe bc 71 c3 8b 3d
       0.056244176 0.088381976 -0.031107385 0.06824387
000250 e1 d2 6d 3c 19 27 e9 bc 27 e2 31 bb c2 87 9e bd
       0.0145156095 -0.028461026 -0.0027142854 -0.077407375
000260 07 4a 1b bc 17 6f 13 3d 12 ec 4f 3d 82 c5 c7 3c
       -0.009478099 0.035994615 0.050762244 0.024386171
000270 87 72 38 3d f5 3b 47 bd 6d 82 60 bd 2a e0 3d bc
       0.045031097 -0.048641164 -0.054811884 -0.011589089
000280 fa c3 ef 3c b1 92 23 bd 5d f3 f3 bc 03 88 a0 3d
       0.029268254 -0.039934818 -0.02977913 0.07838442
000290 43 ff cb bd a4 e2 ab bb 6f 90 52 bd 29 92 b2 bd
       -0.09960797 -0.0052455235 -0.051407274 -0.08719284
0002a0 e3 e6 4a b9 a8 43 68 bd 6f ac 8e bd 0a f0 2c 3b
       -0.00019350233 -0.056705147 -0.06966483 0.0026388192
0002b0 57 ad 10 3c 42 ec a0 bd ae 0f 81 3d 28 7a 61 3d
       0.00883039 -0.078575626 0.06301819 0.055048138
0002c0 ac 98 a1 bd b8 20 82 bd 06 7f b8 bc 97 2b a0 bd
       -0.07890448 -0.06353897 -0.022521507 -0.07820814
0002d0 7f c7 79 3d 3e d7 91 bd 14 34 85 bd bb 7a 56 bd
       0.06098127 -0.07121132 -0.06504074 -0.05236314
0002e0 59 13 98 3c e6 e8 d1 bd 3c 04 ef bc a3 c4 45 3d
       0.018563913 -0.102495 -0.029176824 0.04828323
0002f0 f7 69 7f 3d 6a 6d a4 bd 86 94 53 3d c6 76 84 bd
       0.062356915 -0.080286816 0.051655315 -0.06467967
000300 7f 28 b2 3d 3d 60 a7 bc ba 23 72 bd 35 c0 c3 bc
       0.0869913 -0.020431632 -0.059116103 -0.023895362
000310 2d e2 95 3d 74 7d 8b 3d 21 59 d0 3d a0 86 13 bd
       0.0731853 0.06811038 0.1017325 -0.03601706
000320 fc ba e2 bb e8 95 6e 3d 9b eb b4 bc ce 95 7b bd
       -0.006919263 0.05824843 -0.022085002 -0.06142216
000330 59 ed 85 3c fd cf c9 3d 21 06 9d ba 3f 9a b0 bc
       0.016348528 0.09854124 -0.0011979976 -0.021557925
000340 d1 3c a5 3c 00 80 f4 bc af f1 c1 3a 02 26 8f bd
       0.020170601 -0.029846191 0.0014796759 -0.06989671
000350 5c 4e a9 3c db 92 b8 bc 18 05 db bd 3f e8 10 be
       0.020667247 -0.022530964 -0.10694331 -0.14151095
000360 28 e6 08 3b eb 2b bd bd 35 71 c8 bd e3 ef 0e 3e
       0.0020889137 -0.09236892 -0.097872175 0.13958697
000370 ee fa ab 3d 96 2b 26 bc 56 48 89 3c c9 02 8d 3c
       0.083974704 -0.010142228 0.016758125 0.017213242
000380 71 2e be bc cd 53 b1 bd ef 2b a6 3d af 96 77 3d
       -0.023215504 -0.08658562 0.081138484 0.060446437
000390 18 2d 84 3d e4 fa ff 3d e1 9d 72 bc c1 32 33 bd
       0.064539135 0.124990255 -0.014808149 -0.043749575
0003a0 4b 24 42 3c 5e 8d 76 bd 7b 92 26 bc d8 1f 9e 3b
       0.011849473 -0.060193412 -0.01016676 0.0048255734
0003b0 0f be 78 3d 03 91 a0 bd 55 d2 bf bd af 6f 1b bd
       0.06072813 -0.07840159 -0.093662895 -0.037948307
0003c0 b9 7c 5a 3d 7f 28 68 3d 97 de 05 bd fa af 61 3d
       0.0533416 0.056679245 -0.03268298 0.055099465
0003d0 2b 6a 9a 3c 3b b8 1d 3d 11 df db bc ed de 3f bd
       0.018849453 0.038505774 -0.026839765 -0.046843458
0003e0 7c 2e fc 3c 5f 80 e0 3c c3 d1 4c bd 59 05 9e 3d
       0.030783884 0.027404962 -0.050004732 0.07715864
0003f0 6b f3 4d 3d b4 02 d8 3c 9e 8e 7e 3c 2a a7 0a bd
       0.05028097 0.026368476 0.015536932 -0.033850826

actor.4.bias f4 [128]
000000 1b 05 01 bc d4 34 89 3c 68 e2 4e 3d 49 7e b1 3b
       -0.007874752 0.016748823 0.050508887 0.0054166657
000010 9b b6 7d 3d 04 df 79 3c ac 16 4c bd 76 bb be bd
       0.061941724 0.015250925 -0.04982631 -0.09313099
000020 e3 46 a2 3d c5 75 6e bd 96 84 af 3c 8d 69 8e 3d
       0.07923677 -0.058217783 0.021425527 0.06953726
000030 41 73 4e 3d b6 e4 f7 bc b0 df 4b 3d 7f 9a ae 3d
       0.050402883 -0.030260425 0.049773872 0.085255615
000040 9f 3e 6c 3c 78 e4 31 bd c8 3e 0a 3d 64 26 00 bd
       0.014419227 -0.043430775 0.03375128 -0.031286612
000050 7f b7 a9 3c 86 6a 23 bd ac 97 7e 3d 42 ee 4c bd
       0.02071738 -0.03989651 0.062156364 -0.050031908
000060 ec 88 8b bc 00 a6 9c 3d c2 d2 3c 3d 76 b4 21 3c
       -0.017033063 0.076488495 0.04609943 0.009869685
000070 c5 6e 18 bd a7 6d c0 3d 2c 5d 2c bc 36 c4 0b be
       -0.037215013 0.093959145 -0.010520261 -0.13649067
000080 e8 d1 9e bc 41 11 f2 bb 73 94 e4 3c 2e d5 42 3b
       -0.0193872 -0.0073873107 0.027902817 0.0029729116
000090 ee 74 7f bd 8b df 68 3d 8f 58 db 3c 3a 0f 19 3b
       -0.062367372 0.056853812 0.026775626 0.0023355023
0000a0 63 6b 36 3d 7a 4c ee bd 47 09 0d 3d d2 48 95 bd
       0.044536006 -0.116356805 0.034432676 -0.0728928
0000b0 b1 7f 0a bd 4f 37 02 3c d6 09 a3 bc 9b 8f 8a bd
       -0.033813182 0.007947757 -0.019902151 -0.06765672
0000c0 0d 88 b8 3d 3e 3e d5 bd 98 d3 62 bd db fc d7 3d
       0.090103246 -0.104122624 -0.055377573 0.10546275
0000d0 07 14 87 bd 0e 40 57 bd 26 b1 c6 bd 0e cf 10 3b
       -0.06595617 -0.05255132 -0.09701757 0.002209607
0000e0 50 8e 90 3d d4 4d cd bc 9f 3e 82 3d 8d 30 5e 3b
       0.07058394 -0.025061525 0.063596 0.003390345
0000f0 10 91 c9 bc a0 8a 84 bc f0 9a 6e 3c 70 59 b9 3d
       -0.024605304 -0.016179383 0.014563307 0.09050262
000100 af 5b be 3c 25 4f 9f 3d 31 2f 80 3b c5 28 80 3d
       0.023237078 0.077787675 0.0039118757 0.06257776
000110 ea 1d 40 bd e0 13 84 bd 80 78 22 3c b5 98 07 3d
       -0.04690353 -0.06449103 0.009916425 0.033104617
000120 3c 42 67 bd e0 39 fb 3b ae 04 54 bc 43 eb ac 3d
       -0.05645965 0.0076668113 -0.012940569 0.0844331
000130 ee 90 8b 3d 32 8b e3 bd 6a ec fc 3c 6d f4 1f bc
       0.068147525 -0.11110534 0.03087445 -0.0097628655
000140 fc ec 0c bd 81 8d 83 bd 74 7b 5b bd e2 b5 36 3c
       -0.034405693 -0.06423474 -0.05358453 0.011151763
000150 0d fb 58 bd a5 1d cc bd 05 8e 87 3c ad 6c ef 3c
       -0.052973796 -0.09966592 0.016547212 0.029226625
000160 84 a6 bc 3d 63 48 90 3c 99 f1 46 bc e9 18 1c bd
       0.09211448 0.017612642 -0.012142562 -0.038109694
000170 a0 8b 80 bc cc af 91 bd 37 c6 76 bd 25 51 63 3d
       -0.015691578 -0.07113609 -0.060247626 0.055497307
000180 4a 2c 2d 3d 60 3e 05 bd 50 65 06 3d 42 32 7f 3d
       0.042278565 -0.03253019 0.032811463 0.06230379
000190 1d 3e a8 3d 65 79 e4 bc 7c 58 da bd 8e 84 b2 3b
       0.08214972 -0.027889917 -0.10661408 0.0054479307
0001a0 63 da 36 bd 75 46 87 bd f8 f6 dc bc b1 9a 9a 3c
       -0.044641864 -0.066052355 -0.026973233 0.01887259
0001b0 96 d5 6a 3b 1e b4 01 bd 25 f7 ce bd 4f e6 e4 3d
       0.0035832874 -0.031665914 -0.10105733 0.111767404
0001c0 a9 dc 6b 3c a4 10 2a 3c cc 48 21 bc 3b f9 79 bd
       0.014395871 0.010379944 -0.009844016 -0.0610287
0001d0 88 77 35 3d 93 15 38 3d 2b e6 98 bd 96 b1 93 3d
       0.044303447 0.04494245 -0.07465776 0.07211606
0001e0 a2 04 89 3c 44 43 75 bd c5 a3 89 bc fa c6 f3 bc
       0.016725842 -0.059878603 -0.016801724 -0.029757965
0001f0 c9 9b ab 3b 6b 94 23 bd 3e 0c f3 3d 47 6f 5c bd
       0.005237077 -0.039936464 0.118675694 -0.05381706

actor.6.weight f4 [9, 128]
000000 56 04 11 bd 85 69 24 bc 71 29 64 3d 2a 76 9b b9
       -0.035404526 -0.010034923 0.055703584 -0.00029651943
000010 0b d4 8a 3d 8d c5 c6 3d e4 19 83 3d 29 3b 3c bd
       0.06778725 0.097056486 0.064014226 -0.045954857
000020 de 85 0f bd be ab 3d 3b 7c d5 ca bd 2c 5c 7b bd
       -0.035039775 0.0028941478 -0.09904 -0.0613672
000030 b8 31 5e bd 52 81 09 bd a4 43 80 3c 00 b2 ca bd
       -0.054246634 -0.033570595 0.015657254 -0.09897232
000040 8a 76 37 3d 7a 03 f8 3d ff ad 8f 3d d6 5a 16 bd
       0.044790782 0.12110038 0.07015609 -0.03670772
000050 15 73 a2 ba be db a6 3c 41 dd b4 3c 79 7f 98 bd
       -0.0012393916 0.020368453 0.022078158 -0.074461885
000060 ff 72 61 3d 03 18 ab bb a4 4f 22 3d 87 b8 5a 3d
       0.05504131 -0.0052213683 0.039626732 0.053398635
000070 98 4f 8f 3d 86 0d b2 bd b1 2e 15 3d a1 89 b7 3d
       0.06997603 -0.08693986 0.03642148 0.089617975
000080 98 92 41 3d be c5 80 3d a7 d3 3b bd 16 aa 6f bd
       0.047258943 0.06287716 -0.045856144 -0.058511816
000090 f3 b4 8d 3d 98 aa c2 bc 84 83 8e bd 8f be 80 bd
       0.06919279 -0.023762986 -0.06958678 -0.06286346
0000a0 ac 73 a6 3d 58 60 b0 3d 6e 1a fa 3c e3 70 f3 3d
       0.081275314 0.08612126 0.03053018 0.11886766
0000b0 a7 ee 0b 3c e7 bd 82 3d 90 07 10 3c de 22 8c 3d
       0.008540786 0.06383877 0.008790866 0.06842588
0000c0 4f 82 f3 bc 54 99 bf 3d 24 08 a2 bc 35 5d ca bd
       -0.029725222 0.09355417 -0.019779272 -0.09881059
0000d0 a2 9e bf bd a1 be 00 bd bb ad 98 3d be 02 da 3c
       -0.09356429 -0.031431798 0.074550115 0.026612636
0000e0 48 e0 02 bd 9d 0b 97 3d 03 f3 5f bb ed aa 31 3c
       -0.031952173 0.07375262 -0.0034171946 0.010843975
0000f0 48 24 3c bb b6 cd d8 3d 5d 01 1f bd 46 bc 9c bd
       -0.0028708149 0.10586111 -0.03881966 -0.07653098
000100 3f 9a db 3c e1 f5 e1 bd c9 d5 63 3c 0c 19 e6 bc
       0.026806949 -0.11033226 0.013905951 -0.028088115
000110 ab e4 6b 3d 06 7c 6e 3a 2f ab ac bd f5 74 7a bd
       0.05759112 0.00090974604 -0.08431088 -0.061146695
000120 d0 57 1d bd eb b8 39 bc 25 f6 d7 bb 14 14 a2 3d
       -0.038413823 -0.011335592 -0.006590622 0.07913986
000130 6a 57 82 bb 7d c6 38 3d 94 4a 1b 3d 20 03 40 3d
       -0.0039777057 0.04511117 0.03791292 0.04687798
000140 15 47 8c 3d e8 9b 89 bd 57 1b a3 bd b7 26 0f 3c
       0.06849495 -0.0671919 -0.07964199 0.008737258
000150 f3 e8 a8 3d e7 c3 17 bd c1 a8 83 bc 43 11 7c bd
       0.082475565 -0.03705206 -0.01607168 -0.0615399
000160 50 0c 83 bc 90 30 cd bd 7a 90 2c bc 83 0d 95 ba
       -0.015997082 -0.10019028 -0.010532493 -0.0011371825
000170 2a 4a d3 bd 3f d6 ab 3d eb 57 10 3d d4 8c c6 bc
       -0.1031688 0.083904736 0.035240095 -0.024237074
000180 04 0a 8a bd 4e 7b 94 bd ca a2 07 3c 56 cb d6 ba
       -0.067401916 -0.07250081 0.008278558 -0.0016387503
000190 0a f0 fc ba ca f7 b6 3d f2 a8 c5 3d b6 eb 99 bd
       -0.0019297611 0.08933981 0.096513644 -0.075156614
0001a0 cd 11 36 3d 7e fa d4 3d f6 d8 3b 3d 3e 82 bb bd
       0.04445057 0.1039934 0.045861207 -0.09155701
0001b0 13 33 0a 3d 86 05 b2 3c ff 14 79 3d 1a 34 c0 bd
       0.033740114 0.02173115 0.06081104 -0.093849376
0001c0 5f 1e 0d 3d c8 72 70 3b 0d 99 d0 bb d2 c2 86 3d
       0.034452792 0.0036689509 -0.0063659013 0.06580128
0001d0 cc f9 6d 3b 3d 73 ae 3d 4a a1 dc 3c fd 4f 97 3c
       0.003631222 0.08518074 0.026932377 0.018470759
0001e0 ff bf 83 bc 37 04 31 bd 89 79 60 3d 28 26 c2 3d
       -0.016082762 -0.04321691 0.054803405 0.09479934
0001f0 87 29 0e 3d a7 bf 6a bd 26 1a f4 3c 7a 2b d0 3d
       0.034707572 -0.05731168 0.029797625 0.101645425
000200 17 11 92 bc 02 6f ac bc d9 c8 25 bd 22 29 a3 bd
       -0.017830415 -0.021049026 -0.040474746 -0.0796683
000210 6c 34 8a bd ce 2d 60 bd 75 68 43 3d b3 ba 65 3d
       -0.0674828 -0.054731183 0.04770704 0.056086253
000220 58 58 36 bd 91 c3 a0 3d 5b 6b 95 bd 4c 71 a9 3d
       -0.044517845 0.07849801 -0.07295867 0.08273563
000230 bb 10 7c 3a 6e 4c a7 bd 15 ce ac bd 21 a9 0f 3c
       0.000961553 -0.08168875 -0.084377445 0.008768351
000240 bc 60 be 3d d0 56 49 3d 2a ef 33 bc 1c 2c 7d 3d
       0.09295794 0.049155056 -0.010982314 0.061809644
000250 e4 0c 6e 3b 0f a0 06 3d 17 8c ab 3d 13 0c b1 3c
       0.0036323601 0.032867488 0.083763294 0.021612203
000260 c2 6c c3 3c 01 0d 24 bd c3 c4 60 bd a2 dc 7f bd
       0.02385557 -0.040051464 -0.054875147 -0.06246627
000270 ca cd 5c 3d d3 cb 0f bd ea 4d 2d bc 45 b9 a7 3d
       0.053907193 -0.03510649 -0.010577658 0.08189634
000280 70 1e a5 bb fc 2d b8 3c 19 c3 72 3d 8a 71 8a bd
       -0.005039029 0.022482865 0.05926809 -0.06759937
000290 d2 2c 86 bd b1 e0 8d 3d 72 d6 82 3d 29 ec 34 3d
       -0.065515175 0.06927622 0.063885584 0.044170532
0002a0 d8 9d 83 bd f1 0d 9b 3c 77 e7 bf bd f3 0c 81 bc
       -0.06426591 0.018927546 -0.0937032 -0.015753245
0002b0 ab d0 47 3d b0 af eb bc 3d 3f ce 3c 55 a6 d5 3b
       0.048782986 -0.028770298 0.025176639 0.0065200725
0002c0 bb b1 cb bc e6 a5 94 3d aa eb 7f 3d 43 2f 76 bc
       -0.024865022 0.07258205 0.062480606 -0.0150259165
0002d0 2c 15 aa bc 42 50 36 bd f6 94 0c 3d 73 5b 47 bc
       -0.020762049 -0.044510134 0.034321748 -0.012167799
0002e0 d4 74 da bd db 3f 17 bb 1b 69 4d bd f4 c5 38 bc
       -0.106668144 -0.0023078832 -0.050149065 -0.011277664
0002f0 75 1b 4f bc 15 92 dc 3d 1c 4c 27 3d f0 96 55 3d
       -0.012640824 0.107700504 0.040844068 0.0521459
000300 21 0c b7 3d 0e 12 80 bc d5 aa 6c 3d a9 7d ee 3c
       0.0893786 -0.01563361 0.057780106 0.029112654
000310 8d 7b da bb 72 01 dc 3d 71 ca 9a 3c a2 fb a0 ba
       -0.0066675604 0.10742463 0.01889536 -0.0012282024
000320 8e 68 58 3c 4a 29 45 bd ca b9 aa 3d be 46 19 bd
       0.0132085215 -0.04813508 0.08336218 -0.03742098
000330 b8 10 88 bd 06 dd 43 3c 83 b5 20 bd c9 fb 9e bb
       -0.06643814 0.011954552 -0.039235603 -0.0048517925
000340 c4 a2 95 bd fc e4 f7 3b e2 c8 81 3d f5 4b 9c 3d
       -0.07306436 0.007565139 0.063371435 0.07631675
000350 e9 09 9e bc 2e a6 34 bd 97 b9 3a 3d 53 ee 9d 3d
       -0.019291835 -0.044103794 0.04558715 0.07711472
000360 9e bb ca bd 66 13 6d 3d 06 62 51 3d 6c ac 09 bc
       -0.098990664 0.057879828 0.051118873 -0.008402925
000370 7c ac cc bd 84 66 3b 3d 6d cb 57 bd 51 3d 82 bd
       -0.09993836 0.045752063 -0.052684236 -0.063593514
000380 01 ba 70 bd b3 26 74 3d 68 c6 1b 3d 3f 91 c3 bd
       -0.058771137 0.05960722 0.03803101 -0.09549188
000390 83 b8 64 bd 31 3e 91 bd e5 c8 a9 3d f3 61 99 bc
       -0.055840027 -0.0709194 0.08290271 -0.018723464
0003a0 22 b6 19 bd 77 0a f0 3c cc 4f a3 bc 17 ad 93 bd
       -0.03752721 0.029301865 -0.019935511 -0.07210749
0003b0 70 9d 89 bd 15 38 7f 3d 42 0c 5a 3c 6b de b8 bd
       -0.06719482 0.062309343 0.013308587 -0.09026798
0003c0 1e 43 21 bd 69 1a 1e 3d 4a 44 4a 3d d7 f6 a4 bc
       -0.03937065 0.038599405 0.04938153 -0.020137234
0003d0 96 de 7e 3c 97 ac a3 3d 9c 1e da 3d f4 1c a7 bd
       0.015555998 0.07991903 0.106503695 -0.08159819
0003e0 69 f7 e1 bd d6 e8 9d 3d 05 1d 98 3d df 26 dd 3c
       -0.11033518 0.077104256 0.0742741 0.026996074
0003f0 4f e0 1a bd ad 29 dc 3b f6 bb a9 bd d3 9e 4d ba
       -0.037811574 0.0067188353 -0.08287804 -0.0007843796

actor.6.bias f4 [9]
000000 62 e8 b6 3c dc 0f f3 bb b4 e2 96 3c c4 a2 a3 3d
       0.022327606 -0.007417662 0.018418647 0.079900295
000010 d9 08 37 3c e6 70 a3 bc 39 ad 86 bb 75 72 92 3d
       0.011171543 -0.019951295 -0.004110005 0.07150737
000020 3d 16 8f 3b
       0.0043666647
