ippo_algorithm_belief_catmouse/checkpoints/ppo_actor_1comm_rad_exp_2run_0_catmouse.pth (torch, 167168 bytes, 8 tensors)

actor.0.weight f4 [128, 51]
000000 18 d4 4c 3d 92 6f b0 3d 51 6e 84 3b a8 b9 d6 bb
       0.050006956 0.0861503 0.004041471 -0.0065528937
000010 bd 01 5b bc c4 75 f9 3d 5b f4 11 be 79 cd 8d 3d
       -0.013367114 0.12180665 -0.1425337 0.069239564
000020 ff 5d ef 3c aa 0f c4 bd 69 29 95 bd 87 06 ba bd
       0.029219626 -0.095733 -0.07283289 -0.09083276
000030 4f 6d b0 bb 67 fb b9 3d b1 47 ad bd 77 2d 82 bd
       -0.0053841243 0.09081154 -0.0846094 -0.06356328
000040 af 19 0c bd e5 5a 95 3d 96 ea 61 bd e8 6f f2 3b
       -0.03420418 0.072927274 -0.05515536 0.007398594
000050 a7 38 d0 bd 3e 50 d9 3d f6 0a 02 bd 73 d6 c8 bd
       -0.101670556 0.10611008 -0.031748734 -0.09806528
000060 12 d1 52 3d ee bf 10 3e fb 92 10 3e db 8b bf bd
       0.051468916 0.14135715 0.14118569 -0.09352847
000070 6f 5f e1 bd 1b fb f9 bd b6 79 cb bd d6 f3 11 3e
       -0.11004531 -0.12206098 -0.09935324 0.14253172
000080 ef 44 b0 3d a8 aa 49 3d fb 2c c5 bd b9 0a 23 bc
       0.08606898 0.049235016 -0.0962772 -0.009951287
000090 1f 73 25 bd 22 ca c2 3d 12 39 79 bd 37 89 15 be
       -0.04039299 0.0951121 -0.060845442 -0.14603125
0000a0 0c 59 c0 3c 07 6a 13 3d 4a 9a 03 be 1c 15 d9 3d
       0.02347996 0.035989787 -0.12851825 0.105997294
0000b0 a8 73 ba 3d 69 0a 16 be 11 5b 80 bd 04 cb 6a bd
       0.09104091 -0.14652409 -0.062673695 -0.057322517
0000c0 51 a6 b1 3d f7 21 a7 bd 80 ff 1a 3c f3 ec b9 3d
       0.086743005 -0.08160775 0.00946033 0.090783976
0000d0 3e 53 09 3e d9 75 79 bd 0f 74 3c bd dc a7 d4 3d
       0.1341066 -0.060903404 -0.04600912 0.10383579
0000e0 b8 54 85 3d 65 d6 96 3d 56 67 8e bd 86 66 b0 bd
       0.065102994 0.07365111 -0.069533035 -0.08613305
0000f0 b0 15 59 bd 52 42 00 3e 1a f0 bb bd 62 c6 bf 3d
       -0.0529992 0.12525299 -0.09176655 0.093640104
000100 fa fd b1 bd d7 90 61 bd 4e 5b ca 3d 08 3c 0d be
       -0.0869102 -0.05506977 0.09880696 -0.13792431
000110 19 2a a5 bc 68 f9 99 bd d7 f1 47 bd a1 89 63 bd
       -0.020161675 -0.075182736 -0.04881462 -0.055551175
000120 7f 5a ac 3c 03 e7 fa 3d ee ef c8 bd cf 15 f3 3b
       0.021039246 0.12251093 -0.09811388 0.0074183713
000130 b1 97 82 3d 53 bb 7e bd f2 d5 fc bd 7d 43 c6 3d
       0.06376589 -0.062190365 -0.12345494 0.09680841
000140 45 58 35 3d 2f 8b 16 3d ca ba 03 be 48 02 ff 3c
       0.044273634 0.03675383 -0.12864223 0.031129017
000150 35 eb 57 bd 20 ae a1 bd 32 45 20 3d 46 c9 fb 3b
       -0.052714545 -0.0789454 0.03912849 0.007683906
000160 79 73 cd 3d 7b 3e 20 3d 7f d1 d6 bd f2 96 bb 3c
       0.1003179 0.039122086 -0.10489177 0.022899125
000170 6f ec a1 3d ec 4a 03 be 0c cc 87 3d a6 ba c4 3d
       0.07906424 -0.12821549 0.06630716 0.09605913
000180 53 ef 9c bd 2a 54 34 bd 0a 9d 66 bd e5 18 58 3a
       -0.07662835 -0.044025578 -0.056302108 0.00082434557
000190 76 8d 08 3e 34 8a 1f 3d 69 76 19 bd 27 42 c8 3d
       0.13335213 0.03895016 -0.03746644 0.097782426
0001a0 7f 9e e2 bd 63 ac a1 3d de cd 61 bd 99 2f 94 bd
       -0.11065387 0.07894208 -0.05512797 -0.07235641
0001b0 3e 1c 2e bd c3 02 75 3d 19 e6 98 bd 78 75 0a 3d
       -0.042507403 0.059817087 -0.07465763 0.033803433
0001c0 17 44 e1 bd cc 80 d8 3d 75 72 45 bc 5b 2e 0d be
       -0.10999315 0.10571441 -0.012051214 -0.13787214
0001d0 52 63 01 3e 0b 8f 8c 3d d7 c9 2e 3d 96 de 96 bd
       0.12635544 0.06863221 0.04267296 -0.07366674
0001e0 5b ab c6 bd 22 bf d5 bc fb 1d f2 3c fe 18 bc 3c
       -0.09700652 -0.026092116 0.029555311 0.022961136
0001f0 5b f2 15 bd 76 01 7c 3d a1 6e f6 bd 8e 59 ba 3d
       -0.03660808 0.06152483 -0.120328195 0.090991125
000200 5c 5a d5 bc 35 81 24 bd 80 1e bd bd 97 a8 86 3d
       -0.026044063 -0.040162284 -0.09234333 0.06575125
000210 ea 33 d6 3c 0f a9 64 3c 30 cb 11 3e 5c 5d 7f 3d
       0.026147801 0.013956322 0.14237666 0.062344894
000220 e4 58 93 3b 11 5c 78 3d 19 35 53 bd f7 8b b3 bd
       0.0044966806 0.060634676 -0.05156431 -0.087669306
000230 44 92 c6 3c 4d ce f8 3d ee 45 07 be 58 f0 d9 3d
       0.024239667 0.12148724 -0.1321027 0.10641545
000240 60 8f fc bd 2a 36 fc 3d ab 7d 8d 3d 2c e4 74 3c
       -0.12332034 0.123150185 0.06908735 0.014946979
000250 6d 09 09 3d 3b fc 7e 3d 3c 9f 53 3c b3 7f 34 3d
       0.033456255 0.062252264 0.012916382 0.044067096
000260 7d 68 bc bc b2 2c eb bc ac 4a 52 3d a5 ce ba 3d
       -0.022999043 -0.028707836 0.051340744 0.091214456
000270 f4 37 0f 3d 4c 78 89 3c 79 5e a9 bd 84 77 cd bd
       0.03496547 0.016780995 -0.08269972 -0.100325614
000280 36 e4 5e 3d e0 40 fc bc f6 36 d9 3d 88 1d 1c 3d
       0.054416858 -0.030792654 0.10606186 0.0381141
000290 10 01 da bd 69 6c 84 3b 32 6f f2 bc 7a 58 e6 bd
       -0.10644734 0.004041244 -0.029594038 -0.11247344
0002a0 94 c8 c9 bd 39 36 b0 bd 33 83 3d bd 3d 63 14 bc
       -0.0985271 -0.08604092 -0.0462677 -0.009056863
0002b0 26 af ac bc a3 59 a8 bd 2c af 74 bd ee 73 32 bd
       -0.021079611 -0.08220222 -0.05973737 -0.04356759
0002c0 6b 9c 2d 3d 1f 82 52 bd 23 61 9b 3d cb 01 a5 bc
       0.0423855 -0.051393624 0.07586887 -0.020142457
0002d0 db 97 c5 3d 4b 3e ec 3d 44 9b 15 be 46 98 0c 3e
       0.09648105 0.11535319 -0.1461001 0.13729963
0002e0 46 72 95 3d 90 ad 9d 3d 9e 6e 43 bd 42 8c 1e 3d
       0.072971866 0.0769912 -0.047712915 0.03870798
0002f0 d9 92 b3 3d 69 ce 7e 3d 29 9f 52 bd d4 fa 1b bd
       0.08768243 0.062208567 -0.05142132 -0.038081005
000300 58 79 00 be f1 26 e9 bd 56 bb d5 bd 01 e0 f3 bd
       -0.12546289 -0.113843806 -0.10436122 -0.1190796
000310 37 91 0e be 81 38 11 3d 7e b2 02 be 6b bc ba 3d
       -0.13922583 0.035454277 -0.12763402 0.09117969
000320 04 0d 57 3d 36 bc 63 bd 41 0d bf bc 37 ec 23 bc
       0.052502647 -0.055599414 -0.02332175 -0.0100050485
000330 2b e8 ca bd 1b 02 9c ba b3 3d 53 bd 96 d9 e0 bd
       -0.09907564 -0.0011902483 -0.051572513 -0.10979001
000340 11 64 6c bd bd 59 fc bc 20 21 8d bd db 3d 53 bd
       -0.05771262 -0.03080451 -0.06891084 -0.05157266
000350 25 c9 0e bb 83 78 eb 3d a8 6c 25 3b 0a 57 ab bc
       -0.0021787372 0.11497595 0.0025241766 -0.020915527
000360 a2 db 01 bd a0 91 ac 3d ff de a7 bd b7 2d 83 bc
       -0.0317036 0.08426213 -0.0819683 -0.01601301
000370 3c 1c cd bd fe 2c de bd e1 8a 9d bd c8 e9 50 bd
       -0.10015151 -0.10848425 -0.07692505 -0.0510042
000380 e0 b3 b7 bd 82 08 02 3e 73 86 b8 bd 7a 3a 9e 3d
       -0.08969855 0.12698558 -0.09010019 0.07725997
000390 36 42 8a 3d 2e af b5 3b fd ae a7 3d 05 ee be 3d
       0.0675091 0.0055445647 0.08187673 0.093227424
0003a0 b2 68 18 be 4d 5b c9 b7 52 d3 3e bd b6 dd 0a be
       -0.14883688 -2.4003582e-05 -0.04658825 -0.13561139
0003b0 7a ac 7c bd bb af 68 3d ed 38 0b 3e 5e c6 fe 3d
       -0.061687924 0.056808215 0.13595934 0.12440179
0003c0 e2 b1 7d bd 93 7d a6 bd 91 01 9f bc 49 a9 c3 bd
       -0.06193722 -0.0812942 -0.019409927 -0.09553773
0003d0 03 4f 07 bd c1 49 ea bd cf f3 c5 3d c8 0a 66 3d
       -0.033034336 -0.11439849 0.096656434 0.056162626
0003e0 88 ce ac bd 55 dd ea bd cd c9 b3 bd b0 9f 46 bd
       -0.0843783 -0.11467997 -0.08778725 -0.048492134
0003f0 97 2c d4 3c 70 f1 16 be 6e 8b bb 3d 8a a0 e4 bd
       0.025900168 -0.14740539 0.091574535 -0.11163433

actor.0.bias f4 [128]
000000 4a a3 8d bd 30 2b d0 3d 86 22 f6 3c d0 8d 8f bd
       -0.069159105 0.10164487 0.030045759 -0.070094705
000010 da b1 04 bd 70 b0 60 3c a2 99 82 3d b6 55 e7 bc
       -0.032396175 0.013713941 0.063769594 -0.028239112
000020 b1 54 50 3d 36 eb 9c bd 90 36 b8 3d ee 32 28 3d
       0.050862018 -0.076620504 0.08994782 0.041064195
000030 45 41 1d bd 87 eb 9a bc e2 7c 03 be 56 73 dd 3d
       -0.038392324 -0.018911136 -0.12840608 0.10813014
000040 b9 c0 0f bd e9 70 a8 bb 60 ec d9 3d 74 15 34 bd
       -0.035095904 -0.005140413 0.10640788 -0.04396577
000050 da 35 0e 3e 48 71 0a be bd f5 17 bd 0f 29 62 3d
       0.1388773 -0.13519776 -0.03709959 0.055214938
000060 0a c4 2f bb ec 51 62 3b 1f c8 f6 bc ee 30 95 3c
       -0.002681973 0.0034533693 -0.030124722 0.018211808
000070 0b 88 08 be d0 2e f2 bd 60 97 a7 3d 0c 4a 53 3d
       -0.13333146 -0.11825335 0.08183169 0.05158429
000080 c7 ad a3 3c c3 de 81 3c f8 74 5d 3d 78 3d 17 bc
       0.019980324 0.015853291 0.05406663 -0.009230964
000090 66 61 67 bd 62 eb 31 bd 79 2a 29 bc 8f 4f c1 3d
       -0.05648937 -0.04343737 -0.010325068 0.09439003
0000a0 9b 23 92 3d f2 9a 09 bd e9 a6 b2 3d 73 73 aa 3c
       0.071356975 -0.033595033 0.08723242 0.020807004
0000b0 07 5f 39 bd 2a 93 47 3b 4d d8 03 3e 29 6d f0 bd
       -0.04525664 0.0030452707 0.12875481 -0.11739571
0000c0 a8 0c b1 3d dd d6 04 bb 99 dd f8 bd 18 f8 23 3d
       0.08644992 -0.002026967 -0.121516414 0.040031523
0000d0 c5 da 91 3c df d9 98 bd 2d 97 8c 3d f4 fb 78 3d
       0.017804513 -0.074634306 0.06864772 0.060787156
0000e0 54 15 53 bd ec 33 0f 3d d4 af a4 bc 65 c2 0d bd
       -0.051534012 0.034961626 -0.020103373 -0.034609217
0000f0 cc fd ba 3d f1 40 a3 bd 6c eb f4 bd 50 59 8d bd
       0.09130439 -0.07971371 -0.11958966 -0.06901801
000100 46 d5 87 bc 1b f8 7a 3d ee 80 7d bd 1b 5c 60 bd
       -0.016581189 0.061271768 -0.061890535 -0.05477534
000110 6a d9 ae bd 20 4a 2c bc 34 f3 3c bd 4b fe e6 3d
       -0.08537562 -0.01051572 -0.046130374 0.11278971
000120 6f 26 23 3d 4b 8c ce 3c ed 1b c9 3c 72 23 b0 bd
       0.039831575 0.025213381 0.024549449 -0.08600511
000130 15 53 f4 3d ba b3 de bd a2 ae dc 3d 88 92 be 3c
       0.11929909 -0.10874124 0.10775496 0.02326323
000140 64 1d da bd e5 e0 b3 bd 73 bc 08 3c ea 8f e5 3d
       -0.10650137 -0.087831296 0.008345711 0.1120909
000150 be d6 7e bc 3c 17 bb 3b 1d 14 00 3e 4e d8 1f 3d
       -0.015554128 0.005709557 0.12507673 0.039024644
000160 ea 76 2d bd b4 54 9b bc 47 e5 15 bd 62 55 03 3e
       -0.042349733 -0.018961288 -0.03659561 0.1282554
000170 c1 3e 8a 3d f5 ec c8 bd a1 cc 03 3d 40 ef 02 bc
       0.067502506 -0.09810821 0.03217757 -0.007991612
000180 85 14 09 be 4d fa 6c 3d ad c9 4a 3d 55 9b 04 3e
       -0.13386734 0.057855893 0.04950874 0.1294988
000190 8b 13 80 bd d0 8e 0e 3d ab fd b7 3d 82 a8 e9 bd
       -0.062537275 0.034804165 0.0898393 -0.114090934
0001a0 f8 8d 02 3e 9e 23 01 3e 8d 60 ba 3d f1 5a 36 bd
       0.1274947 0.12611243 0.09100447 -0.044520322
0001b0 54 20 97 bc 00 19 d2 3d 2e 54 dd bd d3 8d dc 3d
       -0.018448032 0.102586746 -0.108070716 0.10769238
0001c0 95 a2 f1 bd 9d 3b 12 3d 22 15 ba 3c 90 35 95 bd
       -0.11798588 0.035701383 0.022715155 -0.07285607
0001d0 b9 40 07 3e 0e 9b dd 3d 66 01 ec bd 71 4f 44 bd
       0.13208283 0.1082059 -0.11523704 -0.047927324
0001e0 9e 96 e0 bd cf 4b 07 3d 15 44 24 bd 58 3d 05 be
       -0.10966228 0.03303128 -0.04010399 -0.13011682
0001f0 62 b0 1b bd 39 6b ee bd b0 50 9e bd f4 e9 06 3e
       -0.03801001 -0.11641545 -0.07730234 0.13175184

actor.2.weight f4 [128, 128]
000000 d2 93 82 bd f9 2f a6 3d f8 7f 20 3d 78 60 d3 39
       -0.06375851 0.08114619 0.03918454 0.0004031693
000010 75 a3 54 3c 8f 4f c3 bd 39 aa a6 bd 3f dc b6 3d
       0.012978424 -0.09536659 -0.08137936 0.08928727
000020 d9 36 8d bd f8 fd 03 bd 77 c1 aa bc 73 d7 94 3d
       -0.06895227 -0.032224625 -0.020844204 0.07267656
000030 06 37 5b bd 93 cf 88 bd 35 1a 25 3d 07 92 63 bc
       -0.05351927 -0.06680217 0.040308196 -0.013889796
000040 9d 7e de bc 99 7f 68 bd 7e ff 04 3d 7e cd 4a bd
       -0.027159983 -0.05676231 0.03247022 -0.04951238
000050 cb be 7c bd 2d 1a 74 bd ed 3f 9e 3d ca 2a 08 3d
       -0.06170539 -0.059595276 0.077270366 0.03324393
000060 5c ba 4f bd 64 9c 1d 3c 4b 75 0e ba 96 e5 86 bd
       -0.050714836 0.009619806 -0.0005434348 -0.06586759
000070 7f 2f 16 bd 53 75 23 3d 7e 78 b3 3d 9f 45 66 bd
       -0.03666639 0.03990681 0.087632164 -0.05621874
000080 41 8c a2 bc ba eb 3b 3d 67 2c 90 3c 13 3a ba bd
       -0.019842269 0.045879103 0.017599298 -0.09093108
000090 e5 c5 32 bd 64 33 97 3d 60 64 cb bc 5e f7 f6 bb
       -0.04364576 0.07382849 -0.024828136 -0.0075368127
0000a0 f0 30 db 3c db 56 8e bd a1 a1 7b 3d e7 68 3b 3a
       0.026756734 -0.0695016 0.06143344 0.00071491156
0000b0 3b 24 a5 3d 17 23 f0 b9 8f 8a ac 3d 8b f0 1e bc
       0.08063551 -0.0004580251 0.084248655 -0.009700905
0000c0 cb f5 a8 bc 01 08 8b 3a 14 f3 45 3c 9e de a5 bd
       -0.020625016 0.0010607244 0.01208188 -0.080991015
0000d0 54 6b 82 bd 2e 7e 78 3d 4b b3 13 bc 05 07 82 bb
       -0.063681275 0.06066721 -0.009014915 -0.003968122
0000e0 f4 61 cb 3d b3 89 f9 3b 38 70 a9 bb 64 70 5f 3d
       0.099307925 0.007615292 -0.005170848 0.054550543
0000f0 a3 9d 25 3d 33 87 a1 3c 98 e0 f8 bc 86 7a 6e 3d
       0.040433537 0.019717788 -0.030380532 0.058222316
000100 ed 08 d2 3c 91 bc 72 bd 53 95 b2 3c bf 9f a7 bc
       0.025639022 -0.059261862 0.021799719 -0.020461915
000110 3a 23 71 3d 95 72 39 bc 3e a7 62 bd c2 34 4d 3d
       0.058871485 -0.011318822 -0.055335276 0.050099142
000120 ab a6 70 3d 73 65 a8 3d 37 bf a6 3d 8c a0 52 bd
       0.058752697 0.08222475 0.0814194 -0.05142264
000130 ca ff 6a 3d 40 06 6b bd 3a 4d b1 3d 17 b0 a3 bc
       0.057372846 -0.057379007 0.08657308 -0.019981427
000140 aa 8d 7c 3d 54 59 a1 3d c8 f6 50 3d 03 b0 ff 3c
       0.06165854 0.07878366 0.0510166 0.031211859
000150 59 d2 40 3d 86 5a 85 bd 92 77 bb 3b 22 ec 83 3d
       0.047075603 -0.065114066 0.005721041 0.06441523
000160 31 31 91 bd ae 5e 80 bc 23 e3 33 bd 97 1c 22 bd
       -0.07089461 -0.015670147 -0.043917786 -0.039578047
000170 a5 1f 58 3d ba c4 33 bd ed 14 d5 3a 5a 6e 9a bd
       0.052764554 -0.043888785 0.0016256847 -0.07540579
000180 ad 85 cf 3a 83 bf b1 bc 2c c3 0c bd 00 df 89 bd
       0.0015832685 -0.021697765 -0.034365818 -0.06731987
000190 ad 47 9a 39 25 63 4c 3d c9 9a 0f 3d 88 8f 78 3d
       0.00029426572 0.04989924 0.035059724 0.060683757
0001a0 e8 61 c3 bd f3 e9 f3 bc 45 09 b7 bc d6 03 97 bc
       -0.095401585 -0.029774642 -0.022343287 -0.018434446
0001b0 44 7e 2e 3d 4b c4 3e 3d ec e9 8e bd bf e3 22 bd
       0.042600885 0.04657392 -0.06978211 -0.039767977
0001c0 26 d9 ab 3b 3d d2 06 3d 27 93 21 bd 4c b8 56 bd
       0.005244392 0.032915343 -0.039446976 -0.052421853
0001d0 34 0f 11 bd d2 bc fa 3b 6b 79 48 bd 36 59 b5 3b
       -0.03541489 0.0076519037 -0.04894392 0.0055343164
0001e0 92 21 a8 3c 02 f4 cd bb c7 e9 1c bd 3c 43 92 bd
       0.02052382 -0.0062851915 -0.038308885 -0.0714173
0001f0 cb 32 4c 3c dd 7e 46 3d a9 5e 90 bd 35 10 97 3c
       0.012463282 0.04846083 -0.07049305 0.018440345
000200 d2 eb 91 3d 69 21 92 bd a5 bf bd bd 9a 4d 28 bd
       0.07125057 -0.07135279 -0.09265069 -0.04108963
000210 27 ce 39 bd 69 5f b8 bb 33 25 d0 bc ff 49 dc bc
       -0.045362618 -0.005626608 -0.025408363 -0.026890753
000220 9c 95 b3 3d ef 00 8f bd 58 42 02 3d 8a d9 7a 3c
       0.0876877 -0.069826 0.03180155 0.015310654
000230 9e 47 2e 3c 24 a3 8c bd 7e 21 df 3b 38 e2 5d 3d
       0.010637192 -0.06867054 0.0068094125 0.054170817
000240 8f d6 8a bd 31 53 72 bd 6f 29 ac bc df 9b 37 3d
       -0.06779205 -0.05916137 -0.02101585 0.044826385
000250 67 bb 24 3d 1a d9 6f bd 5f 06 83 bd 58 c4 25 bd
       0.040217783 -0.058556654 -0.063976996 -0.04047045
000260 b9 81 a8 bc ed 3e 11 3d 20 85 a3 bd 52 d0 13 3c
       -0.02056967 0.0354604 -0.07984376 0.009021835
000270 b0 64 fd bc 5a 98 f4 bc 49 fa 90 3d c2 69 bf 3c
       -0.0309318 -0.029857803 0.07078988 0.023365859
000280 8a db 3c 3d a2 0d 08 bd 9a 80 24 bd a2 d4 48 b8
       0.046107806 -0.033216126 -0.040161707 -4.7881746e-05
000290 c9 3c 48 bd 25 5c 04 bd 07 83 51 bb a9 5e 34 3d
       -0.048886094 -0.03231444 -0.0031968968 0.044035587
0002a0 c9 85 78 3d 3c 18 29 3d d3 07 60 bd bb 18 a4 3c
       0.060674462 0.041282877 -0.05469496 0.020031324
0002b0 0c 09 55 bd 43 f9 b7 bd 19 ab 64 bc 7a f1 c3 bc
       -0.05201058 -0.0898309 -0.0139568085 -0.023918856
0002c0 5d 3b 8f bd 20 3d 37 3d 38 4a f8 3c 07 f3 71 3d
       -0.069937445 0.044736028 0.030308828 0.05906966
0002d0 23 5e 1f 3d 5e 28 7c 3d 71 90 9c bd ab e3 90 bd
       0.038908135 0.061561935 -0.076447375 -0.07074674
0002e0 00 f9 48 bd ff bd 96 3d e9 b0 80 3b 4f b4 47 bd
       -0.04906559 0.07360458 0.0039273393 -0.04875594
0002f0 55 f9 c9 bc 05 c2 17 bc 12 26 3a 3c fa 3f 3a 3b
       -0.024655024 -0.009262566 0.011361616 0.002841948
000300 c4 fa e2 3c 47 35 92 bc 98 d4 86 bd d2 c9 7c bd
       0.027707465 -0.01784767 -0.06583518 -0.06171591
000310 d6 0f b6 bd 4f fe e8 bc 04 e0 c8 bc 9a 3c 0d 3d
       -0.08889739 -0.028441576 -0.024520881 0.034481622
000320 b1 5e 2a bd 67 31 54 bd 87 72 38 3c f3 f0 67 3d
       -0.04159421 -0.051804926 0.011257774 0.05662627
000330 cf 6f 60 3d 0f 83 98 3d 8a 55 c4 3d 2b ec 31 3c
       0.05479413 0.074468724 0.09586628 0.0108595295
000340 42 4d a1 3d d9 19 b1 3d 87 6c f7 3b b0 2b 39 bc
       0.07876064 0.08647508 0.0075507793 -0.01130192
000350 90 bb 99 3d 9f 01 3b 3d 89 a8 2d bd 29 45 11 3c
       0.07506478 0.045655843 -0.042397056 0.008866587
000360 8c 90 29 bd b0 f3 9e 3b 53 e4 15 3d a2 cf 87 3d
       -0.041397616 0.004850827 0.0365947 0.066314
000370 b6 57 ec 3c 47 66 a9 3d fd d1 80 bd e3 e8 56 3d
       0.028850418 0.08271461 -0.06290052 0.05246819
000380 ef a1 3f 3d 94 5e 06 bd 01 ee 9a 3d 44 01 9a 3d
       0.04678529 -0.03280504 0.07564927 0.07519773
000390 27 32 a1 bd 68 d7 9b 3b 79 a1 0c 3c ed c6 95 bd
       -0.07870894 0.004755903 0.00858342 -0.07313333
0003a0 af ae 07 bb 53 a7 03 3c 15 1f d7 3c c1 31 39 bc
       -0.0020703485 0.008035499 0.026259938 -0.011303366
0003b0 28 c5 49 3d 1b 89 06 bd c5 79 36 bd 35 40 7e bd
       0.04926029 -0.032845598 -0.044549722 -0.06207295
0003c0 44 0c a8 3d ee d1 ae 3c 64 9f 9b bd 75 95 75 3a
       0.082054645 0.021340337 -0.07598761 0.0009368279
0003d0 ad d8 09 bd 9f e1 ae 3d c4 97 4b bd 80 32 a8 3d
       -0.033653904 0.085391276 -0.04970528 0.08212757
0003e0 77 a4 68 bd ff 25 4f 3c 39 92 5c bd ed 35 f9 3c
       -0.05679747 0.012643336 -0.053850386 0.030421222
0003f0 ed ae 88 3c 15 c5 e4 bc 9d 17 57 bd d7 0a 1d bd
       0.016684974 -0.027926007 -0.052512754 -0.038340416

actor.2.bias f4 [128]
000000 4c fc 70 3c 64 5f 73 3d 37 7e ac 3d 72 03 4d bd
       0.01470859 0.059417143 0.08422511 -0.050052114
000010 00 b6 16 3d e5 34 90 3c 0d e6 80 3c c9 3e 0f bd
       0.036794662 0.017603347 0.015734697 -0.034971986
000020 61 db 46 3d 2a 83 10 bc 7e 9e 43 bd 4d 6c 05 bc
       0.04854906 -0.008820334 -0.04775857 -0.008143497
000030 6b f1 2e 3d c3 15 40 3d ba d0 2d ba ff 00 55 3d
       0.042710703 0.046895754 -0.0006630529 0.052002903
000040 64 4c 04 bd ee df a0 3d 52 97 0b bd b8 a4 72 bd
       -0.032299414 0.07855211 -0.034079857 -0.05923912
000050 5b f5 e4 3a 33 9d 98 3d 00 3e ce 3c 8b 83 fb 3c
       0.0017468141 0.07451858 0.025176048 0.030702373
000060 20 56 15 bd 5d 10 1e 3c 75 fa 87 bc 40 b0 8f bd
       -0.03645909 0.009647456 -0.01659892 -0.07016039
000070 11 e1 ba 3d b5 64 ae 3d 8d 5e 7e 3d 94 81 da 3c
       0.09124959 0.08515302 0.06210189 0.026673116
000080 ae 8a a5 3d 05 4d c8 3c 04 ba 2b 3b 0a 92 cc 3c
       0.08083092 0.024450788 0.0026203403 0.02497198
000090 0d e2 aa 3b aa 10 46 3d b7 f6 a8 3d d2 d8 67 bd
       0.0052149356 0.048355736 0.08250182 -0.05660326
0000a0 33 ce 47 3d d9 25 56 3d 23 12 2d 3d 3e c3 2a bd
       0.04878063 0.052282188 0.042253625 -0.041690104
0000b0 e4 c7 34 bd 13 bd ab bc 56 82 8c 3c 8f c4 07 bd
       -0.044135943 -0.020964181 0.017151993 -0.033146437
0000c0 57 0a 7d 3d 8d 52 06 bc 84 4e 9f 3d cd df ab 3c
       0.06177744 -0.008198393 0.077786475 0.02098074
0000d0 d5 88 7a 3b a1 52 06 bd 64 09 b9 bc 3a 00 16 3d
       0.003822853 -0.032793645 -0.022587486 0.03662131
0000e0 d4 0d 3f bd 29 e6 9f 3d e5 71 2d bd 9d 46 9a 3d
       -0.046644047 0.078075714 -0.042344946 0.07533
0000f0 82 c8 d4 3c 27 70 60 bd 63 e5 75 3d e8 21 8a bd
       0.025974516 -0.054794457 0.060033213 -0.06744748
000100 d6 05 16 bc 91 50 9f bd d2 03 99 3d 16 4e 96 bd
       -0.009156665 -0.07779039 0.07471432 -0.073391125
000110 cb 4f 1b 3d 21 e7 ed 3b 95 91 38 3d 0a bd 0f 3d
       0.037917893 0.0072602187 0.045060713 0.03509239
000120 4b 42 9c 3c d0 c8 b5 3c 5f 04 03 3d ce 57 63 bc
       0.01907458 0.022190481 0.03198659 -0.013875915
000130 78 1a 89 bd 8b d2 94 3b 00 0b 8a 3d 0a fb 78 3a
       -0.06694502 0.0045417002 0.06740379 0.0009497857
000140 b1 50 af 3d 3c f7 a6 bd bd 84 f1 bc 0f 68 80 3d
       0.085603125 -0.08152625 -0.02948224 0.062698476
000150 ad c2 8d 3b 71 2a 9f bd 69 22 2b 3b f5 b1 16 3d
       0.0043261857 -0.07771767 0.002611304 0.036790807
000160 dd 2c 0e 3d 81 63 82 bc 89 87 c4 bc 9e ca 3e 3d
       0.034710754 -0.015916588 -0.02399041 0.04657995
000170 1b 3c 1e 3c ac b0 90 3d 94 05 56 bd 8f 51 3e 3d
       0.009657885 0.070649475 -0.052251413 0.0464645
000180 72 ff 32 3d 1f 6c 24 3d be b4 13 bd 6b 5a af bd
       0.043700643 0.040142175 -0.03606104 -0.08562168
000190 6d 71 e8 bc 91 6f 87 bd 40 49 63 3d fb 94 46 bd
       -0.028374398 -0.066130765 0.05548978 -0.048481923
0001a0 ec 4b 71 bd d1 eb 81 3d 10 21 8a bd 41 ac e7 3c
       -0.058910295 0.063438065 -0.067445874 0.02828038
0001b0 92 94 3f 3c 0a ab 91 bd 01 53 3d 3b 62 af f7 ba
       0.011693137 -0.07112701 0.0028888586 -0.0018896873
0001c0 f2 5d 95 3b 62 ad 2d 3d fd 38 8b bc a1 58 6f bd
       0.0045583183 0.04240168 -0.016994948 -0.058434132
0001d0 39 67 ab bd 38 ce 92 bd 76 25 6d bd cf 15 76 3d
       -0.083692975 -0.07168239 -0.057897054 0.060079392
0001e0 cb 66 80 3d 97 71 0e bd 14 86 d6 bc a1 92 c8 bc
       0.06269606 -0.034776296 -0.02618698 -0.02448398
0001f0 5d 27 8b bd 5e 5d 96 3d 80 b4 fb bb d7 9d c0 3c
       -0.06794617 0.07342027 -0.0076814294 0.023512764

actor.4.weight f4 [128, 128]
000000 1a fb a6 bd cc 00 ad 3d 9c cd 2d 3d 3c 9f 80 3d
       -0.081533626 0.084474176 0.042432413 0.062803715
000010 23 37 91 3d d5 25 2d bd 3e 88 31 3d e6 fc f2 bc
       0.070905946 -0.042272408 0.04334282 -0.029661607
000020 9c 23 ce bc ba 8b 75 3b c8 a7 b3 bd 09 61 5a bd
       -0.025163464 0.0037467317 -0.08772236 -0.053315196
000030 6a 64 70 3c 39 86 a7 bd cd 43 ba bd c4 a8 e0 3b
       0.014672378 -0.08179898 -0.09094963 0.006856056
000040 a5 2e ad bd 0c 1a 3f bd 03 5c 68 bd a7 a5 bd bd
       -0.08456162 -0.0466557 -0.056728374 -0.09260111
000050 bc 48 bc bc 98 c8 ca 3d 8f 09 1e bb a4 c7 e3 3d
       -0.022983901 0.099015415 -0.0024114584 0.11122063
000060 91 f9 02 bd b3 ac b0 3c d2 1e 77 bd 6d 36 e4 3c
       -0.031976286 0.021566724 -0.060332127 0.027857983
000070 ca 29 63 3d 24 e0 3a ba bd bd 28 bc c8 9a c8 3b
       0.055459775 -0.00071287365 -0.010299143 0.006121967
000080 85 37 e8 3c d2 6f 3c 3c 3d 2e 8c bd 54 66 09 3c
       0.028346786 0.011501269 -0.06844757 0.008386213
000090 e4 a4 f8 3b b6 2d a1 3c 3d d6 13 bd d5 1c c1 bd
       0.007588016 0.019675117 -0.036092985 -0.094293274
0000a0 b1 de e3 bc 9d d0 c2 bc 13 ce 64 3d 73 87 ab 3d
       -0.027816148 -0.023781115 0.05586059 0.08375444
0000b0 3a 92 3f 3d cf 0b 89 3d e8 df d0 3c db cf 53 bd
       0.046770312 0.066917054 0.025497392 -0.0517119
0000c0 07 95 56 3c e3 b1 37 bc e8 c9 68 3d 7b 9b 7a 3c
       0.013097054 -0.011211845 0.056833178 0.0152958585
0000d0 5b 82 db bc 18 85 1b 3d 4f 4b ef bc 5d 72 ca 3c
       -0.026795557 0.037968725 -0.029210715 0.024712736
0000e0 ba fb 89 3c 3e 4e 90 3d 71 93 e2 38 f3 5c 53 3d
       0.016843665 0.070461735 0.00010803983 0.051602315
0000f0 81 58 95 3d ea a8 e8 bb 2f b5 20 bc e9 be c2 bb
       0.072922714 -0.0071002143 -0.009808823 -0.0059431684
000100 92 22 01 3d 1d 42 76 3d df 51 ba 3d 24 08 00 bd
       0.03152711 0.060121644 0.09097647 -0.031257764
000110 55 5a 4a 3d 7f 14 32 3d a9 e9 29 bc 83 75 9f 3d
       0.049402554 0.043476578 -0.01037065 0.077860855
000120 96 47 11 bd e6 32 aa 3c fe 17 ca bc 68 77 71 ba
       -0.03546866 0.020776223 -0.024669643 -0.00092112133
000130 1c b9 be 3c 35 29 84 bd 3e 86 42 bd 5f 0b d8 bc
       0.023281626 -0.06453172 -0.047491305 -0.02637261
000140 ee db 50 bd bc e1 ef bc b1 8b 2b bc 80 84 88 bd
       -0.05099099 -0.029282443 -0.010470317 -0.06665897
000150 59 4e 9d 3d 22 c4 39 bd 4d df 03 bc cd fd 2d 3d
       0.07680959 -0.045353062 -0.0080488445 0.04247837
000160 65 ea 80 bd 00 a2 99 3d d4 09 24 bd 09 75 5e bb
       -0.06294707 0.07501602 -0.040048435 -0.003394427
000170 1e 5b a9 3d 0f 85 c8 bd e3 7a 46 bc b9 8c f0 3c
       0.08269332 -0.09791004 -0.012114259 0.029363977
000180 1b 20 63 3d 0b 82 5b bd 46 3d 0b 3c c4 5e 28 ba
       0.05545054 -0.053590816 0.008498495 -0.00064228126
000190 ee a6 31 3d 04 56 87 3d 34 2e 7b 3d 58 b5 6a bc
       0.043372087 0.06608203 0.06132336 -0.014325462
0001a0 c8 1b 59 3d 78 c4 05 3d 9b 13 46 3d 6a 9d 03 bc
       0.05300501 0.03265807 0.04835854 -0.008033136
0001b0 88 4a 6f bc 8e a2 12 3c 95 c1 71 bd 5d a0 06 bc
       -0.014605172 0.008949889 -0.059022505 -0.0082169445
0001c0 05 98 be 3d 84 c2 d5 ba 50 f1 27 bd ca 15 60 3c
       0.09306339 -0.001630858 -0.041001618 0.01367707
0001d0 85 b3 39 3c f1 42 07 bd 56 6e 01 3c b3 5d b2 3c
       0.011334305 -0.033022825 0.007899841 0.021773195
0001e0 67 47 8b 3d 70 8a 5e 3d e1 cf e6 3c 0b 32 86 3d
       0.06800728 0.054331243 0.028175296 0.06552514
0001f0 2b 72 0f 3d 32 16 7a bd 6c 33 68 3d d2 13 06 bd
       0.03502099 -0.061056323 0.056689665 -0.032733746
000200 d5 c4 38 bd c6 24 83 3d 49 82 86 bd d4 f7 88 3d
       -0.04510959 0.06403498 -0.06567819 0.066878945
000210 7b 68 ad 3d 0a 31 b0 bc c4 00 93 bd a4 8b fd bc
       0.08467194 -0.021507759 -0.071778804 -0.030950375
000220 7e 62 68 bd 36 a0 3d 3c ca 75 f7 bc 6b 58 77 bd
       -0.056734554 0.011573842 -0.030207533 -0.060387056
000230 6a 07 d0 bc 6e 6b cf bc 79 49 43 3c 72 5b 22 3d
       -0.02539416 -0.025319781 0.011919373 0.03963799
000240 69 1b a3 3d cf 38 87 bd 65 57 f5 3c 07 68 f6 bb
       0.079642124 -0.06602632 0.0299489 -0.0075197252
000250 a0 ca 9b bb ac 29 40 3d ad 5f 9f 3d 58 b1 9a bc
       -0.0047543794 0.04691474 0.077819206 -0.018883392
000260 9a 0f c1 3b a4 fc 33 bd 18 33 d8 3c 1e d8 fd bc
       0.0058917524 -0.04394211 0.02639155 -0.030986842
000270 0d ca 9c bd 47 5e e1 3c 25 28 90 bd 00 f5 56 3d
       -0.07655726 0.027510775 -0.07038907 0.052479744
000280 49 49 4e bd 4e d9 2c 3d 62 dc 82 3d 85 bb cc bc
       -0.05036286 0.042199425 0.06389691 -0.02499176
000290 b2 f9 46 3d f1 bf 9f 3c 7c 67 9b 3d 72 be 3f 3d
       0.04857797 0.019500704 0.075880975 0.046812482
0002a0 39 71 6c 3d 75 68 e5 3c f3 e5 90 bc 95 c7 a6 bd
       0.057725165 0.02800391 -0.017687773 -0.08143536
0002b0 84 e8 a0 bd e5 54 9b bd ce c8 ae bd c1 ce 24 3d
       -0.07856849 -0.07584552 -0.08534394 0.04023624
0002c0 0f 48 95 bd 9e 56 ca ba fd 17 8a bd be 59 01 3d
       -0.07289135 -0.0015437191 -0.06742857 0.031579725
0002d0 1a 62 93 bd 65 12 be 3d 75 9e 82 3c 4f e8 3b 3d
       -0.07196446 0.09280852 0.015944699 0.045875844
0002e0 82 da a3 bc ca 35 97 3d 3c 5c 88 bd 25 f6 99 bd
       -0.020001654 0.07383306 -0.06658217 -0.075176515
0002f0 39 3b 84 3c 9d c9 fe 3b 86 da ad bd 4e 8e 4c ba
       0.01614152 0.007775499 -0.08488946 -0.00078031875
000300 3b 5e 5f bc 91 11 63 3d ab 36 04 3d 04 0f 3d 3d
       -0.013633306 0.055436675 0.032278698 0.0461569
000310 63 38 1b 3d 22 ed ec 39 74 ab ea bc f0 30 78 3d
       0.03789557 0.00045190105 -0.028646208 0.060593545
000320 5a 4f fb 3b 85 3a 98 3c e2 01 bb 3c 3d 26 d5 bc
       0.0076693716 0.018582592 0.022828046 -0.02601921
000330 2e 13 13 bb 8b 90 77 3c 06 c3 46 3b ba c2 a4 bd
       -0.0022441852 0.015110145 0.0030328645 -0.08044954
000340 8e 5b 9b 3d e3 09 a6 3d 28 11 4c bd 11 d4 a3 bc
       0.07585822 0.081073545 -0.04982105 -0.019998582
000350 01 35 d8 bb f4 1d 26 3c 85 df 84 bd 1b 06 9d bd
       -0.0065981154 0.010138977 -0.064879455 -0.0766718
000360 fc af 82 3d ca 82 ba bc 17 e2 56 bd f1 08 9a 3d
       0.063812226 -0.022767443 -0.05246171 0.07521237
000370 59 79 99 3d 63 a5 9a ba 9b d1 a5 bd 00 fe a0 bd
       0.07493848 -0.0011798557 -0.0809662 -0.07860947
000380 ea ab 87 bd 8a ce a7 3d 7a 45 97 3d 04 94 a8 bd
       -0.06624587 0.08193691 0.073862985 -0.08231357
000390 16 6d 81 bd 0c 54 94 bc 51 77 b4 bd 02 89 19 bd
       -0.063196346 -0.018106483 -0.0881182 -0.037484176
0003a0 4d be 99 bc af 9b b9 3d 68 84 8f bd 0f 4e 91 3d
       -0.0187675 0.090628974 -0.07007676 0.070949666
0003b0 db c9 07 bd 73 b4 89 bd 44 d9 cb 3c 11 db cb bb
       -0.03315149 -0.06723871 0.024883874 -0.006221183
0003c0 63 d0 7e bd d5 ed 69 3d 2d 7c 2d ba bb 41 8f 3d
       -0.06221045 0.05711158 -0.000661793 0.06994959
0003d0 13 79 e0 bb 2d 86 6e 3c 74 86 96 bd ec 81 a9 3d
       -0.0068503707 0.014558357 -0.07349864 0.08276734
0003e0 9b 70 98 bd 46 b9 23 bd dc 35 8f bd f6 1f ac 3d
       -0.07443353 -0.039971612 -0.06992695 0.084045336
0003f0 6f 90 ab 3d 11 ef 3b 3d 42 41 30 3b 89 4f 60 bc
       0.08377158 0.04588229 0.0026894365 -0.013690838

actor.4.bias f4 [128]
000000 97 7a 58 bd bb 7e 99 3d 3f b0 3c 3a a4 1e 8a 3b
       -0.052851286 0.07494875 0.00071978936 0.0042150784
000010 8a 89 f2 3c c2 4c 99 bd ae 82 29 3d 31 f3 90 bd
       0.0296066 -0.074853435 0.04138439 -0.07077635
000020 9c 87 65 3d 99 d6 3f bd 13 cd 8d 3c 18 98 0a bc
       0.05603753 -0.046835516 0.017309701 -0.008459114
000030 7a dc ab 3d c8 54 4e bd 1b 74 10 3d c6 f4 8a 3d
       0.08391662 -0.050373822 0.035266977 0.06784968
000040 b1 42 31 bd f8 16 aa 3d b7 e1 1c bd f1 11 85 bd
       -0.043276493 0.08305162 -0.038301196 -0.06497563
000050 17 a2 8f 3d 39 2d 2d 3d 90 03 19 3d d0 78 c5 bd
       0.07013338 0.042279456 0.037356913 -0.09642184
000060 1a 2c 1a bd 79 4a 66 bb b7 9c 29 3d f9 33 68 3d
       -0.037639715 -0.0035139604 0.04140922 0.05669019
000070 89 74 16 bd be 0f 01 bd f2 7f f6 3c 8b bf ba bc
       -0.03673223 -0.031509154 0.030090306 -0.022796413
000080 eb b6 ab bc 6d e6 5a 3d 08 39 4d bd fd 4a 22 bd
       -0.020961246 0.053442407 -0.050103217 -0.039622296
000090 2c 15 7d bd fb db 1f 3c c2 bc 86 3d 71 d6 8c bd
       -0.06178777 0.009757037 0.065789714 -0.06876839
0000a0 8d 27 6d 3d e7 fc 60 3d 8e f3 e5 3c c4 57 5b 3d
       0.057899047 0.054928686 0.028070237 0.053550497
0000b0 66 f2 99 bc d0 6e 54 3d 35 63 a2 bd 46 1e 1d 3d
       -0.018792342 0.05186349 -0.079290785 0.03835895
0000c0 45 cc 90 bc f5 64 b1 bc 1e 79 03 bd 32 ca 6a bb
       -0.017675528 -0.021654585 -0.03209793 -0.0035826084
0000d0 e6 e8 7b 3d 2e fb 48 bd 22 28 69 bc 32 70 e1 3b
       0.061501406 -0.04906767 -0.01423076 0.00687983
0000e0 f5 18 48 3d b5 e5 19 3d fd 21 38 3c 1b 24 9c bd
       0.048851926 0.03757258 0.011238572 -0.07624074
0000f0 f0 cf 78 3d ac 1f 8f bd b3 26 7a bd bc b2 d6 bc
       0.06074518 -0.06988463 -0.061072063 -0.026208274
000100 6f ee e5 bc e8 35 bb 3c 6f a0 43 bd 89 3a 27 bd
       -0.028067796 0.022852853 -0.047760423 -0.040827308
000110 b6 34 54 bd da 45 0b bd 12 b9 b8 bc b5 82 c6 3c
       -0.05180808 -0.034002163 -0.022549186 0.024232248
000120 0e df b3 3b e6 3b 1f 3c 10 49 98 bc 70 42 87 bc
       0.0054892367 0.009718871 -0.018589526 -0.016511172
000130 fa 32 a2 3d c5 8e 83 3c 21 ba 46 bd ae 54 88 bd
       0.07919879 0.016059289 -0.04851735 -0.06656776
000140 15 da b9 3c bd af 98 3d 5e 2f 04 3c bd 87 a1 bd
       0.022686997 0.074553944 0.008067934 -0.07887218
000150 8c 68 04 3d 28 c7 10 bd 19 2f 65 3d 39 f3 08 bd
       0.032326266 -0.03534618 0.05595312 -0.03343508
000160 0c b1 a2 bd 98 50 9e bb 30 0b 3a 3d 31 72 bb 3d
       -0.07943925 -0.004831385 0.045420825 0.0915264
000170 dd 43 95 bd fe f7 8c bd 59 2e 9f 3d da d3 a9 bc
       -0.072883345 -0.06883238 0.07772512 -0.020730902
000180 8b ea 64 3d a7 87 0a 3d 2b a6 61 3d ba b4 b5 bd
       0.05588774 0.033820774 0.05509011 -0.088723615
000190 de 0a 25 bd 90 6e fa 3c 0e 92 89 3d 78 30 b6 3d
       -0.040293567 0.030570298 0.06717311 0.088959634
0001a0 ea 1a 92 bd fd d6 5d 3b 3d 21 80 bc ed 9c 71 3d
       -0.0713404 0.0033850067 -0.01564085 0.058987547
0001b0 a8 50 91 bd f7 fe 54 3d 99 4b 51 bd 18 09 b0 3d
       -0.07095462 0.052000966 -0.051097486 0.085954845
0001c0 7c ad a7 3d a1 9a 29 3d a9 9c ad bd cf 0f 8b bd
       0.081873864 0.04140723 -0.08477146 -0.067901246
0001d0 7d d5 96 bd d5 9e aa 3c a7 12 86 bc 12 69 71 3d
       -0.073649384 0.02082769 -0.016366316 0.058938093
0001e0 34 89 64 3d 57 d1 98 3d bb fb 45 bd 84 0b 51 bc
       0.05579491 0.074618034 -0.048335772 -0.012759093
0001f0 72 27 85 bd 44 d7 35 bd d8 4f 74 3d 3c c5 dd bb
       -0.06501664 -0.044394746 0.059646457 -0.006767897

actor.6.weight f4 [9, 128]
000000 ae 8d 8b 3d 3a 8f 7f bd d4 da b1 bd 0f 1f fe bc
       0.06814133 -0.06239245 -0.08684316 -0.03102067
000010 8c 13 bb bb 25 db b7 3d 16 e4 84 bc 14 44 37 bd
       -0.0057091173 0.089773454 -0.016222041 -0.04474266
000020 1f d0 70 bd 5f 19 b1 bd 60 53 09 bc f1 0e e4 bc
       -0.05879223 -0.08647417 -0.008381695 -0.027839156
000030 63 2c 15 bd b4 8e ed bc 6b d6 d9 bc a2 b0 3f bd
       -0.036419284 -0.02899871 -0.0265915 -0.04679931
000040 d9 d9 c0 bc fd 4e c4 3c d7 5e a8 3c 61 1c 09 bc
       -0.023541378 0.023963446 0.020553036 -0.008368582
000050 49 fe 63 3d 9c 9f 8f bd a0 b9 0a bc 92 a5 9d 3d
       0.055662427 -0.07012865 -0.008467108 0.07697596
000060 ec 6a 36 3d 41 af dd bc 6e 60 a5 bd eb fd 94 3c
       0.044535562 -0.027061107 -0.08075033 0.018187484
000070 9e 93 76 bd 1f 71 10 3d 29 67 4c 3d 81 f9 94 bd
       -0.060199372 0.03526413 0.04990307 -0.072741516
000080 4d a3 07 3b 75 01 89 bd 4a 16 b3 3c 7b 0e 19 bd
       0.00206967 -0.06689731 0.021861214 -0.037367325
000090 8c f2 62 bd 47 b5 5a bd 8f 6f 75 bd c2 64 fb 3c
       -0.055407092 -0.053395536 -0.059920844 0.030687694
0000a0 26 f4 62 3d 1f e8 a2 bd 19 1e 63 bd 1e 26 9b bc
       0.05540862 -0.0795443 -0.055448625 -0.018939074
0000b0 48 96 6f bd 3e 69 ff 3c 52 fa 6a bd e2 fd a2 bd
       -0.05849293 0.031178113 -0.05736763 -0.079585806
0000c0 26 74 86 3d 7e f1 30 bd ec 04 d5 bc 66 88 02 bd
       0.06565122 -0.043199055 -0.026003323 -0.03186836
0000d0 0b 84 a7 3d 55 81 26 3d 0f ed ba bc 76 41 9c 3d
       0.08179482 0.040650684 -0.022818116 0.07629673
0000e0 f3 a3 3d bd 64 7f 95 bd a2 b2 96 3c bc 2a 12 3b
       -0.046298932 -0.072996885 0.018395726 0.0022303304
0000f0 ff ec 6b bb 72 07 9d 3c 83 9d 02 3d ab 11 c1 bc
       -0.0035999415 0.01916859 0.031888496 -0.023567995
000100 60 cd 01 bd d0 c1 a8 bd 67 4f 80 3c d5 38 36 bd
       -0.03169 -0.08240092 0.015662862 -0.044487793
000110 61 16 05 bd 5c d5 f8 3c d5 dc 5c 3d 37 ec 5c 3d
       -0.032492045 0.030375175 0.05392154 0.05393621
000120 86 29 9e 3c a1 be 9a bc 3a 0c a5 3c 9c 46 13 bc
       0.01930691 -0.018889727 0.020147432 -0.008989003
000130 d0 71 b7 3d 2e df 14 3d 49 36 13 3c 26 47 98 bd
       0.08957255 0.036345653 0.008985111 -0.074354455
000140 fd 1d 57 3d db fc 19 bd 4a 7e 86 3d 9f e7 ca 3c
       0.052518833 -0.037594657 0.065670565 0.024768649
000150 a2 ba 23 3d 77 7b 9e 3d b5 94 83 3d 2e 00 c8 bc
       0.03997291 0.07738393 0.06424848 -0.024414148
000160 5d ae 00 bd 34 6a 95 3d e8 3b 8a 3d ed a6 7f bd
       -0.031416286 0.07295647 0.067497075 -0.062415052
000170 e6 70 3e bd 47 48 74 bd 11 b9 56 bb 7a c1 98 bd
       -0.046494387 -0.05963924 -0.0032764117 -0.07458778
000180 f2 ad 64 3d 87 c6 00 bd 87 50 94 bc 15 aa 77 3b
       0.05582995 -0.03143933 -0.018104805 0.0037790586
000190 63 d7 8b bd 5f 5b 35 bd 7d a9 93 bd 30 9b 10 3d
       -0.06828191 -0.04427659 -0.07210062 0.03530425
0001a0 58 ae 19 3d 74 3d cc bc 48 17 87 3d 4a 51 5c bd
       0.037519783 -0.024931647 0.065962374 -0.05378846
0001b0 c1 af 53 3d 1f 12 0e bc 42 48 6d 3d d3 55 a7 3c
       0.051681284 -0.008671313 0.05793024 0.020426666
0001c0 96 6d a5 3d 3e 37 31 3d eb 40 09 3d 71 89 93 3d
       0.080775425 0.043265574 0.033509176 0.07203949
0001d0 3b 15 ee 3c 75 a0 7d 3d 7b b9 98 bd 41 e2 79 bd
       0.029062858 0.061920602 -0.074572526 -0.06100679
0001e0 98 f3 11 bb ef 98 a5 bd f9 43 82 3d 81 f0 31 bd
       -0.0022270437 -0.080858104 0.06360621 -0.043442253
0001f0 2b 57 90 bd 6d e2 14 bd c8 93 c9 3c 82 9b 1d bd
       -0.07047876 -0.03634875 0.0246066 -0.038478382
000200 b0 16 bf 3c f0 67 0a 3d 6e 2a ab 3c 40 56 14 bd
       0.023326248 0.03379053 0.020894255 -0.036215067
000210 64 53 98 bd 91 c7 11 3b 22 d5 93 bd 68 26 9c 3d
       -0.074377805 0.0022244195 -0.07218386 0.07624513
000220 0e fe 90 3c 75 66 4e 3d e6 f7 8e 3d 46 32 7a bd
       0.017699268 0.05039068 0.069808766 -0.0610831
000230 34 77 f1 bc c0 06 34 bd 8f 1d 14 3c 74 7d 96 3d
       -0.029475786 -0.04395175 0.00904025 0.07348147
000240 47 bd 3c 3c 8d 49 28 3d cb 8a bf bc ee 48 aa 3d
       0.011519737 0.04108577 -0.023381611 0.083146915
000250 e4 ac d4 bc 86 e3 b5 bd ab cf a7 bd 92 4d 55 3d
       -0.025961347 -0.08881287 -0.081939064 0.05207593
000260 4c 40 7b bd b8 d1 c1 bd 9b bf 9d bd b1 66 98 bd
       -0.061340615 -0.09463829 -0.077025615 -0.07441462
000270 44 5f 93 3c 5a c4 b1 bd e2 49 a1 3d b4 cb ba bd
       0.017989762 -0.08680029 0.0787542 -0.091208845
000280 db 61 9c bd 2c 89 80 3d 36 d8 87 bd 23 f0 20 bc
       -0.07635852 0.062761635 -0.06633036 -0.009822878
000290 93 92 fa bc 09 e3 47 3c 20 17 a2 3d fe ea a6 bc
       -0.03058747 0.0122001255 0.07914567 -0.020375725
0002a0 93 2f ba 3d 1b d9 73 bd 4e 09 5a bc 89 4a 33 3c
       0.09091105 -0.05953322 -0.0133078825 0.010943064
0002b0 17 e5 4c 3c 6f bb 51 bc 0e d1 2a bd 6b 2f a2 bd
       0.012505791 -0.012801035 -0.041703276 -0.079192005
0002c0 88 1b 5b 3d 61 79 ae bc 5e 50 9b 3d 60 3a 8c 3c
       0.053493053 -0.021298112 0.07583688 0.01711768
0002d0 64 c7 b7 3d f1 02 10 bc 7d 60 79 3d 24 66 4b bd
       0.089735776 -0.008789764 0.060883034 -0.049657956
0002e0 d7 54 b8 3d 3b 42 91 3c 9d 9f 15 bd 24 18 a6 bd
       0.09000557 0.017731776 -0.036529172 -0.08110073
0002f0 bc 4d 00 bd 80 59 85 3d f8 46 bb bc d3 ad c3 3c
       -0.031324133 0.065112114 -0.022860989 0.023886597
000300 4a fa 59 3c 5c 35 f2 bc 29 6a c6 bd 4d 3b 1f 3d
       0.0133043025 -0.02956646 -0.09688217 0.038874913
000310 eb 0d ac bd cb 80 44 3d ad 2a 31 bc ec 7d 43 bd
       -0.08401092 0.04797439 -0.010813397 -0.04772751
000320 9c 35 79 bd af 17 88 3d b6 23 f6 bb bf 2e 49 bd
       -0.06084214 0.06645142 -0.0075115813 -0.049116846
000330 7d 71 b9 3d ed e4 88 bd 20 a1 98 3d 63 46 0d bc
       0.09054849 -0.06684289 0.07452607 -0.0086227385
000340 d9 9f 24 bd 02 60 fd 3c 82 f8 7a bd ed 36 ac bd
       -0.040191505 0.03092957 -0.06127215 -0.08408914
000350 8e ce 52 3b 4a 67 75 bd 33 94 9e bd a0 45 35 3b
       0.0032166573 -0.059912957 -0.077431105 0.0027659908
000360 7b bf 5d bd 33 45 71 bb f0 9d 3e bc d9 5d ff 3c
       -0.054137688 -0.0036814928 -0.011634335 0.03117268
000370 f1 ba 69 3d 65 8f f2 3c e2 99 65 bd 70 bd 39 bd
       0.057063047 0.029609391 -0.056054957 -0.045346677
000380 d3 b2 d1 bb fe 8d 99 3d 72 b9 05 3d dc 1b 9c 3d
       -0.0063994913 0.07497786 0.032647558 0.07622501
000390 05 ec 62 bd d3 bc d3 bc 57 db 3b 3d 6d 31 9f bc
       -0.055400867 -0.025846874 0.045863476 -0.019432748
0003a0 7f dc 90 bd 10 ee 8d bd 7e d8 8e bc ff e2 5c bd
       -0.07073306 -0.069301724 -0.017437216 -0.053927418
0003b0 2e 44 52 3b 35 19 22 bd c5 7c c8 3c 09 3a 00 bc
       0.0032084095 -0.03957482 0.024473557 -0.007826337
0003c0 f5 b1 8d 3d 43 d9 4e bd 10 8a 98 bd f7 31 b8 bd
       0.06918708 -0.050500166 -0.07448208 -0.08993905
0003d0 a8 5b 8a 3d 82 38 02 bd 56 e0 ba 3b 19 0d 39 3d
       0.06755763 -0.03179217 0.0057030125 0.045178507
0003e0 3c 13 ba 3c d2 6b 3f 3d cb cc 22 3d ab 22 9b bd
       0.02271425 0.046733685 0.039746087 -0.07574972
0003f0 87 d6 b0 bd 94 55 84 3d f4 b9 83 3d 74 94 86 3d
       -0.08634668 0.06461635 0.06431952 0.06571284

actor.6.bias f4 [9]
000000 b0 88 85 bd 02 48 b4 3d b8 1d e6 3c 6b 1a 77 bd
       -0.06520212 0.08802797 0.028090343 -0.06032793
000010 9e cf 48 bd e1 98 b4 bd 2a 6e b2 3d 0c ca a1 bc
       -0.049026124 -0.08818222 0.087124184 -0.019749664
000020 08 ab 8d 3d
       0.06917387
