ippo_algorithm_belief_catmouse/checkpoints/ppo_actor_1_catmouse.pth (torch, 166748 bytes, 8 tensors)

actor.0.weight f4 [128, 51]
0.10041964 -0.14868128 -0.08862788 0.020327033 0.047182743 -0.108165435 -0.126861 -0.0796554
-0.09129254 -0.14481692 -0.090345845 -0.09637493 0.10132711 0.09791647 0.08831471 0.014449446
0.05023853 0.044170063 0.13379766 0.047772776 0.012476185 0.15092345 -0.112400316 -0.041946165
-0.085794985 -0.13377449 -0.0017851938 0.10196316 0.032337382 0.008334025 0.13245587 -0.031255078
0.11195117 0.086058095 0.032368872 0.121819094 -0.059145074 0.00405511 0.07493461 -0.1044361
-0.10319936 0.10543943 -0.151064 -0.108870745 -0.09327928 -0.017002754 0.10229045 0.12637196
0.04032089 -0.039633647 0.010806836 -0.093514845 0.032945827 -0.06263987 0.045431852 -0.090477236
0.088706166 -0.039338484 -0.082004435 -0.14220442 0.017760985 0.07721403 0.03538897 -0.11356859
0.09690717 -0.02555534 -0.036636055 0.161455 0.04809567 -0.049050864 -0.014000962 -0.037227005
0.07023538 0.06615328 0.18464342 -0.017714428 -0.055339567 0.042240955 -0.0834617 0.10414679
0.13025524 0.052729975 0.09090687 0.0018055193 0.09470173 -0.07423203 0.14914957 0.048156165
-0.027242277 0.09802464 -0.08110934 0.121471055 0.08997583 0.013033264 0.07775763 -0.091357596
-0.0010227892 0.07294603 -0.061129823 -0.13539445 -0.021034947 0.08234019 0.06769864 0.061731894
-0.06007084 -0.061640106 0.034258258 0.020915959 0.03128134 -0.056977943 0.15598722 0.013789912
-0.17017347 0.111648515 0.19233687 0.008089894 -0.007022804 -0.113624424 -0.014320842 0.1834587
0.051904 0.09436124 -0.122114696 -0.13791366 -0.10564138 -0.063560136 -0.08378641 0.12881672
0.042797852 -0.08791024 0.0031290955 -0.0736803 -0.021881575 -0.013890546 -0.105105065 -0.06474329
0.03973332 -0.0014617158 -0.017998936 -0.053587347 -0.12963928 -0.13069898 -0.10957356 0.019707521
0.081679694 -0.14199209 0.09445249 -0.0077753253 0.016371572 -0.004207118 0.015834948 -0.058051188
-0.038750254 0.0075471206 -0.030401424 -0.036829855 -0.024084644 0.14239267 -0.03952698 0.03033965
-0.024175046 -0.022977117 0.124776095 -0.055604264 -0.070816986 -0.15549955 -0.003366151 -0.15074842
-0.110683486 -0.08427265 -0.00061438605 -0.019827522 -0.079153925 -0.15549177 -0.017108591 -0.0035098928
0.011372079 0.045372326 -0.032012768 -0.10553134 -0.04733811 -0.16501236 -0.026422253 -0.0053332453
0.10295379 0.0927433 0.0903879 -0.104091525 0.10069589 -0.010579293 0.014041374 0.0454827
0.10308642 0.107835405 -0.03633621 -0.027260106 -0.09150032 0.03779597 0.047522586 0.12838344
-0.08507755 -0.10267325 -0.06027091 0.10631203 0.027503854 0.05094769 0.12753095 0.040166754
-0.13439351 -0.09525514 0.14168887 0.05323795 0.025287848 -0.062307782 0.08413653 0.079637714
-0.044334106 0.12193413 0.024817344 -0.05005557 -0.13944544 -0.103236444 -0.13969944 0.025235213
-0.10549127 -0.09739221 -0.10633476 -0.051867597 -0.07890638 0.065082364 0.054309763 0.10914912
-0.051822826 -0.020115854 -0.13099729 -0.021301944 -0.076086365 -0.10173776 -0.07880191 -0.086173676
-0.0075545753 -0.0050842287 0.06508444 0.023517286 0.10923055 0.017999068 -0.13272478 0.08220992
0.040699277 -0.03138511 -0.056144297 -0.10897134 0.101922125 -0.019325558 -0.03088355 -0.101286925
00000000: d0a8 cd3d e83f 18be 8982 b5bd e184 a63c
00000010: b142 413d d785 ddbd dae7 01be 5f22 a3bd
00000020: 95f7 babd e34a 14be 3e07 b9bd 3860 c5bd
00000030: 9684 cf3d 6e88 c83d 58de b43d 5fbd 6c3c
00000040: ebc6 4d3d abeb 343d 4102 093e 63ad 433d
00000050: ea68 4c3c ad8b 1a3e 2332 e6bd becf 2bbd
00000060: 48b5 afbd 2efc 08be 2afd e9ba 10d2 d03d
00000070: 3474 043d 6f8b 083c 83a2 073e 5305 00bd
00000080: a846 e53d 3a3f b03d 3995 043d 4a7c f93d
00000090: 1b42 72bd bae0 843b 5177 993d 98e2 d5bd
000000a0: 305a d3bd a1f0 d73d 85b0 1abe a0f7 debd
000000b0: 3509 bfbd 5c49 8bbc a87d d13d a767 013e
000000c0: 8427 253d e456 22bd 280f 313c b684 bfbd
000000d0: 34f2 063d 5549 80bd c016 3a3d 214c b9bd
000000e0: 94ab b53d 6421 21bd f1f1 a7bd 099e 11be
000000f0: 7c7f 913c 6422 9e3d 06f4 103d a696 e8bd
00000100: 4477 c63d 6f59 d1bc b00f 16bd 7654 253e
00000110: f7ff 443d 8fe9 48bd 4a64 65bc 587b 18bd
00000120: 91d7 8f3d 5f7b 873d 2a13 3d3e d91d 91bc
00000130: beab 62bd da04 2d3d f8ed aabd ea4a d53d
00000140: a161 053e 63fb 573d 622d ba3d 2da7 ec3a
00000150: fbf2 c13d f606 98bd aaba 183e 663f 453d
00000160: 322b dfbc 24c1 c83d a71c a6bd d1c5 f83d
00000170: 3f45 b83d 7989 553c 643f 9f3d b119 bbbd
00000180: 1c0f 86ba ba64 953d 4463 7abd d8a4 0abe
00000190: 7b51 acbc f9a1 a83d 96a5 8a3d 95da 7c3d
000001a0: d70c 76bd 567a 7cbd 6352 0c3d f257 ab3c
000001b0: dd20 003d b461 69bd 1dbb 1f3e 15ef 613c
000001c0: f441 2ebe faa7 e43d f5f3 443e 7a8b 043c
000001d0: 8d1f e6bb ecb3 e8bd f7a1 6abc 99dc 3b3e
000001e0: 4a99 543d 7740 c13d 4517 fabd 3d39 0dbe
000001f0: 825a d8bd d12b 82bd 3698 abbd 88e8 033e
00000200: cd4c 2f3d 490a b4bd 8311 4d3b b2e5 96bd
00000210: fd40 b3bc 2c95 63bc 5341 d7bd 2198 84bd
00000220: 68bf 223d 0b97 bfba 8172 93bc 687e 5bbd
00000230: 29c0 04be f4d5 05be 1a68 e0bd ab71 a13c
00000240: af47 a73d 6066 11be 4f70 c13d 28c8 febb
00000250: ad1d 863c dddb 89bb 4bb8 813c 15c7 6dbd
00000260: 96b8 1ebd d64d f73b 680c f9bc e7da 16bd
00000270: 294d c5bc 62cf 113e 0be7 21bd dc8a f83c
00000280: bf0a c6bc 823a bcbc 9c8a ff3d 4cc1 63bd
00000290: 7f08 91bd 463b 1fbe a49a 5cbb cb5d 1abe
000002a0: 06ae e2bd 2497 acbd c00e 21ba 546d a2bc
000002b0: 741b a2bd 3c39 1fbe 5127 8cbc 3b06 66bb
000002c0: f551 3a3c 55d8 393d d21f 03bd d120 d8bd
000002d0: 9be5 41bd 00f9 28be 7b73 d8bc 81c2 aebb
000002e0: 70d9 d23d 33f0 bd3d 4b1d b93d f02d d5bd
000002f0: a639 ce3d c554 2dbc cb0d 663c 114c 3a3d
00000300: f91e d33d cfd8 dc3d 47d5 14bd 9650 dfbc
00000310: 8564 bbbd f2cf 1a3d 0ba7 423d f376 033e
00000320: 233d aebd 5a46 d2bd a1de 76bd 1fba d93d
00000330: c34f e13c 86ae 503d 7997 023e e585 243d
00000340: 749e 09be 2015 c3bd e316 113e 0910 5a3d
00000350: 7628 cf3c 7236 7fbd c64f ac3d 1919 a33d
00000360: ae97 35bd 9ab8 f93d be4d cb3c 1207 4dbd
00000370: c9ca 0ebe a16d d3bd 5f0d 0fbe 14ba ce3c
00000380: cf0b d8bd 9175 c7bd 0ac6 d9bd 1e73 54bd
00000390: ab99 a1bd e749 853d ea73 5e3d 9389 df3d
000003a0: 2c44 54bd 01ca a4bc 2724 06be 6a81 aebc
000003b0: 2bd3 9bbd e35b d0bd e562 a1bd d37b b0bd
000003c0: 5f8c f7bb 9a99 a6bb fe4a 853d 53a7 c03c
000003d0: 44b4 df3d c872 933c 01e9 07be ad5d a83d
000003e0: 49b4 263d ac8d 00bd 90f7 65bd 5e2c dfbd
000003f0: 8cbc d03d a250 9ebc 80ff fcbc 856f cfbd

actor.0.bias f4 [128]
0.009621725 0.08664391 0.066532426 -0.056055605 -0.101760276 -0.030886723 0.06586497 0.095973074
-0.03818577 0.06706922 0.10351709 -0.12166331 -0.0027176137 -0.096076034 -0.10092727 -0.03595831
0.07739224 -0.10640557 0.093857646 -0.091299176 -0.01179446 0.0642576 0.05349649 0.109150015
-0.0002801982 -0.11709388 0.13536222 0.061471682 0.025291927 0.019507622 0.12395666 -0.06584653
0.10514887 -0.10293662 -0.057356115 -0.12634008 0.07215305 -0.023405995 -0.042531732 0.09896821
-0.01953713 -0.0030464013 -0.13900018 0.060007654 0.10407075 0.09293062 0.12316514 -0.058359735
-0.10325959 -0.10212715 0.12327074 0.008357642 -0.0543048 -0.03798038 -0.06462132 0.11006796
-0.01163896 0.1393607 0.07612579 -0.03101097 -0.09632458 -0.06512305 0.028006779 0.12587667
-0.0621942 0.04317232 -0.034110896 -0.035563033 -0.051387236 0.08186916 0.09868141 -0.079690576
0.075920634 0.07968883 -0.07526064 0.120875135 0.11384879 -0.038565177 -0.035997234 0.07644372
-0.03875667 -0.0007152957 -0.073561855 0.009931996 0.01501193 0.067009 -0.036965832 -0.0022603718
0.102710776 -0.08487499 0.11620437 -0.021978278 -0.11994482 -0.07959594 -0.0813251 -0.084516816
0.0054390365 0.105994694 -0.10564003 0.016970655 -0.031545877 -0.09180727 0.03874101 0.0063269543
-0.08285465 0.09220925 0.09164846 0.0043504457 -0.04467331 -0.025367914 0.059903048 0.067365155
-0.05298728 -0.023457628 0.002260451 0.010150896 -0.05915126 0.05906183 -0.015920088 -0.01174402
-0.10685758 0.050908446 0.065115325 -0.1190629 -0.10483564 -0.03126383 0.007890181 -0.06276234
00000000: 71a4 1d3c 5d72 b13d 2742 883d 909a 65bd
00000010: b167 d0bd 2706 fdbc 37e4 863d 888d c43d
00000020: af68 1cbd 965b 893d c500 d43d 9d2a f9bd
00000030: fe19 32bb 83c3 c4bd f5b2 cebd 0549 13bd
00000040: d37f 9e3d 2aeb d9bd 7038 c03d 10fb babd
00000050: 8d3d 41bc 7d99 833d 231f 5b3d 0b8a df3d
00000060: 91e7 92b9 ebce efbd 659c 0a3e bbc9 7b3d
00000070: 0431 cf3c 73ce 9f3c fddc fd3d 8cda 86bd
00000080: 4a58 d73d 6fd0 d2bd 3fee 6abd 4b5f 01be
00000090: fac4 933d eebd bfbc c135 2ebd d8af ca3d
000000a0: 550c a0bc 22a6 47bb 1056 0ebe 96ca 753d
000000b0: 0c23 d53d 6952 be3d 013e fc3d 9e0a 6fbd
000000c0: c479 d3bd 0a28 d1bd 5f75 fc3d 7eee 083c
000000d0: b66e 5ebd 5191 1bbd 2f58 84bd 506b e13d
000000e0: 56b1 3ebc 92b4 0e3e d7e7 9b3d b80a febc
000000f0: d245 c5bd 3c5f 85bd 796e e53c d0e5 003e
00000100: 58bf 7ebd 75d5 303d deb7 0bbd 8baa 11bd
00000110: 6c7b 52bd 05ab a73d 7b19 ca3d d034 a3bd
00000120: 477c 9b3d e633 a33d 4022 9abd 628d f73d
00000130: 8e29 e93d 85f6 1dbd d671 13bd 868e 9c3d
00000140: 50bf 1ebd af82 3bba 99a7 96bd d0b9 223c
00000150: 99f4 753c 043c 893d 7c69 17bd bf22 14bb
00000160: 075a d23d f0d2 adbd 8ffc ed3d ca0b b4bc
00000170: a1a5 f5bd 3203 a3bd c68d a6bd 2717 adbd
00000180: f239 b23b bf13 d93d cd59 d8bd 0b06 8b3c
00000190: 4036 01bd 7305 bcbd e5ae 1e3d 5752 cf3b
000001a0: b3af a9bd 34d8 bc3d 30b2 bb3d 2f8e 8e3b
000001b0: 5cfb 36bd 5fd0 cfbc e65c 753d bef6 893d
000001c0: 3109 59bd 362a c0bc 1324 143b f24f 263c
000001d0: 9748 72bd d1ea 713d d86a 82bc fd69 40bc
000001e0: 26d8 dabd 6085 503d 2f5b 853d 40d7 f3bd
000001f0: 11b4 d6bd 800e 00bd d145 013c 8b89 80bd

actor.2.weight f4 [128, 128]
0.029293768 0.016351115 -0.08485301 0.02213393 0.036791917 0.09841985 -0.037042987 -0.022004366
0.043685272 -0.01744613 0.09532834 -0.012635582 -0.013214211 -0.04215095 0.070774674 -0.011548799
-0.0117206955 0.04882929 -0.017645137 0.039312426 0.09300692 0.06640397 0.08775066 -0.07511893
0.04217496 0.050849658 -0.08233155 0.06261388 -0.08772196 0.0573607 -0.0034418593 -0.06451092
0.027983015 0.040585704 -0.002796235 0.022146236 0.046933502 0.0901471 0.064647205 -0.106661215
-0.10668725 -0.03762672 -0.009953597 0.0017085761 -0.08178837 -0.030031078 -0.067370936 0.0534855
-0.004506382 0.022165975 -0.036432773 0.0155387595 -0.05024349 0.03666901 0.042589966 0.061324794
0.024183797 -0.037632164 0.082317665 0.106549844 -0.07664863 0.024969509 -0.059160452 0.031103397
0.10831557 -0.0028566283 0.05997173 -0.07463298 -0.02769531 -0.04277053 0.024782449 0.048853837
-0.10352072 0.022328 -0.017393507 0.037383728 0.07114673 0.009477643 -0.08665635 -0.00964319
-0.03942453 0.095596366 -0.05005208 0.003971906 0.019532742 0.064159006 -0.058099438 0.03113102
-0.055936374 -0.0557659 -0.024699492 -0.027975569 0.022173526 -0.07111651 0.05318008 0.064291626
0.007948763 -0.022994312 -0.020720128 -0.06687308 -0.016920324 0.040136777 -0.06893932 -0.061192323
-0.03387323 0.0025438769 0.059312392 -0.011483788 0.02768851 -0.029500563 0.0022609977 0.06257836
0.008647854 -0.071830034 0.021638501 -0.08811406 0.02034672 -0.07682733 -0.08244588 0.010514111
0.014141575 0.03272104 -0.09817199 0.016056575 -0.0288564 0.023122692 0.0651039 0.03778095
-0.099002995 0.032934252 0.003646942 -0.0748471 0.07755809 -0.101580374 0.08218404 0.022567932
-0.13296941 -0.052030396 -0.0006169802 0.03737149 -0.014642228 0.025780536 0.009375734 0.09276426
0.01397517 0.025327474 -0.026809607 -0.020560332 0.03537604 0.082908764 0.021475818 -0.037249006
-0.08052478 0.013649082 0.009799253 0.038511463 -0.10341529 0.035837863 -0.042937856 0.034289684
-0.08442242 -0.06756423 0.05822221 0.09531436 -0.07490899 -0.03560912 -0.035394285 -0.012787682
0.045835156 0.043044314 0.047734976 -0.10660854 0.09235317 0.029644763 0.04186177 -0.06405002
-0.03122567 -0.067894675 0.081677265 -0.03599023 -0.015462536 -0.0042217146 -0.03194051 -0.027064063
-0.048173282 0.058328833 -0.014711255 -0.11019229 -0.076631546 -0.013038258 -0.07385362 0.07127204
-0.053852238 0.08745621 0.11367696 0.072009 0.046653625 0.07255448 0.034580547 -0.00895024
0.07092744 -0.00933106 0.04052091 0.06131399 -0.08250244 -0.013627612 0.08090501 0.02237161
0.05182255 0.02500474 0.036791924 -0.03641102 -0.029127337 0.07642428 0.067272246 -0.08199494
0.02499195 0.04874806 0.015253012 -0.101332426 -0.010678235 0.053397402 0.028184364 0.061681144
-0.06941981 0.056208912 0.10407406 0.08320184 -0.092711754 0.025962481 0.08045907 0.048427273
-0.02899695 0.02499783 -0.009012318 -0.080672055 0.00686115 -0.047694817 -0.0072907326 -0.09026778
-0.054195777 0.03621507 -0.08265388 -0.023835624 0.07973866 -0.025387304 0.052313063 0.09106925
-0.027256394 0.002081173 -0.013844763 0.044878364 0.03498064 -0.03893917 -0.046911806 -0.013407198
00000000: 7cf9 ef3c c6f2 853c 6ac7 adbd 3752 b53c
00000010: 1fb3 163d 5990 c93d 63ba 17bd 8042 b4bc
00000020: 54ef 323d 30eb 8ebc 813b c33d 7905 4fbc
00000030: 6b80 58bc 79a6 2cbd 50f2 903d 2d37 3dbc
00000040: 2908 40bc 3901 483d 898c 90bc 1106 213d
00000050: 697a be3d cefe 873d 9eb6 b33d f4d7 99bd
00000060: a7bf 2c3d bb47 503d 729d a8bd b53b 803d
00000070: 92a7 b3bd 0ef3 6a3d d190 61bb 4d1e 84bd
00000080: a33c e53c 323d 263d 0a41 37bb 066c b53c
00000090: 583d 403d 0b9f b83d c165 843d 3271 dabd
000000a0: d87e dabd 7a1e 1abd 6914 23bc 4df2 df3a
000000b0: a980 a7bd bc03 f6bc c6f9 89bd 9d13 5b3d
000000c0: 46aa 93bb 6b95 b53c 883a 15bd 4896 7e3c
000000d0: 1ecc 4dbd 3e32 163d d172 2e3d b52f 7b3d
000000e0: 191d c63c 2f24 1abd 2a96 a83d ce36 da3d
000000f0: f5f9 9cbd db8c cc3c 3b52 72bd 8dcc fe3c
00000100: 8ed4 dd3d 4536 3bbb eba4 753d 2dd9 98bd
00000110: 46e1 e2bc 2730 2fbd 9004 cb3c f61a 483d
00000120: ac02 d4bd 36e9 b63c d47c 8ebc ae1f 193d
00000130: 60b5 913d 1e48 1b3c e278 b1bd 78fe 1dbc
00000140: 9e7b 21bd 07c8 c33d 6903 4dbd c326 823b
00000150: 2103 a03c cc65 833d adf9 6dbd 7b06 ff3c
00000160: 8a1d 65bd c96a 64bd 9756 cabc 052d e5bc
00000170: 41a5 b53c 88a5 91bd 5bd3 593d 54ab 833d
00000180: 873b 023c 915e bcbc 42bd a9bc c1f4 88bd
00000190: 7e9c 8abc 7666 243d 0f30 8dbd cda4 7abd
000001a0: a8be 0abd 2cb7 263b 8df1 723d 7f26 3cbc
000001b0: 04d3 e23c 2aab f1bc 3f2d 143b 1529 803d
000001c0: bbaf 0d3c a01b 93bd 3a43 b13c 2575 b4bd
000001d0: 2aae a63c a657 9dbd 63d9 a8bd 6143 2c3c
000001e0: 11b2 673c 7f06 063d 650e c9bd 1489 833c
000001f0: 4264 ecbc cd6b bd3c 3255 853d 33c0 1a3d
00000200: 15c2 cabd 11e6 063d 8901 6f3b 7049 99bd
00000210: c7d6 9e3d 5f09 d0bd 1b50 a83d 62e0 b83c
00000220: 2229 08be d31d 55bd d7bc 21ba d912 193d
00000230: f5e5 6fbc b431 d33c ae9c 193c 30fb bd3d
00000240: 1df8 643c 907b cf3c d29f dbbc 246e a8bc
00000250: 77e6 103d 12cc a93d 0eee af3c 6a92 18bd
00000260: 2dea a4bd 66a0 5f3c 0c8d 203c 32be 1d3d
00000270: 65cb d3bd b9ca 123d 9bdf 2fbd 5773 0c3d
00000280: a9e5 acbd 1d5f 8abd 697a 6e3d 2d34 c33d
00000290: e269 99bd deda 11bd 99f9 10bd 6d83 51bc
000002a0: a5bd 3b3d 3c4f 303d c085 433d 9455 dabd
000002b0: a923 bd3d 93d9 f23c 3f77 2b3d a82c 83bd
000002c0: facc ffbc 5d0c 8bbd 6946 a73d 7e6a 13bd
000002d0: 9456 7dbc 4f56 8abb 0dd4 02bd 74b5 ddbc
000002e0: 5951 45bd 37ea 6e3d 7a07 71bc 7fac e1bd
000002f0: 00f1 9cbd 6b9e 55bc 9140 97bd 13f7 913d
00000300: 2a94 5cbd 3e1c b33d 77cf e83d 7479 933d
00000310: df17 3f3d 7197 943d 55a4 0d3d 07a4 12bc
00000320: 6842 913d 4de1 18bc 41f9 253d 6124 7b3d
00000330: 0af7 a8bd 5946 5fbc 87b1 a53d ab44 b73c
00000340: e243 543d bed6 cc3c 21b3 163d b923 15bd
00000350: 749c eebc 5584 9c3d 08c6 893d f7ec a7bd
00000360: ebbb cc3c 0cac 473d c5e7 793c 6087 cfbd
00000370: c4f3 2ebc 3cb7 5a3d e5e2 e63c 5ea5 7c3d
00000380: f92b 8ebd 513b 663d c824 d53d ba65 aa3d
00000390: a9df bdbd 45af d43c bac7 a43d ad5b 463d
000003a0: 038b edbc 40c8 cc3c 67a8 13bc 6437 a5bd
000003b0: 7fd3 e03b a45b 43bd 19e7 eebb 50de b8bd
000003c0: 64fc 5dbd 4156 143d 7046 a9bd ed42 c3bc
000003d0: 064e a33d 09f9 cfbc 3946 563d 8482 ba3d
000003e0: cd48 dfbc 4a64 083b 25d5 62bc 60d2 373d
000003f0: dc47 0f3d ae7e 1fbd 9826 40bd dda9 5bbc

actor.2.bias f4 [128]
-0.061622974 0.06366671 0.0560676 0.018595692 0.054839287 -0.09389594 -0.01673264 -0.04334614
-0.03827129 -0.07220119 0.04316387 -0.07417484 0.052522317 0.04189166 0.031535793 0.04671802
-0.06064852 -0.08737746 -0.05230014 0.09018029 0.048137132 -0.05771081 -0.06646596 -0.0027038879
-0.018064989 -0.038857866 0.032397073 -0.03632646 -0.0073362174 -0.023000266 0.043250248 0.009419728
-0.042221893 0.059051126 0.04909726 0.041767456 0.052187536 -0.04219622 0.036653396 -0.004560493
0.049017232 0.051664323 -0.04944911 -0.014809556 -0.08288157 0.0032470888 0.016380262 0.03404422
0.07533743 -0.03584506 -0.061494622 -0.08606657 -0.0322871 0.027835814 -0.013854276 0.057288203
-0.0881713 0.060477953 -0.015419816 -0.03122069 0.01663144 -0.00025358298 -0.05076482 -0.03803441
-0.023857772 0.05182511 -0.034502182 -0.015829794 -0.052375033 -0.01999501 -0.06574881 -0.010683374
-0.065917045 -0.045159332 -0.07586544 -0.08308441 0.0718046 0.013089025 0.041986708 0.028147537
0.0062450417 -0.012456233 0.015763298 -0.0465612 -0.053162836 0.05067292 -0.001372827 0.048106864
0.041650753 -0.0697308 -0.102819055 -0.06673736 0.04486052 0.08795802 -0.091567464 0.016048372
0.043252658 -0.049870033 -0.019096646 0.008850637 0.016852506 -0.042858724 -0.04553043 -0.039328214
-0.05556707 0.05258014 -0.0380062 -0.09298107 -0.044045098 0.03540762 0.05641422 0.06762387
-0.0051335 0.048678566 0.029573094 0.051964227 -0.016723506 0.011521827 -0.011737996 0.050880753
0.03905273 0.0019487541 -0.019860093 0.082569666 -0.014285998 0.07028963 -0.077293105 -0.050358042
00000000: 5f68 7cbd b163 823d 24a7 653d fe55 983c
00000010: 299f 603d 844c c0bd e412 89bc b98b 31bd
00000020: 5bc2 1cbd 38de 93bd 99cc 303d fae8 97bd
00000030: a421 573d 9796 2b3d ad2b 013d 655b 3f3d
00000040: 956a 78bd f4f2 b2bd ac38 56bd 72b0 b83d
00000050: 712b 453d 2c62 6cbd 4e1f 88bd b633 31bb
00000060: 07fd 93bc 6d29 1fbd cbb2 043d 0ecb 14bd
00000070: a764 f0bb 0e6b bcbc 2c27 313d 3455 1a3c
00000080: ddf0 2cbd 98df 713d 351a 493d 5a14 2b3d
00000090: 99c2 553d f2d5 2cbd df21 163d 3070 95bb
000000a0: 4bc6 483d f89d 533d 268b 4abd c8a3 72bc
000000b0: d0bd a9bd 1ccd 543b e62f 863c f471 0b3d
000000c0: 834a 9a3d 45d2 12bd c9e1 7bbd ab43 b0bd
000000d0: 7a3f 04bd ef07 e43c 0cfd 62bc 09a7 6a3d
000000e0: 2893 b4bd bbb7 773d 65a3 7cbc 88c2 ffbc
000000f0: a83e 883c 55f3 84b9 c6ee 4fbd f8c9 1bbd
00000100: 6071 c3bc 9146 543d 2952 0dbd 7cad 81bc
00000110: 3487 56bd 93cc a3bc 50a7 86bd 5109 2fbc
00000120: 84ff 86bd fef8 38bd 575f 9bbd 2928 aabd
00000130: 4a0e 933d 5a73 563c 41fa 2b3d aa95 e63c
00000140: 35a3 cc3b 3a15 4cbc 0822 813c f5b6 3ebd
00000150: 46c1 59bd 688e 4f3d 6ef0 b3ba b40b 453d
00000160: fb99 2a3d 06cf 8ebd cc92 d2bd 99ad 88bd
00000170: aabf 373d 5623 b43d b987 bbbd e077 833c
00000180: b329 313d 8544 4cbd 9270 9cbc 4302 113c
00000190: 440e 8a3c a18c 2fbd 1e7e 3abd 9f16 21bd
000001a0: 4c9a 63bd 465e 573d 64ac 1bbd dc6c bebd
000001b0: a268 34bd 9507 113d 9912 673d 627e 8a3d
000001c0: eb36 a8bb 2d63 473d 4643 f23c 71d8 543d
000001d0: bcff 88bc 0cc6 3c3c b950 40bc 5668 503d
000001e0: c1f5 1f3d 566d ff3a a2b1 a2bc 491a a93d
000001f0: d20f 6abc 02f4 8f3d d94b 9ebd 3c44 4ebd

actor.4.weight f4 [128, 128]
0.042010397 -0.08722711 0.091001935 -0.008692541 0.092865266 0.031288352 0.004307676 0.019655932
-0.057546 0.0072119976 -0.019439388 -0.023653666 0.056217875 0.0052998513 -0.10719908 -0.06891391
-0.016604703 0.089171775 0.01636688 -0.03742292 0.0075042946 -0.0392998 -0.008342191 -0.051159702
0.08326025 -0.0050016292 -0.07877424 0.00018679674 -0.05208497 -0.0144768115 0.06453655 0.02390397
-0.033652864 -0.07851085 -0.10863166 0.004761933 0.05271203 -0.016374612 0.041435607 0.004970228
-0.0736049 -0.06359045 -0.023994211 -0.08593287 -0.06255186 -0.07681808 0.1295579 0.051387183
-0.00822975 -0.029616185 0.0073233014 -0.077239975 0.09539178 0.08881955 -0.050184697 0.06202714
0.047132764 -0.0546438 0.05906457 -0.11996803 -0.015650718 0.06943833 -0.063033685 -0.07041112
-0.052817773 0.032844644 -0.0369181 0.021288918 0.03643424 -0.049902014 0.056105427 -0.08557885
0.066582195 0.046066485 0.013405142 -0.05250286 -0.08297704 -0.016788017 -0.03017457 -0.05219346
0.011459877 0.05573548 -0.09766155 -0.075600795 0.05519508 -0.062879615 0.026121028 -0.07779448
0.048495274 0.07914544 0.10166749 -0.048003364 -0.074339084 -0.002474949 0.06874069 -0.010183425
-0.043060925 0.03285885 0.07282333 0.066872105 -0.026681246 -0.010659753 0.018282382 -0.097898796
-0.0687122 -0.079389706 -0.022104595 -0.052690536 -0.010196586 -0.014031947 -0.033568516 0.04794557
-0.052404065 -0.054072823 -0.002236111 0.05463597 -0.0154992165 -0.072044045 -0.0019867881 0.042803608
0.023337623 -0.014060633 -0.041240864 -0.11965347 0.013248022 0.03729779 -0.022568166 -0.06647437
-0.04903589 0.055724945 0.047776576 -0.04011808 -0.02191086 -0.046087146 -0.02157071 -0.041649815
0.076368004 0.00897206 0.0077368864 -0.09023941 0.060636103 -0.080264024 -0.04230365 -0.07837568
0.091205955 -0.030020475 0.06564661 -0.014525297 0.04903555 0.05297672 -0.058817975 0.058531135
-0.04332803 0.022117998 -0.006584301 0.036239166 -0.07087835 0.036247063 -0.026215795 0.096205965
-0.06350894 0.085645996 -0.025463566 -0.051911674 -0.035112325 -0.063232295 -0.0062317397 -0.019922366
-0.011560744 0.06473973 -0.08627369 0.06777442 -0.058939736 -0.040618565 -0.093029715 0.0713885
-0.07811719 -0.061841723 -0.045240328 -0.022227678 -0.06591578 -0.031393487 0.06586787 -0.011344332
0.048796687 -0.047007192 0.058746744 0.010370396 0.04724435 -0.058795583 -0.06761713 -0.07956811
-0.04215223 0.098549806 -0.06180012 -0.05974599 -0.02548076 0.04431472 -0.03065481 0.09042304
-0.013420291 0.01946981 0.05986546 0.042275954 -0.042740997 0.07098199 0.015204666 0.07542639
-0.022126941 0.006311994 -0.06325304 0.020145988 -0.04377517 0.053656895 -0.067073055 -0.04566525
-0.044918645 0.05350243 -0.037747726 0.029720033 0.05643509 -0.0646503 0.002500701 0.062838174
-0.06690952 0.060475074 -0.013773412 -0.0006039298 0.07564048 -0.06822416 0.06618529 0.073529914
-0.026561683 -0.03893796 -0.07442798 0.014563339 -0.11369076 0.034792807 -0.070784904 -0.031028826
0.08469945 -0.093401045 0.070733435 -0.105920434 0.121357985 0.069818616 0.052807476 -0.028527599
-0.020192774 -0.0103634875 0.03490925 -0.04295093 -0.06489554 -0.067118146 0.00075613806 -0.030029956
00000000: 1813 2c3d 21a4 b2bd 395f ba3d 296b 0ebc
00000010: 2530 be3d 3728 003d 6827 8d3b 7a05 a13c
00000020: 5bb5 6bbd 9f52 ec3b 5a3f 9fbc 55c5 c1bc
00000030: b744 663d 60aa ad3b 318b dbbd bc22 8dbd
00000040: 9606 88bc b19f b63d d613 863c c748 19bd
00000050: 96e6 f53b d4f8 20bd afad 08bc d68c 51bd
00000060: 5a84 aa3d b5e4 a3bb 6454 a1bd dede 4339
00000070: 0d57 55bd 2630 6dbc bd2b 843d 42d2 c33c
00000080: 96d7 09bd 4cca a0bd 477a debd fd09 9c3b
00000090: 92e8 573d 0d24 86bc 62b8 293d 4bdd a23b
000000a0: 2abe 96bd b63b 82bd 828f c4bc 93fd afbd
000000b0: 311b 80bd cc52 9dbd d3aa 043e 5e7b 523d
000000c0: 13d6 06bc a49d f2bc 4ef8 ef3b fe2f 9ebd
000000d0: c45c c33d 06e7 b53d 788e 4dbd 2c10 7e3d
000000e0: 490e 413d 2dd2 5fbd b1ed 713d ccb1 f5bd
000000f0: ef35 80bc af35 8e3d ce17 81bd b533 90bd
00000100: 7357 58bd 1b88 063d 6f37 17bd 1966 ae3c
00000110: 123c 153d 0e66 4cbd cece 653d f743 afbd
00000120: 3f5c 883d 36b0 3c3d 3ea1 5b3c 3d0d 57bd
00000130: deef a9bd 0687 89bc a930 f7bc cfc8 55bd
00000140: 35c2 3b3c e34a 643d c702 c8bd 97d4 9abd
00000150: 3c14 623d 07c7 80bd c4fb d53c b652 9fbd
00000160: fba2 463d 0117 a23d 0c37 d03d 2d9f 44bd
00000170: 173f 98bd c132 22bb ebc7 8c3d 61d8 26bc
00000180: a760 30bd 0097 063d 6624 953d 3ef4 883d
00000190: a192 dabc 3fa6 2ebc efc4 953c 2a7f c8bd
000001a0: fbb8 8cbd 1297 a2bd b214 b5bc 08d2 57bd
000001b0: 950f 27bc 40e6 65bc 247f 09bd 9362 443d
000001c0: a5a5 56bd 777b 5dbd b88b 12bb f8c9 5f3d
000001d0: 6df0 7dbc d48b 93bd c634 02bb d652 2f3d
000001e0: 8b2e bf3c 925e 66bc 2eec 28bd e10c f5bd
000001f0: 3b0e 593c 91c5 183d e0e0 b8bc b723 88bd
00000200: dbd9 48bd d73f 643d 5fb1 433d db52 24bd
00000210: 677e b3bc e0c5 3cbd 0fb5 b0bc ff98 2abd
00000220: d466 9c3d 8cff 123c b585 fd3b 71cf b8bd
00000230: 905d 783d 7761 a4bd 9846 2dbd 6e83 a0bd
00000240: 30ca ba3d 80ed f5bc bb71 863d 83fb 6dbc
00000250: 80d9 483d 1efe 583d 1eeb 70bd 58be 6f3d
00000260: bb78 31bd ce30 b53c 1fc1 d7bb 856f 143d
00000270: ab28 91bd cd77 143d 82c2 d6bc a207 c53d
00000280: fa10 82bd 2b67 af3d f898 d0bc 56a1 54bd
00000290: f1d1 0fbd ef7f 81bd 9f33 ccbb 3b34 a3bc
000002a0: 4669 3dbc 4396 843d 43b0 b0bd 51cd 8a3d
000002b0: cb6a 71bd a75f 26bd 5d86 bebd 2234 923d
000002c0: e8fb 9fbd bf4d 7dbd ec4d 39bd d216 b6bc
000002d0: dafe 86bd 7596 00bd bce5 863d 94dd 39bc
000002e0: 09df 473d 9d8a 40bd 6da0 703d 98e8 293c
000002f0: 4b83 413d a3d3 70bd da7a 8abd 9bf4 a2bd
00000300: d1a7 2cbd 7bd4 c93d 1f22 7dbd 36b8 74bd
00000310: 07bd d0bc 5a83 353d cc1f fbbc b72f b93d
00000320: c8e0 5bbc 277f 9f3c 7c35 753d 8d29 2d3d
00000330: 2f11 2fbd 015f 913d fe1c 793c 2779 9a3d
00000340: 8f43 b5bc d8d4 ce3b cf8a 81bd 3309 a53c
00000350: 984d 33bd 55c7 5b3d 995d 89bd 7c0b 3bbd
00000360: 9dfc 37bd 5d25 5b3d 5c9d 1abd 6d77 f33c
00000370: 7b28 673d 6067 84bd cde2 233b 4db1 803d
00000380: dc07 89bd b6b4 773d e1a9 61bc 0b51 1eba
00000390: 65e9 9a3d 1cb9 8bbd 278c 873d da96 963d
000003a0: e397 d9bc 697d 1fbd b26d 98bd 129b 6e3c
000003b0: b4d6 e8bd e782 0e3d adf7 90bd 2a30 febc
000003c0: e876 ad3d 0c49 bfbd b1dc 903d d0ec d8bd
000003d0: 898a f83d 10fd 8e3d a74c 583d b6b2 e9bc
000003e0: 516b a5bc 9ecb 29bc 00fd 0e3d 50ed 2fbd
000003f0: f4e7 84bd 3d75 89bd 9137 463a 6201 f6bc

actor.4.bias f4 [128]
-0.014712106 0.04125012 0.0014635515 -0.016326383 -0.09433305 -0.036177117 0.031714596 -0.11362866
0.05990729 -0.08992695 0.0022469484 -0.014224058 0.032496076 -0.03361782 -0.019482022 -0.11407729
0.0007191117 -0.037800983 0.07331706 -0.023850594 0.039782975 0.010507445 -0.04131964 0.07956111
-0.101977535 -0.0592217 0.0101071615 0.0009679686 -0.07459949 -0.064747095 0.07576091 0.0077425237
0.039545745 -0.02291351 -0.04538247 0.04546944 -0.0034244086 0.101654045 0.08456299 0.031422116
0.028776402 -0.03066059 0.06281698 0.0798633 -0.081824556 0.00681924 0.09300648 -0.021994261
0.09061623 -0.085429244 0.111327976 -0.0671347 0.014936535 0.03831055 -0.042282585 0.014005853
-0.030218834 -0.027325712 -0.029202666 -0.03347144 -0.047216684 -0.03253585 0.07354521 -0.11154503
0.060445685 0.05402839 0.08996269 -0.06998413 -0.020239431 -0.12310546 0.11513399 -0.023772893
-0.038942933 0.07759535 -0.0048687486 -0.018098798 -0.031877186 0.092539445 0.020922689 -0.022770546
0.003654044 0.11709872 -0.050910216 0.01369973 0.03556753 -0.032717254 0.008426386 0.055041637
-0.078054726 -0.03289373 0.039112072 -0.0075380756 0.012383402 -0.026831007 0.043059897 0.050667882
0.015915927 0.013860021 0.052681193 -0.047831655 0.055882867 0.071787424 0.08993629 -0.016828248
0.03949235 0.0014893052 0.029602295 0.07924908 0.022077497 -0.08564549 0.025894046 -0.026961291
-0.017435174 -0.00018093848 0.017213313 0.035181634 -0.024939634 0.054060813 0.08765895 0.035950597
-0.045247547 -0.03829314 -0.12924376 -0.008845292 0.089059636 0.060443427 0.07096198 0.08448052
00000000: 0c0b 71bc e3f5 283d a4d4 bf3a e8be 85bc
00000010: b031 c1bd 752e 14bd 2ae7 013d 25b6 e8bd
00000020: 5961 753d 9f2b b8bd 8a41 133b 060c 69bc
00000030: 9b1a 053d d7b2 09bd c398 9fbc 5ba1 e9bd
00000040: c582 3c3a 34d5 1abd 4127 963d 5262 c3bc
00000050: 79f3 223d 6b27 2c3c c83e 29bd eff0 a23d
00000060: 99d9 d0bd 7492 72bd 8298 253c 46bf 7d3a
00000070: 9ec7 98bd 209a 84bd 8928 9b3d ffb4 fd3b
00000080: b8fa 213d 1db5 bbbc f8e2 39bd 2a3e 3a3d
00000090: 0b6c 60bb ff2f d03d 5c2f ad3d 7ab4 003d
000000a0: 7dbc eb3c eb2b fbbc 30a6 803d 5f8f a33d
000000b0: a293 a7bd ee73 df3b 2e7a be3d 4f2d b4bc
000000c0: 0195 b93d 87f5 aebd ecff e33d eb7d 89bd
000000d0: 5eb8 743c 86eb 1c3d 8130 2dbd ce78 653c
000000e0: 7d8d f7bc 2cda dfbc 6e3a efbc 5919 09bd
000000f0: 4866 41bd 5044 05bd df9e 963d b871 e4bd
00000100: e595 773d e04c 5d3d 5c3e b83d d753 8fbd
00000110: 2acd a5bc b71e fcbd 5fcb eb3d 5fbf c2bc
00000120: a082 1fbd 50ea 9e3d 068a 9fbb ee43 94bc
00000130: a791 02bd 5285 bd3d 0f66 ab3c 4c89 babc
00000140: af78 6f3b 74d1 ef3d 3b87 50bd d574 603c
00000150: 42af 113d 8702 06bd d30e 0a3c 5773 613d
00000160: 28db 9fbd 93bb 06bd fb33 203d f601 f7bb
00000170: c1e3 4a3c b3cc dbbc 935f 303d 2089 4f3d
00000180: 1e62 823c 2415 633c 3cc8 573d 20eb 43bd
00000190: 6fe5 643d 4905 933d 8530 b83d 65db 89bc
000001a0: bbc2 213d ca34 c33a 8380 f23c 574d a23d
000001b0: dedb b43c e766 afbd c01f d43c eddd dcbc
000001c0: 36d4 8ebc 4eba 3db9 ef02 8d3c 9e1a 103d
000001d0: 344e ccbc df6e 5d3d 8986 b33d ef40 133d
000001e0: 7e55 39bd 44d9 1cbd 7a58 04be d8eb 10bc
000001f0: e664 b63d 8793 773d 8454 913d 1f04 ad3d

actor.6.weight f4 [9, 128]
0.08014604 0.007551187 0.0022852703 0.12571149 0.09777982 0.00066506554 -0.07390955 0.11486947
0.009947025 -0.05306452 0.024944382 0.04256042 -0.06656816 -0.050144646 -0.074297756 0.065794446
0.07701061 -0.015240881 -0.0042251386 0.07157764 0.05686071 0.06004583 0.002745967 -0.044898912
0.0173008 0.003479586 0.025792746 0.073271155 0.107387364 0.064481445 -0.0839698 -0.024982724
0.06453533 -0.033799972 -0.06191793 0.034681667 -0.051878482 -0.0077084266 -0.022403821 0.008882458
0.04253393 0.11750815 -0.085365586 0.004128131 0.0050507714 -0.05555903 -0.05551279 -0.08474707
0.010430453 0.008583341 -0.026596703 0.04397538 -0.00801968 0.0054637804 0.015794119 -0.041813716
0.060738247 0.007551543 -0.047632076 0.018534314 0.075856104 -0.049633056 -0.034550123 0.056167625
0.008520038 0.04118221 -0.08021256 -0.033112176 -0.007949064 0.095190935 -0.11430567 -0.030328842
-0.062295113 -0.107797906 -0.016839279 0.084143244 -0.006536116 -0.07711859 0.023230877 0.077380136
0.059102003 -0.07099587 -0.007029778 0.026156588 0.053761203 -0.052954614 0.021181442 -0.06626423
0.027141023 0.08519969 0.04270187 -0.044473168 0.06461873 -0.044469647 -6.166457e-05 0.022079336
-0.03187038 0.07185652 0.07816523 -0.01305922 -0.019274646 -0.04521396 -0.06194958 0.010540183
0.07330251 0.003278957 0.090350986 -0.06289675 0.013504824 0.0058967806 0.008719559 0.08509777
0.07992229 -0.06805703 0.013913548 -0.012419248 0.053434376 0.037508186 0.036557596 -0.03788208
-0.009271705 -0.07990252 0.06981895 -0.05772963 -0.048257187 -0.07237811 0.032148022 -0.07495551
0.07031766 0.039813746 -0.0916574 0.014544177 0.01896199 -0.053495068 -0.031967755 0.08207591
0.044734664 -0.00935437 0.006907627 -0.069827184 -0.0864581 0.011914522 0.06652228 -0.028969226
0.027950305 0.07311787 0.090034366 -0.050160777 -0.0129886195 -0.0056406036 0.018350452 0.024727859
0.056996226 -0.057584777 0.067007035 -0.035270095 -0.047515247 -0.09587221 -0.009887626 -0.059713166
-0.04786105 0.03847925 0.08419982 -0.00995357 -0.085617974 -0.029004417 0.013808911 -0.0636309
0.069494784 -0.059697192 0.003955572 -0.09536826 0.10222484 0.009667676 -0.030870946 -0.03546469
-0.04406754 0.056438982 0.004436778 0.035296645 -0.05413815 0.053690594 -0.002378982 -0.06524038
0.03420687 0.039414596 0.0042523923 0.070445925 -0.07452204 0.054195613 0.0022427223 0.08290256
-0.054538183 0.104765244 -0.07057192 -0.020751588 -0.029801836 0.06963963 0.074751414 3.291444e-05
-0.013574129 0.071597256 0.05890064 -0.049331073 -0.055545736 -0.024766644 0.07507645 -0.0090510715
-0.040319283 -0.05695318 -0.08282151 0.019755252 0.08309867 -0.0510868 -0.07465981 -0.10796622
-0.06847006 0.07701299 0.041601323 -0.012956839 0.06202488 0.053000346 -0.021154908 0.06164788
0.011354578 -0.018088264 0.020585313 -0.036210444 -0.06657601 0.03747233 -0.016855558 -0.061502766
0.015511771 -0.08213948 -0.0033341784 0.044488285 0.008126805 0.07786102 0.0071330685 0.017632555
-0.071205705 0.09051952 0.027000457 -0.08188996 -0.030123815 0.0019324011 -0.04276217 -0.048877154
-0.07680956 0.059377987 0.109605715 -0.015716888 -0.0809055 -0.109389395 0.03935496 0.042550836
00000000: 9b23 a43d f36f f73b 79c4 153b 83ba 003e
00000010: c940 c83d cb57 2e3a e45d 97bd af40 eb3d
00000020: d9f8 223c 2f5a 59bd 2958 cc3c d653 2e3d
00000030: e354 88bd 7964 4dbd 6c29 98bd 3dbf 863d
00000040: bdb7 9d3d e3b4 79bc 0873 8abb 4c97 923d
00000050: c7e6 683d 9ef2 753d aef5 333b ece7 37bd
00000060: 68ba 8d3c c409 643b 4f4b d33c 300f 963d
00000070: e8ed db3d d90e 843d 5cf8 abbd 92a8 ccbc
00000080: 192b 843d d771 0abd a89d 7dbd 5d0e 0e3d
00000090: 887e 54bd f896 fcbb 3888 b7bc bb87 113c
000000a0: 0f38 2e3d 1da8 f03d 27d4 aebd 4645 873b
000000b0: f180 a53b de91 63bd 6161 63bd df8f adbd
000000c0: 7ee4 2a3c 24a1 0c3c 54e1 d9bc 871f 343d
000000d0: fa64 03bc 8309 b33b ab62 813c dc44 2bbd
000000e0: abc8 783d ef72 f73b da19 43bd 46d5 973c
000000f0: 725a 9b3d 084c 4bbd 6e84 0dbd 0610 663d
00000100: a197 0b3c adae 283d 7c46 a4bd a2a0 07bd
00000110: ca3c 02bc 77f3 c23d 1719 eabd 3174 f8bc
00000120: 2929 7fbd 26c5 dcbd 87f2 89bc 4b53 ac3d
00000130: ea2c d6bb 5af0 9dbd ae4e be3c 7a79 9e3d
00000140: f114 723d 4866 91bd 0d5a e6bb 5746 d63c
00000150: b534 5c3d f0e6 58bd b484 ad3c 8ab5 87bd
00000160: da56 de3c 2d7d ae3d 28e8 2e3d 7f29 36bd
00000170: d356 843d ce25 36bd ea51 81b8 b9df b43c
00000180: 848a 02bd 8329 933d 1815 a03d 57f6 55bc
00000190: dde5 9dbc 4632 39bd d8be 7dbd bbb0 2c3c
000001a0: a01f 963d c5e3 563b f009 b93d 03d0 80bd
000001b0: 5643 5d3c c839 c13b 7bdc 0e3c bd47 ae3d
000001c0: 4cae a33d 7c61 8bbd a6f5 633c 1a7a 4bbc
000001d0: 01de 5a3d 2fa2 193d 6bbd 153d 3d2a 1bbd
000001e0: 59e8 17bc efa3 a3bd 3dfd 8e3d e875 6cbd
000001f0: 54a9 45bd f93a 94bd a5ad 033d 4682 99bd
00000200: b502 903d bd13 233d e0b6 bbbd b34a 6e3c
00000210: 2d56 9b3c a51d 5bbd 9ff0 02bd 6a17 a83d
00000220: b23b 373d 1243 19bc 6059 e23b 8e01 8fbd
00000230: f210 b1bd 2135 433c d53c 883d df50 edbc
00000240: 0af8 e43c d2be 953d f063 b83d 6375 4dbd
00000250: 38ce 54bc d0d4 b8bb b053 963c 1492 ca3c
00000260: e074 693d 04de 6bbd fc3a 893d 6077 10bd
00000270: 599f 42bd a658 c4bd b6ff 21bc cb95 74bd
00000280: f309 44bd 6b9c 1d3d f570 ac3d 4c14 23bc
00000290: 7a58 afbd ac9a edbc c53e 623c eb50 82bd
000002a0: 4853 8e3d 0b85 74bd be9d 813b 6f50 c3bd
000002b0: 425b d13d 2c65 1e3c 11e5 fcbc 6c43 11bd
000002c0: 2a80 34bd 902c 673d 6462 913b 3793 103d
000002d0: f7bf 5dbd abea 5b3d b2e8 1bbb c09c 85bd
000002e0: 811c 0c3d 3371 213d a757 8b3b f445 903d
000002f0: 039f 98bd 38fc 5d3d a3fa 123b d1c8 a93d
00000300: 6e63 5fbd 298f d63d 0388 90bd 3cff a9bc
00000310: fb22 f4bc 399f 8e3d 4517 993d 9c0d 0a38
00000320: 0666 5ebc 95a1 923d cc41 713d 610f 4abd
00000330: ed83 63bd 6be3 cabc afc1 993d f24a 14bc
00000340: d525 25bd bd47 69bd 539e a9bd c4d5 a13c
00000350: a32f aa3d 6440 51bd 3ee7 98bd 651d ddbd
00000360: 083a 8cbd fdb8 9d3d 2666 2a3d ec48 54bc
00000370: cd0d 7e3d e416 593d 0f4d adbc 7d82 7c3d
00000380: 8d08 3a3c d72d 94bc 88a2 a83c 6751 14bd
00000390: 0159 88bd 967c 193d ab14 8abc 53ea 7bbd
000003a0: 1525 7e3c be38 a8bd 3b82 5abb 5939 363d
000003b0: 4a26 053c 9975 9f3d 84bc e93b 2672 903c
000003c0: 4cd4 91bd 4c62 b93d 1030 dd3c ecb5 a7bd
000003d0: 38c6 f6bc 9f48 fd3a 6327 2fbd 6933 48bd
000003e0: 554e 9dbd 5536 733d f678 e03d b4c0 80bc
000003f0: c8b1 a5bd 8c07 e0bd ab32 213d c949 2e3d

actor.6.bias f4 [9]
-0.1376045 0.036295958 -0.05379802 0.02041941 0.041205876 -0.051280595 -0.0035219872 -0.0016690067
-0.005466129
00000000: 32e8 0cbe 12ab 143d 505b 5cbd 9b46 a73c
00000010: 7ec7 283d 9a0b 52bd 24d1 66bb 92c2 daba
00000020: 371d b3bb
