ippo_algorithm_belief_catmouse/checkpoints/ppo_critic_0comm_rad_exp_2run_0_catmouse.pth (torch, 163020 bytes, 7 tensors)

critic.0.weight f4 [128, 51]
0	0xbd87db8e	-0.066336736
1	0xbc1631cf	-0.009167149
2	0xbcf9e241	-0.030503394
3	0x3d54e0bc	0.051972136
4	0x3d8372b8	0.06418365
5	0x3ddcab97	0.10774916
6	0x3de78bc9	0.11305959
7	0xbcd89805	-0.026439676
8	0x3d1020eb	0.035187643
9	0xbdde1433	-0.108436964
10	0x3e02061f	0.12697648
11	0x3e13ba27	0.1442648
12	0x3d1e1373	0.038592767
13	0xbcdf32b8	-0.027245864
14	0x3dcff9af	0.10155045
15	0x3e0508e6	0.12991676
16	0x3e1d0b4b	0.15336339
17	0x3d555abc	0.052088484
18	0x3df7609e	0.12078975
19	0xbd0c0834	-0.03418751
20	0xbd1edd0c	-0.038785025
21	0xbde89401	-0.113563545
22	0x3c341c4a	0.010993073
23	0xbc8665d3	-0.016405975
24	0x3dbaae0b	0.09115227
25	0xbd269c82	-0.0406766
26	0x3df6421c	0.12024328
27	0xbae644c0	-0.0017568097
28	0x3af8f60d	0.0018994227
29	0x3d977a62	0.073963895
30	0xbe02d049	-0.12774767
31	0x3d15f1f1	0.036607686
32	0x3d546cfa	0.05186174
33	0x3ce77be8	0.028257325
34	0xbe01b7ca	-0.12667766
35	0x3d2f70f6	0.042832337
36	0x3c05ad67	0.008159018
37	0x3d46e835	0.048561294
38	0x3d869a88	0.06572443
39	0xbdbdffdf	-0.09277319
40	0x3dbca164	0.0921047
41	0xbdb3e871	-0.08784569
42	0xbd47d39e	-0.0487858
43	0xbd206025	-0.03915419
44	0x3d82ae15	0.0638086
45	0xbd41bf0f	-0.04730135
46	0xbe06f240	-0.13178349
47	0xbd6cf49d	-0.05785047
48	0x3dc20272	0.09473123
49	0x3d22362c	0.039602444
50	0x3d5d0f9a	0.053969957
51	0x3d2c0591	0.041997496
52	0x3d1b074f	0.037848767
53	0xbd1f0177	-0.038819756
54	0xbe06468c	-0.13112849
55	0x3d446626	0.04794898
56	0xbd9edd64	-0.07757071
57	0x3d2e5c3a	0.042568423
58	0xbd23312d	-0.03984182
59	0x3ddd8037	0.10815471
60	0x3e162663	0.14663081
61	0xbe03cd0e	-0.12871191
62	0x3d8ce582	0.06879713
63	0x3d9a68c9	0.075395174
64	0xbd569f7a	-0.052398182
65	0xbdeff63a	-0.11716886
66	0xbc5132b6	-0.012768438
67	0xbdcbae81	-0.09945393
68	0xbd3054da	-0.04304967
69	0x3e32d4ac	0.1746394
70	0x3c62cd8c	0.0138429515
71	0x3da02c2e	0.078209266
72	0xbd387077	-0.04502913
73	0x3dcb82e8	0.09937078
74	0x3e15235f	0.14564274
75	0xbd8955e2	-0.06705834
76	0x3d2a689d	0.041603673
77	0xbcbf5a0b	-0.023358366
78	0x3e06812c	0.13135213
79	0xbd7a8273	-0.061159562
80	0x3e0e15fd	0.13875575
81	0xbd4cf9c1	-0.05004287
82	0x3add472e	0.0016882175
83	0x3bc2730f	0.005934126
84	0x3e0f2918	0.1398052
85	0x3cce3055	0.02516953
86	0xbdb5c79e	-0.088759646
87	0x3d81858f	0.063243024
88	0xbcf2b6e7	-0.02962823
89	0xbd62430d	-0.055239726
90	0x3c9b0aa6	0.018925976
91	0x3ca8a118	0.020584628
92	0xbe0c5853	-0.13705568
93	0x3b0c07f5	0.0021367047
94	0x3cfc4b18	0.030797526
95	0xbcc1f7eb	-0.023677787
96	0xbe093bb9	-0.13401689
97	0xbdddbf10	-0.10827458
98	0xbcf7f313	-0.030267274
99	0xbe07d32d	-0.13264151
100	0x3d392514	0.045201376
101	0xbcd6736c	-0.026178084
102	0x3d810234	0.06299248
103	0x3da14aa3	0.07875564
104	0x3d2103b4	0.039310172
105	0x3e1417ab	0.14462154
106	0xbc3bfd02	-0.011473896
107	0x3da6cfd9	0.081451125
108	0xbb87b272	-0.0041411454
109	0x3e0eedea	0.13957945
110	0x3ddf2e9b	0.10897561
111	0x3b843c1f	0.0040354873
112	0x3e16c307	0.14722835
113	0x3bf97751	0.0076131006
114	0xbabf2d9d	-0.0014585737
115	0xbd39da53	-0.045374226
116	0xbc644698	-0.0139328465
117	0xbd8c0a55	-0.06837908
118	0x3e07e092	0.1326926
119	0xbd1ff292	-0.039049692
120	0x3de0d011	0.109771855
121	0x3ddd88ca	0.10817106
122	0x3d9b5c92	0.07586016
123	0xbc9808c4	-0.018558867
124	0xbd8f3d1c	-0.069940776
125	0x3e321c64	0.17393643
126	0xbdd4ffed	-0.104003765
127	0xbcf9d2b3	-0.030495977
128	0x3d8afb1b	0.06786176
129	0x3d8349b2	0.06410541
130	0x3e078e48	0.1323787
131	0xbde567ad	-0.11201415
132	0x3d289565	0.0411581
133	0xbd9482c8	-0.07251507
134	0x3da611c6	0.08108859
135	0xbdd693f4	-0.104774386
136	0x3e1c80db	0.1528353
137	0xbc5e32f6	-0.013561955
138	0x3dd64b1b	0.10463544
139	0xbd185f72	-0.0372004
140	0xbd1ba4cd	-0.037998963
141	0x3dcc5eb0	0.09978998
142	0x3dc1cb3b	0.09462591
143	0xbcc744cb	-0.024324795
144	0xbe0205c3	-0.1269751
145	0xbd8813f0	-0.06644428
146	0xbdd1f196	-0.10251157
147	0xbdd0bd6c	-0.10192379
148	0x3df36596	0.1188461
149	0xbca184ce	-0.019716647
150	0xbda37f4c	-0.07983264
151	0x3cbaeb07	0.022817148
152	0x3cd905e5	0.026492069
153	0xbd975ebd	-0.07391117
154	0xbbc72fef	-0.006078712
155	0xbde26d22	-0.11055972
156	0xbc7170ad	-0.014736337
157	0x3ce17258	0.027520344
158	0x3db12a5d	0.08650658
159	0xbd2a3a65	-0.041559596
160	0x3df8dfd6	0.12152068
161	0x3dcd84b6	0.10035078
162	0x3e0ddcf3	0.13853817
163	0x3d4e2627	0.050329354
164	0xbcd7b773	-0.026332593
165	0x3d68efdd	0.056869376
166	0x3daf01f8	0.085452974
167	0x3e0f9230	0.1402061
168	0x3dc3d767	0.09562569
169	0xbdcd17f8	-0.10014337
170	0xbdedefea	-0.116180256
171	0x3db0df0d	0.086362936
172	0xbd6e2410	-0.05813986
173	0xbc15e252	-0.009148197
174	0x3cd10b00	0.02551794
175	0xbd98437a	-0.07434745
176	0xbd1bac36	-0.03800603
177	0xbc4cb77c	-0.012494918
178	0x3ddd7021	0.108124025
179	0x3c544eac	0.01295821
180	0x3e14e99a	0.14542237
181	0xbdd1fca8	-0.102532685
182	0xbb8895ab	-0.0041682324
183	0x3deedb35	0.11662904
184	0x3dee09ca	0.11622961
185	0xbd48560b	-0.048910182
186	0x3d7318b7	0.05934974
187	0xbdf19933	-0.117967986
188	0xbdf3c068	-0.11901933
189	0x3cda9534	0.026682474
190	0xbd183569	-0.03716031
191	0x3e0069c0	0.1254034
192	0xbdf6d6ae	-0.12052666
193	0x3d115018	0.035476774
194	0xbd3a3cf4	-0.045468286
195	0x3cc52667	0.024066163
196	0xbdbaf1a4	-0.091281205
197	0x3b227fbf	0.002479538
198	0xbdd8fd96	-0.10595243
199	0x3db9896c	0.09059414
200	0xbde13449	-0.10996301
201	0x3dc14888	0.09437662
202	0x3dda343e	0.10654496
203	0xbdfbf6f9	-0.12302966
204	0x3d380fb9	0.04493687
205	0x3dd7bf7b	0.10534569
206	0x3c5f0f54	0.013614494
207	0x3de9af76	0.1141042
208	0xbda7e07b	-0.08197113
209	0xbe0e60f2	-0.13904169
210	0x3b7ddb20	0.0038735345
211	0xbdd1d0b1	-0.10244883
212	0xbd270cee	-0.040783815
213	0x3c03a2f9	0.008034461
214	0x3c798bb2	0.01523106
215	0x3e1904d6	0.14943251
216	0x3db65fcd	0.08904991
217	0x3dff5ef8	0.12469286
218	0x3de75bf2	0.11296834
219	0x3d947d20	0.07250428
220	0x3d1d333d	0.038378943
221	0x3daf3bf0	0.08556354
222	0x3daaf98c	0.083483785
223	0x3ddccfd5	0.10781828
224	0xbdef2aa6	-0.116780564
225	0x3e12d2c9	0.1433822
226	0x3a62b4da	0.0008648165
227	0xbdb043dc	-0.08606693
228	0x3b4adda1	0.0030954855
229	0x3c3b7d4c	0.011443447
230	0xbca05190	-0.019570142
231	0xbd9d67cd	-0.07685814
232	0xbd40a4a8	-0.04703203
233	0x3e096d9c	0.13420719
234	0xbc808493	-0.015688216
235	0x3d4930ad	0.049118686
236	0x3de554af	0.11197793
237	0xbd9edb66	-0.07756691
238	0x3ca7847b	0.020448914
239	0x3e00a137	0.12561499
240	0x3dd1f24c	0.102512926
241	0x3d5cff25	0.053954262
242	0xbdf4ecd0	-0.11959231
243	0x3d31d382	0.0434146
244	0x3d86e1f4	0.06586066
245	0xbcb78467	-0.022402002
246	0x3cb3fc8f	0.021971015
247	0xbd792a31	-0.060831252
248	0x3dcc35c5	0.09971193
249	0x3d10f79a	0.03539238
250	0x3e127c2e	0.14305183
251	0x3ced4a7e	0.028966185
252	0xbcdd8967	-0.027043058
253	0x3df1a4f1	0.11799038
254	0x3e157afb	0.14597695
255	0xbcafcfc5	-0.021461377

critic.0.bias f4 [128]
0	0xbca51168	-0.020149902
1	0x3dd6b7a9	0.10484249
2	0x3e22e625	0.15908106
3	0x3db3bdc8	0.08776432
4	0xbcfc409f	-0.030792532
5	0x3de4aa92	0.11165346
6	0x3cc3d42f	0.023904888
7	0x3e03e6b0	0.12880969
8	0x3dee13d7	0.11624878
9	0xbd15bdf3	-0.036558103
10	0xbd72dac8	-0.059290677
11	0xbdda416d	-0.1065701
12	0xbe0d5c8a	-0.13804832
13	0xbde050c4	-0.10952905
14	0xbe078cf7	-0.13237368
15	0xbda49f37	-0.0803818
16	0x3dc823ba	0.09772439
17	0x3cde7c08	0.027158752
18	0x3daa9293	0.08328738
19	0x3dea16e5	0.11430148
20	0xbd57db55	-0.052699406
21	0x3db6020c	0.08887109
22	0x3d4085d4	0.04700263
23	0xbd925495	-0.07145039
24	0x3e12614f	0.14294933
25	0x3d6da978	0.058022946
26	0x3dd72b81	0.105063446
27	0xbd881203	-0.066440605
28	0x3d74254a	0.059605874
29	0x3bef4482	0.007301868
30	0xbe1819bd	-0.14853568
31	0x3dced43f	0.100990765
32	0xbe1e39e1	-0.15451767
33	0xbc878ca3	-0.016546553
34	0xbd756e18	-0.059919447
35	0x3d2f2423	0.042759072
36	0x3dc9285b	0.0982215
37	0xbda45627	-0.08024245
38	0x3e1c58ee	0.15268299
39	0x3ddad166	0.10684471
40	0x3e0660ff	0.13122939
41	0x3d941f3e	0.072325215
42	0x3ddeb625	0.10874585
43	0xbdaeed70	-0.08541381
44	0xbd8123a8	-0.06305629
45	0xbde2fd5b	-0.1108348
46	0xbcee7041	-0.029106261
47	0xbe22376e	-0.15841457
48	0x3d9978af	0.07493722
49	0x3d247279	0.040148232
50	0x3d80dcc2	0.06292106
51	0xbdde5c00	-0.10857391
52	0xbe0978b3	-0.1342495
53	0xbdebd29e	-0.115147814
54	0x3d8f9d16	0.07012384
55	0xbdc509b2	-0.0962099
56	0xbdb409c5	-0.08790926
57	0x3d9e4141	0.0772729
58	0xbe01ca78	-0.12674892
59	0xbd455330	-0.048175037
60	0xbe240181	-0.16016199
61	0x3de4c321	0.111700304
62	0xbe01159d	-0.12605901
63	0x3e05bb55	0.13059743
64	0xbd926595	-0.071482815
65	0xbdea336b	-0.114355884
66	0x3d950735	0.07276765
67	0x3d4ee5a5	0.050511975
68	0xbde444e9	-0.11145956
69	0x3e23e9a5	0.16007097
70	0x3de70ff5	0.112823404
71	0xbdcbef87	-0.099577956
72	0x3d4027d8	0.046912998
73	0xbd67b178	-0.05656573
74	0x3d8a2ab2	0.06746425
75	0xbc64d09f	-0.013965755
76	0x3ddf1f2c	0.108946174
77	0x3d487996	0.04894408
78	0xbdbdfe07	-0.092769675
79	0x3d612261	0.054964427
80	0xbdb707c3	-0.08937027
81	0x3c8ddb95	0.017316619
82	0xbd850f4f	-0.064970605
83	0xbcd08db3	-0.025458192
84	0xbe0c0299	-0.13672866
85	0x3850e464	4.980377e-05
86	0xbca69c70	-0.020338267
87	0xbc70bcce	-0.014693452
88	0x3df98e5b	0.12185355
89	0xbe0aa97b	-0.13541214
90	0x3d16741d	0.036731828
91	0xbd0de742	-0.034644373
92	0xbcd36849	-0.025806563
93	0xbbb37ab2	-0.005477273
94	0xbdf4d161	-0.11953998
95	0xbdba1020	-0.09085107
96	0xbd00ccbd	-0.031445254
97	0xbd1b5078	-0.037918538
98	0xbda35ac4	-0.079762965
99	0x3d909e86	0.07061486
100	0x3bbe6fba	0.0058116587
101	0xbc424f5d	-0.011859742
102	0x3bd1b842	0.006400139
103	0x3cc0a701	0.023517134
104	0xbd97438b	-0.0738593
105	0x3e2586cf	0.16164707
106	0xbacbc0e0	-0.0015545152
107	0x3da6ffd9	0.08154268
108	0xbda31b0f	-0.079641454
109	0xbdcb7507	-0.099344306
110	0x3c044470	0.008072957
111	0xbd84f617	-0.064922504
112	0xbd83772f	-0.06419217
113	0x3cb3529a	0.021889973
114	0x3d30008c	0.04296927
115	0xbe0a9542	-0.135335
116	0x3c978cc3	0.018499738
117	0x3d9fd0b1	0.078034766
118	0x3d4692af	0.048479732
119	0x3c99ab81	0.018758537
120	0xbde8070b	-0.11329468
121	0xbdd3c8d0	-0.10341036
122	0xbc2b5af8	-0.0104587
123	0xbdae7311	-0.08518041
124	0xbbbbafa4	-0.005727725
125	0x3db0da84	0.086354285
126	0xbd8040e1	-0.06262375
127	0x3de25e39	0.11053128

critic.2.weight f4 [128, 128]
0	0x3d912268	0.070866406
1	0xbdcaeabd	-0.09908054
2	0x3c9cb06d	0.019127095
3	0x3d8080bc	0.06274554
4	0x3d24ca1a	0.0402318
5	0xbad572ae	-0.0016284788
6	0xbc597edf	-0.013274877
7	0xbc87de21	-0.016585412
8	0xbd092101	-0.03347874
9	0x3d999e1a	0.075008586
10	0x3dcec2fd	0.10095785
11	0x3dc0d46e	0.09415518
12	0x3d9f5535	0.07779924
13	0xbd73357b	-0.059377175
14	0xbca4133f	-0.020028709
15	0xbc9ca4b8	-0.019121513
16	0x3c833b62	0.016019527
17	0xbd0ec404	-0.034854904
18	0x3d245c4e	0.04012709
19	0xbcb64354	-0.022248901
20	0xbd7f0676	-0.06226202
21	0x3d0b78ce	0.034050755
22	0x3d5df15f	0.054185268
23	0x3d9cc1d1	0.07654155
24	0xbddb4e75	-0.10708324
25	0xbd9e314e	-0.07724248
26	0xbd52f9c5	-0.05150773
27	0xbc937165	-0.017998407
28	0xbd784850	-0.060615838
29	0x3d16b07e	0.03678941
30	0xbd287929	-0.041131172
31	0x3d2b43fa	0.041812874
32	0x3cc45f5b	0.02397125
33	0xbd4a0127	-0.049317505
34	0xbd703038	-0.058639735
35	0x3cfe054c	0.031008385
36	0xbd85fa25	-0.06541852
37	0xbda555f3	-0.08073034
38	0xbd8fe5e1	-0.07026268
39	0x3d75b392	0.059985705
40	0xbbac18a2	-0.00525196
41	0xbc8de5b1	-0.01732144
42	0x3d880369	0.066412754
43	0xbd4cc115	-0.049988825
44	0xbd888e34	-0.06667748
45	0x3dada033	0.08477821
46	0x3db378cb	0.08763274
47	0x3d924846	0.07142691
48	0x3d421cda	0.047390796
49	0xbdacd616	-0.08439271
50	0xbd7022ed	-0.058627058
51	0x3d9dce78	0.077053964
52	0x3c85f97d	0.016354317
53	0x3ccbfacd	0.024899865
54	0x3d4753ea	0.04866401
55	0x3d192307	0.03738692
56	0x3cccec4a	0.025015015
57	0xbd72ed24	-0.059308186
58	0x3d84ab46	0.0647798
59	0xbc9eb08b	-0.019371292
60	0xbd48b262	-0.048998244
61	0x3d21aa22	0.039468892
62	0xbd884da9	-0.066554375
63	0xbc9582c1	-0.018250825
64	0x3dba305e	0.090912566
65	0xbc5b0676	-0.01336824
66	0xbd869959	-0.065722175
67	0xbd97a13a	-0.074037984
68	0x3d7a0013	0.061035227
69	0x3c5478b3	0.01296823
70	0xbd5c0e46	-0.05372455
71	0xbce87bd6	-0.028379362
72	0x3d49ae12	0.049238272
73	0xbc74bcb1	-0.014937566
74	0xbde163b9	-0.11005349
75	0xbce6e6ff	-0.02818632
76	0xbd271077	-0.040787186
77	0x3cc0275f	0.023456274
78	0x3dae90d8	0.085237205
79	0x3bb8e6d9	0.0056427536
80	0xbd58819e	-0.052857988
81	0xbc4e2b88	-0.012583621
82	0xbbe8082e	-0.007081053
83	0xbd3e3eac	-0.046446487
84	0x3cc9a709	0.024615781
85	0xbd5fe2fd	-0.054659832
86	0x3d09237b	0.033481102
87	0xbd6d8fe0	-0.057998538
88	0xbdb37d92	-0.08764185
89	0x3d74cf16	0.059767805
90	0xbd965aa8	-0.0734151
91	0xbc0391ab	-0.008030335
92	0xbd6c8ea7	-0.05775323
93	0xbd28e20f	-0.04123121
94	0xbd76df69	-0.060271654
95	0x3d5c3845	0.0537646
96	0x3b06812d	0.0020523772
97	0xbd59dad4	-0.053187206
98	0xbbbfcc2b	-0.005853196
99	0xbce31eb7	-0.027724607
100	0x3d64c81f	0.055854913
101	0xbd8a6bbc	-0.0675883
102	0x3c412af5	0.011790027
103	0x3d7b3cd6	0.061337315
104	0x3dc1e1e8	0.09466916
105	0x3d86bd42	0.06579067
106	0x3dacbfc7	0.08435016
107	0xbcfdc87a	-0.030979384
108	0xbc49c264	-0.012314413
109	0xbbb196a4	-0.005419569
110	0x3d890384	0.06690124
111	0xbaad0656	-0.0013200741
112	0xbcc4afc4	-0.024009593
113	0xbce16a0d	-0.02751639
114	0xbd334f92	-0.043777056
115	0x3dce5cd1	0.10076297
116	0x3d8a4ebf	0.06753301
117	0x3bc4b545	0.0060030543
118	0xbd9d93e1	-0.07694221
119	0x3d6e0580	0.058110714
120	0x3dd53f21	0.104124315
121	0x3d3dfe6a	0.046385206
122	0x3ceb98f3	0.028759455
123	0xbd423a01	-0.047418598
124	0x3d380d4a	0.04493455
125	0xbdbe19b4	-0.09282246
126	0x3d8c5815	0.06852738
127	0xbdc6789f	-0.096909754
128	0xbbad170f	-0.00528229
129	0x3c30701b	0.0107689155
130	0xbd872697	-0.06599157
131	0xbd580abb	-0.05274461
132	0x3d4176a3	0.04723228
133	0x3c3addf6	0.011405459
134	0x3d438ae0	0.047739863
135	0x3d5f6c03	0.054546367
136	0xbc514bc2	-0.01277441
137	0x3dcede64	0.101010114
138	0x3d51950c	0.051167533
139	0x3d4e1023	0.050308358
140	0x3d48d400	0.049030304
141	0x3d072adc	0.03299986
142	0x3d126fdc	0.03575121
143	0x3d5947ca	0.05304698
144	0xbc884c91	-0.016638072
145	0x3caaa2a3	0.020829504
146	0xbc888a0f	-0.016667394
147	0x3cfbf47c	0.030756228
148	0x3c96ff3c	0.018432252
149	0x3cc63047	0.024192942
150	0x3cbcc66c	0.023043834
151	0x3d1790f6	0.03700348
152	0xbcf9a721	-0.030475201
153	0xbbeb5c20	-0.007182613
154	0x3d740020	0.05957043
155	0x3ce8f861	0.028438749
156	0xbd4bdba5	-0.049770016
157	0xbcd6ba59	-0.026211904
158	0x3dd4718a	0.10373218
159	0xbd9e02b9	-0.07715363
160	0x3c7cb2cc	0.015423488
161	0x3d075b2f	0.033045944
162	0xbc5ab8fa	-0.013349766
163	0xbdafc77b	-0.0858297
164	0x3d3141b6	0.043275557
165	0x3d249cc0	0.04018855
166	0x3d4c73bf	0.04991507
167	0x3b81c0ee	0.0039597666
168	0x3d69ecf5	0.057110745
169	0x3d966e7b	0.07345291
170	0xbd16af73	-0.036788415
171	0x3da3e90a	0.08003433
172	0xbb741824	-0.0037245834
173	0x3cfcbadb	0.030850818
174	0xbcf9f7d8	-0.030513689
175	0x3d7b26c7	0.061316278
176	0x3c7c26c0	0.015390098
177	0xbdcb94b8	-0.09940475
178	0x3d865e31	0.06560934
179	0x3ba40c92	0.0050063813
180	0xbc0281d9	-0.007965528
181	0xbd613042	-0.054977663
182	0x3c8989c1	0.016789319
183	0x3dc8b41a	0.09799977
184	0x3db45bef	0.088065974
185	0xbdb9cd46	-0.09072356
186	0xbb264b46	-0.0025374456
187	0xbcc9abce	-0.024618056
188	0xbd778371	-0.060428087
189	0xbc78d1cc	-0.015186738
190	0xbd2a1aa4	-0.041529313
191	0xbdb047f9	-0.08607478
192	0xbd56ae78	-0.05241248
193	0x3d5a4a47	0.053293493
194	0xbd1f5535	-0.03889962
195	0xbd48d27f	-0.04902887
196	0x3d711936	0.058861934
197	0x3d0d5edb	0.03451429
198	0x3d28e2bf	0.041231867
199	0xbd61d219	-0.055132005
200	0xbbbcec73	-0.0057654916
201	0x3cce8050	0.025207669
202	0x3b3dce3a	0.0028962032
203	0xbdbcb49a	-0.092141345
204	0xbd8d3a9f	-0.06895947
205	0x3c39ec31	0.011347816
206	0x3c964b0e	0.018346336
207	0xbd977f48	-0.07397324
208	0xbcbea6f6	-0.023272973
209	0xbc0ff685	-0.008786802
210	0xbcf4118a	-0.02979352
211	0xbd9d64a4	-0.07685211
212	0x3d45be0a	0.04827694
213	0xbd98d82a	-0.07463105
214	0x3d249ebb	0.04019044
215	0x3c4266c2	0.01186532
216	0x3bb352f4	0.0054725353
217	0x3d1275c4	0.03575684
218	0x3d8fc097	0.070191555
219	0x3d80e54a	0.062937334
220	0xbc29dd51	-0.010367707
221	0xbdafddff	-0.08587264
222	0xbd116241	-0.035494093
223	0xbd4be1af	-0.049775776
224	0xbc60e55e	-0.01372656
225	0x3d8b77cb	0.06809958
226	0xbdac8d9a	-0.08425446
227	0xbc5c9124	-0.013462339
228	0xbd5b543e	-0.053547136
229	0xbd4c6fef	-0.049911436
230	0x3c61c159	0.013779008
231	0xbd96b7ec	-0.07359299
232	0x3dc83654	0.09775987
233	0xbbbff69f	-0.005858257
234	0x3dc2efe6	0.09518413
235	0xbd8b90ef	-0.06814753
236	0xbd561855	-0.0522693
237	0x3cfd390f	0.030910997
238	0xbd1453b9	-0.036212657
239	0x3d92d4bc	0.07169482
240	0xbceb87d0	-0.028751284
241	0x3d494dee	0.049146585
242	0x3d7f3d03	0.062314045
243	0x3decd579	0.11564154
244	0x3c56e8af	0.0131169995
245	0xbc783f68	-0.015151836
246	0x3cd63d96	0.026152413
247	0x3d821fb2	0.06353702
248	0x3d971d10	0.0737859
249	0xbd790aeb	-0.060801428
250	0xbc8cfc44	-0.017210133
251	0xbd910e07	-0.07082754
252	0xbac7d548	-0.0015246058
253	0x3c1bf6c1	0.00951928
254	0x3cb0850e	0.02154782
255	0xbd3f90a7	-0.04676881

critic.2.bias f4 [128]
0	0xbde00a2a	-0.10939439
1	0xbd8a8c10	-0.06764996
2	0x3bcbd89c	0.00622089
3	0x3d8cd4c4	0.06876519
4	0xbd420788	-0.047370464
5	0xbcd65554	-0.026163734
6	0x3cf3674b	0.02971234
7	0xbda66c7d	-0.08126161
8	0x3d98b4b9	0.07456345
9	0x3cfae818	0.030628249
10	0xbd6d9126	-0.057999752
11	0x3dbef10b	0.09323319
12	0x3d98e5f7	0.07465737
13	0xbd123383	-0.035693657
14	0xbcde713a	-0.0271536
15	0x3c49b38e	0.012310876
16	0x3d41d1e8	0.047319323
17	0xbc37aaee	-0.011210186
18	0xbcfe4bb8	-0.031041965
19	0xbc6f642b	-0.014611284
20	0x3c07f40e	0.008297933
21	0x3be84639	0.0070884493
22	0x3cfd5a1c	0.030926757
23	0x3cdaa5b0	0.026690334
24	0xbc2055a0	-0.00978604
25	0x3d3a049b	0.04541455
26	0x3d08764c	0.03331594
27	0xbcca416a	-0.024689395
28	0xbdaf9b38	-0.085745275
29	0x3cfad13b	0.030617347
30	0xbd8be6db	-0.068311416
31	0xbdb1db4e	-0.08684407
32	0x3c252d78	0.010081641
33	0xbd4ee2af	-0.05050915
34	0x3d0dbc43	0.03460337
35	0xbc5535d1	-0.013013319
36	0xbdb19d2c	-0.08672556
37	0x3b0a5351	0.002110679
38	0x3dafc1c6	0.08581881
39	0xbd752603	-0.059850704
40	0xbc84bf9c	-0.016204648
41	0x3db99e4f	0.09063398
42	0x3dda6a47	0.10664802
43	0xbdd7b284	-0.10532096
44	0xbd74379d	-0.05962335
45	0xbc8a41b0	-0.016877025
46	0xbdce9353	-0.100866936
47	0x3c419c42	0.01181704
48	0x3c8c326b	0.017113885
49	0x3d9c4884	0.07631019
50	0xbd932607	-0.071849875
51	0x3d47cd0e	0.04877954
52	0x3c9d8f0c	0.01923325
53	0x3d431ec8	0.047636777
54	0xbdd12a64	-0.102131635
55	0xbd608587	-0.05481484
56	0x3cbcda96	0.023053449
57	0x3cec97aa	0.028880913
58	0xbdd72bef	-0.105064265
59	0x3d6bde8a	0.057585277
60	0xbd598556	-0.053105675
61	0x3d76e6cb	0.060278695
62	0x3cefc436	0.029268365
63	0x3d388f86	0.04505875
64	0xbba199e7	-0.0049316767
65	0xb983f68c	-0.0002516996
66	0x3d9b3883	0.07579138
67	0x3d6f198e	0.05837398
68	0x3d3f57ad	0.046714474
69	0x3d975ea4	0.07391098
70	0x3d4122ba	0.04715226
71	0xbd1e8957	-0.038705196
72	0xbcf6503b	-0.030067554
73	0x3b6bde4f	0.003599066
74	0xbc28afcf	-0.010295822
75	0x3d7d67ff	0.061866757
76	0xbd05238f	-0.032504614
77	0x3db89f6a	0.09014781
78	0x3d8d355a	0.06894942
79	0x3d0afdfe	0.033933632
80	0xbcea1126	-0.02857263
81	0xbd445882	-0.04793597
82	0xbcea299b	-0.028584292
83	0x3d999f2e	0.07501064
84	0xbdb110a5	-0.08645753
85	0xbdc19bf4	-0.09453574
86	0x3d38ada0	0.045087457
87	0xbcab6dd1	-0.020926388
88	0x3cc2225a	0.02369802
89	0xbdb2f471	-0.0873803
90	0xbd1c0516	-0.038090788
91	0x3d870c21	0.0659411
92	0xbddae3aa	-0.10687955
93	0xbdd2a544	-0.10285428
94	0xbd8043c6	-0.06262927
95	0xbdaedfff	-0.085388176
96	0x3d273b13	0.040827822
97	0x3c96817d	0.018372292
98	0x3cdc3d81	0.026884796
99	0xbd246db2	-0.040143676
100	0xbdd3af52	-0.10336174
101	0x3d19497d	0.0374236
102	0xbd03e781	-0.0322032
103	0xbc976d87	-0.018484844
104	0xbcc887bc	-0.024478786
105	0x3d3e9761	0.046531085
106	0xbdc264c0	-0.09491873
107	0xbdb84251	-0.08997024
108	0xbd8939be	-0.067004666
109	0x3db64925	0.0890067
110	0x3cdf4b0b	0.027257463
111	0x3cbbc8a0	0.022922814
112	0x3dcfe808	0.10151678
113	0x3d8697dd	0.06571934
114	0x3da0fe3d	0.07860992
115	0xbb77d746	-0.0037817522
116	0x3ddcd3f0	0.10782611
117	0xbc999ffc	-0.018753044
118	0x3d598cb5	0.053112704
119	0xbddeb0e1	-0.10873581
120	0x3ccf7c8a	0.02532794
121	0x3ba10612	0.0049140537
122	0x3d71370d	0.05889039
123	0x3c197f4c	0.009368729
124	0x3d4fd76b	0.050742548
125	0xbd03f7bc	-0.03221868
126	0x3dc10b47	0.09425979
127	0xbda6bf81	-0.08141995

critic.4.weight f4 [128, 128]
0	0x3d6cae5c	0.05778347
1	0xbc69f0c7	-0.014278597
2	0x3d849eb7	0.06475585
3	0x3d4e8d0d	0.050427485
4	0x3d71bb32	0.059016414
5	0x3d5fd16c	0.05464308
6	0xbd86f5e6	-0.0658987
7	0x3bb9298b	0.0056507043
8	0x3d83ef5b	0.06442138
9	0xbd5dbc58	-0.054134697
10	0xbb972638	-0.0046127103
11	0x3aae6c26	0.0013307377
12	0x3aa5459d	0.0012609247
13	0x3c2847df	0.010271042
14	0xbd3884fb	-0.045048695
15	0x3d988b61	0.074484594
16	0xbce517e1	-0.027965488
17	0x3d57bb5e	0.05266892
18	0xbdb0d4c1	-0.086343296
19	0xbd3c1f70	-0.04592842
20	0xbc13673e	-0.008996783
21	0x3da97e2b	0.08276018
22	0xbd900618	-0.07032412
23	0xbdb99921	-0.0906241
24	0x3d3f9165	0.04676952
25	0xbcc898ad	-0.024486864
26	0x3d47a295	0.048739035
27	0xbb89778d	-0.0041951598
28	0x3d38b0fc	0.04509066
29	0x3dac7ac8	0.08421856
30	0x3d9edc49	0.0775686
31	0x3d644b49	0.05573586
32	0xbc5048a7	-0.012712634
33	0x3d0cfc1c	0.034420118
34	0x3d5c9518	0.053853124
35	0xbd67e1a6	-0.05661168
36	0x3dc6d907	0.097093634
37	0x3d908175	0.07055942
38	0xbd841d0e	-0.06450854
39	0x3d4e37b1	0.05034608
40	0xbda6dbe4	-0.081474096
41	0xbd905777	-0.070479326
42	0xbd121c6f	-0.035671648
43	0xbc1975d2	-0.009366469
44	0xbd3dfd87	-0.04638436
45	0xbd357bdf	-0.044307586
46	0x3d83170b	0.064008795
47	0x3dd5b208	0.104343474
48	0xbdcf08d5	-0.101091065
49	0xbd4b5963	-0.049645793
50	0x3d6ca208	0.057771713
51	0xbd5711fd	-0.05250739
52	0xbda25d16	-0.07927911
53	0xbdadc2a8	-0.08484393
54	0xbcd83bb6	-0.02639566
55	0x3d905049	0.07046563
56	0xbd80d8c5	-0.062913455
57	0xbce1a450	-0.02754417
58	0x3c3ad306	0.011402851
59	0xbc44cbe3	-0.012011501
60	0xbd8c08e9	-0.06837637
61	0xbca1f74a	-0.019771237
62	0x3ccae1f9	0.024765955
63	0xbd9ca1a3	-0.07648017
64	0x3da127c1	0.078689106
65	0x3cb3d377	0.02195142
66	0x3d66bd95	0.056333143
67	0x3c992383	0.018693691
68	0xbdbbc99d	-0.09169314
69	0x3d6ba553	0.057530712
70	0xbc0ce2c4	-0.008598987
71	0x3d16538d	0.036700774
72	0x3cd342b5	0.025788644
73	0xbd9dff08	-0.07714659
74	0x3d54fcd8	0.051998943
75	0x3c0287c4	0.007966939
76	0x3c85cfc9	0.016334431
77	0xbbe93e14	-0.007117996
78	0xbbabb4f7	-0.0052400785
79	0x3cf48655	0.02984921
80	0x3c9010b2	0.017586086
81	0x3dce6515	0.100778736
82	0xbd053486	-0.032520793
83	0xbd96cd09	-0.07363326
84	0x3cc03706	0.023463737
85	0xbd8b37a0	-0.06797719
86	0xbd431ad8	-0.047633022
87	0x3cd90be1	0.026494922
88	0xbdbff3e9	-0.09372694
89	0xbcd4d23c	-0.025979154
90	0x3d7d4b75	0.06183954
91	0xbdac9144	-0.08426145
92	0xbd2bcf41	-0.0419457
93	0x3da8c861	0.08241344
94	0x3db64e24	0.08901623
95	0xbcc3c402	-0.023897175
96	0xbd89e914	-0.06733909
97	0xbd303bdc	-0.043025836
98	0x3c021344	0.007939164
99	0x3d37b4f2	0.044850297
100	0x3d13e367	0.03610554
101	0xbc4bb5bf	-0.012433468
102	0x3d5e18dd	0.05422293
103	0xbd3837e4	-0.044975176
104	0x3d25f51a	0.04051695
105	0xbd7718e7	-0.060326483
106	0x3d08f50a	0.033436812
107	0x3becfe73	0.007232481
108	0x3c80c68d	0.015719676
109	0x3d0f94e4	0.035054103
110	0xbc7ce717	-0.0154359555
111	0xbc36ac60	-0.011149496
112	0xbdbc5537	-0.09195941
113	0xbdc617a7	-0.0967248
114	0xbd4de7b9	-0.050269816
115	0x3d8dd563	0.06925466
116	0xbd989714	-0.07450691
117	0x3bdcdeb0	0.0067404136
118	0xbd092806	-0.033485435
119	0xbcd70fa7	-0.02625258
120	0xbdc6fa48	-0.09715706
121	0xbc8744b8	-0.01651226
122	0xbdb3ce39	-0.08779568
123	0xbdb48b20	-0.088155985
124	0xbdcf501d	-0.10122702
125	0x3b6304ea	0.003464038
126	0xbc9f7323	-0.019464081
127	0x3d8991c0	0.06717253
128	0x3c06bbfc	0.00822353
129	0x3d448346	0.047976755
130	0x3d8b1f25	0.0679305
131	0x3c186551	0.009301499
132	0x3c62b5f1	0.0138373235
133	0x3ad0f18b	0.0015941126
134	0xbd4fc3e4	-0.050723925
135	0xbd2c9fde	-0.04214465
136	0x3c5532c1	0.013012589
137	0x3d84615d	0.06463883
138	0xbdbc65df	-0.09199118
139	0xba20de0b	-0.00061366026
140	0xbd880590	-0.06641686
141	0x3c09bc86	0.008406764
142	0x3d778c79	0.0604367
143	0x3d485565	0.048909564
144	0xbdb05c32	-0.08611335
145	0xbc3e6eec	-0.0116231255
146	0xbce7951d	-0.028269345
147	0xbc7155a7	-0.014729894
148	0x3d73ca87	0.059519317
149	0x3bbb1cba	0.0057102116
150	0xbd9a5b07	-0.07536893
151	0x3dc65b08	0.096853316
152	0x3d5946a2	0.053045876
153	0x3da18dc3	0.07888367
154	0x3d87f9e8	0.06639463
155	0xbd80a173	-0.06280794
156	0xbcf1919c	-0.029488377
157	0xbd26b86d	-0.040703226
158	0xbdc516c9	-0.096234865
159	0x3c4d2f76	0.012523523
160	0xbb677477	-0.0035317221
161	0xbb8145c5	-0.0039450848
162	0x3da2f011	0.07955945
163	0xbceb2c30	-0.028707594
164	0xbd317d0b	-0.04333214
165	0xbd90c0af	-0.070680015
166	0xbcc14e8e	-0.023597028
167	0xbca72d6f	-0.020407407
168	0x3da52b05	0.08064846
169	0xbcedb717	-0.029017968
170	0x3dd2c034	0.10290566
171	0x3c1b269a	0.009469653
172	0xbd7ec498	-0.062199205
173	0x3d9d9680	0.07694721
174	0x3d0c546c	0.0342602
175	0xbd754110	-0.0598765
176	0x3d5fa0b7	0.05459663
177	0x3b8d9369	0.004320551
178	0x3ce52b4a	0.027974743
179	0xbd7380a4	-0.059448853
180	0x3c4c3fdb	0.012466396
181	0x3c50afcf	0.012737229
182	0x3d7bd9db	0.06148706
183	0x3d094c39	0.033519957
184	0x3da38ddd	0.07986043
185	0x3d03e999	0.032205198
186	0xbbafa2d0	-0.005359985
187	0xb98e5d11	-0.0002715369
188	0xbd6cda73	-0.057825517
189	0x3dc66f4d	0.09689198
190	0x3d884a01	0.0665474
191	0xbc90b829	-0.01766594
192	0xbc8770bb	-0.016533246
193	0xbcda2b3c	-0.026631944
194	0x3d6eaa54	0.058267906
195	0x3c99a4ba	0.018755306
196	0x3dc7d286	0.09756951
197	0xbd313506	-0.043263458
198	0x3cdf72bf	0.027276395
199	0xbd4beccf	-0.049786385
200	0xbd2b64c8	-0.04184416
201	0xbcb44232	-0.02200422
202	0x3d01be43	0.03167559
203	0x3db7e4dc	0.08979198
204	0xbc9b54e4	-0.018961377
205	0x3b9d39c8	0.004798148
206	0x3cd41db3	0.025893068
207	0x3c03cf3e	0.008045016
208	0x3c2cc70d	0.010545504
209	0x3cf76569	0.030199723
210	0xbdb84882	-0.08998205
211	0x3d9f81c7	0.07788425
212	0xbc98cfa6	-0.018653702
213	0xbdace1c3	-0.08441498
214	0x3d854e71	0.06509102
215	0xbd3f7f0b	-0.046752017
216	0xbd537aef	-0.05163091
217	0xbd9c790a	-0.07640274
218	0x3d13f6d0	0.03612405
219	0x3d974906	0.07386975
220	0xbd02e082	-0.03195239
221	0x3af22300	0.0018473566
222	0x3d07045c	0.03296314
223	0x3ceecd97	0.029150767
224	0x3dcd36f9	0.10020251
225	0x3dc8f670	0.09812629
226	0x3d318aac	0.04334514
227	0x3d6ac1f6	0.05731388
228	0xbcf85278	-0.030312762
229	0x3d8d3bbf	0.06896161
230	0x3ce78317	0.02826075
231	0xbc822aec	-0.015889607
232	0x3d1cee62	0.038313277
233	0x3d007c29	0.03136841
234	0x3ceff052	0.029289398
235	0x3d3f3f7f	0.046691414
236	0xbd690cf2	-0.05689711
237	0x3db5c505	0.08875469
238	0x3d956880	0.072953224
239	0x3dc74bb6	0.097312376
240	0x3db12ded	0.08651338
241	0x3d374168	0.04474011
242	0xbc96bd6b	-0.018400868
243	0x3d530214	0.051515654
244	0x3d9df261	0.07712246
245	0xbcc35f6b	-0.02384921
246	0x3d7c3c83	0.061581146
247	0xbd666be6	-0.056255244
248	0x3d37e6e1	0.044897918
249	0xbd88b7c6	-0.06675677
250	0xbbead876	-0.0071669174
251	0x3d501cdc	0.050808772
252	0xbd770c97	-0.06031474
253	0xbca3552f	-0.01993808
254	0xbd818e5e	-0.063259825
255	0xbd618452	-0.05505783

critic.4.bias f4 [128]
0	0x3d179ed4	0.037016705
1	0x3d4dcb06	0.050242446
2	0xbd2bde20	-0.04195988
3	0xbda0225d	-0.07819054
4	0x3ceae8bb	0.028675428
5	0xbdbfb80c	-0.09361276
6	0x3d6efb96	0.0583454
7	0xbd0a84af	-0.033817943
8	0xbbfda84d	-0.0077410103
9	0x3d678ce8	0.056530863
10	0x3c9d1c02	0.019178394
11	0xbd9d5382	-0.076819435
12	0xbc9d5f3b	-0.019210448
13	0xbcee21da	-0.029068876
14	0xbcb5c7f6	-0.022190075
15	0x3d0882e6	0.03332796
16	0xbcb92f1e	-0.022605475
17	0x3c8f0e2a	0.017462809
18	0x3c270f22	0.010196479
19	0xbd613e54	-0.05499108
20	0xbd926ce8	-0.071496785
21	0xbd400703	-0.046881687
22	0xbd6f1413	-0.058368754
23	0x3d5a8264	0.053347006
24	0x3d8d8aea	0.069112614
25	0x3c7be4ba	0.015374357
26	0xbcc77327	-0.024346901
27	0x3dcd39b1	0.100207694
28	0x3bedf480	0.0072618127
29	0xbd6de19c	-0.058076486
30	0xbca724e4	-0.020403333
31	0xbd93332b	-0.07187494
32	0xbd806ffd	-0.0627136
33	0x3d47f7fd	0.048820484
34	0xbd8bca6c	-0.06825718
35	0x3c1469e5	0.00905845
36	0x3d53b280	0.051683903
37	0x3d748020	0.059692502
38	0x3dc59be2	0.09648873
39	0xbd64c1d5	-0.055848915
40	0xbdd19888	-0.10234171
41	0x3d2b2e9e	0.041792504
42	0x3da3cae9	0.079976864
43	0xbda6565b	-0.0812194
44	0xbb2d82ac	-0.0026475592
45	0xbc758098	-0.014984272
46	0x3dbb09cc	0.09132728
47	0xbd7062b6	-0.058687888
48	0xbd8ff7fb	-0.070297204
49	0xbd2f4737	-0.042792525
50	0x3d838761	0.06422306
51	0x3d16e365	0.036837954
52	0x3c952fa9	0.018211203
53	0x3da002b2	0.07813014
54	0xbd8d89cb	-0.069110475
55	0x3d41b415	0.04729088
56	0xbd4f4b36	-0.050608836
57	0x3d8faeec	0.070157856
58	0xbcb21f19	-0.021743344
59	0xbc9dc7e6	-0.019260358
60	0x3d581d22	0.05276216
61	0xbcccb90b	-0.02499058
62	0x3d27b9ce	0.04094868
63	0xbd90ddae	-0.07073532
64	0xbd8c64fe	-0.068552
65	0x3d371314	0.04469593
66	0xbcc45bc5	-0.02396954
67	0x3cf71fa5	0.030166456
68	0xbc93da18	-0.018048331
69	0xbc81c724	-0.015842028
70	0x3dc8367c	0.09776017
71	0x3d269a24	0.040674344
72	0x3d8f62ae	0.070012435
73	0xbcf1facd	-0.029538536
74	0xbd8bef45	-0.068327464
75	0x3d25052a	0.040288128
76	0x3ac4088a	0.0014956158
77	0xbdab30e2	-0.08358933
78	0xbcf32fad	-0.02968582
79	0xbdcc0bd4	-0.099631935
80	0xbdbfa520	-0.09357667
81	0xbc37c4b5	-0.011216332
82	0xbd2ec5fb	-0.042669278
83	0x3d698656	0.05701288
84	0x3dbe97d8	0.09306306
85	0xbcdd38fc	-0.027004711
86	0x3d863712	0.065534726
87	0x3d76fc6b	0.06029932
88	0x3c2da027	0.010597265
89	0x3d323d05	0.043515224
90	0xbcea409c	-0.028595261
91	0x3db1f70c	0.086896986
92	0xbd703b30	-0.058650196
93	0xbdcbcb03	-0.09950831
94	0x3d325722	0.043540128
95	0x3d648025	0.05578627
96	0x3cf28f8d	0.029609466
97	0x3d83fad7	0.06444328
98	0x3d471c81	0.048611168
99	0x3d8f7cfa	0.07006259
100	0xbd875660	-0.066082716
101	0xbc0b204b	-0.008491586
102	0x3d819837	0.06327861
103	0x3dab5fca	0.0836788
104	0xbd09d67a	-0.033651806
105	0xbd804fb9	-0.06265206
106	0x3ce4f851	0.027950438
107	0xbd18d0e5	-0.037308592
108	0xbca52930	-0.020161241
109	0x3c0c3dcb	0.0085596545
110	0x3d8a215a	0.067446426
111	0xbdaa3c08	-0.08312231
112	0x3b02b8a5	0.0019946482
113	0xbcdffaa7	-0.0273412
114	0x3d8c76b7	0.068585806
115	0x3d0d1ecc	0.0344532
116	0xbdb74460	-0.08948588
117	0x3d255d2e	0.040372066
118	0xbd936e26	-0.071987435
119	0xbdca1fdb	-0.09869357
120	0x3dceed01	0.10103799
121	0xbcc9b99b	-0.024624636
122	0xbccf5677	-0.025309784
123	0xb755e2a4	-1.2748558e-05
124	0xbd0ad267	-0.03389206
125	0x3c4724c9	0.012154766
126	0xbdcaef05	-0.099088706
127	0xbb6ff216	-0.00366128

critic.6.weight f4 [1, 128]
0	0x3d1b0e43	0.037855398
1	0xbd29f823	-0.041496407
2	0x3d2c03c2	0.04199577
3	0x3d726880	0.05918169
4	0x3d8b8b73	0.06813707
5	0x3dd0123b	0.10159727
6	0xbda06788	-0.07832247
7	0x3d38c11a	0.04510603
8	0xbd273905	-0.040825862
9	0xbd8fe6c9	-0.07026441
10	0x3dc4b593	0.09604945
11	0x3ca73c5f	0.02041453
12	0xbd999c10	-0.0750047
13	0x3d80e8cb	0.06294402
14	0xbca5b444	-0.020227559
15	0xbddcad3b	-0.107752286
16	0x3d82f053	0.063934945
17	0x3c667b8c	0.014067542
18	0x3dcb9401	0.09940339
19	0x3d65b32b	0.05607907
20	0x3ca2cc48	0.0198728
21	0xbd74c3a3	-0.059756886
22	0xbdccfef3	-0.10009565
23	0x3db113af	0.086463325
24	0xbcee3e52	-0.029082451
25	0x3d95256b	0.072825275
26	0x3dc27dcc	0.0949665
27	0xbd7d8d79	-0.061902497
28	0xbd33f3c4	-0.043933645
29	0x3c8f7a14	0.017514266
30	0xbdb82634	-0.08991662
31	0x3dd563cc	0.10419425
32	0xbd09aa76	-0.03360983
33	0x3cd56386	0.026048433
34	0x3d82c1fd	0.063846566
35	0x3d9a83a9	0.075446434
36	0x3c9c3e88	0.019072786
37	0x3d824be1	0.06362129
38	0xbd6b94f1	-0.05751509
39	0xbd0626c4	-0.032751814
40	0x3d93e22a	0.07220872
41	0xbd9b9e1d	-0.07598517
42	0xbd4986a4	-0.04920067
43	0x3dd354eb	0.10318931
44	0x3d225e38	0.039640635
45	0xbda91ae2	-0.082570806
46	0xbd315d96	-0.04330214
47	0x3dd0b468	0.1019066
48	0xbd8be657	-0.06831043
49	0x3c7317c5	0.01483721
50	0x3db23f48	0.08703476
51	0x3d258ea0	0.04041922
52	0x3d73c6f6	0.059515916
53	0xbdbf069f	-0.09327435
54	0x3d8ccc22	0.06874873
55	0x3dadd3cd	0.084876634
56	0x3d6ba9fe	0.057535164
57	0x3c90ed99	0.01769142
58	0xbd983f98	-0.074340045
59	0x3d5202bc	0.05127214
60	0x3ce24b49	0.02762379
61	0xbdb9e5de	-0.09077047
62	0x3d2f1ac6	0.042750143
63	0x3d622ed6	0.055220447
64	0x3d9f36e3	0.07774141
65	0xbd5c6797	-0.05380973
66	0x3db710c7	0.08938747
67	0x3d412252	0.04715187
68	0xbda1261f	-0.07868599
69	0x3d90ba6f	0.070668094
70	0xbd0f3521	-0.034962777
71	0xbc77dfe8	-0.015129067
72	0xbd86fa40	-0.065907
73	0x3d06010b	0.03271584
74	0xbb12c3c6	-0.0022394522
75	0x3d68c3c4	0.05682732
76	0x3d2c3576	0.04204317
77	0x3db35345	0.08756117
78	0xbd4b5155	-0.04963811
79	0x3d6f10b3	0.058365535
80	0x3cda5085	0.026649723
81	0xbd9ba3a7	-0.075995736
82	0x3c0743c5	0.008255904
83	0xbd8166bd	-0.06318424
84	0xbc6c5ec3	-0.01442689
85	0x3da90e17	0.082546405
86	0xbc9c1d9b	-0.019057086
87	0xbd0d3cae	-0.034481697
88	0x3db29c67	0.08721238
89	0xbdd6ba6d	-0.10484777
90	0x3d8458f1	0.06462277
91	0xbdce3f8b	-0.100707136
92	0xbd8caaae	-0.06868492
93	0x3d5f61a7	0.054536488
94	0x3da50d51	0.080591805
95	0x3da459e6	0.08024959
96	0xbd475b24	-0.048670903
97	0x3ccf7afa	0.025327194
98	0x3d3ac549	0.045598302
99	0xbdc86a13	-0.09785857
100	0x3dc3bc32	0.0955738
101	0x3bc12e70	0.0058954284
102	0x3d76fb3b	0.060298186
103	0xbdd32501	-0.10309792
104	0xbd1d77bf	-0.038444277
105	0x3dbc9ceb	0.09209617
106	0x3daf7f58	0.08569211
107	0x3d206180	0.039155483
108	0x3cd771a7	0.02629931
109	0x3d79e9dd	0.061014045
110	0x3da211e8	0.079135716
111	0x3d65191d	0.055932153
112	0xbc9e8b36	-0.01935349
113	0x3d1ee13a	0.03878901
114	0xbda5af15	-0.08090035
115	0x3d6b0835	0.057380874
116	0x3d9e4c97	0.07729452
117	0x3d4274b5	0.04747458
118	0xbdafefa9	-0.085906334
119	0x3dc9f5f2	0.098613635
120	0xbd482c5c	-0.04887043
121	0xbc85a9d4	-0.016316332
122	0xbd649925	-0.055810113
123	0x3dd313df	0.103065245
124	0x3dbc8c1c	0.09206411
125	0x3d3ed518	0.04658994
126	0x3cbe02bf	0.023194669
127	0x3d48dd71	0.049039308
