ippo_algorithm_belief_catmouse/checkpoints/ppo_actor_0comm_rad_exp_2run_0_catmouse.pth (torch, 167168 bytes, 8 tensors)

actor.0.weight f4 [128, 51]
0	0x3d179483	0.037006866
1	0x3d8b0443	0.06787922
2	0xbdaffde0	-0.08593345
3	0x3d28bc12	0.041194983
4	0x3ddde764	0.1083515
5	0xbd2dd718	-0.042441458
6	0xbddb036d	-0.10694013
7	0xbdc40424	-0.09571102
8	0xbda65b14	-0.081228405
9	0x3d8990ad	0.06717048
10	0xbd5d38af	-0.054009136
11	0xbdcbac9b	-0.09945031
12	0xbda4293f	-0.080156796
13	0x3ddc94d6	0.10770576
14	0xbdf0b7a3	-0.11753776
15	0xbe0d8b2c	-0.13822621
16	0xbd332428	-0.043735653
17	0x3da93411	0.08261884
18	0x3d1477e3	0.036247145
19	0x3dd96771	0.10615433
20	0xbd7e7eff	-0.06213283
21	0xbd34b31e	-0.044116132
22	0x3dec254c	0.11530551
23	0x3d8cdf7c	0.06878564
24	0x3dc9028d	0.0981494
25	0x3df968ec	0.121782154
26	0xbddf7a29	-0.10911972
27	0x3dc1d3af	0.094642036
28	0xbcdfb6e4	-0.027308889
29	0x3dadbb0a	0.084829405
30	0x3ca91f7b	0.020644894
31	0x3d41ea62	0.047342665
32	0x3ddd80bd	0.108155705
33	0xbc30cdf5	-0.0107912915
34	0xbe03cdf4	-0.12871534
35	0x3dbed6f9	0.093183465
36	0xbdea5391	-0.1144172
37	0x3dc49e1d	0.0960047
38	0xbd79c771	-0.060981218
39	0xbe0f7ed5	-0.14013226
40	0xbe0be569	-0.13661732
41	0x3c344b08	0.011004217
42	0xbd2608ea	-0.040535845
43	0xbd8909ff	-0.0669136
44	0xbc97ca43	-0.018529063
45	0xbd883be5	-0.06652049
46	0x3e189a68	0.14902651
47	0x3e078df4	0.13237745
48	0xbc506baf	-0.012720986
49	0x3d7d8902	0.06189824
50	0x3d83d592	0.0643722
51	0x3dd3b0f6	0.10336487
52	0x3b81f633	0.003966117
53	0xbdceeacb	-0.10103377
54	0xbde01157	-0.10940807
55	0x3defec2e	0.117149696
56	0xbcd2387d	-0.025661701
57	0xbdd5d9d3	-0.10441937
58	0x3d6ee986	0.058328174
59	0x3e149c10	0.14512658
60	0xbd558ee9	-0.052138243
61	0x3c3fb66c	0.011701208
62	0x3c988118	0.018616244
63	0x3cde0d81	0.027106049
64	0xbc8d43bb	-0.01724421
65	0x3e06c693	0.13161688
66	0xbe01fa13	-0.12693052
67	0x3d184547	0.037175443
68	0xbd038d37	-0.032117095
69	0xbcbb8a13	-0.022892987
70	0xbe07d6e1	-0.13265564
71	0xbd4f73b9	-0.05064747
72	0xbdd1c776	-0.10243122
73	0xbde55e6b	-0.111996494
74	0x3e03f2f4	0.12885648
75	0xbde23de4	-0.11046961
76	0xbdda0320	-0.10645127
77	0xbdcf3148	-0.101168215
78	0xbd14ba5e	-0.036310546
79	0xbc9eccc8	-0.019384757
80	0x3d9132e7	0.07089787
81	0xbcbf1f2a	-0.02333029
82	0x3e00ef99	0.12591399
83	0x3d31d963	0.043420207
84	0xbd0dd5a1	-0.03462756
85	0xbd42f65b	-0.047598224
86	0xbd5fbc1b	-0.05462275
87	0x3e0a6f0e	0.13518927
88	0x3dea837e	0.114508614
89	0xbd8d163d	-0.06889007
90	0xbe0986f1	-0.13430382
91	0x3d51190d	0.05104928
92	0x3e0acb6c	0.13554162
93	0x3e0104cb	0.12599485
94	0xbdf3da08	-0.119068205
95	0x3dbb3caa	0.0914243
96	0xbd2e1d56	-0.042508446
97	0x3ddd7122	0.10812594
98	0x3c3f3959	0.011671388
99	0xbce65418	-0.02811627
100	0xbd0d500b	-0.034500163
101	0x3e04c7d0	0.12966847
102	0x3cbffd6a	0.023436267
103	0xbe060159	-0.13086452
104	0x3db36fac	0.08761534
105	0xbe1024cf	-0.14076541
106	0x3dfa7247	0.12228828
107	0xbd2bad71	-0.041913453
108	0xbddaebc9	-0.10689504
109	0xbdd25009	-0.10269172
110	0x3b41b932	0.0029559848
111	0x3d599d58	0.05312857
112	0xbbe67a14	-0.007033596
113	0xbddba404	-0.10724643
114	0x3dd2ef68	0.10299569
115	0x3e0ea2d3	0.139293
116	0x3d85e8ee	0.065385684
117	0x3c22dec0	0.009940803
118	0x3e0ef121	0.13959171
119	0xbd695be4	-0.0569724
120	0xbe0b0063	-0.13574366
121	0x3de12301	0.109930046
122	0x3de5cb5c	0.11220428
123	0x3da5bf2b	0.08093103
124	0xbc480116	-0.01220729
125	0x3d6e10bc	0.058121428
126	0x3d967954	0.0734736
127	0x3d56b032	0.052414127
128	0xbd645928	-0.05574909
129	0xbdd21d0c	-0.102594465
130	0xbdd7cb3c	-0.10536811
131	0x3e05ffb0	0.13085818
132	0xbc811fd2	-0.015762243
133	0xbcf725fd	-0.030169481
134	0xbcf5ce7d	-0.030005688
135	0x3d8134ea	0.06308921
136	0xbd157a9b	-0.03649388
137	0xbda6ee11	-0.08150876
138	0xbd90eed6	-0.07076804
139	0x3d9fcaf1	0.0780238
140	0x3c25de0f	0.010123744
141	0xbd370351	-0.044680897
142	0xbc414ad4	-0.011797626
143	0xbd8bc77b	-0.06825157
144	0xbb8e29dd	-0.0043384866
145	0xbd57ec0f	-0.052715357
146	0xbddbc9bd	-0.10731838
147	0x3ce25e6a	0.02763291
148	0x3c9b6ffa	0.018974293
149	0xbd6e86ce	-0.05823403
150	0xbc4cc6dc	-0.012498584
151	0x3e0260f5	0.12732299
152	0x3d4e9852	0.050438233
153	0x3da2a591	0.079417355
154	0xbe00f2c5	-0.12592609
155	0x3cf38302	0.029725555
156	0x3c85ac93	0.016317641
157	0x3e044372	0.12916353
158	0xbdf5e94a	-0.12007387
159	0x3dabbcdb	0.08385631
160	0x3d1f96f7	0.03896233
161	0xbd2b5eb4	-0.041838363
162	0x3de508ef	0.111833446
163	0xbdedf3e4	-0.11618784
164	0xbcba5020	-0.022743285
165	0xbd41d1b1	-0.047319118
166	0xbd5254c5	-0.051350374
167	0xbb6088ac	-0.003426115
168	0xbd067b19	-0.03283224
169	0xbd2b47a1	-0.041816358
170	0x3e01564c	0.12630576
171	0x3d057259	0.032579754
172	0xbd97afe4	-0.07406595
173	0x3de72bb4	0.112876326
174	0xbd5e19bc	-0.05422376
175	0xbc9e8567	-0.01935072
176	0xbcfb123a	-0.03064834
177	0x3dcb4c55	0.099266686
178	0xbdabaa10	-0.08382046
179	0xbcfe2112	-0.031021629
180	0xbca3aeea	-0.019980866
181	0x3d8b5a91	0.068043835
182	0xbd4c8b47	-0.049937513
183	0x3df33811	0.11875928
184	0x3dea160d	0.11429987
185	0x3c072b0e	0.008250011
186	0xbddaa04a	-0.10675104
187	0xbcc1e998	-0.023670956
188	0x3d0886b7	0.0333316
189	0x3d80831b	0.062750064
190	0xbe08e449	-0.13368334
191	0x3dd6ed47	0.10494476
192	0x3e0f1f70	0.13976836
193	0xbdbc94e3	-0.092080854
194	0xbe0a0b8d	-0.13480969
195	0xbc94e899	-0.018177317
196	0x3d152e9f	0.036421414
197	0x3ceaabfa	0.028646458
198	0xbe0fcb19	-0.1404232
199	0xba271242	-0.0006373265
200	0xbd806c6b	-0.06270679
201	0xbd62edb8	-0.055402488
202	0x3d8d7ba6	0.0690835
203	0xbcf741a3	-0.030182665
204	0xbd95d877	-0.07316678
205	0xbd9fef2e	-0.07809292
206	0x3d92f879	0.07176299
207	0x3d9c3d17	0.076288395
208	0x3dfafa6f	0.12254798
209	0xbd874fcf	-0.06607019
210	0x3cfc577d	0.030803436
211	0xbcf772e1	-0.030206146
212	0x3e15f2bb	0.14643376
213	0x3ce1b2f8	0.02755116
214	0xbd68f92f	-0.056878265
215	0xbd4f8be2	-0.050670512
216	0xbdfbd477	-0.12296384
217	0x3df90fa3	0.121611856
218	0x3d38e702	0.04514218
219	0x3d3aec23	0.045635354
220	0x3df0518e	0.11734305
221	0xba341650	-0.000686978
222	0xbdd51a79	-0.1040544
223	0xbcea48ec	-0.028599225
224	0x39c7434b	0.00038006375
225	0xbdaa68b7	-0.08320754
226	0xbc912ced	-0.017721618
227	0xbe0cdd6d	-0.13756342
228	0x3dbbe1c5	0.091739215
229	0x3d52c596	0.051457964
230	0xbdd0c316	-0.1019346
231	0x3db27ec9	0.087155886
232	0x3d2392b6	0.039934836
233	0x3ded89f7	0.1159858
234	0x3db081b1	0.08618487
235	0x3d0604fe	0.032719605
236	0xbcd141aa	-0.025544006
237	0xbe00dbfa	-0.12583914
238	0xbd35455d	-0.044255603
239	0x3e0bd55d	0.1365561
240	0xbbbbfa8d	-0.005736655
241	0x3df3b345	0.11899427
242	0x3d0d7352	0.034533806
243	0xbc83cf21	-0.016089978
244	0xbca1de46	-0.019759309
245	0xbd51e388	-0.05124238
246	0xbe073e3c	-0.13207334
247	0x3b215b8a	0.0024621212
248	0x3dc2a99a	0.09505005
249	0xbbde96d6	-0.0067928834
250	0xbdb48ea9	-0.08816273
251	0xbddaf674	-0.106915385
252	0xbd44c36b	-0.048037928
253	0xbd2c1c12	-0.042018957
254	0xbcb32ef6	-0.021872979
255	0x3c862e22	0.01637942

actor.0.bias f4 [128]
0	0x3dbb8a58	0.09157246
1	0x3e17e664	0.14833981
2	0xbd4ea787	-0.050452735
3	0xbd22306c	-0.03959696
4	0xbdb46732	-0.088087454
5	0xbdd4c5fd	-0.10389326
6	0x3dd725bb	0.105052434
7	0x3df78bb9	0.12087197
8	0xbddfe0d7	-0.10931557
9	0xbc10a346	-0.00882799
10	0x3d0da437	0.034580436
11	0x3d5bb345	0.05363776
12	0x3d644b24	0.055735722
13	0xbd66fbf3	-0.05639262
14	0x3d6db89c	0.058037385
15	0x3d26b22d	0.040697265
16	0x3d70dd50	0.05880481
17	0xbe0b1fbb	-0.13586323
18	0x3c95075a	0.018191982
19	0xbdb050cc	-0.08609161
20	0x3d5e35d4	0.054250553
21	0x3d459634	0.048238948
22	0xbdb5c3b5	-0.08875219
23	0xbc95eeaf	-0.01830229
24	0x3ba1897f	0.004929721
25	0x3d61a70b	0.055090945
26	0x3db05730	0.0861038
27	0xbdd2f7e6	-0.10301189
28	0x3d95a0c9	0.07306058
29	0xbcb543b1	-0.022127004
30	0x3d7c107e	0.061539166
31	0x3d91f025	0.07125882
32	0xbdb24147	-0.08703857
33	0x3d42ac2f	0.04752749
34	0xbd0a99d1	-0.033838097
35	0x3cb52614	0.022112884
36	0xbe10e1e2	-0.14148667
37	0x3d8e44f7	0.06946748
38	0xbdce3dcb	-0.1007038
39	0x3dfe8150	0.12427008
40	0x3d54929a	0.051897623
41	0x3dae3c1d	0.085075594
42	0xbd8ac266	-0.0677536
43	0x3d86bdee	0.06579195
44	0x3dda07a3	0.10645988
45	0xbbafbe9f	-0.0053633
46	0x3e22186b	0.15829627
47	0xbdd3ad7a	-0.103358224
48	0x3df3953a	0.11893697
49	0xbdb5b297	-0.08871954
50	0x3d78738d	0.060657073
51	0xbe1be3bd	-0.15223594
52	0x3d3a5a26	0.04549613
53	0x3da15c4e	0.07878934
54	0x3d1a7f5c	0.037719116
55	0xbd230d57	-0.039807644
56	0x3d2d4dad	0.042310406
57	0xbdf6b7e5	-0.12046794
58	0xbc3d1ed0	-0.011542991
59	0x3ddfa9fe	0.10921095
60	0xbd91422a	-0.07092698
61	0x3e07a50b	0.13246553
62	0xbddacc85	-0.1068354
63	0x3c411106	0.011783844
64	0x3d7dad32	0.06193275
65	0xbb855369	-0.004068781
66	0xbda0e14c	-0.07855472
67	0x3d825868	0.063645184
68	0xbc5bbdc1	-0.01341194
69	0xbd9de8e6	-0.077104375
70	0xbdc57dad	-0.096431114
71	0x3dd906f5	0.1059703
72	0xbc5b1cb7	-0.013373545
73	0x3ca7f7eb	0.020503959
74	0xbd11fa34	-0.035639003
75	0xbcb17379	-0.021661507
76	0x3d07fe0c	0.033201262
77	0x3d88f050	0.06686461
78	0xbd14e572	-0.03635163
79	0xbd9750d7	-0.07388466
80	0xbd8de9d9	-0.069293685
81	0x3ce46075	0.027878026
82	0x3d82951a	0.06376095
83	0xbc1384c3	-0.009003821
84	0xbe040d15	-0.12895615
85	0x3ca9b7cd	0.020717526
86	0x3db41277	0.087925844
87	0xbd8dc543	-0.0692239
88	0xbe2067e8	-0.15664637
89	0x3dfb2414	0.12262741
90	0xbb3a6f18	-0.0028447565
91	0x3d524eaa	0.05134455
92	0xbe123ab8	-0.14280212
93	0xbdd49d0d	-0.103815176
94	0x3dfff06f	0.12497031
95	0x3da91250	0.08255446
96	0xbdc5cca5	-0.096581735
97	0x3de1cebe	0.11025761
98	0x3c548df0	0.012973294
99	0x3dae58c4	0.085130244
100	0xbcacf705	-0.021113882
101	0xbdb8c50d	-0.090219595
102	0xbc3d2bbc	-0.011546072
103	0xbd91d14f	-0.071200006
104	0x3df44448	0.11927086
105	0x3dc14ff7	0.0943908
106	0xbd375110	-0.04475504
107	0x3d1fbae8	0.038996607
108	0x3db8a38f	0.09015571
109	0xbbffcd07	-0.0078064236
110	0xbcf1c311	-0.02951196
111	0xbe100117	-0.14062916
112	0xbd25b831	-0.04045886
113	0x3d83d4ee	0.064370975
114	0x3d02328f	0.031786498
115	0xbc313cd7	-0.010817728
116	0x3d280d33	0.041028213
117	0x3def4a6c	0.11684117
118	0x3d18bd40	0.037289858
119	0xbe1799da	-0.14804783
120	0x3cb14959	0.02164142
121	0xbdf1887a	-0.11793609
122	0x3d7f1723	0.062277924
123	0x3e11ec33	0.14250259
124	0xbcbe2dbe	-0.023215171
125	0xbe00cbca	-0.1257774
126	0xbd2ea0dd	-0.04263388
127	0x3dad0564	0.08448294

actor.2.weight f4 [128, 128]
0	0xbd201d6c	-0.03909056
1	0x3c83180a	0.016002674
2	0xbd3bbf22	-0.045836575
3	0xbcd57b23	-0.026059693
4	0x3d5632da	0.05229459
5	0xbd8b97ee	-0.06816088
6	0x3caf9286	0.021432173
7	0x3cdf80fd	0.027283186
8	0x3cb8e3be	0.022569533
9	0xbbd79a5e	-0.0065796813
10	0x3d7cf2a5	0.06175484
11	0x3b08af8c	0.0020856587
12	0x3d6706f9	0.056403134
13	0x3cc94036	0.024566751
14	0xbd9d9b1a	-0.07695599
15	0xbda567fd	-0.08076475
16	0xbd4f3a3c	-0.050592646
17	0xbd3bf3e1	-0.045886878
18	0xbd98afb9	-0.074553914
19	0xbdc3150f	-0.09525501
20	0xbcea6e91	-0.028617175
21	0xbd4ea904	-0.050454155
22	0x3ccd0e65	0.025031278
23	0xbd16d4b6	-0.03682395
24	0xbcdc0078	-0.026855692
25	0x3d24cba3	0.040233266
26	0x3d365209	0.04451183
27	0xbca0ec42	-0.019643907
28	0xbd65d351	-0.05610973
29	0xbce7b2c6	-0.028283488
30	0x3bcc878d	0.006241745
31	0xbd96690b	-0.07344254
32	0xbcffee48	-0.031241551
33	0x3d3b2878	0.04569289
34	0x3c8373b7	0.016046388
35	0x3c654daf	0.013995572
36	0xbdb13c02	-0.08654024
37	0xbbee2308	-0.0072673596
38	0xbd223733	-0.039603423
39	0xbd689d85	-0.056790847
40	0xba85fdd5	-0.0010222743
41	0x3c3cd3bb	0.01152509
42	0x3d979689	0.07401759
43	0xbceff775	-0.029292801
44	0x3d29ab31	0.041423026
45	0x3cb5f611	0.02221206
46	0xbc91ae93	-0.017783439
47	0x3d825951	0.06364692
48	0x3d89adf1	0.0672263
49	0x3cd5800b	0.026062032
50	0xbd8bebf4	-0.06832114
51	0x3d3147d0	0.043281376
52	0x3da7c9f5	0.08192817
53	0x3dacc780	0.08436489
54	0xbda4b340	-0.08042002
55	0xbdad7a76	-0.08470623
56	0xbda38686	-0.07984643
57	0xbd880276	-0.066410944
58	0xbdc82a9b	-0.09773751
59	0x3c35594f	0.011068656
60	0x3da71099	0.081574626
61	0x3d1d5602	0.0384121
62	0x3d83d29c	0.06436655
63	0x3db5f791	0.0888511
64	0xbd66817a	-0.056275822
65	0xbd1422ee	-0.036166124
66	0xbd9a6f03	-0.07540705
67	0x3d2b3e8c	0.041807696
68	0x3d952e51	0.07284225
69	0x3b07beab	0.0020713012
70	0xbd943394	-0.072364
71	0x3c47ba49	0.01219041
72	0xbab4cc3f	-0.001379378
73	0x3d8cdb00	0.068777084
74	0xbd71f5cf	-0.059072312
75	0x3cadd4a8	0.021219566
76	0xbd97d7d5	-0.074142136
77	0xbdae7ed2	-0.08520283
78	0xbce6f1e5	-0.028191516
79	0xbd4ee0c1	-0.05050731
80	0x3d149092	0.036270685
81	0x3d863241	0.06552554
82	0x3d196993	0.0374542
83	0x3d8f044c	0.069832414
84	0x3c774931	0.015093134
85	0x3d3631a1	0.044480924
86	0xbcbf483f	-0.02334988
87	0x3c1cd22d	0.009571594
88	0xbd699458	-0.057026237
89	0x3d289a15	0.04116257
90	0xbd348697	-0.044073667
91	0xbcb0d11d	-0.021584088
92	0xbd512238	-0.051058024
93	0xbd9c51b0	-0.07632768
94	0x3cbafea6	0.022826504
95	0x3c76169b	0.015020038
96	0x3bfecb57	0.007775705
97	0x3dab7da6	0.08373575
98	0xbd34e6ed	-0.04416554
99	0x3b7cf5c3	0.0038598634
100	0xbd9dded8	-0.0770852
101	0x3d9d8348	0.076910555
102	0xbd3b1ad1	-0.04567987
103	0x3da502b6	0.08057158
104	0x3d554d7d	0.05207585
105	0x3da59960	0.080858946
106	0xbcc719e0	-0.02430433
107	0x3d0d53d9	0.03450379
108	0x3b8bff20	0.0042723566
109	0xbdbe9f2a	-0.09307702
110	0x3d4faf44	0.050704256
111	0x3d9546a5	0.07288865
112	0xbd535e40	-0.051603556
113	0xbc2072d0	-0.009792998
114	0x3b8bbdb2	0.004264557
115	0x3c695ace	0.014242841
116	0x3d9e00f5	0.07715026
117	0xbc99afe6	-0.018760633
118	0xbd958516	-0.07300775
119	0x3dab8161	0.083742864
120	0xbd107f48	-0.035277635
121	0x3d88b83a	0.066757634
122	0x3c854970	0.01627037
123	0xbd24993d	-0.040185202
124	0x3c0f8f0f	0.008762135
125	0xbdb752e5	-0.08951358
126	0x3cdda78d	0.027057434
127	0xbd161295	-0.036638815
128	0xbd847947	-0.06468444
129	0x3bf98364	0.00761454
130	0x3da929d4	0.08259931
131	0xbbf2e7be	-0.0074128797
132	0xbd0688a8	-0.03284517
133	0x3cf4ad4d	0.029867793
134	0x3d87f148	0.066378176
135	0xbc928ea1	-0.017890276
136	0xbbedf62b	-0.0072620115
137	0x3cb3dfa9	0.021957235
138	0xbd101921	-0.035180215
139	0x3d49cfe3	0.04927052
140	0xbda1a519	-0.07892818
141	0xbb303015	-0.0026884128
142	0x3d1bedbc	0.038068518
143	0x3d87be53	0.06628098
144	0x3c7651da	0.015034163
145	0xbd895afc	-0.06706807
146	0x3d835dc4	0.06414369
147	0xbd62e480	-0.055393696
148	0xbd794a32	-0.060861774
149	0x3d269bab	0.0406758
150	0xbd550e30	-0.052015483
151	0xbc8b1d05	-0.016981611
152	0x3bab077c	0.005219398
153	0x3db9d764	0.090742856
154	0xbcb78aff	-0.022405146
155	0xbcfde3a1	-0.030992331
156	0x3d1730ae	0.03691166
157	0xbd96b93b	-0.07359549
158	0xbd99f427	-0.075172715
159	0x3b9bf891	0.004759856
160	0xbd876b32	-0.06612243
161	0x3db45e15	0.08807007
162	0x3dae30b4	0.08505383
163	0xbaf995e5	-0.0019041864
164	0x3da95945	0.0826898
165	0xbcc96c5c	-0.024587803
166	0xbd9e19f3	-0.07719793
167	0x3d8df8fe	0.06932257
168	0xbd3042b6	-0.04303237
169	0x3d82ea3b	0.06392332
170	0x3db1927f	0.0867052
171	0x3d5898b0	0.05287999
172	0x3d8eec0a	0.06978615
173	0xbd6dfd0f	-0.058102664
174	0x3c83084e	0.01599517
175	0x3d807ce7	0.06273823
176	0xbb47e918	-0.0030503925
177	0x3d4d8f57	0.050185528
178	0xbd9faba3	-0.07796409
179	0xbbc7e579	-0.0061003533
180	0x3c8c62e7	0.017137004
181	0x3dbbc839	0.09169049
182	0x3d2f9dd5	0.04287513
183	0xbc26c7a7	-0.010179437
184	0xbb6b904c	-0.0035944162
185	0xbd05bc14	-0.03265007
186	0xbd849175	-0.06473056
187	0x3cdad7c7	0.026714219
188	0xbd89c12f	-0.067263
189	0xbd8d8466	-0.069100186
190	0x3cf62242	0.030045632
191	0xbd6371fe	-0.055528633
192	0x3dbdeb29	0.09273369
193	0x3d9c5745	0.07633833
194	0x3d4c980e	0.0499497
195	0xbd384300	-0.04498577
196	0x3d418db8	0.047254294
197	0x3cf68e9d	0.0300973
198	0x3da74884	0.08168128
199	0x3d1ae19c	0.037812814
200	0xbd26f75d	-0.040763248
201	0xbcf5b2ad	-0.029992426
202	0x3ca9f522	0.020746771
203	0x3d0eec50	0.034893334
204	0x3d48e36a	0.049045004
205	0xbcb37bd4	-0.021909632
206	0x3d803820	0.06260705
207	0xbd7d3c0b	-0.06182484
208	0xbb28c9dc	-0.0025755083
209	0xbc50b708	-0.012738951
210	0xbd4950be	-0.049149267
211	0x3c139155	0.009006818
212	0x3c26dbe8	0.010184266
213	0x3b4ea7d8	0.0031533148
214	0xbad47d92	-0.0016211739
215	0xbd6bd9b5	-0.05758067
216	0xbdcc1b3c	-0.09966132
217	0xbbb8a823	-0.005635278
218	0xbcd9c7f3	-0.026584601
219	0xbd745bf9	-0.059658024
220	0xbda7461c	-0.08167669
221	0xbd97b0b8	-0.07406753
222	0xbd61832e	-0.055056743
223	0x3cc0f8da	0.023556162
224	0xbca81208	-0.02051641
225	0xbcd4ac5b	-0.025961092
226	0xbb8a1282	-0.004213632
227	0x3da6b61c	0.08140203
228	0xbd9d303a	-0.07675214
229	0xbd4690c4	-0.048477903
230	0xbcc22bea	-0.02370258
231	0xbd1472d6	-0.03624233
232	0xbda74169	-0.08166773
233	0x3d35a2f8	0.044344872
234	0xbd17dd97	-0.03707656
235	0x3d6362c7	0.055514123
236	0xbd993623	-0.07481029
237	0x3bf02a98	0.0073292963
238	0x3db0945c	0.08622047
239	0x3b9f5f82	0.0048636803
240	0x3d97cb20	0.0741179
241	0xbd59f4a3	-0.05321182
242	0xbb204cef	-0.0024459918
243	0xb9b34f26	-0.0003420051
244	0xbd848439	-0.06470532
245	0xbd40fb9f	-0.047114965
246	0xbdbdf205	-0.09274677
247	0xbd9c665b	-0.0763671
248	0xbd896009	-0.067077704
249	0xbd040956	-0.032235466
250	0xbd02b32e	-0.03190916
251	0xbd0d254a	-0.03445939
252	0x3d5bd18a	0.05366663
253	0x3ce95b9e	0.02848607
254	0xbdc3de4e	-0.09563886
255	0xbd28a799	-0.04117546

actor.2.bias f4 [128]
0	0xbd117e6a	-0.03552095
1	0x3dbff86c	0.093735546
2	0xbd6a484c	-0.057197854
3	0xbd85677d	-0.065138794
4	0x3b8f1597	0.0043665874
5	0xbd751ff0	-0.05984491
6	0x3d7de714	0.06198795
7	0xbd32efac	-0.0436856
8	0x3d41eb0a	0.04734329
9	0x3bde8500	0.006790757
10	0x3cce593f	0.02518904
11	0xbc29ca4f	-0.0103631755
12	0x3cd2ed9a	0.025748063
13	0xbb46669a	-0.0030273558
14	0xbd5140b5	-0.0510871
15	0xbd62a2bf	-0.055330988
16	0xbcd90762	-0.026492778
17	0x3d2afc8b	0.04174475
18	0x3dd3bd23	0.10338809
19	0x3dacc751	0.08436454
20	0x3d831f80	0.064024925
21	0xbda32bd8	-0.07967347
22	0x3d4b01e7	0.04956236
23	0xbcf2f641	-0.029658439
24	0xbd51ce37	-0.051222052
25	0x3d794323	0.060855042
26	0xbd87b27a	-0.066258386
27	0x3bd36926	0.0064517437
28	0xbd9d8bdb	-0.07692691
29	0x3d8dc388	0.0692206
30	0x3d9c25cf	0.07624399
31	0x3dc08ad7	0.094014816
32	0x3d3e6915	0.046486933
33	0xbc0de375	-0.008660187
34	0xbd9c13ed	-0.07620988
35	0xbd653366	-0.05595722
36	0xbb8a5791	-0.0042218645
37	0x3dbc02d1	0.09180225
38	0x3d45e390	0.048312724
39	0xbd6c0a94	-0.057627276
40	0x3da9a3ac	0.08283171
41	0x3d450d24	0.048108235
42	0xbda1f0d5	-0.07907263
43	0x3d64c3a2	0.055850632
44	0x3d4b3f36	0.04962083
45	0xbd1bf1ee	-0.03807252
46	0x3c263221	0.010143788
47	0xbc3a8762	-0.011384817
48	0xbd144327	-0.036196854
49	0xbb68cddc	-0.0035523092
50	0x3d06e549	0.032933507
51	0xbdb6e09e	-0.08929561
52	0xbcbbeb67	-0.022939397
53	0xbc213357	-0.0098389005
54	0xbda55195	-0.08072201
55	0xbce1cd5b	-0.027563741
56	0xbc9dc710	-0.01925996
57	0x3c94947c	0.01813721
58	0x3d86a5fb	0.06574627
59	0x3d941382	0.07230283
60	0xbdc353e0	-0.09537482
61	0x3bcb1e5b	0.006198687
62	0xbc773439	-0.015088134
63	0xbd3de877	-0.046364274
64	0x3b82d8cb	0.003993129
65	0xbce90ca4	-0.02844841
66	0x3d1901e1	0.037355307
67	0x3ccdf54a	0.025141377
68	0xbbe4f321	-0.006986991
69	0x3dbda61c	0.092601985
70	0xbbf4b8bb	-0.0074683107
71	0x3db37ddd	0.08764241
72	0xbd7f2838	-0.062294215
73	0x3d88dc95	0.06682698
74	0x3d616bb9	0.055034373
75	0x3d8e215e	0.06939958
76	0x3c17c636	0.009263566
77	0xbd837648	-0.06419045
78	0xbbd4aafd	-0.00649011
79	0xbdb409ab	-0.087909065
80	0xbc150686	-0.009095794
81	0x3cf87b7a	0.030332316
82	0x3d119672	0.035543866
83	0xbdd2e7e4	-0.10298136
84	0x3c9f8b43	0.019475585
85	0xbd395d1a	-0.045254804
86	0xbdb488a7	-0.08815127
87	0x3ced67f2	0.028980229
88	0xbd321a30	-0.043482006
89	0xbd4319af	-0.047631916
90	0x3cc8d851	0.02451721
91	0xbc79b654	-0.015241224
92	0x3cdabc67	0.026701165
93	0x3c64a0d4	0.01395436
94	0xbd7d3daf	-0.061826404
95	0xbd6e290c	-0.058144614
96	0xbc671cdf	-0.0141060045
97	0x3d0a5ab6	0.033777915
98	0x3d45b307	0.048266437
99	0x3d8a5bfc	0.06755826
100	0xbd88ce17	-0.066799335
101	0x3d8a8dd8	0.06765336
102	0xbd36fa1d	-0.04467212
103	0x3d92d0cc	0.07168731
104	0x3caaeac8	0.020863906
105	0xbd64db59	-0.05587325
106	0xbce720ac	-0.028213821
107	0xbd6b151e	-0.057393186
108	0x3cb6fb7f	0.02233672
109	0xbd00ba94	-0.031427935
110	0xbd634621	-0.055486802
111	0xbd6b1542	-0.05739332
112	0xbd8527fa	-0.065017655
113	0xbd8c6853	-0.06855836
114	0x3da1bca1	0.07897306
115	0x3d294842	0.041328676
116	0xbbfe0581	-0.007752121
117	0x3da4802c	0.08032259
118	0xbdc3e252	-0.095646515
119	0xbd1735b1	-0.03691644
120	0x3d4427fa	0.047889687
121	0x3c9df3ca	0.019281287
122	0x3a5b7021	0.00083708955
123	0x3d6bade0	0.057538867
124	0xbd7205bc	-0.0590875
125	0x3d1a0053	0.037597965
126	0x3cc30b73	0.02380917
127	0x3d098f7e	0.03358411

actor.4.weight f4 [128, 128]
0	0xbd98c0ee	-0.074586734
1	0xbcc6bf7f	-0.024261234
2	0x3d600bdd	0.054698814
3	0x3cda5f57	0.02665679
4	0x3c92ab32	0.017903898
5	0xbc1c5e84	-0.009544019
6	0xbc13d2f2	-0.009022461
7	0xbd65273b	-0.055945616
8	0x3db2a50c	0.087228864
9	0x3d7ee678	0.06223151
10	0xbda45f80	-0.08026028
11	0x3c332a89	0.010935434
12	0xba51a577	-0.00079973735
13	0xbb7989a6	-0.003807643
14	0xbcea80b3	-0.028625822
15	0x3d146bc5	0.03623559
16	0xbcff8bd0	-0.031194597
17	0x3da8776d	0.08225904
18	0x3daa7e98	0.08324927
19	0x3d34ffa7	0.04418912
20	0x3b9991f8	0.0046865903
21	0x3d913dc8	0.07091862
22	0xbd92b91c	-0.07164213
23	0x3b445dfb	0.0029963243
24	0x3cb1531d	0.021646077
25	0x3dc259fd	0.0948982
26	0x3d24eeed	0.04026692
27	0xbd3d21a4	-0.04617466
28	0x3d75a575	0.059972245
29	0xbda21bf4	-0.07915488
30	0x3d315858	0.04329714
31	0x3d428d10	0.04749781
32	0xbcc50879	-0.024051892
33	0xbd005864	-0.031334296
34	0xbd647a65	-0.055780787
35	0xbd876ea7	-0.06612902
36	0xbd0472b8	-0.032335967
37	0x3d5bddad	0.053678203
38	0xbda56e97	-0.08077734
39	0xbca18423	-0.019716328
40	0xbbcfc71b	-0.006340874
41	0x3d26d993	0.04073484
42	0xbda97e1d	-0.08276007
43	0x3d6bcf01	0.05757046
44	0xbd4f38a6	-0.050591134
45	0xbcb0fb25	-0.02160413
46	0x3c9b6f11	0.018973859
47	0x3d67ef4d	0.0566247
48	0xbd955544	-0.07291654
49	0xbc35ef5f	-0.011104434
50	0x3d8fb2b0	0.07016504
51	0xbdbd7c6d	-0.09252248
52	0xbd94b5eb	-0.072612606
53	0xbd85c7f0	-0.06532276
54	0xbda12167	-0.07867699
55	0x3d98fe13	0.07470336
56	0x3b2cd06e	0.002636935
57	0xbc953482	-0.018213514
58	0x3c8a5ab1	0.016888948
59	0xbd93351a	-0.07187863
60	0x3d653f18	0.055968374
61	0x3d988fba	0.07449289
62	0xbd117902	-0.035515793
63	0x3d2a90c7	0.041641977
64	0x3ba24d66	0.0049530743
65	0xbd8e2646	-0.06940894
66	0xbdbf5875	-0.09343044
67	0x3b8ecc58	0.0043578558
68	0xbdc1cab7	-0.09462493
69	0x3d4b4daf	0.04963463
70	0xbd6451d2	-0.055742092
71	0x3bf98e4c	0.00761584
72	0xbb7aba37	-0.0038257965
73	0xbd71f554	-0.059071854
74	0xbd8a9a77	-0.06767743
75	0x3d820daa	0.063502625
76	0x3c68c56c	0.014207225
77	0xbd19caa3	-0.037546765
78	0xbc91b6f5	-0.017787436
79	0xbd34e0d7	-0.044159736
80	0x3d98aad0	0.07454455
81	0xbcd744ad	-0.026277864
82	0xbcb74a4b	-0.022374293
83	0xbcb9cb20	-0.022679865
84	0xbdade952	-0.08491768
85	0x3d06c78b	0.032905143
86	0x3d479c72	0.048733182
87	0xbd8e34c0	-0.06943655
88	0x3c1b9c80	0.009497762
89	0xbd9ea59b	-0.077464305
90	0x3d82635d	0.06366608
91	0x3bd51c05	0.0065035843
92	0x3da5ba94	0.080922276
93	0x3b4f0c96	0.0031593195
94	0x3d995c0c	0.0748826
95	0xbd109172	-0.035294957
96	0xbd435037	-0.04768392
97	0xbd84ca1e	-0.06483863
98	0x3d155ba2	0.03646434
99	0x3c0e3f59	0.008682095
100	0x3c605dda	0.013694251
101	0xbbd0279b	-0.0063523776
102	0x3d377a36	0.044794284
103	0xbc25df7c	-0.010124084
104	0xbc7c22fc	-0.0153892
105	0xbca11b3a	-0.019666303
106	0xbd89e083	-0.06732275
107	0x3d60582c	0.054771587
108	0xbd9a926d	-0.0754746
109	0x3cfcfdb3	0.030882692
110	0xbd3d72cd	-0.04625206
111	0x3d004127	0.031312134
112	0xbcb10f17	-0.02161364
113	0x3db381f0	0.08765018
114	0x3d346572	0.04404206
115	0x3cdeae4f	0.027182726
116	0xbce36a8d	-0.027760768
117	0x3cc11bc0	0.023572803
118	0xbdc59fe3	-0.096496366
119	0xbd6583e9	-0.056034002
120	0xbd822bf5	-0.063560404
121	0x3d642dfa	0.05570791
122	0xbd1fdff9	-0.039031956
123	0xbd7d90f4	-0.061905816
124	0xbcbcb1d7	-0.02303402
125	0x3c1b4f4f	0.009479358
126	0x3bf1d7a1	0.0073804413
127	0x3d704b36	0.058665477
128	0x3d6e2ed1	0.058150116
129	0xbd20d5c4	-0.039266363
130	0x3d954c69	0.07289965
131	0x3d37bba0	0.044856668
132	0x3dba581a	0.09098835
133	0xbc580e3c	-0.0131869875
134	0x3cd53dec	0.026030503
135	0x3dbb14c2	0.091348186
136	0xbd69c75f	-0.0570749
137	0x3d8381fd	0.06421278
138	0x3d954a45	0.072895564
139	0xb9d0dbe4	-0.00039836683
140	0x3d1816d9	0.037131164
141	0x3d1b15c6	0.03786256
142	0xbd85f6b1	-0.06541193
143	0xbcbbef79	-0.022941338
144	0x3d36ffc4	0.04467751
145	0x3c5e7368	0.01357732
146	0x3d2cf69c	0.042227373
147	0x3d8eaac2	0.06966163
148	0x3dc5cef6	0.09658615
149	0x3d03d020	0.032180905
150	0xbcb2420e	-0.021760013
151	0xbd8c26c5	-0.06843332
152	0x3d606b23	0.054789674
153	0x3d3e4497	0.04645213
154	0xbd9ae00f	-0.07562267
155	0xbd52fcfd	-0.0515108
156	0x3d30b854	0.04314454
157	0xbd7c6d1f	-0.061627503
158	0x3dbc909d	0.0920727
159	0xbd7fc55e	-0.062444083
160	0x3b99a1e3	0.004688488
161	0x3d6e63ed	0.058200765
162	0x3d93cb83	0.07216551
163	0x3d5142f7	0.051089253
164	0xbd847c4b	-0.064690195
165	0xbd9518c2	-0.07280113
166	0xbd4ee763	-0.050513636
167	0x3c5f4eda	0.0136296395
168	0x3d652fff	0.055953976
169	0xbca30904	-0.01990176
170	0x3d32aece	0.043623738
171	0x3d4acece	0.04951363
172	0xbc996883	-0.018726593
173	0xbd26a114	-0.04068096
174	0xbc23ad2b	-0.009990017
175	0x3c1f5571	0.009724961
176	0xb9f13542	-0.00046006782
177	0xbd202514	-0.03909786
178	0xbd96c7d6	-0.073623344
179	0xbd7d554a	-0.061848916
180	0x3bb6098b	0.005555337
181	0x3ced2e34	0.028952695
182	0x3d10a085	0.035309333
183	0x3cd00892	0.025394712
184	0xbcf1a069	-0.029495435
185	0xbd78a1e1	-0.060701255
186	0x3c63643b	0.013878877
187	0x3bf94113	0.0076066344
188	0x3c818c6f	0.015814034
189	0x3d9715bb	0.07377192
190	0xbd555f30	-0.05209273
191	0xbd887fe3	-0.066650175
192	0x3c34c40b	0.011033068
193	0xbd6f7d7f	-0.05846929
194	0xbd5b3058	-0.0535129
195	0x3d1d35bd	0.038381327
196	0xbd5f6df5	-0.054548223
197	0x3dc665a5	0.09687356
198	0xbb81333a	-0.0039428743
199	0x3d8f9044	0.07009938
200	0x3c95c6fd	0.018283362
201	0x3db08737	0.0861954
202	0xbda4879b	-0.08033677
203	0xbd9d46ea	-0.076795414
204	0x3c9c0b3c	0.019048326
205	0xbc1d950b	-0.009618054
206	0xbbbdcd40	-0.00579229
207	0xbcd194d2	-0.025583658
208	0x3bc3e3ed	0.0059780986
209	0xbcecf46e	-0.028925147
210	0x393fdbb5	0.00018297027
211	0xbc86c619	-0.016451882
212	0x3d693bdd	0.056941856
213	0x3d56e559	0.052464817
214	0xbd127030	-0.03575152
215	0x3d31ae7c	0.043379292
216	0x3da80eed	0.08205972
217	0x3d936a5d	0.071980216
218	0xbd2ba715	-0.04190739
219	0x3d2873b9	0.041125987
220	0xbd20c9e2	-0.03925503
221	0x3bafb8a5	0.0053625875
222	0xbdbf2ef3	-0.09335127
223	0x3d0425b5	0.032262523
224	0xbd7320bf	-0.0593574
225	0x3d81ee8c	0.06344327
226	0xbd72d162	-0.059281714
227	0x3d4f7392	0.050647326
228	0xbdc20b44	-0.09474805
229	0x3d858a76	0.0652055
230	0xbd308bee	-0.043102197
231	0x3c47d7ae	0.012197418
232	0x3d7b5901	0.061364178
233	0xbc992d14	-0.018698253
234	0xbdc43917	-0.095812015
235	0xbda2a0f3	-0.07940855
236	0x3dc59bdb	0.09648868
237	0x3d0302fe	0.031985275
238	0xbda19fd0	-0.0789181
239	0x3d8786ef	0.066175334
240	0x3d934abd	0.071919896
241	0x3dadbd17	0.08483332
242	0xbd5e2fca	-0.054244794
243	0x3d218294	0.03943117
244	0x3d55f0dc	0.052231655
245	0xbd5d46de	-0.054022662
246	0xbb42cc1e	-0.0029723714
247	0x3d6e3cdd	0.058163512
248	0xbd97fa48	-0.07420784
249	0x3c88de64	0.016707607
250	0x3da6e98f	0.081500165
251	0xbc04eac3	-0.008112612
252	0xbd78a233	-0.06070156
253	0x3d0dd1a3	0.034623753
254	0xbd7c3133	-0.061570358
255	0xbc49f627	-0.012326754

actor.4.bias f4 [128]
0	0xbca583d1	-0.020204457
1	0x3db15f7e	0.08660792
2	0xbdc4e30e	-0.0961362
3	0x3db217cd	0.08695946
4	0xbd4a954c	-0.049458787
5	0xbb6b7410	-0.0035927333
6	0xbd6fea4b	-0.05857305
7	0x3ca2fd04	0.019896038
8	0xbc88829e	-0.016663846
9	0x3cc2aad9	0.023763107
10	0xbd702a9d	-0.05863439
11	0x3d906fd0	0.070525765
12	0x3d35c829	0.04438034
13	0x3c7e7e5b	0.015533055
14	0x3d410e19	0.047132585
15	0x3d3f4174	0.04669328
16	0x3cfb6944	0.030689843
17	0x3db29171	0.08719147
18	0x3c2e59d5	0.010641535
19	0x3c62a714	0.01383378
20	0xbd8b0e90	-0.06789887
21	0x3d9d3795	0.07676617
22	0xbc00c879	-0.007860296
23	0x3a47f4b1	0.00076277094
24	0x3ca1f635	0.019770721
25	0xbd540253	-0.05176003
26	0x3d817e7f	0.06322955
27	0x3c9662b0	0.018357605
28	0x3d88d76a	0.06681712
29	0xbc818ec7	-0.015815152
30	0xbda9dd05	-0.08294109
31	0xbb87b20b	-0.0041410974
32	0x3da75c23	0.081718706
33	0x3c915762	0.017741863
34	0xbcc6ce3b	-0.02426826
35	0x3dabe87a	0.08393951
36	0x3d777840	0.060417414
37	0x3dbb6389	0.09149844
38	0x3cf877f3	0.030330634
39	0x3da997fe	0.08280943
40	0x3c06e1da	0.008232558
41	0x3cab1247	0.020882739
42	0xbc958b6f	-0.018254964
43	0xbc00d9dc	-0.007864442
44	0x3da65010	0.081207395
45	0xbd9e4cf2	-0.0772952
46	0x3d3cdf25	0.046111245
47	0xbda207df	-0.079116575
48	0x3bd6fae4	0.00656067
49	0x3da0d64a	0.078533724
50	0xbcdcf708	-0.026973262
51	0x3cab3e29	0.020903664
52	0x3d155272	0.03645558
53	0x3da474d2	0.08030094
54	0xbd038a0b	-0.03211407
55	0x3d0d038f	0.034427222
56	0x3da8c2b8	0.08240265
57	0x3d224ab0	0.03962201
58	0x3d89985e	0.06718515
59	0x3d522801	0.051307682
60	0x3d6b1aa7	0.057398465
61	0xbc12f268	-0.008968927
62	0xbb39099a	-0.0028234483
63	0x3d60971a	0.0548316
64	0xbdae388e	-0.08506881
65	0x3d86828b	0.06567868
66	0x3ce05d6f	0.027388303
67	0xbd06a088	-0.03286794
68	0xbd3a4283	-0.045473587
69	0x3da20a91	0.07912172
70	0xbd124321	-0.03570855
71	0xbd868edb	-0.06570216
72	0xbdb4c9fe	-0.088275895
73	0x3d3b0476	0.04565855
74	0xbcb55c57	-0.022138758
75	0xbd9db095	-0.07699696
76	0x3da20c2e	0.07912479
77	0xbcec1bef	-0.028821914
78	0xbd5c9492	-0.053852625
79	0x3d106fb9	0.035262797
80	0xbc95c082	-0.018280271
81	0xbcde5cbd	-0.02714383
82	0xbd545db3	-0.05184717
83	0x3d105e5b	0.035246234
84	0xbd666336	-0.05624696
85	0x3da6b763	0.08140447
86	0xbdb3dab8	-0.08781952
87	0xbd6ce542	-0.057835825
88	0xbd4a9f1d	-0.04946815
89	0x39e0d62a	0.00042884174
90	0xbd4bdeca	-0.049773015
91	0x3d87b6e7	0.06626683
92	0xbd3b9e7b	-0.045805436
93	0xbc457876	-0.012052646
94	0xbd0f437b	-0.034976464
95	0xbd981cff	-0.074274056
96	0xbd21d435	-0.039509017
97	0x3c094a60	0.008379549
98	0x3d810b55	0.063009895
99	0x3d26f39c	0.040759668
100	0x3cf65ffa	0.030075062
101	0x3d3134a2	0.043263085
102	0x3bdf8d05	0.0068222308
103	0xbc9e0723	-0.019290512
104	0x3d3f7fdd	0.0467528
105	0xbc9e9127	-0.019356323
106	0x3cea5b5f	0.028608022
107	0x3dafda53	0.08586564
108	0x3d9a9852	0.07548584
109	0x3b8eac61	0.0043540453
110	0x3c8dc321	0.017304959
111	0x3d54eee9	0.051985655
112	0xbd6f86e5	-0.058478255
113	0x3bd435a1	0.0064761196
114	0xbc81bb22	-0.015836302
115	0xbd502546	-0.050816797
116	0xbd5c58e4	-0.05379571
117	0xbdadef81	-0.08492947
118	0x3ae18e01	0.0017208458
119	0xbd63ec10	-0.05564505
120	0xbd9808f3	-0.07423582
121	0xbd7a8d73	-0.061170053
122	0x3da389a4	0.07985237
123	0x3d9ec103	0.07751658
124	0xbcfdcdf2	-0.030981991
125	0xbcdce2c0	-0.026963592
126	0xbc30ed46	-0.010798758
127	0x3cb377ac	0.02190765

actor.6.weight f4 [9, 128]
0	0x3d38acc1	0.045086626
1	0xbd824539	-0.063608594
2	0x3dbaa3b6	0.09113257
3	0x3c6b9eca	0.01438112
4	0x3d2f3e5a	0.042784072
5	0xbd905a43	-0.07048466
6	0x3c7cdc68	0.015433408
7	0xbd34394c	-0.043999955
8	0x3d69432b	0.056948822
9	0xbb46a561	-0.0030310976
10	0xbd1abbb8	-0.03777668
11	0x3dab81e4	0.08374384
12	0xbd82b8cc	-0.063829035
13	0xbba6a99a	-0.005086136
14	0xbd2ce9de	-0.04221522
15	0xbc9912a0	-0.018685639
16	0x3cbd36a7	0.02309735
17	0x3d480ba2	0.04883922
18	0x3d31bc72	0.043392606
19	0x3d2dc305	0.042422313
20	0xbc5f0aed	-0.013613445
21	0xbdb9c17f	-0.090701096
22	0x3da02c93	0.07821002
23	0x3d9e3431	0.077247985
24	0xbbae53ce	-0.005320049
25	0xbbb95e92	-0.0056570256
26	0x3dab2616	0.08356874
27	0x3c911b5f	0.017713247
28	0xbd914895	-0.07093922
29	0xbd3e1e02	-0.046415336
30	0xbb896e08	-0.004194025
31	0x3d42e26d	0.047579218
32	0xbb9e36d7	-0.0048283148
33	0xbc805cf9	-0.015669333
34	0xbd40621c	-0.046968564
35	0x3d5c0056	0.053711258
36	0xbdbb5f71	-0.091490634
37	0xbd94e1e8	-0.07269651
38	0xbd832774	-0.064040095
39	0x3d8bc5b5	0.06824819
40	0xbbc733bf	-0.0060791667
41	0xbd8bd198	-0.06827086
42	0xbda06514	-0.07831779
43	0xbcd17b16	-0.025571387
44	0xbce4f4ff	-0.027948854
45	0xbbd73f30	-0.006568812
46	0xbba4a0e7	-0.005024064
47	0x3d08bb67	0.033381846
48	0xbd9a30f8	-0.07528871
49	0xbcebb970	-0.028774947
50	0x3d90267e	0.07038592
51	0xbd3372dd	-0.043810714
52	0x3da569ae	0.080767974
53	0x3cf0d0aa	0.029396374
54	0xbd322cf3	-0.0434999
55	0xbc7e4a05	-0.015520577
56	0xbd9fe66f	-0.078076236
57	0xbd8db729	-0.06919701
58	0x3ca3760e	0.019953754
59	0xbc190ca7	-0.009341395
60	0x3c52519f	0.012836843
61	0xbd8b9966	-0.06816368
62	0xbd0913f8	-0.03346631
63	0xb9981c94	-0.00029012992
64	0xbd6e06f3	-0.058112096
65	0x3d629e0e	0.055326514
66	0xbcdaac38	-0.026693448
67	0xbd11d876	-0.035606824
68	0xbc5808d1	-0.013185696
69	0x3d31d522	0.04341615
70	0x3d20d0b1	0.039261524
71	0xbc8d97c9	-0.01728429
72	0x3d78122e	0.060564213
73	0x3d92bb49	0.07164628
74	0xbd0e1e2a	-0.034696735
75	0x3da351ff	0.07974624
76	0x3c9b2718	0.01893954
77	0xbced2ca8	-0.028951958
78	0x3dc3a9a2	0.09553839
79	0x3d111b7c	0.0354266
80	0x3da84f29	0.082182236
81	0xbd97b07e	-0.0740671
82	0xbcaa933a	-0.020822156
83	0x3da6cecc	0.08144912
84	0x3d88a3d0	0.0667187
85	0x3c01fd58	0.007933937
86	0xbd0d0696	-0.03443011
87	0x3d1fe515	0.03903683
88	0xbd51a84d	-0.051185895
89	0x3c8d0f99	0.017219352
90	0xbd7ca32a	-0.061679043
91	0xbdc7a36e	-0.097479686
92	0x3d1f5a38	0.0389044
93	0x3c39154d	0.011296582
94	0xbc3d06f3	-0.011537301
95	0x3bbe6748	0.005810652
96	0xbd941f24	-0.07232502
97	0x3d93abf3	0.07210531
98	0xbd413b3d	-0.047175635
99	0x3d73e6a4	0.059546128
100	0xbd3b2a56	-0.04569467
101	0x3c24d703	0.010061028
102	0xbd37f03e	-0.044906847
103	0x3c57edd9	0.013179266
104	0xbccb9c82	-0.024854902
105	0x3c27ed7f	0.010249495
106	0x3c8237fa	0.015895832
107	0x3d485312	0.048907347
108	0xbd3d4337	-0.04620668
109	0x3da2bcba	0.07946153
110	0x3d9d8c4b	0.076927744
111	0x3d20e450	0.039280236
112	0x3d58aad7	0.0528973
113	0xbc6df459	-0.014523589
114	0xbc0d1edf	-0.008613317
115	0x3d32c3b4	0.04364367
116	0x3c5ae1b1	0.013359473
117	0x3d059a1a	0.032617666
118	0x3d177a8e	0.03698211
119	0x3d2d388e	0.042290263
120	0xbd8d6e80	-0.06905842
121	0x3beca493	0.007221767
122	0x3d1a5a45	0.037683744
123	0x3c2a284f	0.010385587
124	0xbd4621ef	-0.048372205
125	0x3d8250d6	0.063630745
126	0x3d83cb03	0.06435206
127	0xbd9db1da	-0.07699938
128	0x3d48ef38	0.04905626
129	0x3d9a5c81	0.07537175
130	0x3d60c45a	0.054874755
131	0xbae05da0	-0.0017117746
132	0xbd0712bf	-0.032976862
133	0xbd85a520	-0.06525636
134	0x3dc97989	0.09837634
135	0x3d7e205c	0.06204258
136	0xbb799d3a	-0.00380881
137	0xbc055de1	-0.008140058
138	0x3d76df1f	0.06027138
139	0xbd06173a	-0.032736994
140	0x3d82787d	0.063706376
141	0xbd1bd992	-0.038049288
142	0x3cd935b1	0.02651486
143	0xbc66be7c	-0.014083501
144	0xbc1a154b	-0.009404491
145	0x3c573664	0.013135526
146	0x3d96be86	0.07360558
147	0x3c1fb921	0.009748728
148	0xbd9e05b1	-0.07715929
149	0x3c9802cb	0.01855602
150	0xbd816b14	-0.06319252
151	0x3db5d93d	0.088793255
152	0xbcaaa121	-0.020828785
153	0x3d7e9614	0.062154844
154	0x3d958e2d	0.073025085
155	0x3d410dfc	0.047132477
156	0x3b6093a3	0.0034267686
157	0x3d8abe9a	0.067746356
158	0xbd4fe209	-0.050752673
159	0xbda80784	-0.082045585
160	0xbc8f67b7	-0.01750551
161	0x3cd1b594	0.025599279
162	0x3c267aa4	0.010161076
163	0xbc5259a6	-0.012838757
164	0x3c264e70	0.010150537
165	0x3cc63430	0.024194807
166	0xbd2e642a	-0.042575993
167	0xbd10319e	-0.03520357
168	0xbbda9c33	-0.0066714524
169	0xbdc07518	-0.09397334
170	0x3cfbfc98	0.030760095
171	0x3d1213da	0.035663463
172	0xbd14ad37	-0.036298003
173	0x3dbb425b	0.09143516
174	0xbd9bd66f	-0.07609259
175	0x3d201032	0.039077945
176	0x3d0c4bb7	0.034251895
177	0xbc8d4efa	-0.017249573
178	0x3d9392d9	0.07205743
179	0x3cf1b879	0.029506909
180	0xbb093fe7	-0.002094263
181	0xbd88f8a4	-0.066880494
182	0xbd06efe8	-0.032943636
183	0x3da1442f	0.07874333
184	0xbd775cbc	-0.060391173
185	0x3d55f02f	0.05223101
186	0x3d668336	0.056277476
187	0x3c93b696	0.0180314
188	0xbd61a338	-0.0550873
189	0xbd5106e9	-0.05103198
190	0x3ad4ce28	0.0016235756
191	0xbce657c0	-0.028118014
192	0x3d8fad57	0.07015484
193	0xbdc645a8	-0.096812546
194	0x3d3ba5a1	0.045812253
195	0x3d593c4f	0.05303603
196	0xbd7d414a	-0.061829843
197	0xbd249536	-0.04018136
198	0x3d79cb96	0.06098517
199	0x3d727514	0.059193686
200	0x3d8833d4	0.066505104
201	0x3da96e0a	0.082729414
202	0x3db7c785	0.08973602
203	0x3cf84504	0.030306347
204	0xbdb540fd	-0.08850286
205	0x3d037be9	0.03210059
206	0xbd062534	-0.032750323
207	0x3c8333eb	0.016015967
208	0x3a22b93c	0.00062074116
209	0xbd575f39	-0.052581046
210	0x3d91a2e6	0.071111485
211	0x3d8c60ce	0.068544015
212	0x3d49002e	0.049072437
213	0x3d51e03c	0.051239237
214	0xbd0d3b1f	-0.03448021
215	0x3d74a3c8	0.059726506
216	0xbd850b2e	-0.06496273
217	0xbd504b74	-0.050853208
218	0x3d88f35f	0.06687044
219	0x3d9ecad6	0.07753532
220	0xbc831e40	-0.016005635
221	0x3d67dd91	0.056607787
222	0xbda0fbdc	-0.07860538
223	0x3da04af2	0.07826795
224	0xbdb605e2	-0.08887841
225	0xbd78667b	-0.060644608
226	0x3d8dcccb	0.06923827
227	0x3d10c5ef	0.035345014
228	0x3cebf5dc	0.028803758
229	0x3d9eedd2	0.077602044
230	0x3db39137	0.08767932
231	0xbd8f9885	-0.07011513
232	0xbd926f37	-0.07150119
233	0xbc2b331b	-0.010449196
234	0xbd758e99	-0.059950445
235	0xbda3df15	-0.08001534
236	0xbc4d4fdd	-0.012531248
237	0xbd6c6151	-0.057709996
238	0xbd6335b6	-0.055471145
239	0xbccb82a5	-0.02484257
240	0x3d929ff0	0.07159412
241	0x3d4bac6f	0.049724992
242	0xbce59ebf	-0.028029798
243	0xbd387598	-0.04503402
244	0xbd88dedc	-0.06683132
245	0x3d696894	0.0569845
246	0xbd22bd84	-0.039731517
247	0x3dc14511	0.094370015
248	0x3cec5b3a	0.028852094
249	0xbd69e821	-0.05710614
250	0xbd85473a	-0.06507726
251	0xbd980010	-0.07421887
252	0xbd553fa1	-0.052062634
253	0xbd68e7cc	-0.056861684
254	0xbd9f25f8	-0.07770914
255	0xbdb19fd3	-0.08673062

actor.6.bias f4 [9]
0	0xbd24bb7a	-0.040217854
1	0x3d26d266	0.040727995
2	0xbd364a68	-0.044504553
3	0xbd15cb51	-0.03657085
4	0xbce8e071	-0.028427335
5	0xbda8418c	-0.08215627
6	0x3c5e543d	0.013569889
7	0x3d917b9b	0.07103654
8	0xbd7a7c12	-0.06115348
