ippo_algorithm_belief_catmouse/checkpoints/ppo_critic_0env_comp_exp_2run_0_catmouse.pth (torch, 163020 bytes, 7 tensors)

critic.0.weight f4 [128, 51]
00000000: b38a e73c 5ec3 7a3d 163d 663d db2e 8d3d
00000010: d509 843d 78c9 063e 59f8 ec3d ec2a 26bd
00000020: d410 ba3d a61f 1a3d 558d bc3d c343 14be
00000030: aabd e0bd 1061 823d f740 ab3d a478 21bd
00000040: daae dc3d 4111 05be 676f 623c d6fb 0a3e
00000050: ed6e 9fbc 73ff 02be 4220 b3bc a2af 19bd
00000060: e91c d6bc 696c 20b8 8018 41bd 581f 433d
00000070: 17e8 6b3d 6d71 4abd 5b9e e33d 8491 57bb
00000080: 39ca e2bb 3fa3 cdbd cdb6 bbbd 8369 01be
00000090: 09c4 443d abc1 bfb9 4469 fdbd 99f1 8fbd
000000a0: a3ef 04be a87f 513d faa6 ddbd eba1 09be
000000b0: 6339 613c cd17 e0bd d46a 593c 28cd 47bd
000000c0: ff99 963d 0592 cebd 494f d6bd a7e6 ffbd
000000d0: 66e6 b6bd 2372 e73d 080d 12be e13a 083c
000000e0: 7510 d4bd 3c88 663b 1bca 833d fb82 83bd
000000f0: f875 ffbd 8d26 513d 0496 8fbd be4e d53d
00000100: febc efbd d320 b7bd 09f7 233d ca52 ed3d
00000110: 1d1a 093e 5dc1 9c3d de8d 9bbd 7047 24bc
00000120: 9582 ef3d 7b08 15be b353 55bd 6d20 3cbd
00000130: fde5 bebd 42eb ccbd 3b9d c63d c6d5 6cbd
00000140: 35b5 67bd ab9a 0abb 59b9 06be dda4 b7bd
00000150: 58c9 aebd ca1d ea3d 9795 5939 1281 203d
00000160: 948d c9bd 6088 ecbc 0144 f0bd 5a3b 0dbd
00000170: 2ef8 c33d 67aa b7bd c9b1 b3bd ec12 a0b9
00000180: 17ef f1bd 4bce 15be 8d79 973d b373 13be
00000190: 80eb c1bd 1481 0abe ccd3 053d 0a34 d23d
000001a0: 24a8 663d 56fc f6bd a811 1a3b 43e6 04be
000001b0: 80aa aebd e107 f33d 28e0 003e a23c 5e3d
000001c0: f6cd b43d 0f40 bb3d 67a5 863b dea2 ddbc
000001d0: 9fda 003c 0858 5dbd a3fb 063e 35dc c33d
000001e0: 5d83 133e 604a b2bc 853d 353d adc3 adbb
000001f0: 10e7 2a3d 15b0 a73d 8aec b9bd 636d 30bc
00000200: c7f8 473d 2bde 1b3e 954c 013e addc f5bd
00000210: df07 0c3e 3b79 a13c eb64 003e a74b 453d
00000220: b98b 8abc a38a 0b3e 392f 58bd 15c0 5dbd
00000230: ffc6 f43d 6917 a2bd 6ecb c3bc 7a90 be3d
00000240: afb3 c1bd 6d25 4d3d 272e 093e 4a0d 83bd
00000250: 18e1 273c db55 c1bd 1f38 913d a71c e73d
00000260: 6d68 1fbc 82fa ec3d 6ccc 123e 750a dcbd
00000270: e368 0b3d 000b 53bd 9c0a c2bc 6cd5 eb3d
00000280: b62a 0c3e ab15 6abc 002f 013c 6f09 02be
00000290: 76db 77bd 924b 6ebc cb82 7c3d 2024 a9bd
000002a0: 1f88 d03d 2fb5 cfbd 6c64 783b 7409 1c3d
000002b0: d142 133e 38ea c23c 034a 8c3c bd6c 0fbd
000002c0: f5d9 3fbc 5534 00bd ed43 1abd 4146 093d
000002d0: 4753 3ebc 1f21 87ba 3024 a33d a219 dcbd
000002e0: 1596 86bd 1262 9d3d 919c 96bd 6836 863d
000002f0: caad 083e dc87 903d b474 1dbd 55e3 073e
00000300: 1fa8 cfbd d2c0 03be 4324 b4bc 538f b5bc
00000310: 36f2 b9bd 7585 a8bd 70ed c33d b529 c4bd
00000320: e432 cfbd 0f3a 6ebb 45a5 0b3e 5839 83bd
00000330: 5e61 9d3d 7722 113c 57c3 543d 1ec5 963d
00000340: 30ef b0bd d016 b13d 9bd0 073e d3db df3d
00000350: 36c9 433d 37b4 5a3d 9fcf bbbd 99ce 74bd
00000360: 5eeb 153d 167f a53d 1f21 d9bc 215b 26bc
00000370: 455f 64bd fd5c 933d 65f5 f83d 74bb 44bc
00000380: 8c14 d4bd 7311 983d b8db 4b3d 7648 bc3d
00000390: 0bc4 c23c b101 5bbd 0718 a53c a6f2 1a3e
000003a0: 0e22 8f3d 353f 043e db2d 0ebd 8a95 173e
000003b0: 167a 69bd d9b9 c3bd 8dc3 b339 b3c6 f1bd
000003c0: 0628 96bd 6324 063e 44a0 b33d 08cd aebd
000003d0: b8b6 8ebc 6c2d 8b3a 6632 843d 270b 153e
000003e0: 2981 dfbd f225 5ebd 5379 4fbd 36b5 e9bc
000003f0: 61fa bdbd 2d79 cb3c aa34 93bc 22cc 683d
0.02826438 0.061221473 0.0562106 0.068937026 0.06447188 0.13162792 0.11570806 -0.040568277
0.09085241 0.03762784 0.092066444 -0.14478974 -0.109736755 0.063661695 0.083620004 -0.039421692
0.10775538 -0.12994863 0.013820506 0.1357263 -0.019462073 -0.12792759 -0.021865968 -0.037521012
-0.026136832 -3.8247937e-05 -0.047142506 0.047637314 0.057594385 -0.049424578 0.11114188 -0.003289313
-0.0069210795 -0.10040902 -0.09165726 -0.12637906 0.048038516 -0.00036574653 -0.123735934 -0.07028503
-0.12982039 0.051147133 -0.10822864 -0.13440673 0.013746592 -0.1094204 0.013270099 -0.048779637
0.07353591 -0.10086445 -0.10464341 -0.12495165 -0.08930664 0.11301067 -0.14262784 0.008314819
-0.103547014 0.0035176417 0.06435033 -0.06421467 -0.12473673 0.051062156 -0.07011035 0.104154095
-0.11705969 -0.089418076 0.040030513 0.115880564 0.13388868 0.076540686 -0.075954184 -0.010026798
0.116948284 -0.14554016 -0.052081775 -0.04592936 -0.093212105 -0.10005809 0.09697958 -0.057821058
-0.056569297 -0.0021149318 -0.13156642 -0.08966992 -0.08534497 0.11431463 0.00020750459 0.03918559
-0.09841457 -0.028873622 -0.11731721 -0.03448043 0.09568821 -0.089680485 -0.08774144 -0.00030531676
-0.11813181 -0.14629476 0.07396231 -0.14399604 -0.09468746 -0.13525802 0.03267269 0.10263832
0.056312695 -0.12059848 0.002350906 -0.12978463 -0.08528614 0.11866737 0.12585509 0.054257043
0.088283464 0.091430776 0.004109073 -0.0270552 0.007864623 -0.05403903 0.1318193 0.095634855
0.1440558 -0.02176398 0.044248123 -0.0053028674 0.041724265 0.08187882 -0.09078319 -0.010768267
0.048821237 0.15221469 0.1262687 -0.12004981 0.13674878 0.019711128 0.12538497 0.04816785
-0.016912328 0.13627104 -0.05277941 -0.05413826 0.11952018 -0.079146214 -0.023900714 0.093049005
-0.094581 0.05008452 0.13396512 -0.06399019 0.010246538 -0.09440204 0.070907824 0.11284762
-0.009729487 0.11571218 0.14335793 -0.10744182 0.034035575 -0.051524162 -0.0236867 0.11515316
0.13688168 -0.014287393 0.007884741 -0.12698911 -0.06051203 -0.014544385 0.06164817 -0.082588434
0.10182213 -0.1014198 0.0037901653 0.038094953 0.14380957 0.023793325 0.017125135 -0.03501581
-0.01170968 -0.031299908 -0.037662435 0.033514265 -0.011616535 -0.0010309553 0.079658866 -0.107470766
-0.065715946 0.07684721 -0.073540814 0.06553346 0.13347545 0.07057163 -0.038441375 0.13270314
-0.101394884 -0.12866524 -0.021989947 -0.022163069 -0.09079401 -0.0822858 0.09566772 -0.095782675
-0.101171285 -0.0036350524 0.13637264 -0.06407422 0.07684587 0.008858315 0.051944103 0.07361816
-0.086393714 0.08646929 0.1326317 0.109306 0.04779931 0.053394523 -0.0917046 -0.05976734
0.036601417 0.0808088 -0.026505051 -0.010153563 -0.05575492 0.071954705 0.1215618 -0.012007583
-0.103554815 0.07425203 0.049770087 0.09193508 0.023775121 -0.05346841 0.020153059 0.15131626
0.06988917 0.12914737 -0.0347117 0.14803138 -0.057001196 -0.09556932 0.00034287237 -0.11805477
-0.073318526 0.13099818 0.087708026 -0.085352 -0.017421111 0.0010618395 0.06454925 0.14555036
-0.10913307 -0.054235406 -0.050652813 -0.02852879 -0.092762716 0.024838055 -0.017969448 0.0568353

critic.0.bias f4 [128]
00000000: 904f 0bbe 3ad9 2abd ad94 b93d 84be 003d
00000010: 3f61 c73d 484b 9dbd 93a1 133d 4b13 fe3d
00000020: ec92 14be 0280 e9bd 8ddb 9fbc b1a0 1cbd
00000030: 99a9 bd3d 0515 313c 97fd 563c f73d 393d
00000040: 6710 a1bd b6cb 383d 6d1f bd3d cb2d 873d
00000050: 40a1 2dbd a2c7 06be a3b3 80bd e700 fdbd
00000060: 39b8 a83d a2eb 4cbd 0e45 933d eac9 f33d
00000070: a227 0f3e 0d07 1a3d 83dd d73d 34a8 f93d
00000080: 6a42 0ebc fcbd 50bd 7e3e d83c deb1 cbbd
00000090: 3cc4 78bd f5be 0fbe 6999 9fbd 5255 64bd
000000a0: 0c2e e6bd 1245 12be 09bb 84bd 946d f5bd
000000b0: c540 39bc 10bd 873d 322b 83bd 95f5 a3bd
000000c0: 6b60 1e3c 8b35 153d 40ee afbd a2be 5fbd
000000d0: d29e 0c3e e1ba 9c3d 56c2 dbbd 03cf bebc
000000e0: e5aa 99bd ca3c 85bd 2510 873d ebf3 763d
000000f0: 8163 b6bd 37a2 cfbd 1d61 59bd 99d0 c5bd
00000100: 5c27 65bd 70d4 083e 360a c13d acd9 ee3d
00000110: dc97 82bd 272b c13c 18d8 0abe 867e 453d
00000120: 4c6f fdbd ad5d 3ebd 1ee9 ae3d 9a10 523c
00000130: b6e8 f3bd 6c7d 86bd 4afc 80bd fdc4 c8bd
00000140: e21a 94bd fd99 913d ea3a 04be 3f5d af3d
00000150: 41bb 903d 2292 813d 2cf8 8ebc ab98 23bd
00000160: 5959 ae3d 4b18 8dbd 591a 873d 27ad c9bd
00000170: f51d adbd 2249 883d dd1e be3d 23e5 cebd
00000180: 02be c8bd c23d 4abd 1685 c43d 1d3c 993d
00000190: c1e7 2d3d 501c a93d f29b eebd 962f 873d
000001a0: fde1 62bd 64c4 a0bd e6d4 c8bd f0a2 083e
000001b0: a855 4abc bd97 fd3d 9946 d5bd d301 b53d
000001c0: f7c2 a5bd a44e 443d 4f11 a6bd 9064 92bc
000001d0: 06f1 073d 2ad7 74bd a861 e33d f725 08be
000001e0: 4019 3bbc 73b7 12be 8ca3 c53d 7951 06bd
000001f0: 631a 75bd ce46 013c 8ba8 ffbd e7bd 8c3d
-0.1360457 -0.04171107 0.09061561 0.03143169 0.09735345 -0.076803744 0.03604276 0.124060236
-0.14509171 -0.11401369 -0.01951387 -0.038239185 0.09260864 0.010808234 0.013121984 0.04522511
-0.078644566 0.04511615 0.092345096 0.06600531 -0.042390108 -0.13162091 -0.06284263 -0.12353688
0.08238263 -0.050029404 0.071909055 0.119037464 0.13979962 0.03760438 0.10540297 0.12190285
-0.0086828265 -0.050962433 0.026396986 -0.09946035 -0.06073402 -0.14037688 -0.077929325 -0.05574543
-0.112392515 -0.1428416 -0.064809866 -0.11983791 -0.011306946 0.06627858 -0.06404723 -0.080058254
0.0096665425 0.036428016 -0.085903645 -0.05462516 0.1373246 0.07652832 -0.10730426 -0.02329207
-0.07503299 -0.06505735 0.06594876 0.060291212 -0.089056976 -0.10138362 -0.05307113 -0.096589275
-0.05594574 0.13362288 0.09425776 0.11662611 -0.06376621 0.023580147 -0.13558996 0.048216365
-0.12374744 -0.046476055 0.08540557 0.012821341 -0.119096205 -0.06566891 -0.0629812 -0.098031975
-0.0723169 0.07109449 -0.12913099 0.08562707 0.07066966 0.06326701 -0.017452322 -0.039940517
0.085131355 -0.06889399 0.06596822 -0.09847479 -0.084529795 0.06654574 0.092832305 -0.10102298
-0.09801866 -0.049375303 0.09595697 0.07482169 0.042457346 0.08257353 -0.11650838 0.06600873
-0.0553913 -0.078499585 -0.09806232 0.13343406 -0.012349524 0.123824574 -0.10413856 0.088382386
-0.08093827 0.04792656 -0.0810877 -0.017870218 0.033188842 -0.05977551 0.11102611 -0.13295732
-0.011419594 -0.14327793 0.09650335 -0.032792542 -0.059839617 0.007890416 -0.12483319 0.068721585

critic.2.weight f4 [128, 128]
00000000: b919 c4bc d719 d9bc 3c0e 8a3d 40de 84bd
00000010: 254c 14bd 820d 68bd cb01 83bc 4f4c 963d
00000020: 7412 863b 9327 b5bb 2285 0a3d 6bd0 0e3d
00000030: 6b21 87bd af72 b9bd 3cfd 3e3d f3d0 893c
00000040: 5ad0 513d bb6d 50bd beef 3d3a cd15 0dbd
00000050: c773 a43d 086b 123d 8b39 bcbc 53c5 763d
00000060: 8847 c7bc de4c 913d daab 573d e120 8ebd
00000070: 11bb 723b c668 bebd 6bd2 e0bc 4838 aebb
00000080: b3d0 9f3d 558f bf3c 07ec 9cbd 4df0 96bd
00000090: f975 c0bc 02c2 8cbd ba85 3e3d 2e25 a1bd
000000a0: b13f 343d 3ec0 4fbc a22d b13d e409 56bd
000000b0: 1db1 98bd 65e7 36bd f501 ac3c c4f7 343d
000000c0: 63cb d03c d620 843d fb93 803d 4e8c 49bd
000000d0: ac35 443d f32e e4bc f111 92bb dc06 30bd
000000e0: c6e8 42bd f03c 583d ddad 173d 82ec 643d
000000f0: 8423 5c3c 8970 b93d 9cf0 94bd 2312 be3c
00000100: 37ee b63b 8144 5d3d 3b44 02bd c343 29bc
00000110: 48d8 91bd 393f d1bc f103 84bc a05b ab3c
00000120: 7728 9d3d 17f3 6d3d 3e97 4c3d 3e21 da3a
00000130: 5a13 bc3d 078c 923d e113 343d c6b8 743d
00000140: 887e 843d fd0f 2ebd 423b 52bd 389e 65bd
00000150: 4be1 5e3d cff9 0dbd cb8a 6c3d bac2 84bd
00000160: efc3 f43c 3425 8dbd 9a2b 82bd 81b6 a8bc
00000170: 5d47 253d 64a3 78bd eb28 debc cdb7 9bbd
00000180: f59d 6bb9 b5b9 b7bd 775b 2f3d a875 69bd
00000190: d464 f53c 97e1 0e3d ae71 083d 68cf 6a3d
000001a0: 1f45 98bc 4f7c 13bc e6a1 3fbb 00c0 86bb
000001b0: e1b8 50bd cb53 34bd d4bf 23bb 47d6 11bd
000001c0: fcdb b73b f092 bebc 6810 8abd 24e5 84bd
000001d0: e0ff adbc a466 1d3b 850a 563d e644 e13c
000001e0: 9ba5 833d 2c17 dcbc 43b7 6fbd 166c 8cbc
000001f0: 52a8 31bd ccc3 47bd 6420 753d e972 b13d
00000200: 7436 37bd 0009 253d eba9 9e3d e506 553d
00000210: a956 96bd c8c4 83bd af44 5abc 559b 413d
00000220: cd87 933d d250 853d 01b8 7fbd 5d85 c03b
00000230: 7d13 d4bc f9bd 4dbd 3937 823c 83d9 b13c
00000240: 4339 773d f2a9 0cbc da96 33bd 2c9d d9bb
00000250: da86 5e3d c07d 863c 2f0c 04bd c892 183d
00000260: 7a8c 383d efb4 82bd d8d2 20bd 8c1b 90bd
00000270: 7601 a53d 2a9e 183b 2417 9b3d cfff a03d
00000280: 2152 80ba 1427 88bd 2a25 dcbc 4003 033d
00000290: fa68 203d ab6d 97bc dfb5 82bd b754 bcbd
000002a0: 2e67 9e3c b716 9a3d 1137 203d 7d4d bfbd
000002b0: 51aa b43b 3e1f 85bd 5809 593d a909 23bb
000002c0: 07f4 e7bb 7425 233c b572 59bd 1e09 a7bc
000002d0: 4fc5 d83c 422f 643c 3009 89bb bd59 b2bc
000002e0: 4ee6 0b3c 6560 3a3d a15a b6bd b32e 813d
000002f0: c93f 7fbd 7abc 983d 2a81 cb3c bcc7 6dbc
00000300: 7a01 51bd 7920 59bd f1b4 2f3d 793f 2abd
00000310: 108d 85bd 107e 14bd 7e6e 933c 8d58 613d
00000320: 3e5b 8d3d 5dab 543d 2fc6 61bc 9751 45bd
00000330: 496e 46bd 6f54 203d 863b 3fbd 5496 afbd
00000340: b2e6 08bd 12c5 46bd b2f7 f5bb e444 513d
00000350: bcce 583d 036c cbbb 9830 0a3d a3d3 f8bc
00000360: 4586 5abd 8d6a d0bc c14a 85bd 0647 803d
00000370: 2fd6 acbd 1588 0f3c 0268 39bd 159c d63c
00000380: 7c8c 7d3d 45b6 6cbd 2f05 823d a15e 88bd
00000390: b8ab 943d 4c6a 6d3d 54bf 033d ed9d a3ba
000003a0: 4ada 43bd b458 f83b 9d93 493a 33be 463c
000003b0: 0300 87bd eab8 303d b886 723d bae5 e03c
000003c0: 9fb6 373d e58a 8e3d bf54 75bd 69f8 34bd
000003d0: 4efb 663d 0505 273d 35e1 f13c 0499 5b3d
000003e0: a023 883d f229 b0bd bcfe 74bd 9eb5 8dbc
000003f0: 9abb aebd b302 103d 2e0a abbd f907 f73c
-0.023938047 -0.02650158 0.06740996 -0.06487703 -0.03620543 -0.056653507 -0.015992066 0.073387735
0.0040915553 -0.0055283993 0.03381837 0.03486673 -0.06598171 -0.09055077 0.046628222 0.016823268
0.05122409 -0.050885897 0.0007245502 -0.03444462 0.08029895 0.035746604 -0.022976657 0.060246777
-0.024326101 0.070947394 0.052654125 -0.06939865 0.003703777 -0.09297328 -0.027444085 -0.005316768
0.07803478 0.023383776 -0.07662206 -0.073700525 -0.023493754 -0.068729416 0.04651425 -0.078684196
0.044006053 -0.012680111 0.08651282 -0.052255526 -0.07455657 -0.04465427 0.020997027 0.0441816
0.025487607 0.064515755 0.06278225 -0.04920607 0.047902748 -0.027854418 -0.004457705 -0.04297529
-0.04758527 0.05279249 0.037031043 0.055889614 0.013436202 0.090546675 -0.07272455 0.023202008
0.0055825966 0.05402041 -0.03180335 -0.010331097 -0.071213305 -0.025542842 -0.01611516 0.020917714
0.07673734 0.058093157 0.049948923 0.0016641987 0.091833785 0.07155614 0.04396427 0.059746526
0.064694464 -0.042495716 -0.051326044 -0.056059092 0.054414075 -0.034662064 0.05774955 -0.06482454
0.029878585 -0.068918616 -0.063559726 -0.020594837 0.04035126 -0.060702696 -0.02711912 -0.076034166
-0.0002247019 -0.08970968 0.042811837 -0.05699697 0.029955305 0.034883108 0.03331154 0.057326704
-0.018587647 -0.009001805 -0.0029240786 -0.0041122437 -0.050957564 -0.044025224 -0.0024986165 -0.03560474
0.005610941 -0.023263425 -0.067414105 -0.064890176 -0.021240175 0.0024017477 0.052256126 0.027498674
0.06428071 -0.026866518 -0.05852438 -0.017141383 -0.043373413 -0.04877071 0.059845343 0.086644955
-0.044729665 0.040291786 0.07747253 0.05200853 -0.07340748 -0.064340174 -0.0133220395 0.047267277
0.07203636 0.06509556 -0.06243134 0.005875273 -0.025888199 -0.05023 0.015895473 0.021710163
0.060357343 -0.00858544 -0.043845035 -0.006641051 0.054327823 0.016417384 -0.03223818 0.037249357
0.045055844 -0.063821666 -0.039263576 -0.07036504 0.08056919 0.0023287633 0.07572773 0.078612916
-0.0009790101 -0.066480786 -0.02687319 0.03198552 0.039162613 -0.018484911 -0.063823454 -0.091958456
0.01933631 0.07523864 0.039115015 -0.093409516 0.0055134674 -0.065000996 0.052987427 -0.0024877584
-0.007078651 0.00995766 -0.05308791 -0.02039009 0.026461272 0.013927283 -0.0041820034 -0.021771306
0.008538796 0.045502085 -0.08904005 0.06307735 -0.06231669 0.07457824 0.024841864 -0.014512952
-0.0510268 -0.053009484 0.04289717 -0.04156444 -0.06521046 -0.036253035 0.017997023 0.05501609
0.06902169 0.051921237 -0.013780161 -0.048173513 -0.04844502 0.039143022 -0.046687625 -0.08573595
-0.033423133 -0.048527785 -0.007506334 0.05109109 0.052931532 -0.0062079444 0.03373775 -0.030374354
-0.053350706 -0.025441432 -0.06508399 0.06263547 -0.0843929 0.008760472 -0.045265205 0.026197473
0.061901554 -0.057791013 0.06348645 -0.06658674 0.07259315 0.0579627 0.032164887 -0.0012482979
-0.0478156 0.0075789336 0.00076895376 0.012130308 -0.06591799 0.043145098 0.05921051 0.027453292
0.044851895 0.06960086 -0.059895273 -0.044182215 0.056392007 0.04077627 0.029526332 0.053612724
0.0664742 -0.086017504 -0.059813246 -0.017298516 -0.08531876 0.035158824 -0.08351551 0.030155169

critic.2.bias f4 [128]
00000000: a60a 5cbd a9bf 0e3b 568a a63d fbc6 f33c
00000010: 1f9d 0d3c 0097 923d c21c 8c3d 6e82 f8ba
00000020: 1840 18bd c58c b2bd a25e 9cbd 6c56 b1bc
00000030: 5aa1 8a3b 92f8 1abd 990e 113d 14d3 073b
00000040: f528 293d 11ce 87bc c2cd 87bd 1a5a 203d
00000050: 2663 a9bd 292a 8d3c b5ad b53d 18af 92bb
00000060: adb8 75bc cb56 81bd ea2e 893c e6b2 b43c
00000070: 9661 503c 6386 1c3d acbd 043d 02d6 02bd
00000080: 0820 88bd bc0a a73d a4d7 803c da4c 993d
00000090: a112 9f3d 89fa 25bc aab0 5ebd d519 06bd
000000a0: fbe2 7ebc 6380 9fbd 25e3 afbc 37f2 883d
000000b0: 7b52 81bc 382b 7c3d 4daa 73bd ee85 32bd
000000c0: 9e1a 573d 3e58 57bb 3c1d 5dbd e0c2 81bd
000000d0: f6be 903c a229 3d3d b9af 553d 5e1a 5abc
000000e0: 33a4 283d 8a53 a73d dcac 803d 75e8 a73d
000000f0: 5484 3a3d 7dc4 973c 9417 1d3d 07f2 073d
00000100: d124 4ebc 74f9 0e3d 80e4 e83a 5ab9 913d
00000110: 61ee 583b 6aba 1e3d 171d 8bbd 6789 5e3d
00000120: 90a8 84bc d8c5 11bd 54ed b2bc 1220 24bd
00000130: 5007 aa3d fe45 73bd a8db 1fbc eac2 6fbd
00000140: 7591 833d 0b94 04bd 41cb 5f3d 52b5 dfbc
00000150: ead5 fd3c 8546 d43c 810e fe3c b3b6 9b3d
00000160: 0657 7d3d 4088 ba3c 0448 8b3d 8714 99bc
00000170: dd72 a73d 4b97 c9bc 1a3d acbd 6a0a 183b
00000180: 6baf 92bd 2328 893c d600 913c 81dd 983d
00000190: 0ceb 04bd 9af3 a93d 63a0 84bc 05b2 25bd
000001a0: f1f2 be3c b9d2 053d c35b 7b3d 061d 2cbd
000001b0: 44b6 7cbd 42f4 ebbc d78f a4bc 93bc 823d
000001c0: 5b8c 8bbb 0eb1 983d e9ef 4b3d 2e76 27bc
000001d0: 7370 6a3d e8bb 6e3c 22b7 d2bb 53a5 933d
000001e0: 3ddc 0a3d 9073 9d3d e5c1 0bbd 0954 41bd
000001f0: 3b5c 9a3c b526 b1bd 4c4d 42bd aef1 c2bb
-0.053721093 0.0021781719 0.08131854 0.029757967 0.008643418 0.07157707 0.068414226 -0.001895977
-0.0371705 -0.08718256 -0.07635237 -0.021647654 0.0042306604 -0.03783471 0.035414312 0.0020725178
0.041298825 -0.016577752 -0.06631042 0.039148428 -0.08270864 0.017232018 0.088710226 -0.004476439
-0.014997643 -0.063153826 0.016746003 0.022057962 0.012718579 0.0382141 0.032407448 -0.031942375
-0.066467345 0.08156344 0.015727825 0.074853614 0.07767225 -0.010130533 -0.0543677 -0.03273948
-0.015557046 -0.0778816 -0.021470616 0.06686824 -0.0157864 0.061564654 -0.059488583 -0.043584757
0.05251562 -0.0032858993 -0.05398296 -0.063359976 0.017669182 0.046182282 0.052169535 -0.0133119505
0.041172218 0.08170231 0.0628297 0.081986345 0.045536354 0.01852631 0.038352564 0.0331898
-0.01258202 0.034905866 0.0017768294 0.07115431 0.003310107 0.038751997 -0.06792658 0.054330256
-0.016193658 -0.03558907 -0.021841682 -0.040069647 0.08302176 -0.05939292 -0.00975696 -0.058535494
0.06424228 -0.032367747 0.054637197 -0.02730814 0.030985791 0.025912533 0.031012775 0.076032065
0.06185057 0.022770047 0.06800845 -0.018686546 0.08176205 -0.024608275 -0.08410092 0.0023199567
-0.071623646 0.016742771 0.017700594 0.074641235 -0.03245072 0.082984164 -0.01618976 -0.040452976
0.023309203 0.032671664 0.061366808 -0.042019866 -0.06169726 -0.028802995 -0.02008812 0.06383624
-0.004258675 0.074556455 0.049789343 -0.010221047 0.057236146 0.0145711675 -0.0064305225 0.072092675
0.03390144 0.076880574 -0.03412046 -0.047199283 0.018842807 -0.08649961 -0.047436997 -0.0059492206

critic.4.weight f4 [128, 128]
00000000: a8bc 3cbd a23c 313b 9cee 663d 7723 bbbc
00000010: fee6 44bd 0aa1 953d 281f e1bc 44b3 c83c
00000020: 9b14 90bc 60dc 99bd c367 bcbd 49a8 7ebc
00000030: 4920 22bd 8ac2 edbb 579f 743d acb2 093d
00000040: 8686 ad3d 000a 113d 8e3d d7bb 321c aabc
00000050: 6bae 90bd c7bf e33b 85d3 4bbc 14aa d5bc
00000060: 9227 613d d5bd 03bd e694 9b3c 7de4 993c
00000070: 7c73 353d 6404 b73c 50d7 6e3d 9b3c 573d
00000080: 2c8d 8bbd 9962 b33d 29df debc 6925 89bd
00000090: 5ee0 b73c fb3a 813d 7e25 8bbd 8646 e63c
000000a0: a45b 7fbd 6099 04bd 78ff a2bd 0d39 2e3d
000000b0: 02e8 79bd d196 95bc 2787 b0bd 6794 4d3d
000000c0: 011a 74bc 020b 38bd 8f07 6b3d 5570 9abd
000000d0: 6916 8e3d 67ea 9dbd c38d c2bc 76be e73c
000000e0: 8645 81bc c56e b63d 26a3 a9bd 065c dc3c
000000f0: bae9 ab3d c600 31bd c469 103c 4744 903d
00000100: 7481 f3bc c298 8dba 667b 913d 35a4 2e3d
00000110: 369b b6bd 0198 153d 0944 643c 8f03 f83b
00000120: fda4 59bc 8984 9fbd 660c 0e3d d140 00bd
00000130: 6e3a 2ebd fc61 2d3d b248 2ebd 4efd 66bc
00000140: f246 8dbd bbd8 a7bc 5af3 373d 1ecd 043d
00000150: 1a37 9fbd 75ef 583d 6b00 8dbd 785d 0e3d
00000160: 838a 0dbd 3678 55bd 194b 653d ffe0 b33d
00000170: 77f3 ffbc c7a4 93bc 574f 50bd 25b7 883d
00000180: 6a79 9ebd d6b3 2a3d 01fc 9ebd d3e3 3e3d
00000190: 2eb2 5d3d 8fc7 b53d b01c a3bd d4be b4bd
000001a0: e363 4fbd 9eed 20bd 708c 9dba 5835 bf3d
000001b0: 3b41 5bbc 0329 3dbd 657a 403d c97d 3ebc
000001c0: 1d5a 7d3d 0938 93bb f820 febc bd00 85bd
000001d0: edf6 97bd ea5f c9bb 738d a83d 4f26 92bd
000001e0: 5a17 8ebc 11d0 07bd c278 d93c 0000 dbbc
000001f0: 2278 963d fe6c 91bd 3bcb 2bbd 2b6a cebc
00000200: f5e1 663c f56d 87bd 801b 25bd 1967 a33d
00000210: 707b 10bd dcc4 ad3d a3e9 2f3b f589 e4bc
00000220: 5f4a 843d aca1 89ba aba0 b93c a67c b5bd
00000230: 22d7 983c 313f 003d 2b7b 57bd c5f7 09bc
00000240: ef92 8e3d 02a2 80bc 31cd bbbd d221 93bc
00000250: d08e 9f3a 8f56 983d de7c 553d 404e bdbd
00000260: 1224 073d 3891 563c d722 18bc 76e9 a33d
00000270: bdfb eabc 1238 2a3d e94c 463c 81db 84bd
00000280: 89c5 0e3d 0652 f0bc e51c 72bd 7637 b6bc
00000290: ebf4 43bd 1b8f e0bc b69a 743d 8ca9 843b
000002a0: d1a7 93bc 48f2 3cbd 9817 823c 7650 683c
000002b0: 15f1 63bd 60fd 433d 9af8 5cbd d835 78bc
000002c0: 8b68 fcbc 1724 3b3d 5ca4 a9bc 905c 793d
000002d0: ba5e ab3d 2671 b3bc c838 fb3c f2d4 8fbd
000002e0: 5763 7e3d 1a04 a73d 1314 8c3c 732b 25bc
000002f0: a02c b8bc 7003 c03c c761 893d f51d 82bd
00000300: a292 983d 7f81 a03d 572b a5bc 3217 46bb
00000310: 11e5 a43d 6914 59bd f6e0 e93c 5ff3 4a3d
00000320: 95bb 0f3d 64a6 11bd e54e 49bd 9b1a 58bd
00000330: 2fb1 a83d 9a71 5a3c fa77 923c 7308 fe3c
00000340: 2943 383d c34a 32bd 728e e33b 9b19 78bd
00000350: 8fd7 47bd ebcd 153d b2e4 99bd 2698 ce3b
00000360: ebfe 7abc 71ec 85bd 270d b33c b9aa 94bc
00000370: e591 ddba de67 6bbd da06 5abd c0ff 4b3c
00000380: 55f5 9cbd 76da 033d 2259 873c 497b 063d
00000390: b264 953d 8399 6ebd 5c2e 4e3c 83a8 73bd
000003a0: 4f67 97bd c6e5 8a3d 2e19 9bbd c30d 053b
000003b0: 0561 5bbc 8f08 9bbc caa7 cfbc 410e d0bc
000003c0: 7ff8 d93b e97d e1bb 9bca 9fbd a603 3f3d
000003d0: 5be1 b03c aac9 713d 1ac0 b73d 9961 223d
000003e0: 535b 9a3d 9547 b43d f351 7bbd 99c9 50bd
000003f0: 7b47 143d 592c acbd 4408 0c3d e7e8 55bd
-0.046078354 0.0027044197 0.0563799 -0.02284406 -0.048071854 0.073061064 -0.027480677 0.024499543
-0.01758795 -0.07512736 -0.091994785 -0.015543052 -0.03958157 -0.007255857 0.05972227 0.03361766
0.08472924 0.035409927 -0.006568617 -0.020765398 -0.070645176 0.006950352 -0.012440567 -0.026082076
0.054969378 -0.03216346 0.018991899 0.01878571 0.044299588 0.02234096 0.058310807 0.052548032
-0.06814036 0.087590404 -0.02720602 -0.066965885 0.022445854 0.06310078 -0.067942604 0.0281098
-0.062343255 -0.032372832 -0.07958883 0.042534877 -0.061012276 -0.018260391 -0.08619528 0.050190356
-0.014898778 -0.044932373 0.057380255 -0.07540957 0.06937868 -0.07710724 -0.023749238 0.028289061
-0.015780222 0.08907846 -0.08283071 0.026899349 0.08394189 -0.04321363 0.008814279 0.07044273
-0.029724814 -0.0010802972 0.071036145 0.04263707 -0.08916323 0.036521915 0.0139322365 0.0075687836
-0.013283965 -0.07788951 0.034679793 -0.031311814 -0.04253619 0.042329773 -0.042549796 -0.0140984785
-0.06898297 -0.020489087 0.044909813 0.032422177 -0.07774182 0.05296274 -0.06884845 0.034757107
-0.034555923 -0.052116595 0.05597982 0.08783149 -0.031244023 -0.018022908 -0.050856914 0.06675557
-0.07738002 0.04167541 -0.0776291 0.04660399 0.054125004 0.088759534 -0.07964456 -0.0882546
-0.05063237 -0.03928911 -0.0012020003 0.093363464 -0.013382251 -0.04618169 0.046991725 -0.011626669
0.061853517 -0.004492764 -0.03102158 -0.064942814 -0.07420144 -0.006145467 0.08230104 -0.07136213
-0.01734512 -0.033157412 0.02654684 -0.026733398 0.07347132 -0.07100867 -0.041941863 -0.02519711
0.014091958 -0.066127695 -0.04030943 0.07978649 -0.03527397 0.084848136 0.002684214 -0.027897814
0.06459498 -0.0010500452 0.02265962 -0.088616654 0.01865727 0.031310264 -0.052607697 -0.008420889
0.06961619 -0.015702251 -0.091699965 -0.017960463 0.0012173299 0.07438385 0.052121036 -0.09243441
0.032993384 0.013096146 -0.00928565 0.080035135 -0.028684491 0.04155738 0.012103298 -0.064871795
0.034856353 -0.029335987 -0.059109587 -0.022243243 -0.047840994 -0.027411988 0.059717856 0.004048532
-0.018024357 -0.046129495 0.015880391 0.01417934 -0.055649836 0.04784906 -0.053948022 -0.015149556
-0.030811569 0.045688715 -0.020708255 0.06087929 0.08367677 -0.02190454 0.030666724 -0.07023038
0.062106457 0.08155079 0.017099416 -0.01008116 -0.022482216 0.02343914 0.06708103 -0.0635337
0.07449843 0.078371994 -0.020162268 -0.0030226228 0.080515034 -0.05299798 0.028549653 0.049548503
0.035091 -0.035559073 -0.049147505 -0.052759748 0.0823692 0.013332749 0.017879475 0.031009888
0.044985924 -0.04352833 0.006944471 -0.060571294 -0.048789557 0.03657333 -0.07514323 0.0063047586
-0.015319566 -0.06539238 0.021856857 -0.018147813 -0.0016904442 -0.057472102 -0.05322919 0.012451112
-0.07663981 0.032190762 0.016521994 0.032832418 0.07294597 -0.05825187 0.012584295 -0.059486877
-0.073927514 0.06782107 -0.07573162 0.0020302392 -0.0133898305 -0.01892498 -0.025348563 -0.025397422
0.0066519375 -0.0068814647 -0.07802316 0.04663434 0.021591833 0.059030212 0.08972187 0.039643858
0.0753695 0.08802716 -0.06135745 -0.05097351 0.03620098 -0.08406896 0.03418757 -0.052224066

critic.4.bias f4 [128]
00000000: 0762 083c fecd ac3d b201 40bc 1603 8b3d
00000010: 0467 91bd caec 42bd 457b d63c 06bd ad3d
00000020: dd20 23bd e084 7dbd 37ad 67bd 5f59 2dbd
00000030: c013 533b 711c 3c3b a463 f43b 5558 e73c
00000040: 3440 8e3c 8104 6cbd 28e2 96bd ce7a 3e3d
00000050: 8eed 863d cc06 0c3d 4345 873d 797e 5cbd
00000060: d676 263c 7dc0 8d3d 4ad8 fabc 222b f93c
00000070: fde7 93bd 196c 6c3d ef7c 39bd 5bc3 34bb
00000080: aa2d a6bd 254d 90bb 9592 bc3a 51e6 fd3c
00000090: 80ec 783d 622d c6bb 447b e63b 70ad ac3d
000000a0: 1840 9fbd e028 b0bd 5778 10bd 07f3 63bc
000000b0: be0b 25bd 13ee 00bd 1fe4 c53c 7ae8 c43c
000000c0: a231 d1bb 64df 4f3d 82cc 3cbd c964 483d
000000d0: f016 db3c e91d 7d3d 9c83 57bd 296c 1c3c
000000e0: 9996 87bd 7881 2ebd 33c0 453d 0ae9 703d
000000f0: 0564 babd 8d80 8f3b aaa0 1abc ee2f 4a3c
00000100: 6f71 6c3c e463 6bbc a6c3 0e3c d20d a2bd
00000110: 6985 8ebd a0b2 bd3c 7a90 c2bc e690 38bd
00000120: a64d 8abd 7ec8 41bd 685c f7bc 8aac ebbc
00000130: dd53 b3bc e1ce 663d c989 aabd 1c65 003d
00000140: 6eff 933d e9c1 3c3b 553f b33d aad7 12bd
00000150: d826 acbd 96fb a9bd 5bbd b53d 16ff 573c
00000160: b865 0ebc 5043 f73c 748a 9f3d 5e71 68bd
00000170: 5985 313d 4ab1 763d c75d abbd dd1d f03b
00000180: ae2b 983d 85ee 9dbd fbbe 9fbc 2611 5bbc
00000190: c4fd 423d 76b1 5bbd 627f 94bd 2bbd 24bd
000001a0: 94f2 933d d5e2 173d dbf1 4b3d cce9 08bd
000001b0: dd97 9ebb c137 84bd fa36 b0bd 4358 f63c
000001c0: 7e0f de3c 014a b93d f89b bbbd 5873 8bbd
000001d0: ea5b fb3c bec8 4fbd a97b d2bc 716a 433b
000001e0: e07f 74bd 9396 1bbd 8348 803d d577 933d
000001f0: 55ba b1bc fd8d 01bc f7ec 563c a9de 4d3d
0.008324153 0.084377274 -0.011719154 0.06787698 -0.07099727 -0.0475891 0.026181826 0.08483319
-0.039826263 -0.061894298 -0.056561675 -0.04232156 0.0032207817 0.0028703476 0.007458167 0.028240362
0.017364599 -0.057621483 -0.07367355 0.046503834 0.06588279 0.03418617 0.066050075 -0.05383155
0.010160169 0.0692148 -0.030620713 0.030416075 -0.07221983 0.057720277 -0.04528516 -0.0027582261
-0.081141785 -0.0044037276 0.0014386947 0.030993612 0.06077242 -0.0060478905 0.0070337374 0.08431518
-0.07775897 -0.08601546 -0.035271015 -0.013912923 -0.0402944 -0.031477045 0.024156628 0.024036635
-0.0063840905 0.05075015 -0.04609347 0.04892424 0.026744336 0.061796103 -0.052615747 0.009547272
-0.06620521 -0.04260394 0.048279 0.058815993 -0.091011085 0.004379338 -0.009437719 0.012340529
0.014431342 -0.0143670775 0.008713638 -0.07912792 -0.0695904 0.023156464 -0.023750532 -0.04506006
-0.067530915 -0.047310345 -0.03019543 -0.028768796 -0.021890575 0.05634964 -0.08327062 0.031346425
0.07226454 0.0028802103 0.08752314 -0.035850205 -0.08405846 -0.08299939 0.08874007 0.013183376
-0.008691244 0.030183464 0.0779008 -0.05674874 0.04334006 0.06022767 -0.08367496 0.0073277787
0.07430206 -0.077115096 -0.019500246 -0.013370788 0.04760529 -0.053636037 -0.07250859 -0.040219467
0.072240025 0.03708156 0.0497912 -0.03342609 -0.004839881 -0.06455947 -0.08604236 0.030071383
0.027106997 0.09047318 -0.09160608 -0.068091094 0.030683476 -0.050728552 -0.025693731 0.0029818083
-0.059692264 -0.037985396 0.062638305 0.072005905 -0.021695295 -0.007907388 0.01311802 0.050261173

critic.6.weight f4 [1, 128]
00000000: 4e77 b9bd 2b34 4cbb b77f a53b 9c95 87bd
00000010: 658f bd3d baae a73d 0b71 73bc 7043 cebc
00000020: f016 89bd cea3 8f3d 6b93 f43c f8da 68bd
00000030: b4f5 803c 6f82 07bc 8271 22bd 14aa 093d
00000040: 74d5 bb3d ff1f 7f3d 954a a6bd 1b96 d6bc
00000050: ad28 1dbd c2e7 85bd 1874 303d 878c b73d
00000060: 62cb 87bd 4bc2 883c 0df2 20bd a87b 0c3d
00000070: b125 863d e43b 883d 9ba1 7f3c 555e bbbd
00000080: 0893 14bd cef2 94bd e505 b2bc 168b 98bc
00000090: 86b8 0abd feef 82bd d937 0cbc d6bd 84bc
000000a0: 91a5 5abd 467e 103b f39a 72bd b0b9 803d
000000b0: ce9e 1c3d d228 3d3d 7cd8 8d3d 4e78 8f3d
000000c0: 5aaf 55bd 673a c0bc 9c51 203d a3b0 c6bc
000000d0: 2f72 4ebd 41e4 5a3d dd4e f83c 90c8 63bd
000000e0: 3e5f 403d 7032 8cbd ca51 efbc 47a8 28bc
000000f0: ebe6 9b3d b4cd 4f3d e78a 9f3d afe4 93bc
00000100: 7e14 9bbd ed4d 8b3d e793 3e3d 1e74 b9bc
00000110: 7438 84bd 3c45 a4bc 2932 adbc bf8d 933b
00000120: 2e8d 9cbd 39cd 043b 4e19 85bc 2c14 8abb
00000130: af58 8fbd 8d72 0ebd bdd6 643d d1b8 843d
00000140: aa27 2f3c 8ca7 1fbd 3416 83bc 5d32 a13d
00000150: 6cde 3e3d b9e5 b83d f1b2 38bc b813 82bd
00000160: e252 b23d 1526 593d e698 90b9 b56c 8b3d
00000170: 803b 4a3d da95 a6bd 78b5 223c b953 563d
00000180: 4504 7a3c 3ee2 b03d 621c ad3d 1ad1 e9ba
00000190: 5b38 cdbc a1c3 1ebc a14b a23d b2df aa3d
000001a0: 2d84 5d3a cf20 b8bd 9539 1a3d 2919 a1bd
000001b0: 68e0 5fbd d2a5 043d 0f50 f43c 4cd2 0cbd
000001c0: bcd6 543c ba1a 42bc bc2f 093d 86b0 35bc
000001d0: 94d1 4bb9 e59d 6dbd 53f6 a53c 9d10 9fbd
000001e0: 0135 253b b761 22bd d3cf 81bc 5192 9abd
000001f0: 9acf 27bd 4e6f 8fbb 2358 383d 30f6 c2bb
-0.09055959 -0.0031159024 0.005050625 -0.066203326 0.09255866 0.08187623 -0.0148584945 -0.025178641
-0.06693828 0.07013665 0.02985545 -0.05684945 0.01574216 -0.008270844 -0.03965903 0.033609465
0.09171572 0.062286373 -0.08119694 -0.026194623 -0.03836887 -0.06538345 0.043079466 0.0896235
-0.06630589 0.016694209 -0.039293338 0.034297615 0.06550158 0.06652048 0.015602495 -0.09148852
-0.036273032 -0.07272874 -0.021731326 -0.018621009 -0.03386738 -0.06393431 -0.008558237 -0.016203802
-0.053380553 0.002204792 -0.059229802 0.06285417 0.038237385 0.046181507 0.06926057 0.07005368
-0.05216918 -0.023465348 0.03914033 -0.024254149 -0.050401863 0.053440336 0.030311042 -0.055611193
0.04696583 -0.06845558 -0.029213805 -0.010294027 0.076124035 0.050733283 0.077901654 -0.01805338
-0.07572268 0.068019725 0.04652777 -0.022638377 -0.0645608 -0.020052545 -0.021142082 0.0045029814
-0.076441154 0.0020263924 -0.016247418 -0.0042138305 -0.06999337 -0.034777213 0.055868853 0.064805634
0.010690609 -0.038978145 -0.016001798 0.07870934 0.046598837 0.09028191 -0.011273132 -0.06351417
0.08707215 0.053014833 -0.00027579739 0.068078436 0.04937315 -0.08134051 0.009930961 0.052325938
0.015259807 0.08636902 0.08452679 -0.0017838806 -0.025051286 -0.009690196 0.07924581 0.08343448
0.00084501767 -0.08990633 0.03765257 -0.07866127 -0.05465737 0.0323847 0.029823331 -0.034380242
0.01299065 -0.011847192 0.03349279 -0.01108945 -0.00019437663 -0.058011908 0.020259058 -0.077668406
0.0025208595 -0.03964397 -0.015846169 -0.07547439 -0.04096947 -0.004377282 0.04500593 -0.005949758
