ippo_algorithm_belief_catmouse/checkpoints/ppo_critic_0num_agent_exp_3run_0_catmouse.pth (torch, 175832 bytes, 7 tensors)

critic.0.weight f4 [128, 76]
0	0xbd1407bc	-0.03614019
1	0x3c4ed77c	0.012624618
2	0x3d829d71	0.06377686
3	0xbe085177	-0.13312326
4	0xbdb66d8b	-0.089076124
5	0xbe0bccf9	-0.1365241
6	0xbd51ac52	-0.051189728
7	0xbb8d7261	-0.0043166135
8	0x3b57562e	0.0032857764
9	0xbe044853	-0.12918214
10	0xbd0aed83	-0.033917915
11	0xbd04c250	-0.032411873
12	0x3db2e642	0.087353244
13	0xbe072987	-0.13199435
14	0x3d927da9	0.07152874
15	0x3cf8cd45	0.030371318
16	0xbc689792	-0.014196293
17	0xbcf6bd73	-0.030119633
18	0xbde969ab	-0.11397108
19	0xbcc7da9b	-0.024396231
20	0x3b67348f	0.003527913
21	0xbd8ca3f7	-0.06867211
22	0x3db3819c	0.087649554
23	0xbdec3d68	-0.1153515
24	0x3d96e1ef	0.07367312
25	0xbd544cd7	-0.051831093
26	0x3d18eba5	0.037334103
27	0x3db388d2	0.08766331
28	0x3a5ca85e	0.00084174227
29	0x3b8e5603	0.0043437495
30	0x3bb2c15e	0.00545518
31	0xbc9a9cfa	-0.01887368
32	0xbd8a2edb	-0.06747218
33	0x3bf7f7a6	0.007567364
34	0x3c0d744d	0.008633685
35	0x3da45dfd	0.08025739
36	0xbdb87ce2	-0.090081945
37	0xbd4a075b	-0.04932342
38	0xbd98a6aa	-0.07453664
39	0xbe05e739	-0.13076486
40	0xbc9b462d	-0.01895436
41	0x3daeabb1	0.08528841
42	0x3c0a47de	0.008439986
43	0x3d1fe1a1	0.039033536
44	0xbdd319d6	-0.10307662
45	0x3d988a6e	0.07448278
46	0xbd3cce53	-0.046095204
47	0x3d4569de	0.048196666
48	0x3db8654c	0.09003696
49	0x3d22d198	0.039750665
50	0xbdb7f37e	-0.08981989
51	0x3c9060ad	0.017624224
52	0x3db2af83	0.087248825
53	0x3d29be59	0.041441295
54	0x3d3ad320	0.0456115
55	0xbdec8605	-0.11549
56	0x3c047115	0.0080836015
57	0x3c3940c8	0.011306949
58	0x3b7b1e69	0.0038317686
59	0xbdc53fc5	-0.09631304
60	0xbd446097	-0.047943678
61	0xbd70d304	-0.05879499
62	0xbda0dc34	-0.078545004
63	0xbdfac17c	-0.122439355
64	0xbd3041d6	-0.043031536
65	0xbe054fc3	-0.13018708
66	0xbcf1501a	-0.02945714
67	0xbddafe92	-0.10693087
68	0x3d0a9fd1	0.03384382
69	0x3da56bbb	0.080771886
70	0xbc4ae012	-0.012382524
71	0x3dc4651f	0.095896
72	0xbdb33766	-0.08750801
73	0xbdba7fe7	-0.09106427
74	0xbd74caf9	-0.059763882
75	0x3ca0d070	0.01963064
76	0x3c37b893	0.0112134395
77	0xbdb01947	-0.08598571
78	0x3dff1276	0.12454693
79	0x3d1885e1	0.037237052
80	0x3d3a856a	0.04553739
81	0xbd085cbd	-0.033291567
82	0x3df6e8d7	0.120561294
83	0x3e06d466	0.13166961
84	0x3c31a686	0.010842925
85	0x3bf4f8c4	0.0074759442
86	0x3da9faca	0.08299787
87	0xbd65560a	-0.055990256
88	0x3d4458a9	0.047936115
89	0x3cefa71a	0.029254485
90	0x3de5d712	0.11222662
91	0xbd8e5e46	-0.06951575
92	0xbcd098c7	-0.025463475
93	0x3c3c76fc	0.011502977
94	0x3c7e0fe8	0.015506722
95	0x3ddb7188	0.10715014
96	0x3dd8f7da	0.10594149
97	0x3e0cd213	0.13752012
98	0xbd9f6415	-0.07782761
99	0xbc4f070a	-0.012635956
100	0x3d2f2bb9	0.042766307
101	0x3cb1266d	0.021624768
102	0xbca8db53	-0.020612394
103	0x3d18615e	0.03720223
104	0x3c3c32a2	0.011486681
105	0xbc52dc33	-0.012869882
106	0x3dd43ab4	0.10362759
107	0x3da21495	0.07914082
108	0x3e05af78	0.13055217
109	0x3e0f7107	0.1400796
110	0xbd2fcffe	-0.042922966
111	0xbd7a43aa	-0.061099686
112	0x3d62aa41	0.055338148
113	0xbca1a881	-0.01973367
114	0xbd8fa522	-0.070139185
115	0x3cfa7c65	0.030576894
116	0x3e0e1c95	0.1387809
117	0x3d801d58	0.06255597
118	0xbdb6764a	-0.089092806
119	0x3d9198f1	0.071092494
120	0x3d8767ed	0.06611619
121	0xbd452756	-0.048133217
122	0xbc3c6219	-0.011497998
123	0x3ddcb1cc	0.107760996
124	0x3df57f45	0.11987165
125	0x3d8f3d94	0.06994167
126	0x3e0a3cc0	0.13499737
127	0xbda93ee0	-0.082639456
128	0xbd8726ed	-0.065992214
129	0x3d90332a	0.07041009
130	0x3e0223fc	0.1270904
131	0xbca21404	-0.019784935
132	0xbbfc2a02	-0.0076954374
133	0x3d534632	0.051580615
134	0xbdb6dbeb	-0.08928665
135	0xbd056e02	-0.032575615
136	0x3d99bd46	0.07506804
137	0xbd9e2aaa	-0.07722981
138	0x3df53dfa	0.11974712
139	0x3def6ecc	0.11691055
140	0x3daae860	0.08345103
141	0x3e0851c1	0.13312437
142	0x3d973de1	0.07384849
143	0x3dbf4c17	0.09340685
144	0x3e028613	0.12746458
145	0x3dae29be	0.085040554
146	0x3d68bc15	0.056819994
147	0x3da60939	0.08107228
148	0xbda7aa78	-0.08186811
149	0x3dc0f78d	0.094222166
150	0x3d00f439	0.03148291
151	0x3d148f47	0.036269452
152	0xbda1a2af	-0.078923576
153	0x3e0d633d	0.13807388
154	0x3d97a3e1	0.07404304
155	0x3e05639b	0.13026278
156	0xbd4e8977	-0.050424065
157	0xbcb33451	-0.021875532
158	0x3dabd826	0.083908364
159	0xbd6dcb93	-0.05805547
160	0x3e0be2f8	0.136608
161	0xbcea2810	-0.028583556
162	0x39ca50c8	0.0003858863
163	0x3e00997b	0.12558548
164	0xbd9ad332	-0.075598136
165	0x3de7b405	0.11313633
166	0x3dbed4dc	0.093179435
167	0x3a7dee8e	0.00096867315
168	0x3d8a65a1	0.067576654
169	0x3e060ffd	0.13092037
170	0xbcd453a9	-0.025918799
171	0x3d4320c7	0.04763868
172	0xbd82673f	-0.06367349
173	0x3c598b9c	0.013277914
174	0x3d30d7d0	0.043174565
175	0xbc96ba92	-0.01839951
176	0x3d99a7e4	0.07502726
177	0x3dfeae75	0.12435619
178	0xbd66163e	-0.056173556
179	0xbd518f0a	-0.051161803
180	0xbce40c4c	-0.027837895
181	0xbcfb856f	-0.030703275
182	0x3d319097	0.043350782
183	0xbca75522	-0.020426337
184	0xbdbbe556	-0.09174602
185	0x3c6952a3	0.014240894
186	0xbdb7bc50	-0.08971465
187	0x3bb260d0	0.00544367
188	0x3d937898	0.07200736
189	0xbc6b4124	-0.014358792
190	0x3d8209fa	0.06349559
191	0x3c6d629d	0.014488843
192	0x3d6f9795	0.05849417
193	0xbc388cb9	-0.01126402
194	0x3d065329	0.03279415
195	0x3d4ccddb	0.050001007
196	0x3bbae784	0.0057038683
197	0x3d68de4c	0.056852624
198	0x3ddd10a9	0.10794193
199	0xbd8fbe75	-0.07018749
200	0xbc1515d9	-0.009099447
201	0x3ce07c7c	0.027403109
202	0x3dd70fba	0.105010465
203	0x3d5a773d	0.05333637
204	0x3c0663c9	0.008202502
205	0x3dbff471	0.093727954
206	0xb9d79c9a	-0.00041124673
207	0x3d7c9919	0.061669443
208	0xbae570fa	-0.0017504983
209	0x3dd8e05e	0.1058967
210	0xbd7056dd	-0.05867659
211	0xbd7cf895	-0.061760504
212	0x3dde0718	0.10841197
213	0x3c52ca1f	0.012865572
214	0xbd217f90	-0.039428294
215	0xbdafc1cc	-0.08581886
216	0x3cdd78df	0.027035175
217	0x3cd9ed91	0.026602538
218	0x3dcf024a	0.101078585
219	0x3e07cb4b	0.13261144
220	0x3cebcbd2	0.028783713
221	0x3b1cfd92	0.002395485
222	0x3cbbbc98	0.022917077
223	0xbd5d16db	-0.053976875
224	0xbcfbbe63	-0.030730432
225	0x3df9f142	0.122042194
226	0x3d7981d5	0.060914833
227	0xbdb71ffd	-0.08941648
228	0x3d1bc643	0.038030874
229	0x3c9af86e	0.018917289
230	0x3d192e86	0.037397884
231	0xbe084f7b	-0.1331157
232	0xbdd99f6a	-0.10626109
233	0xbdf34001	-0.11877442
234	0xbd8bbcf3	-0.068231486
235	0x3d9c344c	0.07627162
236	0xbd105ceb	-0.035244863
237	0xbdec621c	-0.115421504
238	0x3d5f9ebb	0.054594737
239	0x3cd9964a	0.026560921
240	0xbd0f42d6	-0.03497585
241	0xbcacc925	-0.021092007
242	0x3d1924c4	0.037388578
243	0xbdf723fd	-0.12067411
244	0x3cab9694	0.020945825
245	0x3d8c0b7c	0.06838128
246	0x3dad93b1	0.084754355
247	0xbdc1aa40	-0.09456301
248	0xbd90bffb	-0.07067867
249	0xbde2cac2	-0.11073829
250	0x3c47dd00	0.012198687
251	0xbe092984	-0.13394743
252	0xbd7d2744	-0.061805025
253	0x3d18c093	0.037293028
254	0x3ced738a	0.028985757
255	0xbdc1449e	-0.09436916

critic.0.bias f4 [128]
0	0xbd0b3d84	-0.033994213
1	0x3b835cb6	0.0040088547
2	0x3dd76b6e	0.105185375
3	0xbd0f96da	-0.035055973
4	0xbd944469	-0.07239611
5	0x3d4d2814	0.05008705
6	0x3c7e82dd	0.01553413
7	0x3d9a0bbd	0.0752177
8	0x3dbc8f95	0.092070736
9	0x3dc5bab5	0.09654752
10	0x3c854986	0.01627041
11	0xbd61400d	-0.054992724
12	0x3dba7f04	0.091062576
13	0xbd53efb9	-0.05174229
14	0xbe16860d	-0.14699574
15	0xbd5ccdcc	-0.0539072
16	0x3dd1088e	0.1020671
17	0x3dd701ec	0.104984134
18	0xbcbc3794	-0.02297572
19	0xbdeadf3a	-0.11468358
20	0x3e0d6198	0.1380676
21	0xbdf7eafd	-0.12105367
22	0x3ce15e91	0.027510913
23	0x3d753078	0.059860677
24	0x3d2acd31	0.041699592
25	0xbd864c96	-0.06557576
26	0xbe0cb9cf	-0.13742755
27	0x3db34987	0.087542586
28	0xbddb9c8f	-0.107232206
29	0xbd83a7fe	-0.06428526
30	0xbd83d4c9	-0.0643707
31	0xbd848c36	-0.064720556
32	0x3dae8f88	0.0852347
33	0xbdd26659	-0.102734275
34	0xbd9be69d	-0.07612345
35	0xbc689822	-0.014196428
36	0xbe052af2	-0.13004664
37	0xbe18fb5e	-0.14939639
38	0x3d871cc9	0.06597287
39	0xbd8ecfa8	-0.06973201
40	0xbe118184	-0.14209563
41	0xbbf26e46	-0.0073983995
42	0xbe1769b0	-0.1478641
43	0xbc9448d4	-0.018101133
44	0x3caf9cb6	0.02143703
45	0xbe0a6fdf	-0.13519238
46	0x3a950cc8	0.0011371607
47	0xbdfbfdc8	-0.12304264
48	0xbda8cd58	-0.08242291
49	0x3dd3a0cc	0.10333404
50	0x3db36607	0.087596945
51	0xbdeccceb	-0.115625225
52	0x3cfb7da9	0.030699568
53	0xbe0cd0e8	-0.13751566
54	0x3c4b9497	0.012425563
55	0x3e0ad036	0.13555989
56	0x3daa7d67	0.083247
57	0xbdc75404	-0.097328216
58	0xbe0a3a5c	-0.13498825
59	0xbdfc8027	-0.123291306
60	0x3b8260ff	0.003978848
61	0x3dcdf08b	0.100556456
62	0x3d9deb8e	0.07710944
63	0xbe072f8c	-0.13201731
64	0xbe05d6d9	-0.13070239
65	0xbd1ab01e	-0.037765615
66	0xbdb3fd39	-0.08788533
67	0xbd869c5f	-0.06572794
68	0x3d68970c	0.056784675
69	0x3d78f325	0.060778756
70	0xbdae3b1d	-0.08507369
71	0x3d0e37e1	0.03472126
72	0x3d8a0be1	0.06740547
73	0x3ceae348	0.02867283
74	0xbda48c7f	-0.0803461
75	0xbd783a0d	-0.060602237
76	0x3d82ebe9	0.063926525
77	0x3ddf38c3	0.10899498
78	0x3c2e954f	0.010655715
79	0x3db8b45f	0.09018778
80	0x3cc9dff8	0.02464293
81	0x3d0c1f81	0.034209732
82	0x3d965efb	0.07342335
83	0x3df0fd62	0.11767079
84	0xbe06fda5	-0.13182695
85	0xbd01d395	-0.03169592
86	0xbe02ca05	-0.12772377
87	0x3d144ba3	0.036204945
88	0x3ddc1735	0.10746614
89	0xbd3f078b	-0.046638053
90	0x3d212433	0.039341163
91	0xbd2f2342	-0.042758234
92	0xbd9e76d0	-0.077375054
93	0x3d85805d	0.06518624
94	0xbd2eab7e	-0.042644016
95	0xbb4fc5fd	-0.0031703704
96	0x3d35fdc4	0.044431463
97	0xbc51924c	-0.012791228
98	0xbdbef02c	-0.09323153
99	0xbdb9516c	-0.09048733
100	0x3d28c750	0.041205704
101	0x3df23eb4	0.11828366
102	0x3df47def	0.119380824
103	0x3c502eab	0.012706439
104	0x3d911b2a	0.07085259
105	0x3d90b320	0.070654154
106	0x3d88073b	0.06642004
107	0x3d8941aa	0.067019776
108	0xbe188cfe	-0.14897534
109	0x3d42df30	0.04757613
110	0x3cac1c30	0.021009535
111	0xbd5a6d24	-0.05332674
112	0x3cf00343	0.02929843
113	0xbd46e813	-0.048561167
114	0xbcaf5e20	-0.021407187
115	0x3be5370c	0.0069950875
116	0x3e0043bb	0.12525837
117	0xbe133cf1	-0.14378716
118	0xbd42c1c5	-0.047548074
119	0x3d56ea89	0.052469764
120	0x3cef56dd	0.029216224
121	0xbda468cb	-0.080278
122	0xbdcfa654	-0.101391464
123	0xbcb12caf	-0.021627752
124	0x3dbd0696	0.09229772
125	0x3d9c2f2a	0.07626183
126	0x3d9c8018	0.076416194
127	0x3deb91da	0.11502428

critic.2.weight f4 [128, 128]
0	0xbd37a0ac	-0.044830963
1	0x3bcf158d	0.0063197077
2	0xbcc788bc	-0.024357192
3	0x3dabc138	0.08386463
4	0x3d8042cd	0.06262741
5	0x3daf63ec	0.085639805
6	0x3d76db68	0.060267836
7	0xbd3114f4	-0.043232873
8	0x3c85848c	0.016298555
9	0x3ca59c10	0.020216018
10	0xbbbbe652	-0.0057342434
11	0x3ce4d7c0	0.027934909
12	0xbda24291	-0.07922853
13	0xbca34a4f	-0.019932894
14	0xbc12e94f	-0.008966758
15	0x3d2e6dd4	0.04258521
16	0x3c208feb	0.009799938
17	0xbcd2bd9d	-0.02572518
18	0x3c882461	0.01661891
19	0x3cb0d314	0.021585025
20	0xbddd4fea	-0.10806258
21	0x3dcbc004	0.099487334
22	0x3c1320d4	0.008979995
23	0x3dbb2359	0.091376014
24	0x3d85a6a8	0.06525928
25	0x3d32473b	0.043524962
26	0xbc69ba0e	-0.01426555
27	0xbbc1773a	-0.0059041055
28	0xbd67640c	-0.056491897
29	0xbcab1c9e	-0.02088767
30	0xbc996b4a	-0.018727917
31	0xbcc323c7	-0.02382077
32	0xbdb0daab	-0.086354576
33	0x3dca6238	0.09882015
34	0xbca4bf1f	-0.020110665
35	0x3d57ffab	0.05273406
36	0xbd17ed01	-0.03709126
37	0x3ded41bb	0.11584803
38	0xbd884b3f	-0.06654977
39	0x3d1c990b	0.03823189
40	0x3d90d382	0.07071592
41	0x3d99b296	0.07504766
42	0x3d0d32e7	0.034472372
43	0x3d3d2521	0.046177987
44	0xbd4d3190	-0.050096095
45	0x3d5c08c7	0.05371931
46	0x3d90ef0c	0.070768446
47	0x3b8d4252	0.0043108845
48	0x3d738f57	0.05946287
49	0xbdb27d8c	-0.087153524
50	0xbdea6549	-0.114451
51	0x3ba0095e	0.004883929
52	0x3cb736d4	0.022365011
53	0xbd54cb77	-0.05195185
54	0xbda3447d	-0.079720475
55	0x3cee48c1	0.029087426
56	0xbc8d84d0	-0.017275244
57	0x3da9b2aa	0.082860306
58	0xbd0dd1c2	-0.03462387
59	0x3ce3373e	0.027736302
60	0xbc15edb0	-0.009150907
61	0xbd2b6c84	-0.041851535
62	0x3dd1ae83	0.102383636
63	0x3bccf8e4	0.006255256
64	0x3d3fa239	0.046785567
65	0x3d0cea56	0.034403168
66	0x3d133b96	0.035945497
67	0xbdb0e698	-0.08637732
68	0x3d5b481f	0.053535577
69	0xbd82b741	-0.06382609
70	0x3c2c05ae	0.010499401
71	0x3d148351	0.036258046
72	0xbdc33789	-0.09532077
73	0xbc7529cf	-0.014963581
74	0x3d400a65	0.046884913
75	0x3d9c18c0	0.07621908
76	0xbd56f46e	-0.0524792
77	0x3c407967	0.011747695
78	0xbdb5cb3e	-0.08876656
79	0x3b851d05	0.0040622973
80	0x3d32d85b	0.043663364
81	0x3d68fe50	0.056883156
82	0xbc1f8ffd	-0.009738919
83	0xbdd0f2d3	-0.10202565
84	0x3c9fc753	0.019504225
85	0x3d17690d	0.03696542
86	0x3d84fd50	0.06493628
87	0x3d04aa8a	0.0323892
88	0x3bce23ba	0.00629088
89	0x3d2603af	0.040530857
90	0xbde37b59	-0.11107511
91	0x3a12b4fd	0.00055964274
92	0x3da79a7d	0.08183763
93	0x3c020378	0.007935397
94	0x3b94fb0b	0.004546528
95	0x3d3a67f9	0.045509312
96	0xbdb092c2	-0.08621742
97	0xbd07aa69	-0.0331215
98	0xbb5f44f2	-0.0034068194
99	0xbd2f394a	-0.042779244
100	0xbd114242	-0.03546358
101	0x3d14a125	0.036286492
102	0x3cc32351	0.023820551
103	0x3c8281f8	0.015931115
104	0xbde004fd	-0.109384514
105	0xbd68299a	-0.0566803
106	0xbdecf94b	-0.11570986
107	0x3ce18937	0.02753125
108	0x3deae51c	0.114694804
109	0xbd7f3399	-0.062305067
110	0x3d66fc2b	0.05639283
111	0xbd7d1479	-0.061787102
112	0x3c4c1108	0.012455232
113	0x3c86ea93	0.016469276
114	0x3d59ffb2	0.053222366
115	0x3c4154b5	0.011799981
116	0xbdb79c20	-0.08965325
117	0x3cecc2dd	0.028901512
118	0x3c6a9c13	0.014319438
119	0x3daa0e6f	0.08303534
120	0xbd478728	-0.04871288
121	0xbd15b972	-0.036553808
122	0x3d2a1b33	0.041529845
123	0x3deac829	0.11463959
124	0xbd07cee5	-0.033156294
125	0xbda75aed	-0.081716396
126	0xbd2e97d7	-0.042625275
127	0x3d1d7802	0.038444526
128	0x3dcff441	0.101540096
129	0x3d797f8a	0.060912646
130	0xbde37e32	-0.11108054
131	0x3dd17dc9	0.1022907
132	0x3d20b191	0.03923184
133	0x3dc59967	0.096484
134	0x3d26aea0	0.04069388
135	0x3ceb5359	0.028726267
136	0xbdcc88bb	-0.09987017
137	0xbce2e34e	-0.027696278
138	0xbdd3a93b	-0.103350125
139	0x3d83a4fe	0.06427954
140	0xbd5f4d37	-0.054516997
141	0x3d215b86	0.039393924
142	0x3cdaa06b	0.026687821
143	0x3c981084	0.018562563
144	0xbdc5dbb9	-0.096610494
145	0xbde38a44	-0.111103565
146	0xbd26c899	-0.04071865
147	0x3d047911	0.03234202
148	0x3d3ec7db	0.046577316
149	0x3dbd9089	0.092560835
150	0xbb7ed6f7	-0.0038885453
151	0xbd80f8a7	-0.06297427
152	0x3c6227be	0.013803421
153	0xbd0d28f5	-0.034462888
154	0xbc807205	-0.015679369
155	0x3ae64c09	0.0017570268
156	0x3dac67fc	0.08418271
157	0xbb908af4	-0.0044110958
158	0xbc56faf3	-0.013121354
159	0x3d100277	0.0351586
160	0xbd164707	-0.03668883
161	0x3ce9dc7a	0.028547514
162	0x3dc5a3fd	0.09650419
163	0xbcb65c48	-0.0222608
164	0x3d070056	0.032959305
165	0x3d9df3d3	0.077125214
166	0x3ca30228	0.01989849
167	0xbd59b0bb	-0.05314706
168	0x3d936394	0.071967274
169	0x3db8fcec	0.09032616
170	0xbbd9daa0	-0.0066483766
171	0xbd6b207a	-0.05740402
172	0x3d7460ed	0.059662748
173	0x3de7e8f5	0.1132373
174	0x3b32d3f5	0.002728698
175	0x3ddf7240	0.10910463
176	0x3dde2683	0.10847189
177	0xbba1a087	-0.0049324664
178	0xbab75328	-0.0013986574
179	0x3dccb2fd	0.09995077
180	0x3dac421a	0.08411045
181	0xbd6e4917	-0.058175173
182	0xbde3089a	-0.11085625
183	0xbd9b2c6e	-0.07576834
184	0xbc35e456	-0.011101803
185	0xbd15a7cf	-0.036536988
186	0x3dc98a61	0.09840847
187	0xbd1795c6	-0.03700807
188	0x3cece017	0.028915448
189	0x3c162c95	0.009165903
190	0x3cea6ccb	0.02861633
191	0xb9c12cea	-0.00036845292
192	0x3d549b04	0.051905647
193	0xbd0f7ccc	-0.035031125
194	0xbc8364a5	-0.016039202
195	0x3d3153d0	0.04329282
196	0xbd309f31	-0.043120567
197	0xbd15b1d7	-0.036546554
198	0xbd3d49d8	-0.046213
199	0xbd92ab2e	-0.07161556
200	0xbd45a2b8	-0.048250884
201	0x3da1e526	0.07905035
202	0xbcbd6102	-0.023117546
203	0xbd58a9df	-0.052896377
204	0xbd3752a0	-0.04475653
205	0x3d047a13	0.03234298
206	0xbcaaa804	-0.02083207
207	0xbda0ca94	-0.07851139
208	0x3c7b6a74	0.015345205
209	0xbb896aee	-0.004193655
210	0x3da18a25	0.07887677
211	0xbd598067	-0.05310097
212	0xbcb2718a	-0.021782655
213	0xbca2d3ce	-0.019876387
214	0x3d97a592	0.07404627
215	0xbb8f29e7	-0.004369009
216	0x3ba00b7d	0.004884182
217	0x3d51606d	0.05111735
218	0xbc926f08	-0.01787521
219	0x3d70ddb1	0.05880517
220	0xbb583449	-0.0032990149
221	0x3cd3a036	0.02583323
222	0xbbd4bc93	-0.0064922064
223	0x3d51d085	0.05122425
224	0x3d32775f	0.043570872
225	0x37b1d013	2.1196936e-05
226	0xbcc84184	-0.024445303
227	0x3d966524	0.0734351
228	0xbd962290	-0.07330811
229	0xbde38b22	-0.11110522
230	0x3d7b25bb	0.06131528
231	0xbdcc309a	-0.099702075
232	0xbdc42f97	-0.095793895
233	0xbd667afb	-0.056269627
234	0xbdd2be2a	-0.10290177
235	0xbdac16ec	-0.084028095
236	0x3d2b0ac0	0.0417583
237	0xbdb1eb15	-0.086874165
238	0x3d12dfea	0.035858072
239	0xbd5d12b7	-0.053972926
240	0xbdb0f5f8	-0.08640665
241	0xbd4fe111	-0.05075175
242	0xbdc5f95a	-0.09666701
243	0xbd172acc	-0.03690605
244	0xbc1f6d06	-0.009730583
245	0x3d634c04	0.055492416
246	0x3dd35fe4	0.10321024
247	0xbcd29f9b	-0.025710871
248	0x3dbb717a	0.09152503
249	0xbbee3380	-0.007269323
250	0x3dbe1ad9	0.092824645
251	0x3d8bf12c	0.06833109
252	0xbd366347	-0.044528272
253	0xbcdc509d	-0.026893908
254	0x3d09f4f0	0.033680856
255	0x3d3ee28a	0.046602763

critic.2.bias f4 [128]
0	0xbd9a7015	-0.07540909
1	0x3d61c52e	0.055119686
2	0xbd7fca5b	-0.06244884
3	0x3d740666	0.059576415
4	0xbc90ba16	-0.017666858
5	0xbcd4c38a	-0.025972147
6	0x3d2e1415	0.04249962
7	0x3cfd14aa	0.030893642
8	0x3dc8828c	0.09790525
9	0x3d36ace9	0.044598494
10	0xbdd00747	-0.10157638
11	0xbddab891	-0.106797345
12	0x3dc8bd85	0.09801773
13	0xbcd5257c	-0.02601885
14	0x3d9ba300	0.07599449
15	0xbdda13a3	-0.10648277
16	0xba02343f	-0.0004966892
17	0x3db82759	0.0899188
18	0xbd89df1c	-0.06732008
19	0xbdb723e7	-0.08942395
20	0xbd25f1e4	-0.040513888
21	0xbdb29877	-0.087204866
22	0xbd0b80f5	-0.03405853
23	0xbd4404c7	-0.04785612
24	0x3d8e0557	0.06934612
25	0x3d25a293	0.040438246
26	0x3d0512b7	0.03248855
27	0xbd944b8c	-0.07240972
28	0xbdae1737	-0.08500522
29	0x3d9e25ea	0.07722075
30	0xbd04fe2d	-0.032468963
31	0xbd506be5	-0.050884146
32	0x3c0cbde1	0.0085901925
33	0xbd944ea8	-0.07241565
34	0xbc9c9177	-0.019112332
35	0x3d927b03	0.07152369
36	0xbd84e526	-0.06489019
37	0xbdd4dd1a	-0.10393734
38	0x3dbddbae	0.09270416
39	0x3cc1e127	0.023666931
40	0x3d87fd93	0.06640162
41	0xbc6dcb6f	-0.014513834
42	0xbd50bf49	-0.050963674
43	0xbd9603b9	-0.07324929
44	0x3dd38ccc	0.10329589
45	0xbdd6af1b	-0.104826175
46	0xbcd25f02	-0.025680069
47	0xbd2b6a01	-0.04184914
48	0xbdb06594	-0.086131245
49	0xbcc12364	-0.023576446
50	0xbcc0a56e	-0.023516383
51	0xbc4a9afe	-0.012366055
52	0x3dd0cae4	0.10194948
53	0xbda7c579	-0.08191962
54	0x3d84c108	0.0648213
55	0x3d4540dd	0.04815756
56	0x3dbae98f	0.09126579
57	0x3dc6b931	0.09703291
58	0xbdaf8812	-0.08570875
59	0x3dde5f77	0.10858052
60	0xbdb6bb4f	-0.08922445
61	0x3cbc7c6c	0.023008548
62	0xbd9b20a0	-0.07574582
63	0x3d57f091	0.052719656
64	0xbc3371cb	-0.010952423
65	0x3d8e09b8	0.069354475
66	0xbbd4ea5e	-0.0064976653
67	0x3c93db13	0.018048799
68	0x3d323baa	0.04351393
69	0x3dca5d4e	0.09881078
70	0xbda63196	-0.081149265
71	0xbd979b25	-0.07402638
72	0xbd95828d	-0.07300291
73	0xbd8c36f2	-0.068464175
74	0x3db17c9a	0.08666344
75	0xbdd9588b	-0.10612591
76	0xbd0b8ee2	-0.03407181
77	0xbde1d355	-0.110266365
78	0x3d63c6d7	0.05560955
79	0xbcaff8fc	-0.02148103
80	0x3daeee27	0.08541518
81	0xbc2e9c67	-0.010657406
82	0xbcf4df3e	-0.029891606
83	0xbc8252b0	-0.01590857
84	0xbdbae957	-0.09126537
85	0xbdabd93b	-0.08391043
86	0x3da5627c	0.08075425
87	0x3d9a9b64	0.0754917
88	0xbdcab358	-0.09897488
89	0x3ddc7ab1	0.10765589
90	0xbccbc516	-0.024874251
91	0x3d2cfbca	0.042232312
92	0x3d0d543f	0.03450417
93	0x3c1630c9	0.009166905
94	0xbccc7feb	-0.02496334
95	0x3d024374	0.03180261
96	0xbc6d47fd	-0.014482495
97	0x3d909c0f	0.07061016
98	0x3cd4fcfc	0.025999539
99	0xbd3825ce	-0.04495793
100	0xbd9df895	-0.07713429
101	0xbdaa3b23	-0.08312061
102	0xbc675bfc	-0.014121052
103	0x3da94abf	0.0826621
104	0xbdad7360	-0.08469272
105	0xbd474ed3	-0.048659157
106	0x3db853e6	0.09000377
107	0xbc1bb399	-0.009503269
108	0x391db93f	0.00015041696
109	0x3da9d5fc	0.082927674
110	0xbdc075d8	-0.09397477
111	0xbdeb366b	-0.11484989
112	0xbddab566	-0.1067913
113	0xbcc8d0b9	-0.02451359
114	0x3d755201	0.05989266
115	0x3d680f72	0.056655355
116	0x3bae29d2	0.005315044
117	0x3da4d160	0.080477476
118	0x3d93126f	0.0718125
119	0x3c754adb	0.01497146
120	0xbd8e3c60	-0.06945109
121	0xbdd65093	-0.10464587
122	0x3cca2957	0.024677915
123	0xbb93fabd	-0.0045159743
124	0x3db1c3ac	0.086798996
125	0xbd0cf217	-0.034410562
126	0xbd9cba54	-0.07652727
127	0xbd9c826e	-0.07642065

critic.4.weight f4 [128, 128]
0	0x3d189162	0.037248023
1	0x3d7016e9	0.0586156
2	0xbcedb3e1	-0.029016437
3	0x3d93754a	0.072001055
4	0xbdae798f	-0.08519279
5	0x3cdb165c	0.02674406
6	0xbd9e2df9	-0.07723612
7	0xbd51bead	-0.051207233
8	0xbcbe05d0	-0.023196131
9	0x3db773fe	0.08957671
10	0x3c34ceea	0.01103566
11	0xbddcbe15	-0.10778443
12	0xbd0aecc1	-0.033917192
13	0xbd481caa	-0.04885546
14	0x3d92aac6	0.07161479
15	0xbd84f3ce	-0.064918146
16	0xbcc0a0ff	-0.023514269
17	0x3c6afdb3	0.014342713
18	0x3d51ca42	0.05121828
19	0xbd3bb805	-0.04582979
20	0xbd7141d7	-0.05890068
21	0xbdba7f30	-0.0910629
22	0x3ca9f783	0.020747906
23	0xbcac888d	-0.021061206
24	0x3dcae33d	0.099066235
25	0xbd6b77ff	-0.057487484
26	0x3d810630	0.06300008
27	0x3d80d895	0.0629131
28	0x3d05906e	0.032608442
29	0x3d1bf94f	0.038079556
30	0x3c3c4b23	0.011492523
31	0x3d1724ee	0.036900453
32	0x3d0f62ec	0.03500645
33	0x3c55a616	0.013040086
34	0x3cbfd427	0.023416592
35	0x3dded120	0.10879731
36	0xbda62513	-0.0811254
37	0xbd195c24	-0.037441388
38	0x3ac76b8d	0.0015214548
39	0x3c66eaa2	0.014094027
40	0x3d23ad26	0.03996005
41	0xbd9bf79b	-0.07615586
42	0x3d61e694	0.055151537
43	0xbda99979	-0.08281226
44	0x3c94850e	0.018129852
45	0x3d171681	0.036886696
46	0xbd4a3ca3	-0.049374234
47	0x3d4d1baf	0.05007523
48	0xbddfe537	-0.10932391
49	0x3d97b233	0.07407036
50	0x3d31c709	0.043402705
51	0x3c26d4f0	0.010182604
52	0x3cd4d936	0.02598248
53	0x3a8d2fdb	0.0010771708
54	0x3db3eebf	0.087857716
55	0x3cbb24b1	0.022844644
56	0x3de1b404	0.110206634
57	0xbbfb1732	-0.007662677
58	0xbd516c33	-0.051128577
59	0x3d53d0bb	0.051712733
60	0xbda63c50	-0.081169724
61	0x3dade787	0.08491426
62	0x3d385ad2	0.045008488
63	0xbd267e73	-0.040647935
64	0x3dde05af	0.10840928
65	0xbd62db94	-0.055385187
66	0xbda711d2	-0.08157696
67	0xbd2994ae	-0.041401558
68	0x3d673687	0.056448486
69	0xbaeeaf73	-0.0018210247
70	0xbda2c9ab	-0.07948621
71	0x3c9ac94a	0.01889481
72	0xbd945818	-0.07243365
73	0x3cdf0232	0.027222726
74	0x3db0f7cf	0.08641016
75	0xbd5bd005	-0.05366518
76	0xbd9e1b6e	-0.077200755
77	0xbd79eea0	-0.061018586
78	0x3cc83a1c	0.024441771
79	0xbdc7a49f	-0.09748196
80	0x3d9ee82d	0.07759128
81	0xbde799bb	-0.11308619
82	0x3c38b571	0.011273728
83	0x3dd85698	0.105633914
84	0x3bd34ec5	0.006448599
85	0x3d406eb5	0.04698058
86	0x3de3b195	0.111178555
87	0x3baa3e5f	0.0051954235
88	0xbd39d2ea	-0.04536716
89	0x3d3ad821	0.045616273
90	0x3d41f65c	0.047354087
91	0x3d1fd53f	0.039021727
92	0x3bb51db6	0.0055272235
93	0xbc4eefa5	-0.012630378
94	0x3caba40c	0.020952247
95	0x3db4c7eb	0.08827194
96	0xbdd362f6	-0.1032161
97	0xbd023f7c	-0.031798825
98	0x3ba791f9	0.005113837
99	0x3d70a98c	0.058755443
100	0xbd94751b	-0.072488986
101	0xbd918bc4	-0.07106736
102	0x3d6ec557	0.058293667
103	0x3d3d091a	0.046151258
104	0xbd1f6652	-0.03891594
105	0xbbb1a09c	-0.0054207575
106	0xbc186b28	-0.009302892
107	0xbddcd0b4	-0.107819945
108	0xbce35b04	-0.02775336
109	0x3dac9a21	0.08427835
110	0xbc32c23a	-0.010910565
111	0x3d6d595f	0.05794656
112	0xbd8ae0de	-0.06781171
113	0xbde08609	-0.10963065
114	0x3dd0a6ce	0.101880655
115	0xbcfe0f1d	-0.031013066
116	0xbde67069	-0.11251909
117	0xbd5c6059	-0.05380282
118	0x3c7bdf63	0.015373084
119	0x3d77ca8a	0.06049589
120	0xbcb3aa24	-0.021931715
121	0xbc7a9474	-0.015294183
122	0x3db201fe	0.08691786
123	0x3cbf0f32	0.023322675
124	0x3da72e36	0.08163111
125	0x3c98a2cb	0.018632313
126	0xbcdfa558	-0.027300522
127	0xbc8ca373	-0.017167782
128	0xbd0076ef	-0.031363424
129	0xbdfbdb94	-0.122977406
130	0x3d16672f	0.036719497
131	0xbd572c1d	-0.052532304
132	0xbc41bd9c	-0.011824992
133	0x3c9bf371	0.01903698
134	0x3cedbcbe	0.029020663
135	0xbdb182fc	-0.086675614
136	0x3d92e8e6	0.07173328
137	0x3dd88d2b	0.10573801
138	0x3ce82668	0.028338626
139	0xbdb9fffd	-0.09082029
140	0x3d698335	0.057009894
141	0xbc8d2690	-0.017230302
142	0x3c8d3c6f	0.017240731
143	0xbccd97e7	-0.025096847
144	0xbd2c2883	-0.042030822
145	0x3d9ea982	0.07747175
146	0xbd540655	-0.05176385
147	0x3cc20fa3	0.023689097
148	0x3cf29285	0.029610882
149	0x3d1483d0	0.03625852
150	0x3dd34548	0.10315949
151	0xbc50df01	-0.012748481
152	0x3de298b7	0.11064284
153	0xbc95f706	-0.018306267
154	0x3d4b6c15	0.049663622
155	0x3cbb3268	0.022851184
156	0xbdf496b8	-0.1194281
157	0x3d964153	0.07336678
158	0x3d3b58b5	0.045738894
159	0x3cbc11cd	0.022957707
160	0x3d436c8e	0.047710948
161	0xbd5ec109	-0.05438331
162	0x3ce6537c	0.02811598
163	0x3ded7f13	0.11596503
164	0x3d552b91	0.0520435
165	0x3c660134	0.014038373
166	0x3d99dec1	0.0751319
167	0x3db4c717	0.08827036
168	0x3c819c46	0.015821587
169	0x3cf67bd7	0.030088348
170	0x3beb1d8c	0.007175153
171	0xbd747454	-0.05968125
172	0x3c248afa	0.0100429
173	0xbde9e2e1	-0.11420227
174	0x3bc9ffdd	0.0061645345
175	0xbb25133e	-0.0025188471
176	0xbd96589e	-0.07341121
177	0x3d81b46d	0.063332416
178	0xbc9b4077	-0.018951638
179	0x3d868cd4	0.065698296
180	0x3da500a3	0.08056762
181	0x3d384a8c	0.04499297
182	0x3db5d08b	0.08877667
183	0x3ceca105	0.028885374
184	0x3d93f101	0.07223702
185	0xbb501a41	-0.003175393
186	0xbdb36e7e	-0.08761309
187	0x3d4e7e73	0.05041356
188	0xbdae5cf6	-0.08513825
189	0xbaa3e36d	-0.0012503691
190	0x3d40a8b0	0.047035873
191	0xbdded4c8	-0.108804286
192	0x3d90c37f	0.07068538
193	0x3c681553	0.01416524
194	0xbc964e3c	-0.018347852
195	0xbd10f118	-0.035386175
196	0x3ba9e774	0.005185062
197	0x3e002452	0.12513855
198	0xbd48a99d	-0.04898988
199	0x3cbf14f0	0.023325413
200	0x3d395178	0.04524371
201	0x3c0208d8	0.007936679
202	0x3da8f6cf	0.082502
203	0xbd007bab	-0.03136794
204	0x3cc54dda	0.024084974
205	0xbd5c3dcf	-0.053769883
206	0x3cd86d43	0.026419288
207	0xbdecc686	-0.11561303
208	0x3dbe79d9	0.09300584
209	0x3cc017ad	0.02344879
210	0xbd0f1712	-0.03493411
211	0x3c16b917	0.009199402
212	0x3d0cadd2	0.034345455
213	0x3d48d1cc	0.049028203
214	0xbd0617c1	-0.032737497
215	0xbc9f4344	-0.019441254
216	0x3a41a7f6	0.0007387394
217	0x3db89c08	0.090141356
218	0xbdf58da1	-0.11989904
219	0x3d6b71c1	0.05748153
220	0xbda216cb	-0.07914504
221	0xbd3b75a8	-0.045766503
222	0xbd20334c	-0.03911142
223	0x3d7fc006	0.062438987
224	0xbae14ee6	-0.0017189651
225	0x3d9c7e7e	0.07641314
226	0x3bbda5f4	0.0057876054
227	0xbdd39534	-0.103311926
228	0xbd32903d	-0.043594588
229	0xbd566c76	-0.05234953
230	0xbd9d7bf2	-0.07689656
231	0x3de8e274	0.113713175
232	0x3d08ff15	0.03344639
233	0xbd7985d0	-0.06091863
234	0x3df9cc27	0.12197142
235	0x3b36b180	0.0027876794
236	0x3db5c918	0.08876246
237	0xbd004fa6	-0.03132596
238	0xbdeabf10	-0.114622235
239	0xbdb26b42	-0.08711864
240	0x3d24cdee	0.040235452
241	0xbcd45ae7	-0.025922252
242	0xba3fb6c7	-0.0007313308
243	0x3d024522	0.03180421
244	0x3d1e98b1	0.038719837
245	0x3c7bbdd7	0.015365086
246	0x3d57320d	0.052537967
247	0xbd67f912	-0.056634016
248	0xbce1c854	-0.027561344
249	0xbda082e0	-0.078374624
250	0x3ca453e8	0.02005954
251	0xbd08ff43	-0.03344656
252	0x3ca7a61a	0.020464946
253	0xbd5f5fce	-0.054534726
254	0xbdeeb93e	-0.11656426
255	0xbcc7b3b3	-0.02437768

critic.4.bias f4 [128]
0	0x3dbc58c7	0.091966204
1	0x3da7d950	0.08195746
2	0x3b3ed4d7	0.0029118562
3	0xbd9d32bf	-0.07675695
4	0xbdda17ce	-0.10649072
5	0xbd55ce4e	-0.0521987
6	0x3d907706	0.07053952
7	0xbd84d678	-0.06486219
8	0xbd658300	-0.056033134
9	0x399c0b73	0.0002976317
10	0xbd38736e	-0.045031957
11	0x3c4ef871	0.012632475
12	0xbd7ed674	-0.062216237
13	0xbd83181d	-0.064010836
14	0xbd865ab0	-0.06560266
15	0xbc387d07	-0.011260278
16	0xbbc15a86	-0.005900684
17	0xbd28c3ea	-0.041202463
18	0x3d8bac25	0.06819943
19	0x3d94ac93	0.072594784
20	0xbd1b47d0	-0.037910283
21	0xbdb5c9ea	-0.08876403
22	0xbca155a5	-0.019694159
23	0xba30ee00	-0.0006749332
24	0x3d43e1e5	0.04782285
25	0xbc664bb5	-0.014056136
26	0xbd5bf489	-0.053700004
27	0x3b967f44	0.004592808
28	0x3d8d1628	0.068889916
29	0x3cfe2571	0.031023713
30	0x3d9c2467	0.07624131
31	0xbd1b57cd	-0.03792553
32	0xbc14075e	-0.00903496
33	0xbc7027e5	-0.014657949
34	0xbc671abb	-0.014105494
35	0x3d550ae6	0.052012347
36	0x3cd6c134	0.026215173
37	0xbc60a7d1	-0.013711886
38	0x3d834f3b	0.064115964
39	0xbd56caa3	-0.052439343
40	0xbd4f581c	-0.050621137
41	0x3d4f4f48	0.050612718
42	0xbd70293b	-0.05863307
43	0x3d73218b	0.05935816
44	0xbcad821d	-0.021180207
45	0x3d8e27cd	0.06941185
46	0x3d57dc98	0.05270061
47	0x3d955b52	0.072928086
48	0x3dc5f517	0.09665888
49	0x3d16214a	0.03665284
50	0x3c9b2fd1	0.0189437
51	0xbd19514c	-0.037431046
52	0xbdac1c3a	-0.08403821
53	0xbddb6e70	-0.10714424
54	0xbd8382a0	-0.06421399
55	0x3c5ca039	0.013465934
56	0xbd8cfc7e	-0.068840966
57	0x3dd9013e	0.1059594
58	0xbd97dc70	-0.07415092
59	0x3d496d9f	0.04917681
60	0xbd97a9a8	-0.07405406
61	0xbc8901b9	-0.016724454
62	0xbd8191e8	-0.063266575
63	0xbdb1ed65	-0.086878575
64	0x3cbf2eac	0.023337685
65	0xbd3176d6	-0.04332622
66	0xbd752498	-0.05984935
67	0x3ad4b50d	0.0016228274
68	0x3d83a267	0.0642746
69	0xbba0a90e	-0.0049029654
70	0xbd9babcb	-0.07601126
71	0x3d297975	0.041375596
72	0x3d192c21	0.0373956
73	0xbd9c8a04	-0.07643512
74	0xbd3831c8	-0.04496935
75	0x3d5b95ea	0.053609766
76	0x3cde2c3e	0.027120706
77	0x3b5275f4	0.0032113763
78	0xbc3a0d54	-0.011355717
79	0xbcf21c90	-0.029554635
80	0x3d828b44	0.06374219
81	0x3da40438	0.08008617
82	0xbd89f7df	-0.06736731
83	0xbd3ee55a	-0.046605445
84	0x3d9b01eb	0.07568725
85	0xbc369641	-0.011144222
86	0x3d838066	0.064209744
87	0xbd192068	-0.03738442
88	0xbccb39ac	-0.024807774
89	0x3ce325e1	0.027728023
90	0xbb345833	-0.002751839
91	0xbd2c9303	-0.04213239
92	0x3c7a6e81	0.015285135
93	0xbcded788	-0.027202383
94	0xbd8e3880	-0.0694437
95	0x3d838587	0.06421953
96	0xbd227c7a	-0.03966949
97	0x3d7d1e52	0.061796494
98	0xbdca0337	-0.098638944
99	0xbdd7f4e4	-0.10544756
100	0x3cc65c9a	0.024214078
101	0x3de7a600	0.11310959
102	0x3db2897c	0.08717629
103	0xbd352d86	-0.044232868
104	0xbbcc9005	-0.0062427544
105	0x3d2b7878	0.041862935
106	0xbdcf195d	-0.101122595
107	0xb99a74fb	-0.00029460326
108	0xbca441ea	-0.020050962
109	0x3d15c023	0.03656019
110	0xbd7c8c47	-0.061657216
111	0x3dd2ec74	0.10299006
112	0x3dde4375	0.1085271
113	0x3d651bab	0.05593459
114	0x3c5bd5b9	0.013417655
115	0x3c1e71e5	0.009670709
116	0xbd8f7323	-0.070043825
117	0xbd16a326	-0.036776684
118	0x3d75fdf3	0.060056638
119	0x3d7bb87d	0.06145524
120	0x3d46f6d8	0.048575252
121	0xbc9c398e	-0.019070413
122	0xbcfe022e	-0.031006899
123	0x3daa6962	0.083208814
124	0x3d24ee33	0.040266227
125	0x3dcba219	0.09943027
126	0x3dc88a16	0.09791963
127	0xbd441fc4	-0.047881857

critic.6.weight f4 [1, 128]
0	0x3dd9db50	0.10637534
1	0x3d510d21	0.05103791
2	0x3d81ca50	0.06337416
3	0xbe0857f6	-0.13314804
4	0xbdebf977	-0.11522191
5	0x3d82a6dc	0.06379482
6	0x3dd2c04d	0.10290585
7	0x3daae4ca	0.08344419
8	0xbdcbec24	-0.099571496
9	0x3dc53f2b	0.09631189
10	0xbd667be8	-0.05627051
11	0xbd54b026	-0.0519258
12	0xbdf39807	-0.11894231
13	0xbdcd5aac	-0.1002706
14	0xbdd3d6fb	-0.10343739
15	0x3de80548	0.11329132
16	0xbda533cd	-0.08066521
17	0xbdb0d3d8	-0.08634156
18	0x3ddd89b5	0.10817281
19	0x3dd770bc	0.10519549
20	0xbd91e649	-0.071240015
21	0xbd9c9e13	-0.07647338
22	0xbde30542	-0.11084987
23	0xbd77880a	-0.06043247
24	0x3da28995	0.07936398
25	0xbdcbb590	-0.0994674
26	0x3d1fe344	0.039035097
27	0xbde60dd2	-0.11233105
28	0x3d5a002a	0.053222813
29	0x3d6cf123	0.057847153
30	0x3dce6bc1	0.10079146
31	0xbdd39466	-0.10331039
32	0x3db74bbc	0.08949992
33	0xbda931f7	-0.08261483
34	0xbd960304	-0.07324794
35	0xbd815d0f	-0.06316578
36	0xbdff1383	-0.124548934
37	0x3da3399e	0.07969974
38	0x3db928df	0.09040999
39	0x3de1d672	0.1102723
40	0xbde189c4	-0.11012605
41	0xbdbb8e46	-0.09157996
42	0xbd81cd79	-0.06338019
43	0x3db04557	0.086069755
44	0x3d63d083	0.055618774
45	0x3dad7e2f	0.08471333
46	0xbde5f1b4	-0.11227742
47	0x3dea7b4a	0.11449297
48	0x3d8a0116	0.067384884
49	0x3dc869f6	0.097858354
50	0x3da35a42	0.079762
51	0xbe0929cf	-0.13394855
52	0xbd887da7	-0.06664591
53	0xbd332d24	-0.04374422
54	0xbd9241e7	-0.07141476
55	0xbdbaa411	-0.091133244
56	0x3db25010	0.08706677
57	0x3d8a1f84	0.067442924
58	0xbdb3a46d	-0.08771596
59	0xbdf7d4a7	-0.12101107
60	0xbe03ec11	-0.12883021
61	0x3d574e4c	0.052564904
62	0x3d939289	0.07205684
63	0xbd4ac256	-0.04950174
64	0x3da96fe4	0.082732946
65	0xbdcc5313	-0.09976783
66	0xbdfd7b5c	-0.123770446
67	0x3e09b04f	0.13446163
68	0xbdeb19f8	-0.114795625
69	0x3d7857a8	0.06063047
70	0xbdc07060	-0.09396434
71	0xbda83eae	-0.0821508
72	0xbe094a4c	-0.13407248
73	0xbdea3d30	-0.11437452
74	0x3dced182	0.10098554
75	0x3d443a36	0.047907077
76	0xbe03b69c	-0.12862629
77	0x3e050c2c	0.12992924
78	0x3de3747e	0.111062035
79	0x3e06f700	0.1318016
80	0xbdd1a2fc	-0.10236165
81	0x3d403027	0.04692092
82	0xbd8c7ce0	-0.068597555
83	0xbd704614	-0.05866058
84	0x3d531410	0.051532805
85	0x3e06264b	0.13100545
86	0x3d982493	0.07428851
87	0xbdafa6f1	-0.085767634
88	0x3de58e61	0.11208797
89	0x3da0ae03	0.0784569
90	0xbdd4884c	-0.10377559
91	0xbd5784cb	-0.052616876
92	0x3dc3c420	0.09558892
93	0xbd536d2d	-0.05161779
94	0xbe01a46c	-0.12660378
95	0xbdb5891d	-0.08864043
96	0x3de87750	0.11350882
97	0x3d8dfa1e	0.06932472
98	0xbdb2b3db	-0.08725711
99	0xbd42ffff	-0.04760742
100	0x3dd3ec02	0.10347749
101	0x3d42eef9	0.047591183
102	0x3d7b063f	0.061285254
103	0x3db5e7af	0.08882081
104	0xbddcd6be	-0.10783146
105	0xbdefc1f4	-0.117069155
106	0xbdf30b9f	-0.11867451
107	0xbdfa1cd0	-0.12212527
108	0x3dfcfd65	0.12353019
109	0x3dc7d3c7	0.0975719
110	0x3d7677b7	0.060172763
111	0x3d8174c3	0.06321099
112	0x3d8dd071	0.06924523
113	0x3dce51a4	0.100741655
114	0xbe05e2a5	-0.1307474
115	0x3dd43e0f	0.10363399
116	0xbe02ea1f	-0.12784623
117	0xbd992a98	-0.07478827
118	0x3d89f528	0.06736213
119	0xbdce7f61	-0.10082889
120	0xbdfa5e4d	-0.12225018
121	0xbe0b0144	-0.13574702
122	0xbd4977a1	-0.049186353
123	0x3dc2f56d	0.095194675
124	0xbd47eba0	-0.048808694
125	0x3d946068	0.072449505
126	0x3dba4750	0.09095633
127	0xbddf1ee0	-0.10894561
