ippo_algorithm_belief_catmouse/checkpoints/ppo_actor_1num_agent_exp_4_run_0_catmouse.pth (torch, 192792 bytes, 8 tensors)

actor.0.weight f4 [128, 101]
000000 fb 76 b9 bc 8c bc ba bd 98 a6 cd 3d 57 59 13 3d
       -0.022639742 -0.09117994 0.10041541 0.035973873
000010 1b 30 33 bd c7 76 92 3d ca 72 f4 3c bf 21 3d bd
       -0.04374705 0.07151561 0.029839892 -0.04617476
000020 ee fb b8 bd 05 c9 f8 3d 16 cc 27 bd 21 84 8d 3b
       -0.09032427 0.121477164 -0.040966116 0.0043187295
000030 a6 13 cb bd 9b d9 de 3b 99 84 59 bd b1 b7 7f 3d
       -0.09915857 0.006800843 -0.05310497 0.06243104
000040 a3 51 05 3c 58 0c 81 3d b7 c0 f7 3d 9f cc b1 bd
       0.0081371395 0.063011825 0.12097304 -0.086816065
000050 ad 9c ea 3c c8 71 51 3d c3 d6 17 bd 63 0b 65 bd
       0.028639162 0.0511339 -0.037070047 -0.055919062
000060 58 f8 3c 3d 9f 04 c1 bd 81 ca ab bd fd 75 3e ba
       0.046135277 -0.094247095 -0.08388234 -0.00072655064
000070 3b a4 ee ba 2c e0 00 bd 50 b0 09 3d 6c e3 56 bd
       -0.0018206903 -0.031463787 0.03361541 -0.05246298
000080 27 57 b1 bd 6d d0 b0 bd fb 63 f1 3c 09 7c 73 bd
       -0.08659201 -0.08633504 0.02946662 -0.05944446
000090 32 d4 35 3c 1c 47 91 bd 66 49 b4 bd dd 57 dd bd
       0.011097955 -0.07093641 -0.08803062 -0.10807774
0000a0 0e 7a e6 3d 54 52 b2 3d 34 58 0b 3c 02 17 7a bb
       0.11253749 0.08707109 0.008504916 -0.0038160686
0000b0 23 a7 f2 3c 80 6e 86 3d 86 3e 66 bd ca 9a 87 bc
       0.029620713 0.06564045 -0.05621197 -0.016553301
0000c0 f8 21 96 bc cf e8 9c bd 50 12 dd bd 7f f8 c1 3d
       -0.018326744 -0.07661592 -0.107945085 0.09471225
0000d0 b4 e7 85 3b 34 b3 0d 3d d4 30 7a bd 08 55 8a 3d
       0.004086459 0.03459473 -0.061081722 0.067545
0000e0 fa e8 f1 bd d3 bf 95 bd fa ec c0 3a 05 c4 37 3d
       -0.11812015 -0.07311978 0.0014719062 0.044864673
0000f0 f8 68 8e bd 01 cc d5 3c 10 97 22 3d 27 51 3e 3c
       -0.06953615 0.026098253 0.039694846 0.011616028
000100 ef bd 40 bd a5 39 0a 3d 7a c4 4f bc 06 b1 37 bc
       -0.047056135 0.03374638 -0.012681121 -0.011211639
000110 39 d7 e1 bc a8 86 e1 bc 6c 7b 65 bd b4 ce f4 3c
       -0.027568446 -0.02753003 -0.056025907 0.02988372
000120 bf dc 05 bc 23 9d 87 3d 66 ce 2e 3d d8 ca 77 bd
       -0.008170306 0.06621768 0.042677306 -0.06049618
000130 b0 c4 f8 bc 93 f6 37 bd cf bd 2f bd b0 4b 5f 3d
       -0.030367225 -0.044912886 -0.042905625 0.05451554
000140 b7 18 db 3d 1f bb 4d bd 40 b0 73 bd f4 46 66 3d
       0.10698073 -0.05022728 -0.059494257 0.05622001
000150 85 6f 29 3d ba 2c e9 3d 31 e5 b9 3d f6 ec 6f 3d
       0.04136612 0.11385484 0.09076918 0.058575593
000160 43 98 72 bd e5 2c 62 bb d4 b0 62 bd be 3e 90 bc
       -0.05922724 -0.0034511623 -0.055344418 -0.017608043
000170 99 8e b3 bd 77 ec 63 bd fe 27 d5 3d 01 c5 74 3d
       -0.08767433 -0.055645432 0.104080185 0.05975819
000180 a5 d0 f1 ba 74 d6 56 bd 82 a4 dd bc 55 ba d5 3c
       -0.0018449022 -0.052450612 -0.027055983 0.026089827
000190 00 43 bd bd bc 5d 5d 3d 47 38 c2 bc 35 75 5d 3d
       -0.09241295 0.05404447 -0.023708476 0.054066855
0001a0 c1 2e e1 bd dd 19 4d bd c1 4c d0 bb 5f 4a 79 3d
       -0.10995246 -0.050073493 -0.006356806 0.06086194
0001b0 b3 49 6d bd b0 a9 07 be 96 44 16 3d 3a d9 f1 3c
       -0.057931613 -0.13248324 0.036686502 0.029522527
0001c0 af af 7b 3d 10 75 5a 3c 7a 55 6c 3c 3a 8e ed ba
       0.06144684 0.013333574 0.014424676 -0.0018124052
0001d0 f7 e1 dc 39 e4 09 aa bd 27 78 98 bc 3e 6a 69 bd
       0.00042130027 -0.08302668 -0.01861198 -0.056986086
0001e0 65 f8 8f bd a5 51 75 bd 39 66 99 bd 6b ab 88 3c
       -0.07029799 -0.059892315 -0.074902005 0.016683301
0001f0 82 55 1e bd b7 70 68 3d c2 10 31 bd 10 b3 8c bd
       -0.038655765 0.05674812 -0.043228872 -0.06870091
000200 bb f0 3d bc 6c ee c5 3d 41 c7 49 3d 5d 23 d4 bd
       -0.011593039 0.09664616 0.04926229 -0.103583075
000210 04 66 16 3c 89 4b 67 bc 93 32 62 3d d4 c2 5b bd
       0.009179596 -0.01411713 0.055224013 -0.0536526
000220 54 de 52 bd f4 d2 1e bd 75 2a 5f bc 0b 81 f3 3c
       -0.05148156 -0.0387754 -0.013620962 0.029724618
000230 98 6f c0 3d 72 ad 84 bc 62 18 e7 3c 9e 4c 74 bd
       0.09396285 -0.016195986 0.028209869 -0.05964338
000240 b6 6d 9a 3c e2 16 83 3d 5f 78 94 bd e1 91 98 3d
       0.018851142 0.06400849 -0.072495215 0.07449699
000250 e7 9f 69 3d 39 c3 f3 3c 52 67 df bd f1 41 31 3d
       0.05703726 0.029756175 -0.10908379 0.043275777
000260 46 47 36 3d fe f2 1b be 4d 17 fc bd 2d 36 e4 bd
       0.044501565 -0.15229413 -0.12309132 -0.11143146
000270 3a 19 b4 3d 34 95 64 bc 7b 85 4a bb 11 53 02 bd
       0.08793874 -0.013951588 -0.0030902314 -0.0318175
000280 45 30 c3 3b 94 40 e6 3d 26 d2 a0 bd 7b e2 de 3d
       0.005956682 0.11242786 -0.07852583 0.108830415
000290 6e 77 28 3c 7c 4b 3a 3d 2b a9 85 3d 15 2d 54 3d
       0.0102823805 0.045482144 0.06526407 0.051800806
0002a0 f1 dd b3 3d 06 e1 1d 3d 39 6c 0c 3d 5e bb 4e bd
       0.08782566 0.038544677 0.034282897 -0.050471656
0002b0 75 b3 34 bd 80 ba 7b 3d e4 7d 90 3d 8d 72 a1 3d
       -0.044116456 0.061457157 0.07055262 0.07883177
0002c0 93 66 30 bb b3 eb aa 3d 39 ea 25 3d 52 a1 be 3d
       -0.0026916608 0.08345737 0.040506575 0.09308113
0002d0 a5 73 a3 3d db 14 95 bd 53 84 02 be 27 88 ae 3d
       0.07981042 -0.072793685 -0.1274579 0.08522063
0002e0 7c 53 16 3e 3a 99 16 3d a8 f6 b2 bd 98 0a 1e bc
       0.14680284 0.036767222 -0.08738452 -0.00964608
0002f0 5a 84 9b bd 8a a6 57 bd 11 be 39 bd 18 b3 31 3b
       -0.075936034 -0.05264906 -0.045347277 0.0027114805
000300 58 29 83 3d bb 07 f5 bd 1f 66 83 bc 25 f7 ac 3d
       0.0640437 -0.11964365 -0.016039906 0.084455766
000310 57 bb cf 38 7a df 31 bd 9d d0 da bd ba 69 a5 3d
       9.905424e-05 -0.043426014 -0.10684321 0.08076806
000320 d5 41 a9 3d 44 78 70 bd a0 50 03 3d 42 87 80 3d
       0.082645096 -0.058708444 0.032059312 0.062757984
000330 9a e0 08 3d fd d6 9f bd 77 11 b8 bc cd 20 15 3d
       0.03341732 -0.07804678 -0.022469265 0.036408234
000340 b3 25 a2 3d 28 be 37 bd 81 c0 35 3c 33 77 e6 bd
       0.07917347 -0.04485908 0.01109326 -0.11253204
000350 63 68 e6 3c 7a 38 cd 3d 2f 8e 09 bc 71 f8 10 3d
       0.028125947 0.10020538 -0.008395716 0.035393182
000360 e5 09 85 bc 05 f3 c7 3d 96 0e 00 bd 26 2e ec 3d
       -0.01624007 0.09763149 -0.03126391 0.115322396
000370 21 fb 96 3c 21 62 8d bd 75 91 b4 3d 1e d1 95 bd
       0.018430294 -0.06903482 0.08816806 -0.073152766
000380 59 71 80 3d ee 00 7e bd a7 ee 4e 3b d3 9b 23 3d
       0.06271619 -0.062012605 0.0031575353 0.039943527
000390 7a fd 10 3c 61 42 5d 3d 34 b7 a3 bd 53 a6 43 3c
       0.008849496 0.054018382 -0.079939276 0.01194151
0003a0 fc 81 9f bd 75 e6 d0 3b e8 c9 a0 3d c0 a7 d7 3d
       -0.077884644 0.006375129 0.078510106 0.10530043
0003b0 2c 29 ac b9 5b 18 c7 3d 4b d4 c7 bd 6a a9 ad 3d
       -0.00032837072 0.09721442 -0.097572885 0.08479579
0003c0 61 1e a3 bc 25 ee b9 3d 6a 9a 02 be 93 54 30 3d
       -0.019911947 0.090786256 -0.12754217 0.043049406
0003d0 60 63 1c bd da 05 ac bc de b0 c0 bd 6c 28 91 bd
       -0.03818071 -0.020998884 -0.09408735 -0.07087788
0003e0 6d 0d fc bc 16 77 48 3d fe 1f 76 bd 52 51 b3 bd
       -0.03076812 0.048941694 -0.060089104 -0.08755745
0003f0 8e 11 03 bd 80 d0 0c be a2 0e 2a bd ba 2c 58 bd
       -0.031999163 -0.13751411 -0.04151786 -0.05277703

actor.0.bias f4 [128]
000000 b7 72 bf bb 50 b8 cf 3d 69 d4 c9 3c b4 b9 03 3b
       -0.0058425325 0.10142577 0.024637418 0.0020099701
000010 16 1c 2d 3c 0b b3 ec 3c cb 55 9c bc ad 08 04 3d
       0.010565778 0.028893968 -0.019083878 0.032234836
000020 34 b1 ac 3d 7b c7 7c 3d e8 d4 a3 3d 40 63 9a bc
       0.08432236 0.061713677 0.07999593 -0.018846154
000030 4e 0a 53 3d 77 ee c3 bc 4e cb 85 bd fe d0 26 bd
       0.0515235 -0.02391742 -0.06532918 -0.040726654
000040 be cc bb bd 4c 2c 46 bd 91 67 32 3c 81 50 9d 3d
       -0.09169911 -0.04838209 0.01088895 0.076813705
000050 e0 e0 e1 bc ef b7 05 3c 95 e0 0d bd f6 e0 89 3d
       -0.027573049 0.008161529 -0.034638006 0.06732361
000060 6d 7c e8 bc c9 1f 98 3d 41 18 65 bc 54 b1 49 bc
       -0.028379643 0.074279375 -0.013982833 -0.012310345
000070 8c 3d 4c bc d7 36 84 3d 74 94 b4 bd a3 66 9d bc
       -0.012465846 0.06455772 -0.08817378 -0.01921398
000080 e8 43 b4 3d 1f 18 b0 bd d9 5d a6 3d 82 f8 92 bd
       0.088020146 -0.08598351 0.08123369 -0.07176305
000090 05 d1 af 3d 18 aa 54 3c bd 34 11 bd 65 68 80 bd
       0.08584789 0.012980007 -0.035450686 -0.06269912
0000a0 48 46 65 bd 68 5a 0a 3c 02 0b 36 bd 08 77 62 bd
       -0.05597523 0.008444406 -0.04444409 -0.0552893
0000b0 95 87 83 bb b7 59 3a bd 3f 5b 89 bd 20 d6 a2 bc
       -0.0040139654 -0.045495715 -0.06706857 -0.019877493
0000c0 8b b1 66 3d 47 19 b1 bd 7c c3 af bd 45 38 b1 3d
       0.056321662 -0.086473994 -0.085822076 0.08653311
0000d0 27 ec 1f bd 37 05 83 ba 02 65 c6 3a 5b 16 93 bd
       -0.03904357 -0.0009996061 0.0015136304 -0.07181998
0000e0 e5 9a 06 3c d5 b3 9e 3d 6e 24 c5 bc 48 b9 9c 3c
       0.008215641 0.07749144 -0.024065223 0.019131318
0000f0 e1 b4 9e 3d ec 61 70 bd 77 1a 94 3d bf 2c cd 3d
       0.07749344 -0.058687136 0.0723161 0.100183
000100 92 98 ea 3c 3c 5f 9b bd 8c b1 9a 3d 33 ae a6 3d
       0.028637204 -0.07586524 0.07553396 0.081386946
000110 b6 d8 03 3c a9 3e 9f 3d cb 1b 84 bd ee 24 07 bd
       0.008047273 0.07775623 -0.064506136 -0.032994203
000120 ee 45 fe bc 37 c2 56 bd f6 5e 87 3d f6 30 d7 bc
       -0.031039204 -0.05243131 0.06609909 -0.026268464
000130 e1 ef 94 bd a7 03 3c bd 4a 68 a4 bd 63 ff 96 3d
       -0.07272316 -0.04590192 -0.08027704 0.0737293
000140 d7 95 06 3d a7 f4 aa 3c 4d a8 54 39 c2 e9 57 3c
       0.032857742 0.020868612 0.00020280592 0.013178291
000150 60 f7 a5 3d fa 6c 73 bd 44 4e 59 bd 41 09 a3 3d
       0.08103824 -0.0594301 -0.053053156 0.079607494
000160 a2 01 c3 3d 54 ff 5c bc b8 b7 98 bb 1d 2b 9d bc
       0.09521796 -0.013488609 -0.004660573 -0.019185597
000170 6c 53 60 3c db 52 93 bd a6 41 71 ba cb f4 a7 3d
       0.013691764 -0.07193538 -0.0009203203 0.082009874
000180 ac 7f 58 3d cb 09 91 3d 19 0f 9c bd c0 20 34 3d
       0.052856132 0.07081946 -0.07620067 0.043976545
000190 a7 47 49 bc d9 2a 99 3d ab 19 0f bd ac 59 76 bb
       -0.01228515 0.07478876 -0.03493659 -0.003759007
0001a0 64 77 af 3c 32 2e 8f bd 9a 3a 57 3d 79 44 59 3d
       0.021419235 -0.06991233 0.05254612 0.053043816
0001b0 61 68 a0 bd ec 48 91 3d 2f 42 8c bd ad 04 8c 3d
       -0.07832409 0.07093987 -0.06848561 0.06836829
0001c0 e9 c5 17 3c e1 13 11 b9 21 b1 13 bd 74 65 5f bd
       0.009263494 -0.00013835683 -0.036057595 -0.054540113
0001d0 23 2e 8d bd d5 ed 0c bd 2b bc ae bd 44 14 5b bd
       -0.068935655 -0.0344065 -0.08531984 -0.053486124
0001e0 a8 6c b6 bc 20 90 d5 bc 6e 0d 46 bd e5 b0 83 3d
       -0.022268608 -0.0260697 -0.04835265 0.06430224
0001f0 c5 b2 03 3d 9e 1b 11 bc 51 aa 09 bd 35 71 73 bd
       0.03215291 -0.008856682 -0.033609692 -0.059434135

actor.2.weight f4 [128, 128]
000000 62 63 1a bd 3d 82 5b bd ba 4a fa bc f1 58 98 3d
       -0.037692435 -0.053591 -0.03055321 0.07438839
000010 41 5c 9c 3d 61 63 8f 3d b2 3a cf 3d 1f 1a db 3c
       0.076347835 0.07001377 0.10118617 0.026745854
000020 47 55 c4 bd 43 d9 09 3d 19 92 b5 bc d0 75 23 3d
       -0.09586578 0.033654463 -0.022164391 0.039907277
000030 37 35 05 3e 73 a9 13 bc 3a 58 85 bd 60 35 d0 b8
       0.13008581 -0.009012568 -0.065109685 -9.928155e-05
000040 0f a2 fa bc c3 67 d5 3d 09 78 3d bd 9a 6c e4 3c
       -0.030594854 0.104201816 -0.046257053 0.027883817
000050 3d 48 de 3c d2 7c ba 3d ee bd b3 ba 36 a7 2e 3d
       0.027134055 0.09105839 -0.001371322 0.042639934
000060 3c e9 a0 ba 08 5a 27 bd bc 11 ff bc cc 78 7c 3d
       -0.001227654 -0.040857345 -0.031136386 0.06163864
000070 44 e6 69 bd 10 f5 74 bc 5b 71 b9 bc 9c e8 a9 3d
       -0.057104364 -0.014951006 -0.02263706 0.0829632
000080 d7 c3 8e 3d 79 ca ae 3d f2 26 6f bc e9 92 16 3d
       0.06970947 0.08534712 -0.014596688 0.0367612
000090 15 4f 7f bd ae 0a 9f 3c 13 fc 4c bd 81 f9 34 bc
       -0.062331278 0.019414272 -0.050045084 -0.0110458145
0000a0 7d 9b e5 bc e4 8d 7e bc ae 34 3d 3d e1 63 68 3d
       -0.028028244 -0.015536759 0.046192817 0.056735877
0000b0 0b 4f 14 b9 a8 7c dc 3d d2 9b 82 3c 5f 29 fa bc
       -0.00014143826 0.10765964 0.015943442 -0.030537305
0000c0 91 ef 22 3c c2 9b a4 bb df af be bd 30 02 36 3d
       0.009944812 -0.0050234506 -0.093108885 0.04443568
0000d0 7c bb ac 3d 86 5b ca 3c c5 de fa 3b 24 22 1e bd
       0.08434197 0.024701845 0.0076559507 -0.038606778
0000e0 cc 37 a8 3a 0e e0 63 3d d6 4f b4 3d c3 ef e6 3d
       0.0012834012 0.055633597 0.0880429 0.112762
0000f0 88 c9 25 bd d1 61 28 3d c0 83 bb bd b2 f0 00 bc
       -0.0404754 0.04110891 -0.09155989 -0.007869886
000100 c9 f5 34 bc a8 ec e0 3b 3d ea 5b bd 09 ad 77 3a
       -0.011044928 0.006864149 -0.053690184 0.00094480865
000110 7b 5f 64 3d 4a b2 ee bc b8 bc 63 bd a3 57 3f bd
       0.05575512 -0.02913775 -0.055599898 -0.046714436
000120 82 81 0b 3d 5f 40 53 3d d5 e7 cf 3d 9d 9b 76 bd
       0.034059055 0.05157506 0.1015164 -0.060207
000130 04 af 96 3b ca 58 8b bd 07 70 48 bb 29 9f b1 3d
       0.0045985 -0.068040445 -0.0030584352 0.086729355
000140 d6 64 79 bd 2b 65 f4 bc a9 b6 9d bd 57 6d 16 3d
       -0.06088718 -0.029833397 -0.07700855 0.03672537
000150 5b 98 ed bb d1 bb bf 3d ed 26 93 3d 2b 2b 35 3d
       -0.007250828 0.09361995 0.07185159 0.04423062
000160 86 a9 96 bd b1 46 9a bd df 24 86 3d 62 85 96 bd
       -0.07356553 -0.075330146 0.06550001 -0.073496595
000170 8d ad c5 bd f3 50 3a bd 23 23 21 bd db 20 b3 bc
       -0.09652243 -0.045487355 -0.03934015 -0.021866253
000180 01 91 0d bd b2 dc ee bc 10 f7 d6 3d 27 7d 6b 3d
       -0.034562115 -0.02915797 0.10496342 0.0574924
000190 48 2c 89 bd 39 1a 86 bd 07 f1 08 bd ca 5e a8 bd
       -0.06697899 -0.0654797 -0.033432987 -0.082212046
0001a0 ad 63 bc 3d 9b 26 a2 bc 2a 41 03 bd cb d5 bf bd
       0.09198699 -0.0197938 -0.032044567 -0.0936695
0001b0 43 80 d7 3c d1 c1 57 3c 13 8e 16 bd 34 ac 07 be
       0.026306277 0.013168768 -0.036756586 -0.13249284
0001c0 9d 0a 9d bd 96 54 fe 3d 25 68 80 bd 64 cc 72 bb
       -0.0766804 0.12418477 -0.06269864 -0.0037048096
0001d0 42 8f 5f 3c 84 11 83 3d 74 99 8c bd 0f 5c b2 3d
       0.013644995 0.06399825 -0.06865206 0.08708965
0001e0 59 c8 1b bb 6b f7 9a bd 9c cc 41 bd 46 27 28 3d
       -0.002377054 -0.075667225 -0.04731427 0.04105308
0001f0 64 e3 a8 bd 28 6a a3 3d 29 9a c9 bd d7 85 b3 bd
       -0.08246496 0.07979232 -0.09843857 -0.08765762
000200 dd 12 a9 3c 28 ee 8a bd 1a ee 9a bd 16 d4 56 bd
       0.020638878 -0.06783706 -0.075649455 -0.052448355
000210 20 95 3e 3d 71 02 6f bd d3 c5 5c bc ad 5c d7 bd
       0.046528935 -0.058351938 -0.013474899 -0.105157234
000220 30 61 a8 bc 7a 60 be 3c 86 74 03 be 67 34 5b 3d
       -0.020554155 0.023239363 -0.12837419 0.05351677
000230 ec 9f 30 3d 1d 23 df bb 27 db bd bb b5 70 c2 bd
       0.043121263 -0.0068096058 -0.0057939473 -0.094941534
000240 06 20 96 bd 27 f5 d9 3d cf 61 b3 3d 85 42 31 bd
       -0.07330327 0.10642462 0.0875889 -0.04327633
000250 6e 0a a6 bd 57 5a ae 3d b1 5e c5 3d f8 fa d5 3d
       -0.08107458 0.08513325 0.096372016 0.10448259
000260 98 32 e1 bc 22 63 db bc 0f bf 2d 3d c7 d4 b5 3c
       -0.027489945 -0.026780669 0.042418536 0.022196187
000270 f2 41 e7 bc 2e 87 b4 bd 47 cd 97 3d bd d8 05 3d
       -0.028229687 -0.08814846 0.074122004 0.0326774
000280 1e 9e f0 3b ec a6 6a bd f9 7c eb bc f9 c0 e1 3b
       0.007343068 -0.057288095 -0.028746115 0.006889459
000290 ce 02 b3 3c 84 9f 05 bd c7 c5 c3 bd dd 51 68 3d
       0.021851923 -0.03262283 -0.095592074 0.056718696
0002a0 aa aa 6b 3d e3 2b 18 3e c0 04 50 3d c4 ae c1 3c
       0.057535805 0.14860491 0.05078578 0.023642905
0002b0 6e 45 6e 3d e6 a5 6b 3d d8 36 21 3d 8c 91 18 bd
       0.058171682 0.05753126 0.039358944 -0.03724818
0002c0 03 80 d1 3d 3d fe e2 3c 15 17 19 bd ad 62 80 bd
       0.102294944 0.02770912 -0.03737553 -0.06268821
0002d0 c5 0a dc bc 3e 90 e8 bc d1 24 51 3d e2 65 9c 3b
       -0.026860604 -0.028389093 0.0510605 0.0047728876
0002e0 e4 5b 99 bc 5a a7 3b ba 3e 5f 0a 3d 73 4d 83 3d
       -0.018720575 -0.0007158421 0.033782236 0.06411257
0002f0 30 db 08 bd f1 8f 1b bd 20 31 9c bd 96 ee c6 bd
       -0.03341216 -0.03797907 -0.07626557 -0.097134754
000300 04 e3 9b 3d 4e c9 87 3d 32 db da bd c7 36 95 3d
       0.07611659 0.06630193 -0.106863394 0.072858386
000310 ce 83 cb 3c d1 16 73 bb f6 1d 34 3d bd 17 c6 ba
       0.024843123 -0.0037092457 0.043973885 -0.0015113276
000320 2b 12 fc bc a1 83 38 bc 49 bb 8b 3d 46 92 99 bb
       -0.030770382 -0.0112618515 0.06822831 -0.0046866266
000330 b0 dd bf bc 32 cb c1 bd 41 e9 08 bc 2a 61 88 bd
       -0.023421139 -0.094625846 -0.008356393 -0.066591576
000340 2d 49 00 3c 67 3f 5f bd 0c b4 c8 bd cc 81 62 bc
       0.0078299465 -0.054503825 -0.09799966 -0.013824891
000350 ad b3 b0 bd 75 bb 78 3d 61 6f b9 3c 96 13 8c bd
       -0.086280204 0.060725648 0.022636117 -0.06839673
000360 2c 8d f6 bc d5 e7 a3 3b cd 5c b2 bb 97 80 d2 3d
       -0.030096613 0.0050020018 -0.0054431916 0.10278433
000370 4c 8e a7 bd d6 da 1f bc 76 43 74 bc 99 53 4c 3d
       -0.08181438 -0.009756764 -0.014908662 0.049884412
000380 a3 33 58 bc 54 c6 87 bd 26 85 0d 3d 9c 0a 26 bd
       -0.013195905 -0.06629625 0.03455081 -0.04053746
000390 39 9c e5 3c f6 9d 94 bb 18 f8 9e bd 8a fd 9b bc
       0.028028594 -0.004535432 -0.07762164 -0.019041795
0003a0 2d 27 57 3d b7 ae eb bd 9c 6a 43 bd 50 38 da bc
       0.052527595 -0.115079336 -0.047709092 -0.02663818
0003b0 f5 bc 29 bd 53 fc 47 3b ca cf a3 bd 74 08 d3 bd
       -0.04143997 0.0030515387 -0.07998617 -0.10304347
0003c0 9e 3d 3c 3d 61 aa 90 bd 38 03 d8 3d 85 49 6c 3c
       0.0459572 -0.07063747 0.10547489 0.014421825
0003d0 96 e4 57 b9 62 79 a5 3c ab 7c 0f bd 46 75 94 3d
       -0.00020589153 0.020199481 -0.035031002 0.07248931
0003e0 63 5a 90 bd 6a a9 0c bd 1f 81 33 b8 90 ac e4 3c
       -0.0704849 -0.034341253 -4.279718e-05 0.027914315
0003f0 29 57 9d bd 24 7a ad 3b e6 a6 2a 3b e7 e6 9e bc
       -0.0768264 0.0052941013 0.002603942 -0.019397212

actor.2.bias f4 [128]
000000 f0 53 45 3d 07 66 8b bc 45 7b 8d bb 9b 0b dd bb
       0.048175752 -0.017016424 -0.0043176734 -0.0067457682
000010 4a 7f 15 bc 1d 1a 87 3b 44 8f c3 3d cd 15 2f 3c
       -0.009124586 0.004122986 0.0954881 0.01068635
000020 1c c8 a8 bc 7f c3 67 3d 68 eb a1 3d 94 ea 19 bd
       -0.020603232 0.056582924 0.07906228 -0.037577227
000030 18 b1 70 bd eb 20 0a 3d 66 d5 3b 3d cf f2 26 3d
       -0.05876264 0.0337228 0.04585781 0.040758904
000040 18 e5 18 bd 1b 2d 13 bc 56 bc bc 3c 2c a7 7b 3d
       -0.037327856 -0.008982922 0.023039024 0.061438724
000050 77 7a 96 3d da 59 08 3c 66 01 75 bc 90 27 9d 3d
       0.07347577 0.0083222035 -0.014953947 0.076735616
000060 e7 27 26 3d d0 ab 6d 3d 06 3b bc 3b e2 9a 9a bc
       0.040565398 0.05802518 0.005744341 -0.018872682
000070 c1 88 f9 3c 54 a3 ba bd 26 f5 43 3d 7c 26 89 bd
       0.030460717 -0.091131836 0.047841214 -0.066967934
000080 6e 72 89 3b 71 5d 7d 3d ad f3 a8 3c 8e 6b 44 3d
       0.0041945493 0.06185669 0.020624006 0.047954135
000090 d7 88 75 bd a8 54 0d 3d 70 aa 17 bd e6 7f 8f 3d
       -0.059944954 0.034504563 -0.037027776 0.070068166
0000a0 da 4e 51 bd 9f d9 6f 3d 1f ba ed bc 63 6d 4f 3d
       -0.05110059 0.05855715 -0.029019414 0.05064143
0000b0 73 53 0d 3d 3a 1e 3a bd 7a ce 80 bd 25 e4 25 3d
       0.03450341 -0.045438983 -0.06289382 0.04050078
0000c0 32 21 3f bd 3a 8e 35 3d 35 45 9b 3d c0 44 ac 3d
       -0.046662517 0.04432509 0.075815596 0.084115505
0000d0 02 3f bd bc 15 f3 07 bc a9 b4 1b 3b 1d b6 72 bd
       -0.023101334 -0.008297701 0.0023758805 -0.059255708
0000e0 2f 59 53 3d 61 d4 05 3c 65 f3 2d bd 95 1f 8d 3d
       0.051598724 0.008168311 -0.042468447 0.068907894
0000f0 2e 0f 84 3d 7a 65 cd 3c e8 56 89 b9 83 e1 d8 3c
       0.06448208 0.025072802 -0.00026195426 0.02647472
000100 7e 7e 5a 3d 14 cf c6 bc 68 b4 39 3d 7c 69 5a bd
       0.05334329 -0.024268664 0.045338064 -0.053323254
000110 d0 50 2b bd 65 6b cd 3d 9f 53 5e bc c9 3c 30 3d
       -0.041825116 0.100302495 -0.0135697415 0.04302672
000120 02 93 84 bd 46 62 97 3d 1a e5 90 bd 08 03 77 bd
       -0.06473352 0.07391791 -0.07074948 -0.060305625
000130 05 3a 14 bc 91 d8 4d 3c ad 2b 24 bd 04 2b 82 bc
       -0.009047036 0.0125638405 -0.040080715 -0.015889652
000140 4f d4 6d 3d f1 39 af 3d 48 1b 48 3d c5 64 dd bc
       0.0580638 0.08555973 0.048854142 -0.02702559
000150 2a 8c 70 3d cc 96 1b 3c b6 a8 a1 bd c3 9b 7a 3c
       0.05872742 0.009496402 -0.07893507 0.015295926
000160 f8 e6 9e bd 4b 09 bc bb 72 7e c5 3c 82 9e c0 bc
       -0.077588975 -0.0057384125 0.024108145 -0.023513082
000170 cc 5c 0a bd b0 0f 38 3d 36 d2 83 3d fa cf 6b bd
       -0.033779904 0.044936836 0.06436579 -0.05757139
000180 23 54 8b bd d3 f9 e6 bc c4 a1 b1 bd 60 22 ce b8
       -0.06803157 -0.028195297 -0.086734325 -9.829248e-05
000190 12 12 7f 3c a3 18 4b bd fd c6 44 3d a4 c8 6f ba
       0.015568273 -0.049584042 0.048041333 -0.0009147024
0001a0 00 9f 11 bd a5 60 85 3d dd 39 b0 3c 84 c7 95 bd
       -0.035552025 0.06512574 0.021511966 -0.07313445
0001b0 3d 2f f1 3b 18 96 8f 3d a2 57 67 3d 7e a3 8d 3d
       0.0073603676 0.0701105 0.056480058 0.06915949
0001c0 42 78 5d bd 51 15 05 bc e6 29 10 3d f2 ea 28 bb
       -0.054069765 -0.008122758 0.035196207 -0.0025774804
0001d0 91 19 ac bc 30 a0 08 bd 0c ed 97 3d ad 5e d2 bc
       -0.021008285 -0.03335589 0.0741826 -0.02567991
0001e0 9b 62 64 3d a3 fc 33 3d 89 0c a5 bc f6 ae 81 bc
       0.0557581 0.043942105 -0.020147579 -0.015830498
0001f0 8f 33 76 3d a7 0f fd bc 79 a0 84 3d 8c 8e 3e 3d
       0.060107764 -0.030891253 0.0647592 0.046522662

actor.4.weight f4 [128, 128]
000000 b0 42 7c 3d ed e0 40 bb da 0f 6b 3d 6e f7 27 3d
       0.061587036 -0.0029430941 0.057388164 0.04100745
000010 69 f1 8f 3d 8d 73 37 3d b0 8a ae bd b0 b1 b2 bd
       0.07028467 0.044787932 -0.08522546 -0.087252975
000020 b8 25 ed 3d 91 3f 81 3b fc ff bb bc c2 b2 76 bd
       0.1157946 0.0039443453 -0.022949211 -0.06022907
000030 20 86 8e 3b fd 8d c0 3d c1 45 33 3c b6 60 a6 3d
       0.004349485 0.09402082 0.010941924 0.08123915
000040 07 49 1c bd 43 18 b0 3c 6a 0f 0d 3d 26 72 9a bd
       -0.03815558 0.021495944 0.034438528 -0.07541303
000050 66 fa 35 3d ef 21 06 3e 9c e1 6a 3d ea ac 08 be
       0.04442825 0.13098882 0.057344064 -0.13347211
000060 6b 58 ad 3d 04 a0 48 3d a8 f0 db 3c 49 8b a5 3d
       0.0846413 0.048980728 0.026848152 0.08083207
000070 ac a6 c8 3c a2 83 8b 3d 41 61 bc 3b 7b f5 65 bd
       0.024493538 0.06812216 0.0057488983 -0.05614231
000080 fe cb f8 bc d5 0d 2d 3d 65 7b dd 3c d0 4b 96 3d
       -0.030370709 0.04224952 0.027036378 0.07338679
000090 da 05 61 bc f6 12 4e 3c 55 fd 48 bd fd 45 5c bd
       -0.013734305 0.012577763 -0.04906972 -0.053777684
0000a0 51 b3 f7 bc fc 75 dd bd b0 c4 a5 3d 7b ca 6a 3c
       -0.030236872 -0.10813519 0.08094156 0.014330502
0000b0 c5 d8 1f bd c5 cb d7 bc b3 c3 73 3d df 7a 37 3d
       -0.039025087 -0.026342282 0.059512805 0.044794913
0000c0 c7 b9 cf 3b ab 51 84 bd 00 ed 47 3d 9a 7f dd bd
       0.006339285 -0.064608894 0.048810005 -0.10815354
0000d0 ee a7 70 3d 37 9a 3d bd d7 f3 e0 bd b8 2a eb 3d
       0.0587539 -0.04628965 -0.10984009 0.11482757
0000e0 35 4f f6 3c 84 0a 3f 3d 92 b5 aa 3b 1e 3b 55 39
       0.030067066 0.046640888 0.005209633 0.00020335286
0000f0 04 60 57 bc 50 63 92 bd ff 2b 53 bd e8 51 4c 3d
       -0.0131454505 -0.071478486 -0.05155563 0.0498828
000100 c5 5d c0 bc 72 87 9f 3d 45 5f 1a bc 17 3e 04 be
       -0.023482213 0.07789506 -0.009422128 -0.1291431
000110 0b 72 a4 3c 32 ad ea bd cc cf 8f 3d 7f 41 bf 3c
       0.020073911 -0.11458816 0.07022056 0.02334666
000120 f2 f8 18 bd df c7 88 bd 5b 10 06 3e 70 77 1e 3d
       -0.037346788 -0.066787474 0.13092177 0.038688123
000130 18 e1 8b bd 2a 4a 7d bd 1e 79 a5 3d 1f c1 73 bd
       -0.068300426 -0.061838306 0.08079742 -0.059510347
000140 3b 9e 01 be 75 e1 af bd 40 bf 13 bc 4f f7 c9 bc
       -0.12658016 -0.085879244 -0.0090177655 -0.024654059
000150 eb ba 9e 3a 84 f5 87 bd c4 62 ac 3d 50 58 77 bc
       0.0012110149 -0.06638625 0.084172755 -0.015096739
000160 aa b3 53 bd 20 1a e7 3b bd be 2b bd e0 4a ae 3b
       -0.051685013 0.007052675 -0.04192995 0.0053189844
000170 19 6f 10 be 7c 70 5c 3d 74 24 14 bc 46 e0 a3 bd
       -0.1410488 0.05381821 -0.009041894 -0.08001761
000180 79 1a 9d bd 95 6e 64 bd 4c 32 bd 3c 10 d5 1c bd
       -0.07671065 -0.05576952 0.023095272 -0.03828913
000190 af 86 9b 3c 4a 92 60 bd 73 49 b0 3d 9f a2 fd 3c
       0.01898512 -0.054827012 0.08607759 0.030961333
0001a0 67 ea 82 3c 14 64 19 3d 58 43 44 bd c8 20 6e 3d
       0.015980912 0.037448958 -0.047915787 0.05813673
0001b0 f9 54 66 3d 70 cb 8a bd 24 2c d0 bc 6c 30 23 bd
       0.05623338 -0.06777084 -0.025411673 -0.0398411
0001c0 c4 40 3b bd f3 98 3f bc 47 fc c9 bd a0 40 86 bc
       -0.045716062 -0.011694181 -0.09862571 -0.016388237
0001d0 19 c8 64 bd de 72 db bd 94 6c c9 bd 48 29 a3 bd
       -0.05585489 -0.107152686 -0.09835163 -0.07966858
0001e0 7f c9 e0 3c ea d4 ee 3d 42 cf 12 bd 80 5d 80 3d
       0.02743983 0.11661704 -0.035842188 0.06267834
0001f0 68 c7 39 3d a9 17 19 bd 1b 29 f9 bc 22 81 a5 bd
       0.045356184 -0.03737608 -0.030415108 -0.08081271
000200 18 e6 d3 bc 77 9a 91 3d da e6 3f bd e2 69 c9 3c
       -0.025866553 0.0710954 -0.046851017 0.024586622
000210 80 cc 8f bd 79 63 d3 3d 0c 0e 8a bd 60 f0 a7 bd
       -0.07021427 0.10321707 -0.067409605 -0.08200145
000220 51 f5 ab 3d bd 66 92 3d b8 7e 79 bd b2 14 b0 3d
       0.083964 0.07148502 -0.060911864 0.08597697
000230 38 8b 82 3d 9b d5 97 3b c5 bf b8 3c b7 e6 7b 3d
       0.0637421 0.004633618 0.02255238 0.061499324
000240 a5 14 de bd 73 ef 13 3d 68 d5 0d 3d ea 5e df bd
       -0.108437814 0.03611703 0.03462735 -0.10906775
000250 84 c9 5c bd d2 e2 a7 3d cb a1 df 3a 54 54 40 3d
       -0.053903118 0.081975594 0.0017061768 0.04695542
000260 ba fa 20 3c 70 b3 54 3d 4c 80 49 3c b1 33 c7 bd
       0.009825403 0.051928937 0.012298655 -0.09726656
000270 56 b9 72 3d 12 bf 5c bd 6e 51 02 bd ee f5 90 3d
       0.05925878 -0.053893156 -0.03181594 0.07078157
000280 f6 1c b3 3d 53 6d c8 3d ab 42 c9 bc db 1e c4 3d
       0.08745758 0.09786477 -0.024567923 0.09576198
000290 24 88 f0 3c 6e 36 a1 bd f1 43 35 3d d3 26 97 3d
       0.029361792 -0.0787171 0.044254247 0.07380452
0002a0 d6 a0 9e 3c 5a 8e 87 3c 22 83 e0 3c f9 cc 4d bd
       0.019363802 0.01654737 0.027406279 -0.050244305
0002b0 4b 90 a3 bc 53 42 92 bd 08 dd 33 bd 31 6f 7a 3d
       -0.019966265 -0.071415566 -0.043911964 0.061141197
0002c0 30 05 41 3d df a6 a5 bd 4c fb 16 bc 59 a7 96 bd
       0.047124088 -0.08088469 -0.009215187 -0.07356138
0002d0 eb 1c 85 3d a9 a9 2a bd 4f d3 20 3c e3 14 e0 bc
       0.06499656 -0.041665707 0.009816005 -0.02735371
0002e0 73 21 09 3c 9a 1a 39 bb 18 5b 15 3d a6 19 45 3d
       0.008369791 -0.0028244616 0.036463827 0.048120163
0002f0 d6 a4 b1 bb 62 29 63 3c 43 f7 86 bc ec b2 20 3d
       -0.0054212613 0.013864847 -0.016475325 0.039233133
000300 ff da b1 3b 64 59 c2 bd 41 98 c8 bc d5 f6 ce bc
       0.0054277177 -0.09489706 -0.024486663 -0.025264183
000310 64 63 bb bd 9a e1 c4 3c 88 fa a4 3c 0d bc 88 bd
       -0.09149817 0.024033356 0.020138994 -0.06676493
000320 1a 8a 76 bd bf 19 3d bd a5 e0 58 3d bf b4 8a 3d
       -0.060190298 -0.04616713 0.052948613 0.06772756
000330 28 38 bb bb 8b 13 22 3d 98 fa c6 3d c0 5b 5c bc
       -0.0057134815 0.03956942 0.09715766 -0.013449609
000340 09 75 72 bb 3a b7 8f bc c3 3f 68 3d 73 3d cd 3d
       -0.0036996028 -0.017543424 0.056701433 0.10021486
000350 e6 a5 30 bd a7 9b b8 bd 11 b0 ed bc 84 e4 89 bd
       -0.043126963 -0.09014063 -0.029014619 -0.06733039
000360 9c b7 71 3d 08 e3 8a bc 58 55 d9 bd e9 9c 50 bd
       0.059012994 -0.01695396 -0.10611981 -0.05093089
000370 1c 26 8e bd 20 8f 35 3d 81 de 5a bd b8 6d 81 bc
       -0.069408625 0.044325948 -0.053434853 -0.015799388
000380 33 db dd bd ee f0 37 bd 09 c9 d3 bc d1 f1 80 bd
       -0.108328246 -0.044907503 -0.025852697 -0.06296123
000390 36 31 a1 bd ac b0 4a 3d 16 b2 cd 3d c7 c1 b3 3c
       -0.07870714 0.049484894 0.10043733 0.021942986
0003a0 d5 eb 09 3d 34 0e 00 bc 75 3d b4 bd 4d 88 5c bb
       0.033672173 -0.007815886 -0.088007845 -0.0033650578
0003b0 cf 27 d6 3d 60 f7 5e bc f0 96 ec bd cf 4c 82 3d
       0.10456812 -0.0136087835 -0.115522265 0.06362306
0003c0 f0 b2 f8 bc 96 5a a8 3d 06 9c 8b bd a5 61 6a bd
       -0.030358762 0.08220403 -0.068168685 -0.057222027
0003d0 d2 37 49 bd 84 fd b5 bd eb cd 21 bd 57 85 96 bd
       -0.0491255 -0.08886245 -0.03950302 -0.07349651
0003e0 f3 35 c1 3d d7 77 ec 3d b0 45 8e 3d 42 2e 1a bd
       0.09434118 0.11546295 0.069468856 -0.03764177
0003f0 c3 df 0d 3d 9c 52 a4 bd db 17 2c 3d 88 76 43 3d
       0.034637224 -0.08023569 0.042014938 0.047720462

actor.4.bias f4 [128]
000000 71 24 7b bd 92 62 0d 3c 3d ed 97 3c 74 ad 7a bd
       -0.06131405 0.008629458 0.018545741 -0.061200574
000010 ad 57 c1 bd 96 e4 73 bd cc 68 47 bd cb 14 6e bd
       -0.09440551 -0.05954417 -0.048683926 -0.0581253
000020 5e 54 ee bc 47 f0 bf 3b ec f9 38 3d 75 2f 55 3d
       -0.029092964 0.0058575007 0.04516022 0.05204721
000030 5e 77 a7 bc a6 03 30 3c 48 c5 bf bc ec 9f a3 bd
       -0.02044266 0.010743057 -0.0234095 -0.07989487
000040 18 f4 3f bd 39 b4 fb bd 34 f2 0f bd 8c 2e 97 3d
       -0.046863645 -0.12290234 -0.035143092 0.07381925
000050 f8 f4 3c 3d 5b 7b 8f 3d 7f de 93 bd d5 fa 82 3c
       0.046132058 0.0700595 -0.07220172 0.015988747
000060 b2 91 60 3d 3f b8 c1 3d f0 61 cc bd e5 76 1f 3d
       0.054826446 0.0945897 -0.099796176 0.038931746
000070 30 18 12 3d 1c ff 61 bd a2 b7 f8 3b c8 f7 c6 3d
       0.0356676 -0.055174932 0.00759025 0.09715229
000080 5e 0d ba bd 11 30 ee 3c 73 d0 a9 bd 98 a7 80 bb
       -0.09084581 0.029075654 -0.08291712 -0.0039262287
000090 c3 b6 1e 3d 0c 18 91 3c cb 28 66 bd 65 fd 95 3d
       0.038748514 0.017711662 -0.056191247 0.07323722
0000a0 82 04 41 bd b0 c3 49 3d 4f 5a ab bd 8e 4a 59 ba
       -0.04712344 0.049258888 -0.08366834 -0.00082890026
0000b0 6e eb 48 bd 11 c8 4c bd 6a 09 82 bc 30 65 2e bd
       -0.04905265 -0.049995486 -0.01587363 -0.04257697
0000c0 69 e1 da 3b 92 7b 9b ba 16 df 94 3d 0a 3a 71 3d
       0.006679703 -0.0011862388 0.07269113 0.05889324
0000d0 df df 1a 3a 31 17 8f bd f7 fb 52 bd fa be 9b bd
       0.0005907993 -0.06986845 -0.051509824 -0.07604785
0000e0 6c a6 96 bd 5b ce 88 bd 73 d0 21 3d b5 2e b2 3a
       -0.07355961 -0.06679984 0.039505433 0.0013594242
0000f0 ff 0b 1c 3d eb 70 84 bd 2a dd e2 3c 90 bf 86 3d
       0.038097378 -0.0646685 0.02769335 0.065795064
000100 82 80 5e 3d 42 86 4c bd 18 bc 5c bc 14 55 7c 3c
       0.054321773 -0.049932726 -0.013472579 0.015401144
000110 32 16 86 3c d9 18 b1 bd 4c 74 b6 3c 31 7f c3 3d
       0.016368005 -0.086473174 0.022272252 0.09545744
000120 95 5c 17 bd c5 5d 88 3c 4b 8e 78 3d b5 09 24 bd
       -0.036953527 0.016646275 0.060682576 -0.04004832
000130 3b 66 b8 3c f7 82 39 bd 1d ab 6f bd 4b 98 a0 3d
       0.022509685 -0.045290913 -0.058512796 0.078415476
000140 ea 43 d8 3c b1 ca 7d 3d e4 71 00 bd 9b e9 6c 3c
       0.026399571 0.06196088 -0.031358615 0.014459993
000150 91 cf 44 3d ae 5f 60 bd 09 c1 0e 3d ad d3 58 3d
       0.048049513 -0.054778747 0.03485206 0.052936245
000160 50 2f 37 bd 01 bb 9b bc 97 18 4b bc 03 aa 68 3d
       -0.044722855 -0.019010069 -0.012395999 0.05680276
000170 5e 83 8b 3d 30 7a c7 3d be 12 0b bd 8c 38 59 3d
       0.06812166 0.09740102 -0.03395342 0.053032443
000180 a3 94 d6 bc a9 13 1e 3d a6 9e 40 bc 28 51 ce bd
       -0.026193922 0.038592968 -0.011756575 -0.10074073
000190 46 76 1c bc 5e aa 35 bd dd cf 9e 3d b1 69 58 3d
       -0.009549683 -0.044351928 0.077544905 0.05283517
0001a0 60 8f 05 bc 66 c9 7b bd b8 87 b9 bc e7 fd 6e bc
       -0.008151859 -0.061471365 -0.022647724 -0.014586902
0001b0 77 ba be bd 0b 3c b1 3b ed a1 a0 3d 58 6f 61 3d
       -0.09312909 0.005408769 0.07843385 0.055037826
0001c0 7c e9 ad bd 8b 6e 61 bb cf 25 81 bd bc df 22 bd
       -0.08491799 -0.0034398164 -0.063060395 -0.03976415
0001d0 82 1e 02 3c 89 f0 da bd b2 ee f5 3c b7 b8 47 bd
       0.007941844 -0.1069041 0.030021045 -0.048760142
0001e0 e2 f7 9a bd e5 12 f1 3d 03 4e a0 bd 5f 2f 9e 3d
       -0.07566811 0.11771182 -0.078273796 0.07723879
0001f0 71 e1 66 3d c2 79 a0 3c bc 69 43 3d 67 13 dc 37
       0.05636734 0.019589309 0.047708258 2.6235079e-05

actor.6.weight f4 [9, 128]
000000 ad fe f7 3d ed 88 61 bc 64 1a a3 bd b6 75 d3 3d
       0.121091224 -0.013765556 -0.07964018 0.10325186
000010 3d 09 c9 3d 08 12 55 3c 3b 82 a3 3c 5f 7b 69 3d
       0.09816215 0.013004787 0.01995956 0.05700242
000020 06 8e 09 bd 07 cb 3f 3c ba 81 7f bd fc 57 b3 3d
       -0.03358271 0.01170612 -0.062379576 0.08757016
000030 65 9b 07 bc 0b 73 af bd 8c ed 53 3d c6 ba 6e 3d
       -0.008276795 -0.085668646 0.051740214 0.05828359
000040 d9 66 6a bd 3c 84 f6 3d bd 7c 81 bc 68 2c 74 bd
       -0.05722699 0.120369405 -0.01580655 -0.05961266
000050 48 44 80 3d ce e5 d0 3c 43 85 98 3d a1 e7 ae 3c
       0.062630236 0.025500204 0.07447293 0.021350684
000060 49 8d 11 3d c2 bb 90 bd 47 2e 22 bd 27 56 8f 3d
       0.03553513 -0.07067062 -0.039594915 0.06998854
000070 e0 44 c0 3d 10 92 c0 bc 8c 0d 0a 3d ed 13 a3 bd
       0.09388137 -0.023507148 0.033704326 -0.07962785
000080 12 0a 5d 3d a7 8a cd bd 29 d7 b0 3d bd 7f 53 3d
       0.053964682 -0.100362115 0.086347885 0.051635493
000090 1a 5f 01 3d e2 ba 66 bd ea 2a a5 bc bc a7 c4 3d
       0.031584837 -0.05633057 -0.020162065 0.09602305
0000a0 8d d3 1a 3b d9 91 ae bc 75 14 a9 3d 9f 8b e2 bd
       0.002362463 -0.02130978 0.08255855 -0.11061787
0000b0 7c 1b 5b bd bb 88 c2 bb 5d 26 87 3d 4b ea 4e 3d
       -0.053493008 -0.0059367097 0.06599114 0.050516408
0000c0 dc 93 80 bd 68 1c 5b bd 7a f3 a3 bd 2e 02 d6 bc
       -0.06278202 -0.053493887 -0.08005424 -0.026124086
0000d0 80 65 f8 bc 8d 4c 93 3b 81 3a 4c bc cb 48 00 3c
       -0.030321836 0.0044952095 -0.01246512 0.007829855
0000e0 92 c1 a3 3d 43 fb eb bb ae 2f 1b bc 1e a0 e5 bc
       0.07995905 -0.0072015836 -0.009471817 -0.028030451
0000f0 64 1c 93 3d b8 11 62 3d 0a fa f6 39 81 44 70 3d
       0.071831495 0.05519268 0.0004710707 0.05865908
000100 e4 2b c7 3b b7 25 89 3d bf c1 87 3d cb 9b 4e ba
       0.00607823 0.06696647 0.06628751 -0.00078814913
000110 23 db 4d 3c a5 de 7a bd fe ad a8 3d 34 d9 48 bd
       0.012564453 -0.061247487 0.082363114 -0.049035266
000120 04 27 05 bd aa df fa bd 3e e5 25 bd 86 8f c1 3d
       -0.03250791 -0.12249692 -0.040501826 0.09451203
000130 37 77 43 bd f5 3c 9c 3d 50 9e 2d bd 37 27 c7 bd
       -0.047721114 0.07628814 -0.042387307 -0.097242765
000140 2b 1e d1 bb 51 a0 2a bd cf 8e 34 bd d6 35 5e bd
       -0.00638177 -0.041656796 -0.044081505 -0.05425056
000150 db 68 eb bc b6 43 23 bd 44 7a 4c bc 24 a0 3d bd
       -0.028736522 -0.039859496 -0.012480322 -0.0462953
000160 7d 22 a6 3d c4 16 50 3c 2f 0a 3a bb 27 3f 30 3d
       0.08112047 0.01270074 -0.0028387418 0.043028977
000170 1e 64 83 bd 21 58 f5 bd e1 20 55 bc 6f 82 e2 3c
       -0.0641558 -0.119797 -0.013008327 0.027650086
000180 33 12 88 bd 71 53 e7 bc bd 3e 69 3d 11 3a 5e 3d
       -0.06644096 -0.02823803 0.056944598 0.054254595
000190 04 10 c4 3c d4 74 e9 3d dc d5 50 3d df 28 e9 bd
       0.023933418 0.11399236 0.050985202 -0.11384749
0001a0 56 8e ec 3c 30 b6 71 bd 4b 2b 68 bc d4 e1 a0 bd
       0.028876465 -0.05901164 -0.014170478 -0.07855573
0001b0 84 e1 db 3b 76 79 8e bc cb 5d 91 bc 94 08 d3 bd
       0.006710233 -0.017391901 -0.01774492 -0.103043705
0001c0 3d 24 40 3d f4 ef 26 bd 7a fa bc 3d f9 d5 32 bd
       0.04690956 -0.04075618 0.09227462 -0.04366109
0001d0 91 87 aa 3d 1e f1 bd 3d db d1 d1 3d 07 4a ee bc
       0.083266385 0.09274505 0.10245105 -0.029088033
0001e0 5b 0d 5b bc 13 e8 61 bd 03 ae 98 3d fd 6d 2d 3d
       -0.013369883 -0.055152964 0.07455065 0.04234122
0001f0 37 2d 8d 3b 89 8d cb 3d e6 ea 7c bc 47 05 24 bd
       0.0043083685 0.09939105 -0.0154368635 -0.040044095
000200 4f da a1 bd 85 48 8b bd 5d cb 23 3d 02 48 06 3d
       -0.07902967 -0.068009414 0.039988864 0.032783516
000210 84 02 81 3d 7f 24 28 bc db 3a a0 bd 42 50 8b bd
       0.06299308 -0.010262608 -0.07823726 -0.06802417
000220 bd c9 2c bc ad 2a a2 bd 7d 69 3f 3d d7 99 4b 3d
       -0.010546145 -0.07918296 0.04673146 0.04970726
000230 f7 1a ce bd 1c 7f 68 bd d1 72 6f bd 25 b9 81 38
       -0.10063737 -0.056761846 -0.058459107 6.185685e-05
000240 96 d6 77 bb 30 a5 8f 3d 34 70 81 3c cf d3 de bd
       -0.0037817112 0.07013929 0.015800573 -0.10880243
000250 7f 84 09 bd c0 f7 1a bd 85 03 72 3d b2 01 34 3d
       -0.033573624 -0.03783393 0.059085388 0.04394693
000260 13 f2 88 bd 61 92 68 3d 21 0b 0b 3d 16 d7 d8 bd
       -0.06686797 0.056780223 0.03394616 -0.105878994
000270 22 a5 aa bd 47 e0 6d bd 25 69 c6 3d 52 b3 ab bc
       -0.08332278 -0.058075216 0.096880235 -0.02095953
000280 b6 64 3a bd af b8 7a bc b7 c3 df 3d c6 bd 83 bd
       -0.0455062 -0.015302821 0.109260015 -0.06432681
000290 5d 8f 3f 3a ea 6a 82 bd 93 7d dc 3b 39 0f fc 3c
       0.00073074346 -0.063680485 0.006728837 0.030768977
0002a0 46 ff cd bc 9d 62 43 bc c0 98 e3 ba 69 1e 61 bd
       -0.025146138 -0.011925367 -0.0017364249 -0.054960642
0002b0 53 f2 21 bd 6a 9e 71 bd e7 07 b6 3c 03 67 93 3d
       -0.03953774 -0.058988966 0.022220565 0.07197382
0002c0 93 be b2 3d d9 eb 8a bd 01 d5 b7 bd 95 e8 e3 3c
       0.087277554 -0.067832656 -0.08976174 0.027820865
0002d0 d4 d7 d7 ba 5b 21 98 3d 74 5e a4 3d f3 c7 36 bd
       -0.001646752 0.07428237 0.08025828 -0.04462428
0002e0 8b a4 8a bd ff 45 a4 3d 56 64 50 bd 5e 2c c1 3d
       -0.06769665 0.08021163 -0.050876938 0.094322905
0002f0 ae 6b 11 3c c3 17 20 bd c2 45 8c bd 30 8b 9c 3d
       0.0088757705 -0.03908516 -0.06849243 0.076437354
000300 fe 80 9d 3d 48 38 18 3d 23 1e 98 bd 57 a8 2d bd
       0.07690619 0.03716305 -0.07427623 -0.04239687
000310 e0 f7 40 3a 3c ea 80 bd ab 3f 27 bd 6f 86 3f 3d
       0.0007361155 -0.06294677 -0.040832203 0.046759065
000320 31 b1 e4 3d 32 d8 0e bd e2 1a 60 3c 5e 4a a0 3d
       0.11166609 -0.03487415 0.013678284 0.078266844
000330 10 02 69 bd 76 79 45 bc f5 0c a4 3d 13 77 c7 bd
       -0.056886733 -0.012052884 0.08010284 -0.097395085
000340 d7 60 96 bd 5e 94 1f 3c a9 05 b6 bd 88 04 24 3d
       -0.073426895 0.009739963 -0.08887798 0.040043384
000350 87 eb 48 bd f5 1a e3 3d 96 28 8e bc 14 c7 c1 3c
       -0.04905274 0.11089126 -0.017353337 0.023654498
000360 e6 d3 e1 bc 6d 42 84 3d b1 cf 27 3d ef 07 ae bb
       -0.027566861 0.06457982 0.040969554 -0.0053110044
000370 bb fd 2b 3c 99 2b 97 bd 7f 1d ba 3c 68 cb 90 bd
       0.010497506 -0.073813625 0.022719143 -0.07070047
000380 be 48 15 3c 21 a6 4c bd 73 c7 8f 3d 02 d5 0d bb
       0.009111581 -0.04996312 0.07020464 -0.0021641855
000390 c0 5e b2 3d da 68 a7 bd ea 35 c4 bd b5 d5 0a 3c
       0.087094784 -0.08174296 -0.09580596 0.008473803
0003a0 ac bf 80 bc 81 d5 61 3d 3e 8c 81 3d 28 45 8d 3d
       -0.015716396 0.055135254 0.06325577 0.06897956
0003b0 40 2b 5c bd 75 96 0c 3d 08 69 83 3c c4 20 5f bd
       -0.053752184 0.034323175 0.016041294 -0.054474607
0003c0 ee e1 17 3d 18 b7 c6 bd 53 f5 f2 3d 76 1d 50 3d
       0.037080698 -0.09702891 0.11863198 0.050809346
0003d0 1f f6 8e 3c 77 e1 78 3d c8 d8 fb bb e0 8d 6f 3d
       0.017451344 0.060761895 -0.0076857544 0.058484912
0003e0 53 3d 96 3d 3b a6 67 3d 3a f0 4b 3c df 06 9b 3d
       0.073359154 0.056555014 0.012447411 0.0756967
0003f0 3f 75 34 3d 64 47 5f ba 51 d7 b0 bd 70 20 d5 3d
       0.044057127 -0.0008517413 -0.08634818 0.104065776

actor.6.bias f4 [9]
000000 c3 74 22 bd 6b 8a c6 b8 8b 3b 9f bd 7e 44 1d 39
       -0.039662134 -9.467158e-05 -0.07775029 0.00014998202
000010 69 46 82 3d 1e 05 66 bd 8e 71 37 3c b1 c9 da 3c
       0.06361086 -0.056157224 0.011196507 0.026707502
000020 97 9d 8c 3d
       0.068659954
