ippo_algorithm_belief_catmouse/checkpoints/ppo_critic_1num_agent_exp_2run_0_catmouse.pth (torch, 163032 bytes, 7 tensors)

critic.0.weight f4 [128, 51]
00000000: 7710 2abe d170 2ebd 9eaa 14be c072 903c
00000010: 7c8a 64bc 7d59 aebd 6656 c23d a3df 06bd
00000020: c22c 5f3b 7c15 a7bd bbed 0bbe 0562 ffbd
00000030: 233a 9a3d dc49 50bd 5690 ac3d 2c40 e0bd
00000040: 9ce9 cdbd 87c8 523d e4e5 783c 8427 06be
00000050: 1708 a33c bccd 01be 710f 28bd e229 c43d
00000060: 00ce abba 31b5 d03d 3907 92bd 5896 61bd
00000070: 4df0 9cbc 6f1b 533b a7ec d13d 53f0 11bd
00000080: 8898 c8bd 9dad bf3d ed4e 1ebe 8b13 a63d
00000090: 6452 85bd 18ba e7bb 7edf bb3d 0533 fa3c
000000a0: 1f26 18be 8806 993d dffb e43d 9c0e acbb
000000b0: eb3d a03d 14e0 90bd 3a65 ae3c 36a7 9ebd
000000c0: 22e7 64bc 3948 863d eac6 9ebd d653 cf3d
000000d0: 28e9 973b e10e 9f3d aa29 05bd 3b65 223c
000000e0: e9e1 133e 2c9d 183b 350a 843d e368 8d3d
000000f0: d57e 8a3d 1590 65bd 2088 ee3c 6252 333d
00000100: a3ae 0b3e 6787 d1bd 4139 2b3d ae0c 503c
00000110: c14d 6e3b 5bbf 343c 3542 863d dba3 bfbb
00000120: f93f 573d 193c e3bd 119e 0a3e eb02 113e
00000130: cd02 21bb 7d41 b83d d360 873b 8c2a bd3d
00000140: bf12 1a3e 57ca 0c3d ea39 2c3c e51e 203d
00000150: ab0e 51bc e2c1 153e 700d 083e 56f7 f43d
00000160: 098c eabd 842f a8bc 883c e53c c090 7e3d
00000170: 6323 e5bd 2449 5abd a8da babd cb73 d0bc
00000180: b670 cdbd ff11 7abd fa92 073e 8819 593d
00000190: e8f4 2ebd 96e9 973d 30c5 f3bd 5396 28be
000001a0: 5e27 e43c 3db6 09be cac9 bb3d 3079 243d
000001b0: 5bdd ccbd 199d c9bd 61a9 833d 1c5f 16be
000001c0: 405c 3f3b e302 2ebd c769 043d dde2 4a3d
000001d0: bc17 883d 01b1 51bd eb0e 97bd d68c 96bd
000001e0: f6d8 e0bd ca77 df3d a6ac 1dbe 371a 2bbd
000001f0: 7ba5 c03c fd84 2abd a61d 9fbd 8b7f 9e3d
00000200: 6a5d 053e 96d1 b03d 38cd d7bc 3b46 f9bd
00000210: 9e5f 0abe a1cb f03d a136 edbc 20e5 1ebe
00000220: d39d e6bc e023 0cbe 2d40 e4bd 5db9 e03d
00000230: 6b8b febc e237 be3c 238a ff3c 0fb0 36bd
00000240: 7918 7ebd 6d60 853c 30ed 14be a0e5 a5bc
00000250: e73e d73d 383e fe3d 7673 22be 4382 0dbc
00000260: 7b2f c4bd 20b1 a7bd 4a0e 803d 1641 0e3e
00000270: 37fb 1b3e e7e4 52bd 948c b2bd 978c 0f3d
00000280: 5941 7abc 7bfe e33d 4123 bbbc 06d7 55bc
00000290: 7155 82bd 3891 7a3c df9c 223e 90da e63a
000002a0: 3af2 09bd fccf 073e 41b7 6d3d fe10 62bc
000002b0: 9123 09bd 5202 003e 0cdd ee3d f2aa d5bd
000002c0: edb3 033d 73a3 56bc a968 cc3d 7308 483b
000002d0: f88d 063e c648 ef3b f520 863d 6de6 823d
000002e0: 097e 9dbd df80 0a3e 7707 153e a8a1 063e
000002f0: 5db5 babc 03b3 cabd a985 b13b bb98 af3d
00000300: 5e34 4ebc a069 09bc e9bf ee3d 84ee 98bd
00000310: 01f6 023d 27fa e73d 4c24 f53d 1f36 4f3d
00000320: 8d98 e63d 4200 223e ff86 0f3e d9fb 113e
00000330: a498 11be eddb 0fbe 273b 55bd 625e 393c
00000340: 0ab2 b1bd 24bf aebd eb7f 54bb 489b b5bd
00000350: 7a0e cbbd 28dd 8b3d fa34 8d3b bc1e 1ebe
00000360: 2e92 773d f640 a5bd b71e e23d da09 d13d
00000370: c14f cabd 9560 cb3c 06dd 01be 2feb ef3d
00000380: 4549 9e3c 4627 9abd b422 0fbe c087 8bbd
00000390: c572 f13d 3b8b 613d 5600 33bd bcbf 74bd
000003a0: 253e 933c 93be 913d baec 5c3d 6cf7 173e
000003b0: 4d59 09bd 2bdc b23d 4d28 f83b 2404 05be
000003c0: fdd4 8ebc 5d01 f3bd f1c5 f7bd 7b24 cf3c
000003d0: d5e2 b5bd 7d15 a73d 21e8 8e3c a23a 11be
000003e0: be85 93bd bb02 6dbd 19c4 623c b56b a1bc
000003f0: 7b86 c3bd b6ba 823d f07f 8a3c 1ff5 0bbd
-0.16607843 -0.04258806 -0.1451821 0.017632842 -0.013949033 -0.08513162 0.094891354 -0.03292812
0.0034053777 -0.08158395 -0.13664906 -0.124698676 0.0753062 -0.050851688 0.084259674 -0.1094974
-0.10054323 0.05146077 0.015191529 -0.13101012 0.019901318 -0.12676138 -0.04103035 0.09578301
-0.0013107657 0.101908095 -0.07130284 -0.05507502 -0.019157553 0.0032212397 0.10250216 -0.03562958
-0.09794718 0.09359286 -0.15459795 0.08109196 -0.065098554 -0.0070717447 0.09173487 0.030541906
-0.14858292 0.07471949 0.11180853 -0.005250765 0.0782431 -0.070739895 0.021288503 -0.07746737
-0.013971122 0.06556744 -0.077527836 0.10123412 0.0046359487 0.0776651 -0.032510437 0.009911831
0.14441647 0.002328704 0.06447259 0.06904771 0.067624725 -0.05604561 0.029117644 0.04377974
0.13640837 -0.10230904 0.04180265 0.012698336 0.0036362263 0.011031951 0.06555597 -0.0058483905
0.052551243 -0.11095447 0.1353686 0.1416127 -0.002456832 0.08996866 0.0041314154 0.09236631
0.15046214 0.034372654 0.010511855 0.039091963 -0.012759845 0.14624742 0.13286376 0.11961238
-0.11452491 -0.02053047 0.027982965 0.062149763 -0.1118839 -0.05329241 -0.091237366 -0.02544584
-0.100312635 -0.06105232 0.13239661 0.053002864 -0.04271403 0.074176 -0.11902845 -0.16463594
0.027850803 -0.13448425 0.091693476 0.040154636 -0.10003158 -0.09844417 0.06428791 -0.14684719
0.0029199272 -0.04248322 0.03232744 0.04953276 0.06645152 -0.051194195 -0.07375892 -0.07351081
-0.10978882 0.1091152 -0.15397891 -0.041773047 0.023516407 -0.041630734 -0.07769327 0.07739171
0.13023916 0.08633725 -0.026342973 -0.121715985 -0.13513038 0.11757589 -0.028956713 -0.15517092
-0.028151428 -0.1368556 -0.11145053 0.10972855 -0.031072339 0.023220006 0.031193798 -0.044601496
-0.062035058 0.016281331 -0.14543605 -0.020251095 0.105100445 0.12414211 -0.15864357 -0.008637014
-0.09579369 -0.08188081 0.062527254 0.13892016 0.1523255 -0.05148783 -0.087182194 0.035046186
-0.015274369 0.11132523 -0.022843959 -0.013051754 -0.06363953 0.015293412 0.15880154 0.0017612744
-0.03367827 0.13262933 0.058036093 -0.013797997 -0.033481184 0.12500885 0.11663255 -0.10432996
0.032154012 -0.013100493 0.099809 0.0030522614 0.13140094 0.0073023764 0.06549255 0.063916065
-0.07690055 0.13525723 0.14553629 0.13147604 -0.022791559 -0.09897425 0.005417545 0.08574053
-0.0125857275 -0.008386999 0.11657698 -0.07467368 0.03197289 0.1132701 0.11969814 0.050588723
0.112595655 0.15820411 0.1401634 0.14256229 -0.14218384 -0.14048739 -0.052058365 0.0113140065
-0.086765364 -0.08532551 -0.0032424878 -0.08867508 -0.099148706 0.068292916 0.004309294 -0.15441412
0.060442142 -0.08069031 0.11041015 0.10206957 -0.09878493 0.024826327 -0.1268197 0.117147796
0.019322047 -0.07527022 -0.13978082 -0.06813002 0.11789469 0.05506442 -0.043701492 -0.059753165
0.017973969 0.07116427 0.053936698 0.14840478 -0.03353243 0.087334 0.0075731636 -0.12989861
-0.017435545 -0.118654944 -0.12098301 0.02528595 -0.088811554 0.081583954 0.017444672 -0.14182523
-0.07203244 -0.057863932 0.013840699 -0.019704679 -0.095471345 0.063832685 0.016906708 -0.034169313

critic.0.bias f4 [128]
00000000: b567 15be c00f 463c 7133 ce3d 4349 923d
00000010: 856d a6bd da89 a1bc 2cf5 ca3d 2fcf 103e
00000020: d8d3 dcbd 9e47 163e 63dc 04bd 5d91 23be
00000030: 40f3 28bd a6a9 ea3d 66f3 cbbc d0d6 99bc
00000040: 1e1e 8d3d 62a9 cfbd dc34 17bc 0b88 f4bd
00000050: 7bf6 91bd b535 603d 3657 eabd 77bd 68bd
00000060: abef fbbd fcfd 67bd b108 6bbd ccd1 e0bd
00000070: e0da 35bd 95cf 04bc 0dd8 243d 194c dd3d
00000080: 2b42 ec3d a8bd 38bd 4555 0abe 8577 dabc
00000090: 0770 b13d 6ff3 c6bd b13d ce3c 8474 c6bd
000000a0: 61ab b6bd 56f6 e6ba 3023 433c dd68 b6bd
000000b0: dc4e e9bd 6e0b c9bd d084 aabd 36ac 1a3e
000000c0: 42d5 00bd a915 f23d 1891 1bbe 8651 f7bd
000000d0: 6c3e ac3d 9945 9d3d 70c3 e4bd f0a3 8dbd
000000e0: 4877 0e3e b530 25bd b015 a03d 88d0 fc3d
000000f0: ab43 18bc f962 373d 0879 5a3d fedd 073e
00000100: 665c dc3d 166c a83d ef45 0a3e 4395 bf3d
00000110: 5746 123d 524c 1c3e b10a 1bbc 7291 933d
00000120: 345e b1bd e0a4 d5bd b8d2 89bc 2ff7 833c
00000130: 49a9 f43d d4af 91bd f397 053e 78a6 2fbc
00000140: eb5f 663d 30a9 bdbd ec7b d93d f2f7 033e
00000150: 6ecd b83d 47a7 16be c26f 773d 1496 0c3c
00000160: cb88 cfbd 9cee 3c3d e160 073d b6ce f53d
00000170: 3bf4 e1bc a149 12be 9661 bc3d f9ab 26be
00000180: ea87 9f3d 7648 0b3e 2ebc 883d b012 4f3d
00000190: 3907 41bb c3e4 09be 490f 2dbd 6086 13be
000001a0: 627e 2fbc 7548 b73d cf7c 24be 820d 2ebd
000001b0: 829d e3bd b50c 2a3e db6f 15be 6b21 02be
000001c0: 19e6 ebbd f9a3 a23d c5d5 2f3d e198 7d3c
000001d0: ef77 1cbe 035e eb3d 12b6 063d 23d6 a7bd
000001e0: ea15 3fbd bfd0 953d 116b 8d3d ea22 063e
000001f0: 39cb b2bd 5d1b 203e 8fa5 d23c 288a 033e
-0.14590342 0.012088716 0.100684054 0.0714288 -0.08126358 -0.019719053 0.09910044 0.14141534
-0.107825935 0.14675757 -0.03243674 -0.1597342 -0.041247606 0.11458139 -0.024896335 -0.018779188
0.0689051 -0.10139729 -0.009228911 -0.11940011 -0.071270905 0.05473872 -0.114424154 -0.056821313
-0.123015724 -0.056638703 -0.057381336 -0.109775156 -0.04439819 -0.008106132 0.040245105 0.1080553
0.11536058 -0.045102745 -0.1350909 -0.02666832 0.08663946 -0.097144 0.025175901 -0.09690192
-0.08919407 -0.0017621021 0.011910245 -0.0890672 -0.11391994 -0.09816633 -0.08326113 0.15104756
-0.03145338 0.118205376 -0.15192068 -0.12076096 0.084103435 0.0767929 -0.11170089 -0.06916034
0.1391269 -0.040329654 0.078166366 0.12344462 -0.009293477 0.044772122 0.05333808 0.13268277
0.10759811 0.08223741 0.1350324 0.09354641 0.035711613 0.15263489 -0.009462998 0.07205476
-0.08660546 -0.10431838 -0.016824111 0.016109077 0.11946351 -0.07113615 0.13046245 -0.010720842
0.05624382 -0.092607856 0.10619339 0.12887552 0.090235576 -0.14712249 0.060409315 0.008580703
-0.10133513 0.046125993 0.033051375 0.120023176 -0.027582278 -0.142859 0.091983005 -0.1627654
0.077895954 0.1360186 0.066765174 0.05055493 -0.0029453768 -0.13466172 -0.042250905 -0.14406729
-0.010711284 0.08949367 -0.16063236 -0.04249335 -0.111140266 0.1660641 -0.1459345 -0.1270806
-0.11518497 0.079414316 0.042928476 0.015478344 -0.15280126 0.11492541 0.03288848 -0.0819514
-0.04665176 0.07315206 0.06905187 0.13099256 -0.08730168 0.15635438 0.02571371 0.12845671

critic.2.weight f4 [128, 128]
00000000: 6d7c bc3d f923 9dbd 21c8 e23c 20b6 643d
00000010: ba6d 8fbb 7323 733d 16d9 8dbd a17d 823d
00000020: 82f0 86bd 5029 f23c 0b41 9fbc 135d c03d
00000030: 1f6b 6bbd 9f4d 873c f8ef b0bc d56f 103d
00000040: ec98 e3bc 3d78 0c3c 5e39 b93c e40c 9e3d
00000050: b759 72bd 5af8 2f3d 6181 173d bb0e 7d3d
00000060: ba3a 1dbd 1d4e 8ebd 30ac d3bc 9f43 0e3d
00000070: 338c b9bc 7c29 903d 8f34 723c f125 053d
00000080: 6fa6 113d 1567 393d e5da 1d3d e8f0 643d
00000090: 67c7 cd3d 5711 fcbc 0fd7 b2bd 668e 9cbc
000000a0: 8457 1cbd e89d 7abd 119c 11bd 954b 59bd
000000b0: 49a9 243d eba4 453d ae30 113c bec2 98bd
000000c0: a345 51bd a61c 88bd b7c1 20bc 3a10 5d3d
000000d0: cf57 ba3c 4e81 573d 2469 4bbd 8213 cb3d
000000e0: 4777 63bd e985 27bb a1b0 cf3d 86df 523d
000000f0: b6ea 413d 852a 25bd 5018 bdbd 7c46 23b6
00000100: 67a4 393d 6636 9a3c 1172 843d 283b 2b3d
00000110: 962e d0bb c686 c7bd c40a e13c c4d1 dfbb
00000120: 8e1d 9339 e197 8e3d 94ee 9abd 6cc2 723d
00000130: dfa5 b5bd 5ab7 bf3d 6947 a3bd 520e 073d
00000140: ffd2 2f3c 6916 a9bc 30b9 30bd 37d8 24bd
00000150: cd7b e0bd eba8 c83d a43f ccbb 1f51 153c
00000160: 0502 b5bd dfb3 2e3d 41b2 70bd 7eb0 2f3d
00000170: b7a9 0fbd 982e b93d ea3b a8bd 1644 85bc
00000180: 4e65 b4bc 9f9a f6bc 8b34 8c3c c482 2b3d
00000190: f034 b5bc 1730 1dbc c861 5f3d f37b 86bd
000001a0: 9b5d 1ebd b18f cfbd f7ae 56bd 72e1 723d
000001b0: abba 1dbd 90fb c7bd a0a7 483b a988 3e3c
000001c0: 91f8 bbbc 84b1 ec3b c62e 9f3d e9c1 e13d
000001d0: be91 0bbd 7446 93bb 09bf 6d3d 7d70 e13d
000001e0: 271f 563c ad24 b6bd a760 0abd d52b 043d
000001f0: c8ba 2bbb fd04 793d 3d4c 63bd e5f9 6bbd
00000200: 0dbf 643d fbdd 8abd 8c8b 44bd 0ec9 43bc
00000210: 2008 4a3d 18f3 74bc e20f 123d c459 763d
00000220: 0bec fdbc 38c4 6c3b 5eb6 87bd f7df 65bd
00000230: 4f7e 2bbc 95df 5f3c 74e1 66bd 799e 8cbd
00000240: a53e 8a3d a9db adbd 1634 35ba 7bc0 263d
00000250: 4667 8a3d df22 133d 80b0 563d 9b96 50bc
00000260: 650c 23bc 31c4 043d 2bc7 433c 3aae 36bd
00000270: a5d8 7d3d 3975 d73c c6dc 3f3d 7eed adbd
00000280: 142d a1bd 230b 8839 7501 85bd 5aa8 c63d
00000290: 37be 7e3d 97b6 1b3d 319d 07bc a6cc ff3c
000002a0: 15b7 d23b e9a2 213d efce a03c 3605 2cbd
000002b0: c692 b23d 7b7c 57bc f9b3 da3d 2ad7 c6bd
000002c0: 6a98 893d 6152 033d 2049 afba bb73 f6bb
000002d0: 2884 9e3d 208b 1e3d b3f0 e53c 4f24 83bd
000002e0: e2ac babc 50d0 013d d4b8 b93b 302f bcbd
000002f0: 9358 c33d e90a 493d 4d2a 98bd bb0a ab3c
00000300: 6207 a0bb a4d7 73bd 3a67 5ebd 8dfc 9c3d
00000310: a845 e73a b743 273c cabc 13bc 29e2 ac3d
00000320: c542 943d 69f9 8abd 6729 c23c f691 12bd
00000330: 46c4 6bbd 0ded 0e3d 893c 56bd bfdb 23bd
00000340: 1392 c8bc 41c7 d6bd 8ef5 8bbd 53a2 d2bc
00000350: bc65 04bd d106 5e3d 37a6 8dbc 99f0 9bbd
00000360: bec6 143d 2263 84bd 3d46 a73c 80ad c4bc
00000370: cc1c 61bd 73a6 07bd d80d 85bd 5147 523d
00000380: 9eaa f6bb 144a 6dbd 31a4 5b3d e1df 0c3b
00000390: 2a6e 853d 2ff6 42bd 2439 843b 808d 383d
000003a0: cf01 e83b f498 a8bd 2ad5 323d da03 04bc
000003b0: cc1e 09bd 29de 81bc 8153 123d d908 08bc
000003c0: b12a 5abd 0085 b33c e92e c73d d7ab 9b3c
000003d0: d02f a23d de3f 57bd cde2 c3bb 5008 693d
000003e0: bbfa 89bd 482e b3bd 4930 6dbd b220 33bd
000003f0: 09ef 44bd 0710 4f3d d9fd 913b e492 abbb
0.0920342 -0.07672877 0.02768332 0.05583775 -0.004377094 0.05935998 -0.069261715 0.06371618
-0.06588842 0.029560715 -0.019440195 0.093927525 -0.057475206 0.016516505 -0.021598801 0.0352629
-0.02778288 0.008573589 0.022610363 0.077173024 -0.05916759 0.042961456 0.03698862 0.061781626
-0.038386084 -0.06948493 -0.025838941 0.034732457 -0.02264986 0.070391625 0.014783039 0.032506887
0.035559114 0.045264322 0.038538832 0.05589381 0.100477986 -0.030769987 -0.087324254 -0.01911087
-0.0381694 -0.061185747 -0.035549227 -0.053050596 0.040200505 0.04825298 0.008861704 -0.07459019
-0.0510918 -0.06646089 -0.00981181 0.053970553 0.022746949 0.05261355 -0.049660817 0.0991583
-0.055533674 -0.0025561994 0.10141111 0.0514827 0.04734298 -0.040323753 -0.09233153 -2.432992e-06
0.045322802 0.018824767 0.06467069 0.041804463 -0.0063532097 -0.09742503 0.027470954 -0.006830426
0.00028060045 0.06962562 -0.075650364 0.059267446 -0.08869528 0.093611434 -0.07972605 0.03297264
0.010731458 -0.020640569 -0.04314536 -0.04024526 -0.10961113 0.097978435 -0.0062331725 0.009113579
-0.08838276 0.042652007 -0.058763746 0.042892925 -0.035073962 0.0904209 -0.08214553 -0.016267817
-0.022020962 -0.030103026 0.017114898 0.041872755 -0.02211997 -0.009593985 0.05453661 -0.0656661
-0.038663488 -0.10134829 -0.052412953 0.059297033 -0.0385081 -0.097647786 0.003061749 0.011629262
-0.022945674 0.00722331 0.07772593 0.110233136 -0.034074537 -0.0044944827 0.058043513 0.110077836
0.013068951 -0.08893714 -0.03378358 0.032268364 -0.002620386 0.060795773 -0.05549263 -0.057611365
0.055846263 -0.06780621 -0.047984645 -0.011949791 0.049324155 -0.014950536 0.03565968 0.0601442
-0.030996343 0.0036127698 -0.06626581 -0.056121793 -0.010467126 0.013664146 -0.056367353 -0.06866164
0.0675023 -0.084891625 -0.00069123635 0.040710907 0.06757979 0.035921928 0.052414417 -0.01273122
-0.009951686 0.032413665 0.011949341 -0.04459975 0.061974186 0.026301013 0.046841405 -0.08492564
-0.07869926 0.0002594824 -0.064944185 0.09700079 0.06219312 0.038015928 -0.008277223 0.031225514
0.0064305165 0.039462004 0.019629924 -0.041997157 0.08719401 -0.013152237 0.10678858 -0.09709008
0.06718524 0.032060985 -0.0013373233 -0.0075211204 0.077400506 0.0387069 0.028068876 -0.0640341
-0.022787515 0.031692803 0.005667785 -0.09188688 0.095383786 0.04908267 -0.07429943 0.02087914
-0.0048836926 -0.059531823 -0.054297663 0.07665358 0.001764466 0.010209016 -0.009017179 0.08441574
0.07239298 -0.067858525 0.023701383 -0.03578373 -0.057560228 0.034894038 -0.052303825 -0.040004488
-0.024483716 -0.104872234 -0.06833945 -0.025712168 -0.032323584 0.05420572 -0.017291171 -0.0761425
0.036322348 -0.064642206 0.020419234 -0.024008512 -0.054959103 -0.033117723 -0.06496781 0.051337544
-0.0075276634 -0.057931975 0.053623382 0.0021495747 0.06515153 -0.04759806 0.004035132 0.04505682
0.0070802937 -0.082322985 0.04366032 -0.008057559 -0.033476636 -0.015853005 0.035724167 -0.008302891
-0.05326337 0.021914005 0.09725744 0.019002838 0.07919276 -0.052551143 -0.0059779645 0.056892693
-0.06737276 -0.08749062 -0.057907376 -0.043732353 -0.048079524 0.050552394 0.00445531 -0.0052360166

critic.2.bias f4 [128]
00000000: 8a82 4ebd 012c c9bd 75a9 19bd 4c79 dabd
00000010: f02d 453d bb70 72bd a44e db3d d037 9dbd
00000020: ea01 143c 7589 4b3d 1bfa 15bd f7c3 9d3d
00000030: 4a78 5e3d 3076 2f3c 67bc a93d f4c3 04bd
00000040: 1e5b b83d be70 b73d c8f4 bd3c 03c9 4cbd
00000050: a821 4a3d eb43 aa3d 0f33 a73d 0087 4ebd
00000060: b8f0 e93b 9fc4 c03c 09f4 c63c aa39 a2bc
00000070: f61d 8bbd e06b bebd 44e9 dd3d 6267 cc3d
00000080: 62a1 ed3c a5fd 59bd 1aef ae3d 1d12 963d
00000090: 4943 99bd ddf1 adbd 8920 d2bd a7a2 7c3d
000000a0: 48bf 283d 1b9b babc 45ef e13d 2fb1 7d3d
000000b0: 1558 8c3d 828f 7ebd 7d11 013d 1e1b 2abd
000000c0: d83e 91bd 84a5 883d 5e04 7f3d 9c73 8cbd
000000d0: 57b2 b13c 6a77 6d3d 9059 063d 338c 8dbd
000000e0: f05b 5ebd 31fe c73a 015c a2bd de73 863c
000000f0: febe c9bd 69e7 a3bd 7ffa 3b3c effc 923d
00000100: 4b14 37bc 2143 f33a 36c4 08bd 564b acbd
00000110: 61f2 613d 2cc4 e23c f090 1b3d 0f93 363d
00000120: e581 d6bc 0606 ca3d ec1a 8c3d a024 793d
00000130: 7288 853d 4575 8dbb 47ad acbc 17f9 0abd
00000140: f8c9 05bd 35d3 043d 5eb1 06bd a4d7 d33d
00000150: 9ef4 70bd eeb2 c53d a408 d0bd a394 aa3c
00000160: e12f 563d 38ef c0bd f4c2 ddbc a231 24bd
00000170: 79cd dbbd 8880 81bd f0db 433d 398c cabb
00000180: c38c 2d3d ed4f 753d 637e ce3d c458 a83c
00000190: 23b0 c3bc 19f6 653d 835f 8ebd e242 a43c
000001a0: 03e0 423d 298f f1bc 4964 bc3c 0851 79bd
000001b0: 9ba1 093d 5d53 d23d 705a 413c 4085 753d
000001c0: 8a68 5cbd f447 713c e388 bb3c 0188 e93c
000001d0: 4bd2 b13d 3e13 9dbd 647f c5bb 3c05 1c3d
000001e0: 915b 88bd b95a abbd 4d70 9f3c aa7d b3bd
000001f0: 550b 2ebd 51e4 afbd a180 bdbd 1712 3ebc
-0.05041746 -0.09822846 -0.037515122 -0.10667667 0.048139513 -0.05918954 0.10708359 -0.07676661
0.0090336595 0.049691636 -0.036615472 0.07703393 0.054313935 0.01070933 0.08287888 -0.032413438
0.09001754 0.08957051 0.02318801 -0.049996387 0.049348503 0.083137356 0.081640355 -0.050421715
0.0071392916 0.023531256 0.024286287 -0.019802887 -0.06792824 -0.09297919 0.108355075 0.09980656
0.029007617 -0.05322041 0.08541699 0.073276736 -0.07483537 -0.084933974 -0.10260112 0.061678555
0.041198045 -0.022779038 0.11031965 0.061936554 0.06852738 -0.06214858 0.03151082 -0.041529767
-0.070920646 0.066721946 0.062260024 -0.06857988 0.021691484 0.05797521 0.032800257 -0.069115065
-0.054286897 0.001525825 -0.079277046 0.016412672 -0.09850882 -0.08003122 0.011473297 0.071771495
-0.011174272 0.0018559435 -0.033390246 -0.08412807 0.05516279 0.027681433 0.03798002 0.04457384
-0.026184985 0.0986443 0.068410724 0.060825944 0.065201655 -0.004316958 -0.021078719 -0.033928957
-0.032663316 0.032427985 -0.032883994 0.103438646 -0.058827035 0.09653269 -0.10157898 0.020822829
0.052291755 -0.09420627 -0.0270705 -0.040086396 -0.1073255 -0.063233435 0.04781717 -0.0061812666
0.04237057 0.059890676 0.100827 0.02055014 -0.0238877 0.0561429 -0.06951811 0.020051423
0.047576915 -0.02948721 0.022997038 -0.060868293 0.033601385 0.102698065 0.011801347 0.05994153
-0.053810634 0.014726628 0.022892421 0.028507235 0.08682688 -0.07669686 -0.006027149 0.03809093
-0.0665809 -0.08366913 0.019462729 -0.08764203 -0.042491276 -0.0858847 -0.0925305 -0.011600993

critic.4.weight f4 [128, 128]
00000000: 12a4 a0bc 6e7c 17bd 79c2 e33c 92e9 893c
00000010: 863f 243d f300 163d 07f7 31bd e749 c9bd
00000020: a280 08bd 46f7 623d ae2b 833d e7a2 513d
00000030: eddd b23c 1e24 93ba 5436 f93c 823b c6bb
00000040: 1bdb e4bc 0b5f f13c bd74 01bb db44 c2ba
00000050: 066c 863d 8703 953b 86ff 933d 15a1 a0bd
00000060: 9ad9 babd 8c17 d3bd 2f33 363d b7bc 2dbd
00000070: 7e5c 88bd 8b3e 0abc 5a2f 37bd a9a2 a5bb
00000080: d082 953c 2e55 c2bd 6d63 8e3d 20eb 853d
00000090: d1d0 3fbc 145e 95bd eec6 cebd 5124 48bd
000000a0: 59d9 433d cdc2 7cbd d6b3 b73d 93aa 8abc
000000b0: 7c29 b93d 4491 393c 723a af3c 007d 92bd
000000c0: d902 503d b055 a1bc 3a2a 3d3d b669 b93c
000000d0: 87ab a0bd 3414 7e3d 0a31 8cbc a7cb 25bd
000000e0: 6bb1 433c 964e 4bbd 3c8b 93bd 3508 9f3d
000000f0: 5052 6a3d efac d8bc c0de d2bd f485 cbbb
00000100: bc2f b13d cd17 4e3c e6b0 13bd b3a8 45bd
00000110: 5095 b2bd bafd a2bc ed41 bcbc 3794 733b
00000120: 9046 9abc ac4f bf3d f787 0c3d d6bf 64bd
00000130: 4815 3c3c 25aa 9d3d 3887 873d 8abc 83bd
00000140: f22a c4bc fc82 d6bc b751 453d 097b 483c
00000150: eff3 52bd 6288 52bd fb6d 4abd 15cc cc3c
00000160: d006 48bd c0e7 d1bd 06ef dfbd a18e f13c
00000170: 75e8 8cbb 08e2 3a3d bddf 71bd 72c0 e73c
00000180: 25f7 9abc e705 75bd 5d23 dcbc c509 b93d
00000190: 2867 3fbc d034 1a3d 1a4e 7bbd b36c 8a3d
000001a0: 1200 babd 343a 823c 5f65 e2bd 1a3e 1abd
000001b0: 85de 6c3c 3b4f 563d 46f8 523d 24a8 d53d
000001c0: 0c6c 2abd ced8 93bd ae4a 8bbb ff05 a13d
000001d0: b321 343d b316 71bd b2e9 003c 71ef bbbc
000001e0: a1f8 c0bd 7fa9 a9bd 2fc9 e7ba 6fb5 f13c
000001f0: c875 dc3b 085d 8abd b50d b33b 6e7b 43bd
00000200: 742e e93b f626 c63a f48e a43d aab9 c73d
00000210: 2280 113c bb5b bf3d 7316 03bd fb09 60bb
00000220: 863d 2f3d 3e26 fb3c 7a31 63bd 59a9 673d
00000230: 3cc1 1abd 0962 1eba aca9 94bd 72d6 a43d
00000240: 68a4 11bd 1cee 87bc 2a2a 16bd 5cd9 4bbd
00000250: 07cc 24bd 7578 583d 7286 b8bc a159 62bd
00000260: 621f 89bc 7008 983c 233b 9c3c bc75 3b3c
00000270: caae 013d 7791 943d 68f3 cdbd e368 b3bd
00000280: 5649 8c3d 4e59 893c 817e a53c 9d14 3abd
00000290: 1b60 563d f2b3 c63d f404 243d a995 873d
000002a0: 2eb4 2e3b 1348 d33d b7c6 d1bc baeb 94bd
000002b0: 93da 713d 86a2 df3c 4e35 bbbd 3c23 b13d
000002c0: dbe2 283d b49d 76bd fbd3 c73c 636a a83c
000002d0: 715c aa39 05c4 bcbd edec 793d 24aa b73d
000002e0: fed6 503d 3949 a7bc f608 4cbc 6a7a 7bbd
000002f0: 29bb 8abd f087 6e3d 9123 313d 839a aabd
00000300: b29d 45bd 58e3 793c 70f1 bdbc 17f4 263b
00000310: a554 803c 8c1d 293d c491 b03d 51d7 36bd
00000320: 56f9 b03d 060d d4bd 10ac 843d 7224 953c
00000330: c10b 78bd 691e 03bd 6cc0 adbd 0cd0 d63c
00000340: 88d8 a8bd d551 923c c6b4 c03c e604 0ebc
00000350: 16af b8bd 7fe6 c43c 9d27 ab3c 6e81 c7bd
00000360: dca1 c33c 8512 bfbb a2ee 503d 03ad 17bc
00000370: 976d 253d 151f ad3d feb6 9c3b b414 4abd
00000380: e1ea e1bd 85f9 b33d 189f 6f3c 142c e03c
00000390: 53a5 733b 1e3d ae3c fbb2 81bd 5939 c4bc
000003a0: 5c5f 173d f473 e13b 5021 253b 8fc2 b0bc
000003b0: 2f04 213d 95e6 613d 9cd2 d73d ba03 09bd
000003c0: db25 b53d 6f12 3abd 7e2f 473d 287b aebd
000003d0: 8ac4 40bd 253b c1bc af22 e43d f49c abbd
000003e0: 5a86 7ebd 7835 05bd 9be6 8d3d 30db 103d
000003f0: 4026 dd3d 3cbc e13d 3989 3cbc 48bb 23bd
-0.019609485 -0.0369839 0.027802693 0.016835008 0.040099643 0.036622 -0.043448474 -0.09828549
-0.0333258 0.0554116 0.064048156 0.051180746 0.021834338 -0.0011225974 0.030421413 -0.0060495744
-0.027936509 0.029464265 -0.001975342 -0.0014821546 0.065635726 0.0045475396 0.072264716 -0.07843224
-0.091235355 -0.103072256 0.044482406 -0.0424163 -0.066582665 -0.008437763 -0.044722892 -0.005054791
0.018250853 -0.09488903 0.06952558 0.06538987 -0.011707501 -0.072933346 -0.100965366 -0.04886276
0.0478147 -0.061709214 0.08969848 -0.01692704 0.09041116 0.011326138 0.021390174 -0.07152748
0.050783966 -0.01969418 0.04618285 0.022633415 -0.07845216 0.062030986 -0.017113227 -0.04047742
0.011944155 -0.049635492 -0.07204291 0.07765237 0.057207406 -0.026449649 -0.102963924 -0.006211037
0.08651683 0.012578917 -0.036057375 -0.048256587 -0.08719885 -0.019896377 -0.022980655 0.00371672
-0.018832475 0.09341368 0.034309354 -0.05584701 0.011479683 0.07698468 0.06617588 -0.06432445
-0.02394626 -0.026185505 0.048173632 0.012236365 -0.051502164 -0.051399596 -0.04942129 0.024999658
-0.048834622 -0.10249281 -0.10934262 0.029486956 -0.004300172 0.045625716 -0.059051264 0.028290007
-0.018916676 -0.059820082 -0.026872331 0.090350665 -0.011682309 0.037648022 -0.06135378 0.06759014
-0.09082045 0.015896894 -0.11054491 -0.03765688 0.01445735 0.052321654 0.051506303 0.10432461
-0.041606948 -0.072190866 -0.004250846 0.07862472 0.04397745 -0.05885954 0.007868217 -0.022941323
-0.09422422 -0.08284282 -0.0017683859 0.02950546 0.006727908 -0.067560256 0.0054642805 -0.047725134
0.0071161333 0.0015117812 0.08035079 0.097522095 0.008880647 0.09343668 -0.03200383 -0.0034185636
0.042783283 0.030657884 -0.055467106 0.056557987 -0.03778194 -0.000604183 -0.07258925 0.08048715
-0.03555718 -0.016593032 -0.036661305 -0.049767837 -0.04023364 0.05284925 -0.022525046 -0.055261258
-0.016738597 0.01855871 0.019071167 0.011441644 0.031660832 0.07254308 -0.10056192 -0.0876024
0.06849925 0.016766217 0.020201923 -0.045429815 0.052337747 0.097022906 0.040043786 0.06620342
0.0026657688 0.103164814 -0.02560745 -0.07271524 0.05904634 0.027299177 -0.091410264 0.086492985
0.04123197 -0.06020899 0.024393072 0.020558542 0.000324938 -0.09217075 0.061016966 0.089679986
0.050986283 -0.020420657 -0.012453308 -0.06139604 -0.06773979 0.05823511 0.04324681 -0.08330252
-0.048246093 0.015251957 -0.023186415 0.0025475079 0.015665362 0.041287944 0.086215526 -0.044638935
0.08641307 -0.103540465 0.06478131 0.018205855 -0.060558084 -0.032011423 -0.08483967 0.026222251
-0.08244425 0.017861286 0.0235237 -0.00866816 -0.0901777 0.02403569 0.020892913 -0.09741484
0.023880892 -0.005831065 0.051008828 -0.009257558 0.040387716 0.08453194 0.0047825566 -0.04933615
-0.11031128 0.087878264 0.014625333 0.027364768 0.0037177398 0.021269377 -0.06332966 -0.023953127
0.036956176 0.006880278 0.0025196858 -0.021577148 0.03931063 0.05515154 0.105382174 -0.03345082
0.08845111 -0.045427736 0.048629276 -0.08519584 -0.047062434 -0.023587773 0.11139428 -0.08379546
-0.062139846 -0.032521695 0.0692875 0.035365283 0.10798311 0.11022231 -0.011507326 -0.039973527

critic.4.bias f4 [128]
00000000: 7824 a73d 1ecc 3f3d 59b3 08bd b785 003d
00000010: 9710 5cbc 4248 953b 0869 2bbc 14be a93d
00000020: 2a99 cabd 19f1 01bd 542e f3bc 4c2a 6fbc
00000030: 4951 1e3d 390f 93bd c764 d1bc 6dde 89bd
00000040: 7504 45bb 4463 743c aea0 99bc 0141 edbb
00000050: 52e2 c3bd 05fe 6d3d 34a3 113d fb53 3dbd
00000060: ceaf 4b3d d85e 103b ea27 7c3c 10ca b33d
00000070: d57f 803c babf 91bd 4193 2cbd 2c0c 89bb
00000080: 0501 393d 1617 1abd cc4e c73d 60de 07bd
00000090: 7610 ba3c b692 c2bd 8b75 98bd 37c9 983d
000000a0: 60b0 1dbd c674 89bd 4072 d23c 0e5c 613d
000000b0: 661c ce3d 5c82 a3bd c800 aabd 5a53 24bc
000000c0: 2d47 75bd 2d43 32bd 57c6 b23d 67dc 9ebc
000000d0: 9490 0e3d c193 2bbd 5604 41bc 0aff a33d
000000e0: fc62 1dbc 71cc 2a39 bdfe f03b b01c 193d
000000f0: 0594 94bc d35e 98bd 7a6b a13d 94a8 b93d
00000100: f865 86bc 5bb9 ac3c 1649 4fbd 9900 5cbd
00000110: 96ce ea3c 4985 3d3d 2fa5 c0bd f762 8d3d
00000120: 714a 0b3d 7f09 3ebd 0059 1e3d 5217 c83d
00000130: 7950 923d 9e93 773d aeba 47bd 4556 923d
00000140: b445 833d be0e 103d ee4b 883d 35ef 183d
00000150: 53fa 683d 24bf 053d 0f98 893d 1b48 fb3c
00000160: 1a6e 083c cb6c 4cbc 7e8a dbbc e2ed c7bd
00000170: 30ee 3cbc 2f13 91bc 44b2 3bbc 26b0 11bd
00000180: 700b 953d e426 4d3c 841f af3d 5eba 593d
00000190: 6730 edbb b06a a9bd 5684 493c adb3 edbc
000001a0: c8a2 98bd f07f 8bbc a2b2 69bd 9dac 28bd
000001b0: 6182 1b3d 3a3c 533d 082c 95bb 8672 803d
000001c0: 8c15 2dbd caea 543d 56ed 88bd 81db 35bd
000001d0: 186a 9cbd ecb4 e4bc 8cd0 38bd 3496 8c3c
000001e0: 0e9b 433d c310 253d ed30 243c 8bd5 a6bc
000001f0: abd4 0ebd fb2d d73a f6ed 443d 4ab1 c03d
0.08161253 0.04682552 -0.033374164 0.03137752 -0.01343169 0.004555733 -0.010462053 0.08288208
-0.09892495 -0.03172407 -0.029685177 -0.014597487 0.03865174 -0.07180638 -0.02556075 -0.067318775
-0.003006247 0.014916245 -0.018753376 -0.007240415 -0.095646515 0.05810358 0.035556033 -0.04622267
0.049728207 0.0022029188 0.015390376 0.08778775 0.015685955 -0.07116647 -0.04213262 -0.004182359
0.045166988 -0.037619673 0.09731826 -0.033171058 0.022712927 -0.09500639 -0.074442945 0.07460254
-0.038498282 -0.06711726 0.025689244 0.05501943 0.1006401 -0.079838485 -0.0830093 -0.010029638
-0.05988233 -0.043521095 0.087292366 -0.019392205 0.03480585 -0.041888956 -0.011780819 0.08007629
-0.009606119 0.00016288624 0.007354586 0.037380874 -0.018136987 -0.07439961 0.07881828 0.09065357
-0.016406044 0.021084478 -0.05060681 -0.053711507 0.028662961 0.04626969 -0.09406506 0.06903642
0.03400654 -0.046395775 0.038659096 0.09770073 0.07144255 0.060443513 -0.048762016 0.07145361
0.06409779 0.03517031 0.066551074 0.0373375 0.056879353 0.03265299 0.06718456 0.030674031
0.0083270315 -0.01247711 -0.026799437 -0.097621694 -0.011531398 -0.017709343 -0.011456076 -0.03556838
0.07277572 0.012521479 0.08550933 0.05315625 -0.007238436 -0.08272302 0.012299618 -0.02901634
-0.07452923 -0.017028779 -0.057055123 -0.04118024 0.037966136 0.05157111 -0.004552368 0.062718436
-0.042256877 0.051981725 -0.06685893 -0.04439879 -0.07637423 -0.027918302 -0.04512076 0.017161466
0.047755294 0.04029919 0.01002143 -0.020365497 -0.034870785 0.0016416901 0.0480785 0.09408815

critic.6.weight f4 [1, 128]
00000000: 9c4c a63d 516c eebd 7b1d cfbd d2f7 993d
00000010: a950 ccbd 35a8 373d ea95 df3d a54a 913d
00000020: f760 e9bd 3414 9b3d 3da2 74bd 4f6e c0bd
00000030: 049a f13d 3f94 f3bd fce0 dabd 2dca d33d
00000040: c934 a3bd 85f3 22bd 011f d4bd a8a5 1b3d
00000050: 477b 8bbd 2f2b 62bd a27a f3bd 0b9e 1fbd
00000060: 8817 e23d 5900 a0bd b167 42bd 0bb0 503d
00000070: 8cd6 17bd fca9 f5bc b741 b2bd fb93 ed3d
00000080: 92a0 8c3d 38b6 c5bd 2475 7a3d c58f bcbd
00000090: e1a5 2b3d b517 d8bd 1146 c2bd 193d 923d
000000a0: 4366 303d cce7 de3d 6018 d3bd 9e16 77bd
000000b0: 1bf4 c13d a42d c7bd e71f c6bd fb13 f1bc
000000c0: c603 c13d 57ad 793d 576e 9e3d a37e 783d
000000d0: 5a15 e53d 49e3 60bd 9955 a13d 32a7 993d
000000e0: 1fc9 df3d 2d57 ae3d b664 12bd 0e21 acbd
000000f0: 95b9 333d 6620 a4bd b53d 493d d094 973d
00000100: 1251 26bd 2c99 693d da6c f0bd 2128 643d
00000110: 306d e83d 274c 913d 6a22 3abd b7a7 a1bd
00000120: b122 4b3d 1228 18bd 6e28 423d f6ef 6f3d
00000130: ed09 f93d 5a00 313d a700 27bd 26d4 dd3d
00000140: 05c1 aebd 6582 c8bd c55d abbd 624c ec3d
00000150: 7d8c a0bd 2f4a ce3d 9db5 9d3d cb41 e03d
00000160: db3e e33d b7c9 323d 40f3 29bd df96 bfbd
00000170: a928 953d 2bee 39bd 2120 b13d 1fca 6a3d
00000180: f304 b83d bd87 edbd e0ec 943d 15d9 e53c
00000190: 78e1 9dbd bfdc c2bd cb03 3c3d 8e60 213d
000001a0: cf57 02bd afae 903d b21a f43d 570d 2b3d
000001b0: 38ac aabd 60e0 573d 4cbd c3bd 97b5 3ebd
000001c0: 47b5 dc3d b9d6 cd3d ee85 533d d7e6 973d
000001d0: 3e9b c7bd 46cb 94bd 7483 94bd 0458 e73d
000001e0: ae54 a23d f0e3 973d d87a 86bd 9ca5 c03d
000001f0: 6e0d d3bd 42d2 3d3d 9e26 acbd 70b5 d53d
0.08120081 -0.116417535 -0.10113045 0.07517971 -0.09976322 0.04483815 0.10917266 0.070943154
-0.11395448 0.07572213 -0.059725035 -0.0939604 0.11796954 -0.1189351 -0.106874436 0.10341296
-0.07969052 -0.03978302 -0.10357476 0.03799978 -0.06810623 -0.055216964 -0.11888625 -0.03896908
0.110396445 -0.07812566 -0.04746217 0.050949138 -0.037069842 -0.029988281 -0.0870394 0.11600491
0.06866564 -0.09653896 0.06114687 -0.09207109 0.04190624 -0.10551397 -0.0948602 0.0714056
0.043066274 0.108840555 -0.103073835 -0.060324304 0.094703875 -0.09725502 -0.09674054 -0.029428473
0.09424548 0.060956325 0.077358894 0.060667645 0.11185713 -0.054904256 0.078776546 0.07502593
0.10927033 0.08512721 -0.035740577 -0.08404742 0.043878157 -0.08013992 0.049131114 0.074014306
-0.04060466 0.05703084 -0.11739512 0.055702332 0.11348951 0.07094603 -0.045442976 -0.07893317
0.04959363 -0.03714759 0.047401838 0.058578454 0.12160096 0.043213226 -0.040772106 0.1083148
-0.08532909 -0.09790496 -0.083674945 0.11538006 -0.07839296 0.10072743 0.077006556 0.10950049
0.11095973 0.0436494 -0.041491747 -0.09354948 0.07283146 -0.04539315 0.08648706 0.057321664
0.08985319 -0.11598156 0.07271743 0.028057614 -0.077090204 -0.0951476 0.045902055 0.039398722
-0.031822022 0.07064568 0.11919154 0.04176077 -0.08333629 0.052704215 -0.0955759 -0.046559896
0.107767634 0.10050721 0.051641397 0.07417076 -0.09746407 -0.07265334 -0.07251635 0.112960845
0.079263076 0.074165225 -0.06566399 0.094065875 -0.10305296 0.046343096 -0.08405803 0.10434997
