ippo_algorithm_belief_catmouse/checkpoints/ppo_critic_0comm_rad_exp_-1run_0_catmouse.pth (torch, 163032 bytes, 7 tensors)

critic.0.weight f4 [128, 51]
000000 86 4c ae 3d 33 f1 4b bc 8e 3e ca 3d 5f 4c 93 3d
       0.085106894 -0.012447643 0.098752126 0.07192301
000010 fa 74 bf 3d 15 63 f8 3b cb e1 af 3d 1a 9f e1 3d
       0.093484834 0.007580171 0.085879885 0.11016674
000020 b7 65 de 3d 28 5a b5 3d 29 25 0a be c7 87 f7 3c
       0.10859244 0.088550866 -0.13490738 0.03021611
000030 18 0d fc bd 9d 43 be 3d dd aa 76 bc c7 15 f7 bd
       -0.12307185 0.0929024 -0.015055385 -0.120647006
000040 eb 62 11 be 19 d6 40 bb 87 90 89 3d c9 5a b2 3d
       -0.1419789 -0.0029424487 0.067170195 0.08708722
000050 75 03 13 be d9 c3 16 be 2d 35 af bd e1 d0 e2 bd
       -0.14356788 -0.14723147 -0.08555064 -0.11074997
000060 03 f1 37 bd ad 04 b2 bd 58 7f 0d 3d 2e 9f e0 bd
       -0.04490758 -0.08692298 0.034545273 -0.10967861
000070 dd 87 c5 3d 50 43 76 3d 6f 43 e8 bd b1 28 a7 bd
       0.096450545 0.060122788 -0.11340987 -0.08162058
000080 84 c2 18 be 9f 47 d9 bd 56 2d d8 bd 8e d1 d0 bd
       -0.14917952 -0.10609364 -0.10555522 -0.101962194
000090 cc 31 7a 3d ec c0 f0 bd 8b 3a 09 be a0 5a dc 3d
       0.061082646 -0.11755547 -0.13401239 0.10759473
0000a0 54 80 be bb 1d 8b 3c bd 62 04 93 bd ae c6 c5 3c
       -0.0058136377 -0.046031106 -0.0717857 0.02414259
0000b0 3f 93 a7 3d 18 6c d6 bd 18 7f bb bd 78 41 a7 3d
       0.08182382 -0.10469836 -0.091551006 0.08166784
0000c0 98 73 23 3d 0e a4 1f be ff fd 17 be 01 f6 06 3e
       0.03990516 -0.15589926 -0.14842986 0.1317978
0000d0 00 f0 8b bc 80 72 c9 3d 01 1d fb bd 90 60 74 3d
       -0.017082214 0.09836292 -0.122613914 0.0596624
0000e0 bf 45 56 bd a2 57 f5 bd 67 bc 17 3d 73 82 93 bc
       -0.05231261 -0.11979605 0.03704491 -0.018006539
0000f0 fa ec ea 3d 96 b2 df 3d 65 d7 94 3d 3c c5 0d bd
       0.11470981 0.109227344 0.07267646 -0.034611925
000100 0e 96 52 3c 2d b5 d5 bd 73 b5 fe 3b f3 6c a1 3d
       0.012853159 -0.10434947 0.0077730953 0.078821085
000110 eb fb fe bd 04 c4 15 3d e3 b0 51 3d 2e 93 a2 3d
       -0.12450393 0.03656389 0.051194083 0.079382285
000120 70 bd 85 bd 16 c5 a8 3d 1f c3 d5 bd bc f4 0c be
       -0.06530273 0.08240716 -0.10437607 -0.13765234
000130 b8 57 63 3d 55 8a 1d 3e 34 c7 86 3d 60 cf b9 bd
       0.055503577 0.153848 0.06580964 -0.09072757
000140 df bc f6 3d b0 81 df bd 87 d0 2c bc 28 5d c9 bd
       0.12047743 -0.10913408 -0.010547764 -0.09832221
000150 c7 00 90 bd c6 f7 8f bd a9 c3 bd bc e4 c0 c4 bd
       -0.07031398 -0.07029681 -0.023164587 -0.096071035
000160 ad b7 da 3d 8b 16 b4 3d 02 a7 fa 3d ce 5f 32 bd
       0.106795646 0.08793362 0.122388855 -0.043548398
000170 f2 39 bc bd 05 39 0e 3d ff 6c e4 bc 8e bf 77 bd
       -0.0919074 0.034722347 -0.027884005 -0.060485415
000180 30 f1 e7 bd ea e5 fc 3d cc 11 8d bd a9 c2 d8 3c
       -0.113253 0.1234854 -0.0688816 0.026460009
000190 d1 eb 82 bd f5 30 1b be b6 70 c3 3c 39 aa d2 bc
       -0.06392635 -0.15155394 0.023857456 -0.025715934
0001a0 13 9d 98 3c c5 e2 ae 3d b6 9e 5f 3a d4 06 9d 3d
       0.018629586 0.085393466 0.00085304247 0.07667318
0001b0 1d 1d 16 bd 38 ee 31 bd 07 70 1c bd 87 7c 09 be
       -0.03664886 -0.043440074 -0.038192775 -0.1342641
0001c0 e4 55 a2 bd b6 7d a4 bd b5 4d 9d 3d a1 e2 ff bd
       -0.079265386 -0.0803179 0.07680837 -0.12494398
0001d0 4b 37 02 3e 8c c1 33 3b 63 6f 19 be 71 80 93 3a
       0.12716405 0.0027428595 -0.14983897 0.0011253488
0001e0 b6 f8 96 3c 2a db 79 3d 8b c2 51 3d 21 3b 5e bc
       0.018429141 0.061000027 0.05121092 -0.013563902
0001f0 c3 fd c6 bd 86 89 e3 3d f1 b2 af bd 48 11 90 3d
       -0.0971637 0.11110215 -0.08579052 0.07034546
000200 c0 50 15 bd f9 77 f7 3d 2d 5d fd 3c d7 0c 04 be
       -0.036453962 0.1208343 0.030928219 -0.12895523
000210 e3 77 0a bd 99 5f d8 3d 16 c1 12 be d6 ad d6 bd
       -0.03380574 0.10565109 -0.14331469 -0.10482375
000220 72 56 cc 3c 62 2b bd 3d 23 b0 9f bd d9 53 59 3c
       0.024943564 0.0923679 -0.07797267 0.01326462
000230 cd ad 04 3d 44 85 66 3c f6 6f 10 be 58 39 87 3d
       0.03239231 0.014069859 -0.1410521 0.06602734
000240 a7 5d c1 bc cd cf 0b be fd 99 45 bd 12 fc ff 3d
       -0.023604227 -0.13653488 -0.048242558 0.124992505
000250 1a 09 c4 bd 26 79 b0 bd 75 a7 a1 bd ec 04 a1 3c
       -0.095720485 -0.08616857 -0.07893268 0.019655667
000260 46 5a 00 3e 22 00 be bb 1d f3 10 3e 14 cc f9 3b
       0.12534437 -0.0057983557 0.1415524 0.007623205
000270 71 8c ed bd cb 6c 8c 3c 45 35 25 3c d3 63 27 3e
       -0.11599053 0.01714172 0.010083501 0.16346674
000280 26 51 6e 3d e6 7c 9a bd db 0e c1 3d 46 e4 0a 3e
       0.058182858 -0.07543354 0.094266616 0.13563642
000290 17 22 83 bb 16 f6 05 be f9 7b f2 bd 6b 64 a6 3c
       -0.0040018666 -0.13082156 -0.11840052 0.020311555
0002a0 b0 83 ec 3d 5b 89 cf bd 9d 11 fe bd 7e 78 fc 3b
       0.11548555 -0.1013362 -0.12405703 0.0077047935
0002b0 16 da 51 3d 79 f4 db bd 99 29 a2 3d 6a 4b 49 bd
       0.051233374 -0.10739989 0.079180904 -0.049144186
0002c0 97 bc eb 3d 9b fc ed bd 08 8e 35 bd d3 09 b2 bd
       0.1151058 -0.11620446 -0.044324905 -0.0869328
0002d0 0a 3d 30 3d b9 c7 a4 bd 3b 44 98 bd 5a 7b 02 3c
       0.04302696 -0.080459066 -0.07434889 0.00796398
0002e0 a6 24 07 3d ca f7 d4 bd a1 25 b0 bd d9 29 03 3d
       0.032993935 -0.103988245 -0.08600927 0.03202233
0002f0 15 86 4d bc ef f5 fd 3d 79 b5 01 3e 58 d1 dd bd
       -0.012544175 0.12400424 0.12666883 -0.10830945
000300 57 91 e1 3c e3 09 07 3e 8f bb 52 bd 29 a8 e1 3d
       0.027535124 0.13187365 -0.0514484 0.11018402
000310 e1 97 69 3d e9 90 6f bd 80 f4 89 bc 32 c7 00 be
       0.05702961 -0.058487806 -0.01684022 -0.12575987
000320 98 bf 93 3c 50 9a 6d 3d bc 3f ef 3c c7 14 eb 3d
       0.018035695 0.058008492 0.029205196 0.11478572
000330 cf 7f b8 bd f8 bc 37 3d b1 55 c3 3d 71 14 0f 3e
       -0.090087526 0.04485795 0.09537829 0.13972642
000340 72 a3 ce 3d d6 e8 e7 bc 18 1d 0c 3e 2a 0c e1 bd
       0.100897685 -0.028309267 0.13682973 -0.10988648
000350 6b 20 3b bd 40 56 ab 3d 04 9c 96 bc 99 cb 64 3d
       -0.045685213 0.0836606 -0.01838494 0.05585823
000360 a2 b1 e0 bd 51 e7 8c bd b4 25 0e be 9c 5c f1 3d
       -0.10971381 -0.068800576 -0.1388157 0.11785242
000370 07 43 9a 3c b0 87 19 3d f2 bd e0 bb ee 1e ac bd
       0.01883079 0.037482917 -0.0068585807 -0.08404337
000380 81 af 11 bd 56 61 e8 3d 7b a6 21 3b c1 64 97 3d
       -0.035567764 0.1134669 0.002466588 0.07392264
000390 70 27 61 3d de 8b 9e bd 36 2b be 3d d4 ee 06 be
       0.05496925 -0.07741521 0.092855856 -0.13177043
0003a0 59 25 10 3e 92 d5 d4 bb 24 1f b9 3b eb 8e 02 be
       0.14076747 -0.006495186 0.005649464 -0.12749831
0003b0 b0 27 f8 bd 14 d2 0a 3e b6 ad ea bd 59 45 8d 3d
       -0.12116945 0.13556701 -0.11458914 0.06897993
0003c0 bc e0 19 3e 83 e2 ca bd 03 42 d4 bd 50 7e 96 bd
       0.15027136 -0.09906485 -0.10364153 -0.07348311
0003d0 26 73 63 bd ea 5c 27 3d 4f 12 2f 3d 96 80 c8 3c
       -0.055529736 0.040860094 0.04274207 0.024475377
0003e0 79 f3 97 3b a6 f3 95 3c 8a c7 0a 3e 1a e7 e2 bd
       0.0046371785 0.018304657 0.1355268 -0.110792354
0003f0 89 bd d5 bd a8 1c 73 3d 24 b4 18 3c de 50 e0 bd
       -0.104365416 0.0593535 0.009320293 -0.10952924

critic.0.bias f4 [128]
000000 00 d9 72 bd 7e 1a e4 3d 1b 29 d8 bd b8 3c 02 3e
       -0.05928898 0.111378655 -0.10554715 0.12718475
000010 69 5f 0f 3e 95 0e 25 bd 37 c6 09 bd b6 5f 3f 3d
       0.1400124 -0.04029711 -0.033636298 0.046722136
000020 d1 6c 43 bc dd 59 02 be 0e 7d 3c 3c 2e 60 76 3c
       -0.011927799 -0.12729593 0.011504425 0.015037579
000030 ac e9 aa bd c9 2d 7c 3d 6d fb 02 bb dd de 88 3d
       -0.083453506 0.0615671 -0.0019986287 0.06683133
000040 1e e2 37 bd d1 34 d6 3d 76 6f 53 3d 69 57 ad 3c
       -0.044893377 0.10459293 0.05161997 0.021159844
000050 61 7a b8 3d df b8 eb 3c b6 d3 c1 bd 8e ef 21 3d
       0.09007717 0.028774677 -0.09464209 0.039535098
000060 5b fd c7 bc a6 c7 e6 3c a9 3a f4 3c 30 db b6 bd
       -0.024412801 0.028171372 0.029813128 -0.089285254
000070 c1 95 29 bd 78 2d 97 3d f9 fc 67 bd ee f9 e0 3d
       -0.041402582 0.07381719 -0.056637738 0.1098517
000080 b4 bf e5 bc 53 b9 ff 3d 3b 31 99 3d e8 80 ef bd
       -0.028045513 0.1248652 0.07480093 -0.11694509
000090 90 e4 e9 bd 99 e1 02 bd 64 e8 39 bd cf fb c2 bd
       -0.11420548 -0.031953428 -0.04538764 -0.09520685
0000a0 e6 21 1d 3e 3d 69 0c 3d 5c 72 7d 3c 7e aa 65 3b
       0.15344962 0.03428005 0.01546916 0.0035044248
0000b0 8e e6 40 bd 98 37 71 bd 2c 91 43 3d 54 db 29 3d
       -0.047094874 -0.05889091 0.04774587 0.041468933
0000c0 cc 36 82 3c 85 98 5a 3d 94 8a d3 bd 1c c4 13 3e
       0.01589527 0.05336811 -0.10329166 0.14430279
0000d0 05 0d 99 3d b5 06 43 bc 7c 8b 32 bd 7b 6d e7 3c
       0.074731864 -0.011903455 -0.043590054 0.028250447
0000e0 58 df 9c 3d c0 5d ad ba 89 ac 11 3e 9c 93 f2 3d
       0.07659787 -0.0013226792 0.14225973 0.118445605
0000f0 9f 34 99 bd fc 2b 03 3e 10 d5 55 3b 82 ed 1b 3e
       -0.0748074 0.12809747 0.0032628216 0.15227321
000100 6a 90 ca bc 07 4b dc bc d5 58 86 3d ed 60 58 3d
       -0.024727065 -0.026891245 0.06559912 0.05282681
000110 60 2b 91 bd 84 c5 97 3d 7e 1d 1c be 13 14 dc bc
       -0.07088351 0.0741072 -0.15245625 -0.02686504
000120 0f 8f 99 3d be f3 57 bd 0f 44 0a 3e de db f6 bd
       0.074979894 -0.052722685 0.13502525 -0.12053655
000130 a4 a7 9c bd 82 87 bd bd f7 d9 f3 bd ab d5 b0 3d
       -0.076491624 -0.09254362 -0.11906808 0.08634504
000140 fc 6c 92 3d 61 26 0b be 04 de e8 bc b9 c6 e6 3d
       0.07149693 -0.13588859 -0.028426178 0.11268372
000150 5d c9 1f be fa 9a 26 3d 33 88 96 3d fb 57 3e 3d
       -0.15604158 0.04067514 0.07350197 0.046470623
000160 4a 69 af bd 9b 5b ee 3d 3f 29 98 bd df fb f4 3d
       -0.08565004 0.11638566 -0.07429742 0.11962103
000170 5a 67 af 3d 82 48 0e be b7 72 ff bc bb 06 cf bd
       0.085646346 -0.13894847 -0.03118263 -0.101087056
000180 e9 60 98 bd 3b 87 d3 bd a3 3a d8 3d 0b 12 e1 bd
       -0.07440359 -0.103285275 0.10558059 -0.109897695
000190 9e 89 96 3d b4 0e cb bd 84 8b 00 3e ab b7 6e bd
       0.07350467 -0.09914914 0.12553221 -0.05828063
0001a0 34 82 0a 3e 13 35 17 3d b4 a4 af bd 3b 9f fd bd
       0.13526231 0.03691585 -0.085763365 -0.123838864
0001b0 b3 6d 29 3b 78 a5 16 3e 83 1c d5 bc 87 92 1d 3d
       0.002585274 0.14711559 -0.026014572 0.038469817
0001c0 5c d2 b3 bd fd 6a 9c 3d 79 59 b8 bd f7 a1 d4 bd
       -0.08780357 0.07637594 -0.090014406 -0.10382455
0001d0 fb ff 16 be 4a d6 f0 bd 3c 9c f2 3a b6 a1 02 bd
       -0.14746086 -0.117596224 0.0018509696 -0.0318925
0001e0 fd 99 20 be da 97 18 3e 22 ab c5 bd e1 94 d8 3d
       -0.15683742 0.14901677 -0.096517816 0.105752714
0001f0 c7 1f ad 3c 8f a1 13 3e 46 0b 08 3d 9d 78 09 3e
       0.021133317 0.14417098 0.033213876 0.13424917

critic.2.weight f4 [128, 128]
000000 60 01 cd bd 8a 7f a7 bc 4f 09 1d bd fb aa f3 3c
       -0.10010028 -0.020446558 -0.038338955 0.029744616
000010 f4 59 3c 3a d4 7b 22 3d 76 ba 88 3d 11 90 36 bd
       0.0007185035 0.039668873 0.066761896 -0.044570986
000020 8b 07 ac bd 37 e9 f3 bb 1c e0 88 bd 2d 6b 0e 3c
       -0.08399876 -0.007443573 -0.066833705 0.008692545
000030 ff 08 bf bd 59 70 27 bd 37 3d 05 bd 39 77 ff bc
       -0.09327888 -0.040878627 -0.032529082 -0.03118478
000040 e1 cb 42 3d 11 bd fb 3b 9a 7f 17 3c 91 1c 7a bc
       0.047557715 0.0076824506 0.009246731 -0.0152656
000050 c2 a2 a3 3d 85 7e 2f bc 2b a4 0f 3d 65 73 8a 3d
       0.07990028 -0.010711317 0.035068672 0.06760291
000060 c2 26 35 3d c3 72 b8 bb 3b fb d2 ba 83 c8 12 bd
       0.044226415 -0.005628915 -0.0016096601 -0.035835754
000070 e1 f0 22 3b 0d 3b 06 bd a4 e3 9c 3d ff 43 97 3d
       0.0024862813 -0.03277116 0.076606065 0.07386016
000080 dc 33 a5 3d 9b df b5 3c 5e 1b 8e 3c 3e 90 dc 3b
       0.08066532 0.02220135 0.017347034 0.006731062
000090 a7 a3 f2 3c 00 0e 88 bd d5 25 33 bd e7 67 0c 3d
       0.029619051 -0.06643295 -0.04373725 0.034278776
0000a0 55 26 16 3d 65 58 a0 bd 49 db 32 bd a4 4b 49 bd
       0.03665765 -0.0782936 -0.043666158 -0.049144402
0000b0 e6 4e 9e bc 5c 18 d3 3c f5 cb 11 3d 5a c0 fe 3c
       -0.019324731 0.025768451 0.0355949 0.03109758
0000c0 b2 ea 84 bd 93 02 e4 3c 12 ed e0 3c df 88 75 bd
       -0.06490077 0.027833259 0.027456794 -0.059944984
0000d0 12 45 a6 bd f2 ee a8 3d f0 cf 66 3d 2b 5a 35 bd
       -0.08118643 0.082487 0.05635065 -0.044275444
0000e0 96 15 8a 3d c7 c5 32 bc 80 fb 95 3d 48 4f a8 3d
       0.067423984 -0.010911412 0.073233604 0.08218247
0000f0 bb 3d b2 bd d4 a6 6b bd aa 08 b9 bd 04 5f 6a bd
       -0.087031804 -0.057532147 -0.09034856 -0.05721952
000100 f1 75 a9 3c d3 6a 86 3d d8 22 8c bd 77 19 b6 bd
       0.020686122 0.06563344 -0.068425834 -0.08891576
000110 ba 51 e6 bb a4 69 ae b9 a8 9a 8b 3d 62 e9 04 bb
       -0.0070287855 -0.00033266575 0.06816608 -0.0020280709
000120 76 56 9b bd 05 79 36 bd 8c b4 db 3c 38 ef 9c bd
       -0.075848505 -0.044549007 0.02681949 -0.07662815
000130 1a 73 91 3c d8 ce 80 bd dc 76 21 bd f0 e4 a4 3d
       0.01775508 -0.06289452 -0.039419994 0.08051479
000140 30 38 41 bd 1d a1 42 bd 87 0d f4 3c 85 ea 64 bd
       -0.047172725 -0.04751693 0.029791607 -0.055887718
000150 d2 6c a7 bd 27 72 84 3d 6c fd 04 bd bd bb 3a 3d
       -0.08175053 0.06467085 -0.032468244 0.045589197
000160 10 73 1e 3d 15 3b 87 3d 85 d8 a7 bd 9e 65 9b 3d
       0.03868395 0.06603066 -0.08195595 0.07587741
000170 16 e0 b2 3d 55 53 42 3b 49 38 44 3d 64 5f 28 3c
       0.08734147 0.002965172 0.04790524 0.010276649
000180 db a6 47 3d 1a dd ab bd 7c 38 9b 3d 6e cd 09 bd
       0.04874311 -0.08391781 0.07579133 -0.03364318
000190 11 53 3d 3d bb 8d 10 bd c7 4a 9a bd b5 8d e4 3b
       0.046221796 -0.035291415 -0.07533794 0.0069749006
0001a0 b6 2e 57 bd 84 2c 06 bd 2f 4a 99 3d f9 03 5b 3d
       -0.05253478 -0.032757297 0.074848525 0.053470585
0001b0 41 2e 51 3b 9a c3 5b 3c 30 ae 99 bd c6 de 0f bd
       0.0031918439 0.013413334 -0.07503927 -0.035124563
0001c0 44 f8 95 3d d3 08 5a bd 9b 4a 74 3d d8 7f 25 bd
       0.073227435 -0.05323107 0.05964146 -0.040405124
0001d0 bc ea 9c bd 58 f6 f0 bc 55 e8 8a 3d 27 12 34 3d
       -0.076619595 -0.02941434 0.06782595 0.043962624
0001e0 f8 56 7a 3a ed 3a 08 3d 84 b7 8b 3d f1 5e 4c bd
       0.00095497025 0.03325932 0.06822112 -0.04989523
0001f0 06 05 09 3d 14 48 53 3d e0 38 3a bc 1a 84 82 bd
       0.033452056 0.05158241 -0.011366099 -0.063728526
000200 c4 0d dc bb 9b 43 02 3d da c4 c4 bb 12 39 f3 3c
       -0.006715508 0.031802755 -0.006004912 0.0296903
000210 a9 40 e8 bb e0 44 02 3d 74 18 83 3d 26 5a 61 3c
       -0.007087786 0.031803966 0.064011484 0.013754403
000220 91 3f b9 3a 09 6e 8f 3c 65 8f dd 3c 18 9f 82 3d
       0.0014133324 0.017508524 0.027045915 0.06378001
000230 d7 c4 a1 3d 7c 64 b8 bd c5 7f 1b 3c 5b 3a 24 bd
       0.07898872 -0.09003541 0.009490912 -0.040094715
000240 46 cd 09 bd 3e 39 17 bd be b7 58 bd e5 e1 7c 3d
       -0.03364303 -0.036919825 -0.052909605 0.061738867
000250 34 f7 88 bd 38 90 89 3d 9a 89 0c 3d 89 47 a0 3d
       -0.06687775 0.06716961 0.034310915 0.07826144
000260 f1 57 c8 bd a9 7a ef bb 96 67 65 3d c4 96 6b 3b
       -0.097823985 -0.0073083234 0.05600699 0.0035948018
000270 22 a2 a4 3c 5c b5 a9 bd 17 b7 8f bd c4 07 2c bd
       0.020096842 -0.08286545 -0.070173435 -0.041999593
000280 89 b7 cf bb c4 61 48 bd 62 e4 61 3d 47 63 ca 3c
       -0.006339018 -0.04892136 0.055149443 0.024705542
000290 1e a7 02 bd af af 90 3d ec 19 c5 bc 50 c3 a0 3d
       -0.031897657 0.07064759 -0.024060212 0.07849753
0002a0 2e a1 a6 bd 17 18 d1 3b 12 fa b4 3c f3 13 74 bd
       -0.08136211 0.0063810456 0.022091899 -0.059589338
0002b0 b7 8a 2d 3d c9 97 c3 3d 1a d9 3c 3d 8a dd ea bc
       0.042368617 0.09550435 0.04610548 -0.028670091
0002c0 b0 7f 06 3d 25 b0 ad 3d 50 3c 7e 3d 4f 9b c1 bc
       0.032836616 0.084808625 0.062069237 -0.023633627
0002d0 76 81 95 3d 51 75 80 3c 0d 67 eb 3c b5 0e 8e bd
       0.07300083 0.01568094 0.028735662 -0.06936399
0002e0 6b 30 2b 3c 5c f9 40 bb d0 17 86 3d 4c e9 16 3d
       0.010448555 -0.0029445505 0.065475106 0.036843583
0002f0 96 33 88 3d 34 ba ac bc 57 20 90 bd e2 62 92 3d
       0.06650464 -0.021084882 -0.07037418 0.07147767
000300 c9 ac 20 bd 69 93 26 bd 65 b0 95 3d ca 1f cc 3d
       -0.03922728 -0.040667925 0.07309035 0.09967001
000310 f5 86 5b bd c8 40 4c 3c f4 3b 25 3d 5c de bb 3b
       -0.053595502 0.012466617 0.04034038 0.0057332944
000320 b4 78 89 bd f8 91 aa 3c fa 0e 37 bc 51 d3 d0 3d
       -0.067124754 0.020821556 -0.011173004 0.101965554
000330 7e 48 df bc 63 43 c4 3b aa 2f 4a 3c 94 5d 7f bc
       -0.027256247 0.0059894784 0.012340466 -0.015586276
000340 71 e4 45 3d 31 70 86 bd 55 82 90 bd bc 59 15 3d
       0.04831356 -0.065643676 -0.07056109 0.03646253
000350 e8 f4 25 3d 04 69 8c 3d ea a5 21 bc 77 f9 84 3c
       0.040516764 0.06855968 -0.009866217 0.016232235
000360 24 e0 1f bd 2a d2 b2 bd e2 d5 41 3c 6a 21 e4 bc
       -0.039032117 -0.08731492 0.011830779 -0.027847964
000370 de 1e 3a bd 37 15 91 3d 06 13 84 3d 61 cb 4e bc
       -0.045439593 0.070841245 0.06448941 -0.0126217315
000380 be 60 9c 3c d9 fd 99 3d 5a df b9 3d 37 50 25 bd
       0.019089099 0.07519121 0.09075804 -0.040359702
000390 47 1c a4 bd e7 52 22 3d 68 d4 1e 3d f9 fd 14 bd
       -0.08013206 0.039629843 0.038776785 -0.03637502
0003a0 69 5a 39 3d 5c 19 94 bd 69 c0 ba 3c d8 01 80 3d
       0.045252237 -0.072313994 0.022796826 0.06250352
0003b0 52 7b 08 bd 7e 18 c0 bd 32 00 ad bc f1 b6 52 bd
       -0.033320732 -0.093796715 -0.021118257 -0.051443998
0003c0 17 33 cb bd c6 5f 84 3d 4c 5d 72 bd 6e 4f c1 bc
       -0.09921854 0.0646358 -0.059171006 -0.023597445
0003d0 c8 1b d6 3d 1d c4 cd 3c c8 7a 22 bd bf f9 a4 3d
       0.104545176 0.025117928 -0.039667875 0.08055448
0003e0 5d 11 ba bc e8 8d f7 3b a7 81 17 3c aa 07 64 bd
       -0.022713358 0.0075547583 0.00924722 -0.05567137
0003f0 9d ab 43 3c f9 3b 32 bd 02 69 eb 3c 04 86 5f 3d
       0.011942771 -0.043514226 0.028736595 0.054571167

critic.2.bias f4 [128]
000000 8f 1f a3 3d bc 42 39 bd bc 48 65 3d 9c 52 08 bd
       0.07965004 -0.04522966 0.055977568 -0.033281907
000010 5a 5d 52 3d 78 fb 4f 3b a3 9f 83 3d 61 30 3d 3d
       0.05135856 0.003173558 0.06426933 0.046188716
000020 5b 93 65 3d 5e 00 a0 bd e3 4e a0 3d aa 6a 97 3d
       0.056048732 -0.0781257 0.078275464 0.073933914
000030 2d d4 78 3d 43 8f 01 bd a0 6f 5d bc 94 ae ed bc
       0.06074922 -0.031630766 -0.013515383 -0.02901391
000040 f9 fc a3 3d 51 a2 a8 3d 74 a8 87 3d 0a f6 c3 3d
       0.08007235 0.082340844 0.06623927 0.095684126
000050 28 2b 18 3c 42 62 3d 3d 9c af ca 3c ed e8 b8 3d
       0.009287633 0.046236284 0.02474194 0.09028802
000060 22 50 1f 3d 5e 4b 31 3d 58 f2 1e bd 1b 7b 22 3d
       0.03889478 0.043284766 -0.038805336 0.039668184
000070 a8 9e 79 3d af 4b 23 bd 46 d8 92 3d 20 5b 20 bc
       0.060942322 -0.0398671 0.07170157 -0.009787351
000080 9a f1 93 bd 67 a4 43 bd 9c 7b d1 bd 67 9d 75 bb
       -0.07223816 -0.04776421 -0.10228655 -0.0037477852
000090 d2 0d ae bd 86 08 6b bd 5a f2 79 3d d8 74 5d bd
       -0.0849873 -0.057381175 0.06102214 -0.05406651
0000a0 9f e0 1a 3c b1 ed 55 bd a1 ad 4c bd 6e 33 47 3d
       0.009452968 -0.052228633 -0.049970273 0.04863303
0000b0 c0 cf f1 bc e4 e3 c5 3c 3f 24 43 3d c2 4f a1 bc
       -0.029518008 0.024156518 0.04764199 -0.019691352
0000c0 37 7b b4 3c 96 52 80 bc 6d e9 3b bc d8 1d 6b 3c
       0.02203141 -0.01566438 -0.011469227 0.014350377
0000d0 5b 9f 3a 3d 16 fa a7 bd e0 46 04 bd a9 65 b0 bc
       0.04556213 -0.08201997 -0.032294154 -0.02153285
0000e0 57 71 25 3d d8 05 92 bd fd 13 01 bd e3 58 9f 3d
       0.040391292 -0.07130021 -0.031513203 0.07780626
0000f0 22 55 88 bd 41 ea cc 3d 85 f3 95 3d 57 01 6c bd
       -0.06656863 0.10005618 0.07321838 -0.057618465
000100 60 26 d5 bd dd 71 39 3d ed 9f 72 3d ae df 07 3c
       -0.1040771 0.045274604 0.05923455 0.0082930755
000110 53 d8 24 3d e1 d3 8a 3c 04 ac f2 bb de 48 d4 bc
       0.040245365 0.016946735 -0.0074057598 -0.025913652
000120 25 aa 5c bd 7f f5 16 3c ad 00 ad bd 47 c9 ae bd
       -0.0538732 0.009213804 -0.084473945 -0.08534484
000130 24 7b 12 bd fb 36 40 bd 8f 56 32 bd 00 8d 15 bd
       -0.035761967 -0.046927433 -0.04353958 -0.03651142
000140 d3 64 16 3d fc 33 68 3c ea 75 d8 bd ea 98 bb bd
       0.036717247 0.01417255 -0.10569365 -0.091600254
000150 00 5a ad bd f1 b9 ad 3c d7 2e 81 bd 10 01 8c 3d
       -0.08464432 0.021206828 -0.06307762 0.0683614
000160 fe 48 88 3d ab ed 2b bd 59 d3 38 3d 34 53 ee 3c
       0.06654547 -0.041974705 0.04512343 0.029092409
000170 e9 d5 04 bd af 12 5a 3c 5c b9 cd 3d 7e 82 ac 3d
       -0.032430563 0.013310119 0.1004512 0.08423327
000180 24 1e 15 bb 2c 4e 62 3b 9b f9 7b bd 48 83 09 3c
       -0.002275356 0.0034531457 -0.06151734 0.008393116
000190 fa f7 95 3c 39 d1 f8 3b 1d 6a 1c 3c 1b 12 ea 3b
       0.018306721 0.0075933007 0.009546784 0.0071432716
0001a0 15 fe 76 bd 40 ba 39 bd 39 5a 9b bd 48 11 73 3c
       -0.060300905 -0.045343637 -0.07585568 0.014835663
0001b0 77 e5 77 bd 73 fb 9e 3c 8a cc e5 3c 40 98 f8 bc
       -0.06052157 0.01940701 0.028051633 -0.030346036
0001c0 79 e3 23 bd b8 c0 94 3c 63 29 b0 3d 3b 26 9b 3c
       -0.040011857 0.018158302 0.08601644 0.018939128
0001d0 c8 d2 44 3d 21 8f 98 bc df 6f 7f 3c a0 70 20 bd
       0.04805258 -0.018622937 0.015590637 -0.039169908
0001e0 9f 97 7a 3d 85 8b 58 3d eb b0 8e bd 2c 30 67 bc
       0.061179753 0.05286743 -0.06967338 -0.014110606
0001f0 0b 8a 52 3d 20 66 4e bd e1 c7 92 3d 9a 48 74 3c
       0.05140118 -0.050390363 0.0716703 0.014909888

critic.4.weight f4 [128, 128]
000000 6b ed f5 ba 40 b1 bc bd 23 40 b1 3d b0 9a 4c bd
       -0.0018762773 -0.09213495 0.08654811 -0.04995221
000010 60 f4 98 bd 66 67 1a bd 57 b1 8a bd 5a 5f cc 3c
       -0.07468486 -0.037696265 -0.06772106 0.02494781
000020 7c ce a6 3d e8 88 ba bd fc 5f 32 bd f5 20 59 3c
       0.081448525 -0.09108144 -0.04354857 0.0132524865
000030 05 a9 1b 3d 05 0f c0 bb 6b 6b c4 3c 1f 7f 24 3c
       0.038002986 -0.0058611655 0.023977002 0.010040074
000040 ce b1 71 3d 4a c9 93 bd 3b f7 be 3c b2 4a bd bc
       0.05900746 -0.07216127 0.023311248 -0.023106907
000050 e5 b6 a5 3d 81 13 09 bd b2 c9 8c bd 56 75 90 3d
       0.08091525 -0.033465866 -0.06874408 0.0705363
000060 4e 41 b3 3d b1 b2 e5 3c 1f 57 9f bd 79 51 02 bc
       0.0875269 0.028039308 -0.07780289 -0.007953995
000070 d7 51 16 3d ea d1 06 bd df 46 25 bd d1 e5 ef 3c
       0.036699142 -0.032915033 -0.04035079 0.02928439
000080 84 a7 4a 3d 86 e2 29 3d e7 23 2d 3d 4b 59 7c bd
       0.04947616 0.041475795 0.042270567 -0.061608594
000090 6a f6 a1 bb 91 2a 47 3d 60 cf 86 bb 17 11 4d 3c
       -0.004942705 0.04862458 -0.0041140765 0.012516282
0000a0 33 d4 2a bd 09 99 29 bd 1b 13 16 3d 08 16 a3 3d
       -0.041706275 -0.04140571 0.036639314 0.079631865
0000b0 c6 49 52 bd 83 a4 3c 3d 1d 17 62 bd a2 d5 1b 3d
       -0.051339887 0.046055328 -0.055197824 0.038045533
0000c0 d7 85 4d bd 32 d4 40 3d 6d 00 69 3d 25 6c 6c 3d
       -0.050176468 0.047077365 0.05688517 0.057720322
0000d0 9d d3 c5 3c 26 71 8d bc 88 08 fd bc c6 a8 a8 bd
       0.024148757 -0.017265867 -0.030887857 -0.08235316
0000e0 3d 2c be 3c 6a 06 5c bc 25 c7 87 bc 24 5b 0f bd
       0.023214454 -0.013429264 -0.016574452 -0.034999028
0000f0 ba 5d 2a 3d e1 c1 8d bc fb 02 92 3c 18 6c b4 bd
       0.04159329 -0.017304363 0.017823687 -0.0880968
000100 be cc 9f bc f2 2e b0 bd 67 8a 4b bd bf 82 ac 3d
       -0.019506808 -0.08602704 -0.049692538 0.08423375
000110 60 de 8f 3d 1d 27 97 3d 19 f3 2c 3c fa 3d 05 bd
       0.070248365 0.07380507 0.010556006 -0.03252981
000120 d1 04 47 bb a7 f9 7d 3c a8 f0 aa 3c 86 13 32 3d
       -0.003036786 0.015501416 0.020866707 0.04347565
000130 93 36 27 bd 16 9c b8 bd b4 7d b9 bd 44 9f 2c 3d
       -0.04082353 -0.09014146 -0.09057179 0.042144075
000140 94 d5 51 bc 9d 6b f3 3c b7 48 18 3d 0f 49 45 bc
       -0.012807269 0.0297144 0.03717872 -0.012041344
000150 07 3d 8d bd 7e 19 c6 bd d3 6e 8f bd 8d 8e 6a 3d
       -0.06896406 -0.09672831 -0.0700356 0.057264853
000160 13 b3 88 3d b8 fb d8 3c b2 39 e0 3d 5f 07 b2 3d
       0.06674781 0.026487216 0.109485045 0.08692812
000170 15 57 5c 3d 06 49 d1 bb 37 b1 06 bd 91 f3 c2 3d
       0.053793985 -0.006386879 -0.03288385 0.09519113
000180 46 93 e5 3c 6c 03 73 bd df 25 a6 bc e2 6b ad 3c
       0.028024327 -0.059329435 -0.02028173 0.021169607
000190 15 a2 d3 bd 50 27 7a bd b3 ab 27 3d 60 2c b1 3c
       -0.10333649 -0.061072648 0.04093523 0.021627605
0001a0 71 ec 88 bd 72 6c 33 3c 83 b9 3f bd f2 92 5f bd
       -0.066857226 0.010951148 -0.046807777 -0.054583497
0001b0 bc 85 02 bd 8e 76 94 bd 93 a9 91 bd 8f a9 34 bd
       -0.03186582 -0.07249175 -0.07112422 -0.044107016
0001c0 00 3e 30 3d d3 63 c3 bc 15 df dc bc 93 2f b1 3c
       0.043027878 -0.02385131 -0.026961843 0.02162913
0001d0 81 17 47 bd 42 27 05 3d 6d 1c c1 3c 24 03 03 bd
       -0.0486064 0.032508142 0.023573125 -0.031985417
0001e0 76 dd 8b bd 00 67 6f 3c ec 8f 3c 3d ae e3 2e 3d
       -0.0682935 0.014611959 0.046035692 0.0426976
0001f0 2f e0 84 bd 40 9a 60 bd 5d 5e 83 bd db c8 47 3c
       -0.06488072 -0.054834604 -0.06414483 0.012193884
000200 32 5a 82 bd a7 d8 1e 3d 83 1d 0d bd 5c dc db bc
       -0.0636486 0.038780835 -0.034451973 -0.026838474
000210 2e d3 96 3d b4 a9 95 bd 73 4a 26 3d db 0b 13 bd
       0.07364498 -0.07307759 0.040598344 -0.035899978
000220 83 a2 9c 3d b8 f4 b5 bd 7b e4 47 bd 83 8d 66 3a
       0.07648184 -0.08884567 -0.04880188 0.00087948906
000230 ef 6a 3e bd d9 41 14 3d 0f 20 db bd 75 ae 7c bd
       -0.0464887 0.03619561 -0.10699474 -0.061689813
000240 8c eb 02 bd 18 b0 0b bd 07 d6 ba 3c 63 a8 4b bd
       -0.031962916 -0.034103483 0.022807134 -0.049721133
000250 fe 8e cd 3c e6 6b 8c 3c 90 1c ea 38 67 6f 38 3d
       0.025092598 0.017141294 0.0001116331 0.045028117
000260 ea 70 64 bd 7b e2 14 bd 38 8b 4c bd 1a 30 dc bc
       -0.055771746 -0.0363488 -0.049937457 -0.026878405
000270 ac cb 86 3d 1e ce 7d bc 5b ac 88 bd 16 51 48 bd
       0.06581816 -0.015491037 -0.06673499 -0.048905455
000280 fa ae 9c 3d a4 76 d0 bd ec 43 c2 bd 6e c3 cc ba
       0.07650562 -0.10178879 -0.09485611 -0.0015622207
000290 ff fc 9e 3c 5c 90 2d bc 00 78 ae bc 49 9d 9d bd
       0.019407747 -0.0105935 -0.021297455 -0.076960154
0002a0 49 e7 17 3d ab d9 95 3d 02 cb 25 bb b7 2e 70 bd
       0.037085805 0.073169075 -0.0025298004 -0.0586383
0002b0 ce 38 c6 3d 55 10 8c bd 8c 42 48 3d a9 d3 20 3b
       0.096788034 -0.068390526 0.04889159 0.0024540222
0002c0 0f 42 1a 3c 9f 39 c3 bd 20 04 80 bd 5a c8 69 bd
       0.009415164 -0.09532475 -0.06250787 -0.057075836
0002d0 d9 23 24 3d 93 94 22 bc 53 8a b0 3c 7c e9 86 bd
       0.04007325 -0.009923118 0.021550333 -0.06587502
0002e0 eb 29 5f 3d 06 df 29 3d 0f aa 87 bd c1 2b 14 3d
       0.054483335 0.041472457 -0.06624233 0.03617454
0002f0 b5 21 5d 3d 5e 08 89 3d 4d 86 00 bc cc 9c 3b 3c
       0.053987224 0.06691049 -0.00784452 0.0114509575
000300 cf 3a 09 bd 68 c7 8c 3d 41 1a 5c bd f5 61 34 bd
       -0.03350335 0.06873971 -0.053735975 -0.04403873
000310 2f 53 99 bc b3 34 8a 3c 71 49 63 bd 87 b3 a6 3d
       -0.018716423 0.016870832 -0.05548996 0.08139711
000320 5c b9 23 3d d8 a3 90 bd 9d f3 50 3d 9d 05 5a bd
       0.039971694 -0.07062501 0.051013578 -0.05322801
000330 5f bd 83 3d 02 e1 cc bd d5 a3 b5 bd 65 43 a0 3c
       0.06432604 -0.10003854 -0.08869139 0.019563386
000340 36 66 d9 3b 06 1b 15 bd 21 d5 a3 bd c1 a7 97 bd
       0.006634499 -0.036402725 -0.079996355 -0.074050434
000350 36 8c 1b 3d 41 b1 89 bd 2f b2 b4 3c b2 b7 5d 3c
       0.037975512 -0.067232616 0.02205762 0.013532566
000360 84 10 bd 3d 1b f4 52 3d 4b df 4e 3c ab 49 bd 3d
       0.09231666 0.05150233 0.012626479 0.09242567
000370 43 5e 10 3b ca b7 ad 3d 6e 90 e2 3c b5 82 c0 bc
       0.002202884 0.084823206 0.02765676 -0.023499826
000380 8a 25 3c bd 3f 54 db bd e4 5f a7 bd eb 4c 20 bd
       -0.045934238 -0.10709428 -0.081725866 -0.039135855
000390 a0 b5 8a 3d 22 07 b3 3d 1c f7 bf bd 13 63 96 b9
       0.067729235 0.08741595 -0.09373304 -0.00028684046
0003a0 7b 77 b1 bd 37 32 c5 bd 79 15 39 3d 40 b1 92 bd
       -0.08665367 -0.09628718 0.045186494 -0.07162714
0003b0 86 33 2c bd 02 da 8f 3d ed 1a db bb 16 73 a8 3d
       -0.042041324 0.070240036 -0.0066865594 0.08225076
0003c0 4f da c7 3c 50 d8 82 bb 42 82 38 bd e4 f8 f7 3c
       0.02439609 -0.0039930716 -0.0450461 0.030270047
0003d0 ab 71 c5 3d 9c ac 8c bd ed 7f b6 3b 93 2f 8f bd
       0.09640821 -0.0686886 0.005569449 -0.06991496
0003e0 06 12 ea bc 2a c3 c8 bd dd 50 4d 3d e5 7c 89 bd
       -0.028573047 -0.098028496 0.050125945 -0.06713275
0003f0 68 d0 bc bd 17 57 f5 bc 5c 22 9b 3d f9 db 03 bd
       -0.09219438 -0.029948754 0.07574913 -0.032192204

critic.4.bias f4 [128]
000000 6b bb dd bc da c4 91 3c 01 ae 5d bb a6 90 ba bd
       -0.027066907 0.017794061 -0.0033825638 -0.09109621
000010 77 fc 56 3d 85 f8 14 bd fe 5e b0 3d 56 9a cc bd
       0.052486863 -0.03636982 0.08611868 -0.09990375
000020 f9 09 05 3d fa a2 09 3c cc 38 41 3d 7a 6b 46 bc
       0.032480214 0.008400673 0.047173306 -0.012110585
000030 4c 1e 34 bd 88 4e ec bc 4b fc 50 3d 1d 99 0e 3d
       -0.043974206 -0.02884604 0.051021855 0.03481399
000040 79 88 ae bd 63 27 c5 bd fc 6c 96 3c b5 c6 87 3d
       -0.08522124 -0.09626653 0.018362515 0.06629697
000050 42 ad 9e bd 62 12 9e bd fa a0 a2 3d 28 bc b0 bc
       -0.0774789 -0.0771835 0.0794086 -0.021574095
000060 17 27 b7 3d 05 0c 08 bd cb a6 a0 3d f8 a7 09 3d
       0.08943003 -0.033214588 0.07844313 0.033607453
000070 a2 46 87 3d 30 a3 89 3d 08 a5 c0 bd 08 ee 62 bd
       0.06605269 0.06720579 -0.09406477 -0.055402786
000080 4e 4f b9 bd 4d 7f 09 3d 30 98 e0 3c 7a 0f 69 3d
       -0.09048329 0.03356867 0.027416319 0.056899525
000090 ae 44 9e 3d 4f 31 82 3d 5a 21 c2 3d 3e 7d 4c 3d
       0.07727943 0.06357061 0.094790176 0.049924128
0000a0 d0 79 92 3d a0 64 1c 3d ff 54 0d bd 9e a2 98 3c
       0.0715214 0.0381819 -0.034504887 0.01863223
0000b0 01 1c 7f 3d 71 66 3c 3d b9 c6 7a bd 7b 76 aa bd
       0.062282566 0.045996133 -0.061224673 -0.083233796
0000c0 b1 fc 70 3d ad ed bb bd 9c b5 c6 3c 4f 7f be 3d
       0.058834735 -0.091761924 0.02425652 0.09301626
0000d0 99 2c 80 3d 80 dd bf bd ea 09 29 3b 43 7a 47 bd
       0.06258506 -0.0936842 0.0025793263 -0.048700582
0000e0 c3 7e 98 3d 6b 35 3c bc 18 f1 56 3d c9 3f c4 3d
       0.07446053 -0.011487345 0.05247602 0.095824786
0000f0 29 07 25 3d bd f3 c4 3d 43 bf 91 3c d3 8d 39 3c
       0.04029003 0.09616802 0.017791396 0.011325317
000100 45 4c b1 3d e0 1f 97 3d 1f da 42 3d 9a ae 83 bd
       0.086571254 0.073791265 0.047571298 -0.06429787
000110 d1 72 26 bd 6e b0 02 3c 73 79 86 3d 87 95 ac 3d
       -0.04063684 0.007976634 0.06566133 0.084269576
000120 58 80 54 bd 73 c5 9b 3a 4f fa 92 bc 65 61 84 3c
       -0.05188021 0.0011884406 -0.017941622 0.016159723
000130 23 a4 8b bd 97 a5 80 3d 72 33 b9 3c d0 e7 63 3d
       -0.06818416 0.06281584 0.022607539 0.055640996
000140 9d b0 ea 3c 1d 40 39 bd 82 12 a5 bb d2 7b 58 3d
       0.028648669 -0.04522716 -0.0050376067 0.05285246
000150 15 48 64 bd 59 ed 3d bd 89 d9 20 3d a4 a2 33 bd
       -0.055732805 -0.04636893 0.039269958 -0.043856278
000160 f6 d2 27 3d 77 6f c2 bd 2b fd 4e bd c7 bc 8c 3d
       0.040972672 -0.094939165 -0.05053441 0.06871944
000170 d7 ee 30 3d 92 04 a0 3d 09 d7 3d 3d ea 75 8e 3d
       0.043196525 0.07813372 0.04634765 0.06956084
000180 c4 47 71 3d 13 88 a9 3b 60 9f 5d bd b4 92 7a 3d
       0.05890633 0.005173692 -0.05410707 0.061175063
000190 07 28 b2 bd 53 44 63 bd 46 40 40 3d 00 d1 40 bd
       -0.08699041 -0.05548508 0.046936296 -0.047074318
0001a0 5f 39 2c 3d 63 9e 4a 3d af 06 b4 bd 8c 7f 32 bb
       0.0420469 0.049467456 -0.08790337 -0.0027236668
0001b0 fc c2 4d bc 8e 6c d0 bd db a9 bf bc 8b 08 90 bd
       -0.012558695 -0.10176955 -0.023396423 -0.070328794
0001c0 04 6a 62 bd 84 8c 49 bd 2c 77 0d bd 3e 2d 8c bd
       -0.055276886 -0.04920627 -0.03453748 -0.06844567
0001d0 66 7b a1 bd 35 76 66 bd 62 54 5d bd e9 96 fd bb
       -0.078848645 -0.056265075 -0.05403555 -0.007738937
0001e0 d8 22 3f bc 97 35 8b 3c f7 38 12 bd bf 50 10 bb
       -0.011666022 0.016993327 -0.035698857 -0.0022020785
0001f0 33 fc 19 bd e2 29 15 3d b4 c3 8c 3d 63 81 8b bd
       -0.03759403 0.036416896 0.06873265 -0.06811788

critic.6.weight f4 [1, 128]
000000 72 2e 44 3d 76 c7 8a 3d 7a c1 c1 3d 6e e6 c8 bd
       0.047895856 0.067763254 0.09460731 -0.09809576
000010 62 58 b1 bd 10 01 73 bd 29 f2 0c 3d 56 f9 ad bd
       -0.08659436 -0.059327185 0.03441063 -0.08494823
000020 5e bb d3 3d 3d cc 43 bd 51 12 08 bd 3e a7 a2 3d
       0.10338472 -0.0478022 -0.033220593 0.07942055
000030 a1 c0 5e 3d 71 ab 64 bd 62 40 c6 39 7f ca e2 bc
       0.054382924 -0.05582756 0.00037813472 -0.027684448
000040 8b c3 bc bd 63 3e cd bd 7a 50 3f bd 2d a9 aa bd
       -0.09216984 -0.10021665 -0.046707608 -0.08333049
000050 2d af af bd 56 b8 69 bd 0f 64 27 3d 1a 53 9c bc
       -0.08578334 -0.057060562 0.040866908 -0.019082595
000060 42 8b 96 3d 38 bd 48 bd 46 3c 34 3c 1d 3e 9f 3d
       0.0735078 -0.049008578 0.011000698 0.07775519
000070 66 a0 b3 3d 9d f9 16 3d 51 4a b9 bd 02 7c 7a 3d
       0.08770828 0.036859144 -0.09047378 0.06115342
000080 3a c6 c5 bc 8a 01 09 3d 95 71 b2 bd 90 46 de 3c
       -0.024142373 0.033448733 -0.0871307 0.027133256
000090 8c 8d ac 3d ad a9 b3 bd 72 2c 12 3d c5 05 66 bd
       0.084254354 -0.087725975 0.035686918 -0.056157846
0000a0 ef d8 cc 3d f6 67 a4 bd d5 be 46 bd c9 ef a6 3d
       0.10002314 -0.080276415 -0.048521835 0.08151204
0000b0 b0 db 37 3c 48 12 da 3c 36 1e 6b bd 19 0a 16 bd
       0.011221811 0.026620045 -0.05740186 -0.036630724
0000c0 b2 f4 b7 3d f2 d4 92 bd 1e 06 af bc 6f 90 7a 3d
       0.08982219 -0.07169522 -0.021365222 0.0611729
0000d0 f6 2e ff bc ca bd 5c bd 80 ec bc bd 50 14 6b bd
       -0.031150322 -0.053891934 -0.09224796 -0.05739242
0000e0 d8 4a ad 3d 6f 1f c3 bd 10 52 17 3c 17 e1 29 3d
       0.08461541 -0.0952748 0.009235874 0.041474428
0000f0 41 6a 4a bd 25 70 b0 3d 09 70 43 3d e8 ac c2 bd
       -0.049417738 0.0861514 0.047714267 -0.095056355
000100 56 0d a9 3d a7 9e 33 3d 14 ff 11 bd 0e 0f 66 3d
       0.08254497 0.043852475 -0.035643652 0.0561667
000110 a0 59 16 3d 0f 94 07 bd da 42 46 bd 0e b6 a3 3d
       0.036706567 -0.033100184 -0.0484036 0.079937086
000120 3d 04 ae 3c 3e e6 a1 3d 01 e0 6f bd df 68 b2 3d
       0.021242255 0.07905243 -0.058563236 0.08711409
000130 4f 17 84 bd fd 1f 8d 3d 10 75 83 3d 7e e3 b7 3d
       -0.06449758 0.06890867 0.06418812 0.089789376
000140 40 41 99 3d 6b df a9 bd 87 f3 90 bd 1f e6 3c bc
       0.074831486 -0.08294567 -0.07077699 -0.0115294745
000150 f1 29 d0 3d d1 0d 6a 3d c1 0f 6f bd 05 e3 5a 3d
       0.1016425 0.057142083 -0.058364633 0.05343916
000160 00 1b 36 3c 47 8e 5d bd b4 f8 88 3d 20 04 c6 3d
       0.011114836 -0.054090764 0.06688061 0.096687555
000170 76 d7 b1 3d e4 62 13 3d 85 ce 5f bd 53 7f 9a 3d
       0.08683674 0.03598298 -0.05464031 0.075438164
000180 ef d6 02 bd 76 2f 9b 3d ec 4f bb bd 60 b4 47 bd
       -0.031943258 0.07577412 -0.09146103 -0.048756003
000190 a9 0e 3e bd e5 b7 40 bd 9b f8 9d 3b 86 84 8b 3c
       -0.0464007 -0.047050375 0.004820896 0.017030966
0001a0 95 77 20 bd b1 52 c1 bd 56 f3 d5 bd 7e 06 7a 3d
       -0.039176542 -0.094396 -0.10446803 0.061041348
0001b0 e5 d9 1f 3d 23 31 ad bc 36 83 a5 3d f9 34 a6 bd
       0.03902616 -0.021141594 0.08081667 -0.081155725
0001c0 d7 e6 b5 bd f5 29 a4 bd 56 00 0f 3d 0a d0 9e bd
       -0.0888192 -0.08015815 0.03491243 -0.07754524
0001d0 db 3a e9 bc 74 0c b5 bd d9 4a 18 3d bd 04 92 bd
       -0.028470447 -0.08840266 0.037180755 -0.0712981
0001e0 a8 d2 bb 3d ee 96 f5 bb cf 60 7f bd b1 d0 c1 3d
       0.09171039 -0.007494799 -0.062348183 0.09463633
0001f0 c2 53 74 3c 44 7c bd bd d6 74 7a bc 8e 5c e2 bc
       0.014912548 -0.092522174 -0.015286645 -0.027632024
