ippo_algorithm_belief_catmouse/checkpoints/ppo_critic_0num_agent_exp_2_run_0_catmouse.pth (torch, 163044 bytes, 7 tensors)

critic.0.weight f4 [128, 51]
0	0x3bd4ca1e	0.006493821
1	0x3d2b8944	0.041878954
2	0xbe08a0e9	-0.13342632
3	0x3d85d72b	0.06535181
4	0xbd653d67	-0.05596676
5	0xbd0fea2d	-0.035135437
6	0xbca596d6	-0.020213526
7	0x3de0a327	0.10968619
8	0xbd3e1e1f	-0.046415444
9	0xbd6052b6	-0.05476638
10	0xbd9ef1ba	-0.077609494
11	0xbc8dd6f9	-0.017314421
12	0xbc947606	-0.018122684
13	0xbd0890bf	-0.033341166
14	0x3e109579	0.1411952
15	0xbd80918c	-0.06277761
16	0x3d57c0bb	0.052674036
17	0x3deec5de	0.11658834
18	0x3d430836	0.047615252
19	0x3da83946	0.08214049
20	0x3d28323a	0.041063525
21	0xbdcf2673	-0.101147555
22	0xbd440ada	-0.04786191
23	0xbe2bc927	-0.16775952
24	0xbd10896c	-0.035287306
25	0xbdd3db60	-0.10344577
26	0x3e0e1bb1	0.13877751
27	0x3d91c462	0.07117535
28	0xbba7993a	-0.0051147016
29	0xbc96f7fa	-0.018428791
30	0xbe0dc922	-0.13846257
31	0xbcc953ca	-0.024576087
32	0x3d512355	0.051059086
33	0xbe337594	-0.17525321
34	0xbe0bbd1e	-0.13646361
35	0xbd5a3e2a	-0.05328194
36	0xbda945f2	-0.08265294
37	0xbd9789b9	-0.073993154
38	0x3d5e8fbc	0.054336295
39	0xbc655963	-0.013998362
40	0x3db743c0	0.08948469
41	0xbcfff37b	-0.03124403
42	0xbd932a8e	-0.07185851
43	0x3d45c8fd	0.04828738
44	0xbdae06c3	-0.084973834
45	0xbd4e9e4f	-0.050443944
46	0xbde34c11	-0.11098493
47	0xbe025b1e	-0.12730071
48	0x3bbf4387	0.0058369073
49	0x3d2df56f	0.04247039
50	0x3de72316	0.11285989
51	0xbe0dfa97	-0.13865124
52	0xbccbb643	-0.024867183
53	0xbccfa45e	-0.025346931
54	0x3d34da93	0.04415376
55	0xbd8a44ed	-0.06751428
56	0xbdc5aed1	-0.09652484
57	0x3e07248f	0.1319754
58	0x3d83e315	0.06439797
59	0xbe092883	-0.1339436
60	0xbb97dcc8	-0.0046344735
61	0x3d7dfaab	0.062006634
62	0x3cd11b3d	0.025525684
63	0xbc91da2c	-0.017804228
64	0x3d18be14	0.037290648
65	0xbdd439c8	-0.103625834
66	0xbce11c22	-0.027479235
67	0xbe1c1d81	-0.1524563
68	0x3e04c9c5	0.12967594
69	0xbe0ad40d	-0.13557453
70	0xbd529d08	-0.051419288
71	0x3c75bed9	0.014999115
72	0xbd87fd07	-0.06640058
73	0xbe4b5be8	-0.19859278
74	0xbcf0ea4a	-0.029408593
75	0xbe1959a0	-0.14975595
76	0x3da7f76b	0.08201488
77	0x3d456f12	0.048201628
78	0x3defec75	0.117150225
79	0xbce9cfcd	-0.02854147
80	0xbe27d6dc	-0.16390556
81	0xbe2413ea	-0.16023222
82	0xbdde44e3	-0.10852983
83	0xbd1bd64f	-0.038046177
84	0xbcc2e959	-0.02379291
85	0x3d8fe021	0.07025171
86	0xbd9db3a0	-0.077002764
87	0xbd8ea332	-0.06964721
88	0xbdc2f24d	-0.095188715
89	0xbc43da50	-0.011953905
90	0x3dbd4a6e	0.09242712
91	0x3de00b13	0.10939612
92	0x3da82959	0.082110114
93	0x3dad6146	0.08465819
94	0xbdb90952	-0.09034981
95	0xbe06f5fe	-0.13179776
96	0x3d51510c	0.051102683
97	0x3c6ee762	0.014581533
98	0xbde3a322	-0.111150995
99	0xbe127354	-0.14301807
100	0xbe25a997	-0.16177975
101	0xbcd734af	-0.026270239
102	0xbdd82637	-0.10554164
103	0x3cfc3578	0.030787215
104	0xbdab5723	-0.083662294
105	0x3dbe7f4d	0.093016244
106	0x3e4d67c5	0.20059116
107	0xbd2bb024	-0.041916028
108	0xbd99fada	-0.07518549
109	0xbd186641	-0.037206892
110	0xbd7fedec	-0.06248276
111	0xbe0e2150	-0.13879895
112	0x3cc8052f	0.024416534
113	0xbd18e4e9	-0.03732768
114	0x3c1e300f	0.009655013
115	0xbe05952b	-0.13045184
116	0xbde4b16a	-0.111666515
117	0x3d807ac3	0.06273415
118	0x3e24b98f	0.1608641
119	0xbd8fb24b	-0.070164286
120	0x3d94a27a	0.072575524
121	0x3dd28e8d	0.10281096
122	0x3da399b1	0.07988299
123	0x3e2f3807	0.17111216
124	0x3e3bf893	0.18356542
125	0x3d1109e9	0.03540984
126	0xbd47427a	-0.04864738
127	0xbc512ecb	-0.012767504
128	0xbdf098d4	-0.117479
129	0xbc824223	-0.015900677
130	0x3b2d225d	0.0026418187
131	0xbccf4b42	-0.02530444
132	0xbd7864a4	-0.060642853
133	0x3d6836f1	0.05669302
134	0x3d457811	0.048210207
135	0xbdb73728	-0.08946067
136	0x3e15fc77	0.14647089
137	0x3dba7ed3	0.09106221
138	0x3de7acfb	0.1131229
139	0x3c607102	0.013698818
140	0xbdd7f2c4	-0.10544351
141	0xbdc24e34	-0.09487572
142	0x3e1eb386	0.1549817
143	0xbdbae3b7	-0.091254644
144	0xbbe2a982	-0.0069171796
145	0x3d43f763	0.04784335
146	0xbbb40b32	-0.0054944986
147	0xbc9f7d48	-0.019468918
148	0xbdc5a374	-0.09650317
149	0x3dba0699	0.0908329
150	0x3e0c86b5	0.13723262
151	0x3cbb855f	0.022890745
152	0xbde6357b	-0.11240669
153	0x3d77b7bf	0.06047797
154	0xbcf0e455	-0.029405752
155	0x3dde606a	0.10858233
156	0x3dd580f7	0.10424989
157	0x3c5769d2	0.013147788
158	0xbd2c0ca3	-0.04200424
159	0x3d350588	0.044194728
160	0x3d35a622	0.04434789
161	0x3e027a1f	0.12741898
162	0x3def4f26	0.11685018
163	0xbcd3f1c1	-0.025872113
164	0x3d230d54	0.039807633
165	0x3e07622b	0.13221042
166	0x3db36586	0.087595984
167	0xbe108573	-0.14113407
168	0xbe05df12	-0.13073376
169	0xbd41db84	-0.047328487
170	0x3d376871	0.044777337
171	0xbd0e05bf	-0.03467345
172	0x3d36e057	0.04464754
173	0x3cf10ac9	0.029424088
174	0x3e043e54	0.12914401
175	0x3dadbabb	0.08482882
176	0xbd3b3d9d	-0.045713056
177	0xbc02dddf	-0.0079874685
178	0xbd8641ec	-0.06555542
179	0xbd880545	-0.0664163
180	0x3df00a34	0.11720696
181	0x3d8c6079	0.06854338
182	0x3e16f049	0.14740099
183	0x3decefb7	0.115691595
184	0x3dda2728	0.10652
185	0xbcd9d6b7	-0.026591642
186	0xbdab9740	-0.08378458
187	0xbda6314b	-0.08114871
188	0x3e3316ce	0.17489168
189	0xbe16431b	-0.14674036
190	0x3cdd5ffd	0.02702331
191	0x3de0e234	0.10980645
192	0x3d858ab9	0.065206
193	0x3dfe2f36	0.124113485
194	0xbe0c43fd	-0.1369781
195	0x3d429456	0.047504745
196	0xbc9aa24f	-0.018876223
197	0x3dc5503d	0.09634445
198	0xbc4a5445	-0.012349193
199	0xbdb77abc	-0.089589566
200	0xbddb2d43	-0.10701992
201	0xbdf71e6d	-0.1206635
202	0x3e0d7b69	0.13816608
203	0x3dcec614	0.10096374
204	0xbd3a6d2c	-0.04551427
205	0xbd9e53b7	-0.07730811
206	0x3dd3b8c5	0.10337976
207	0x3e05e1e1	0.13074447
208	0x3e029518	0.12752187
209	0x3e13cc5a	0.14433423
210	0x3de20bbb	0.11037394
211	0xbdf6f979	-0.12059302
212	0xbcd3c054	-0.025848545
213	0xbdc2c1c2	-0.095096126
214	0x3d5ad562	0.053426154
215	0xbb98e2a7	-0.004665691
216	0xbc990deb	-0.018683394
217	0x3dc02a21	0.093830355
218	0xbd9b34b7	-0.07578414
219	0x3dcfe178	0.101504266
220	0x3e17d489	0.1482717
221	0xbd6d3d63	-0.05791987
222	0xbc1d4edb	-0.00960132
223	0xbd36ef96	-0.04466208
224	0xbd7d6cf1	-0.061871473
225	0x3d304808	0.043037444
226	0x3e14736c	0.14497155
227	0x3e142f4c	0.14471167
228	0x3e05276f	0.13003324
229	0x3def1b6c	0.11675152
230	0xbdd22071	-0.10260094
231	0xbdb7a109	-0.08966262
232	0x3e05c618	0.13063848
233	0x3e00ab87	0.12565432
234	0xbd0503ac	-0.032474205
235	0xbcdf540e	-0.02726176
236	0xbd267d55	-0.04064687
237	0xbdc35882	-0.09538366
238	0xbd49a4a2	-0.04922927
239	0x3dc0d57c	0.09415719
240	0xbb9b0f71	-0.0047320654
241	0x3d1b57c7	0.037925508
242	0x3bce169b	0.006289316
243	0xbcd110e3	-0.025520748
244	0xbdeb03e6	-0.11475353
245	0x3dbc8607	0.09205251
246	0xbc88cd9d	-0.016699607
247	0xbc18ebb2	-0.009333538
248	0xbcc93b17	-0.024564309
249	0x3dfc8166	0.12329368
250	0xbdd5e1c2	-0.104434505
251	0xbd8ad035	-0.067779936
252	0xbdc2b8ab	-0.09507879
253	0x3dc5e8f9	0.09663577
254	0xbdae2d02	-0.08504678
255	0x3dc9ae7b	0.09847733

critic.0.bias f4 [128]
0	0xbe0ce9d4	-0.13761073
1	0xbe281f57	-0.16418205
2	0x3e2d80b0	0.16943622
3	0x3dbb35e1	0.09141136
4	0x3d8f3fe9	0.06994612
5	0x3e2c0bed	0.16801424
6	0xbe1f8f94	-0.15582114
7	0xbda5aba8	-0.080893815
8	0x3e118f2a	0.14214769
9	0xbd0044c1	-0.03131557
10	0x3dc01253	0.09378495
11	0x3e099e5c	0.13439316
12	0xba28a454	-0.0006433178
13	0x3d1ce701	0.03830624
14	0x3dd9a4a9	0.106271096
15	0xbe230876	-0.15921196
16	0x3df9738e	0.121802434
17	0xbe23675e	-0.159574
18	0xbde95fac	-0.11395201
19	0x3e0f465e	0.13991687
20	0x3e253122	0.16132024
21	0xbdc7a77f	-0.09748744
22	0x3cc1b43a	0.023645509
23	0xbcb64da4	-0.022253819
24	0xbe1cb56a	-0.15303579
25	0xbdad39a9	-0.084582634
26	0xbce56a68	-0.02800484
27	0x3da91f72	0.08257951
28	0x3da7c861	0.08192516
29	0xbdb76d53	-0.08956399
30	0xbe00eef4	-0.12591153
31	0x3da1a9cf	0.078937165
32	0x3cd1dd21	0.025618138
33	0x3d3dc969	0.046334658
34	0x3e076a12	0.13224056
35	0xbd882b7a	-0.066489175
36	0xbdf6c046	-0.12048392
37	0xbe2c5957	-0.16830955
38	0xbe2784fb	-0.16359322
39	0xbdd7b4df	-0.10532545
40	0xbd0b5d3b	-0.03402446
41	0x3de7094c	0.1128107
42	0xbb626c62	-0.0034549464
43	0x3da00478	0.07813352
44	0x3d074899	0.03302822
45	0x3dd351ac	0.10318312
46	0xbe23fed5	-0.1601518
47	0x3e27aed1	0.16375281
48	0xbc1af819	-0.009458565
49	0x3b1b0072	0.0023651388
50	0x3b984442	0.004646809
51	0xbd81f45f	-0.06345438
52	0xbe10b6b7	-0.141322
53	0xbdcf2540	-0.10114527
54	0x3d6e733d	0.05821537
55	0xbd837291	-0.06418336
56	0xbe016dd1	-0.12639548
57	0xbe139491	-0.14412142
58	0x3e1fdbe7	0.1561123
59	0x3dc2a149	0.09503419
60	0xbc1af8f4	-0.009458769
61	0xbd6ce58f	-0.05783611
62	0xbcaa497f	-0.020786999
63	0x3dcac7c3	0.09901383
64	0xbe107ce5	-0.14110143
65	0xbd9b3349	-0.07578141
66	0xbdb8975e	-0.09013246
67	0xbd844fcf	-0.06460535
68	0xbdfd180a	-0.12358101
69	0xbd749718	-0.059714407
70	0x3d22bc38	0.03973028
71	0x3b8676f1	0.0041035344
72	0x3d743a9c	0.059626207
73	0x3dc32a89	0.09529597
74	0x3e07ab20	0.13248873
75	0xbe05b377	-0.13056742
76	0xbd82a341	-0.063787945
77	0xbe26806d	-0.16259928
78	0x3ddffcce	0.109368905
79	0x3c826abe	0.01592004
80	0xbdf94a5a	-0.121723846
81	0xbdd5a073	-0.10430994
82	0xbd84f46a	-0.06491931
83	0xbe2493e1	-0.16072036
84	0x3dbd0778	0.0922994
85	0xbde6770a	-0.11253174
86	0xbe2a7c7e	-0.16649053
87	0xbd5bea85	-0.053690452
88	0x3daad481	0.08341313
89	0xbe1c865e	-0.15285632
90	0xbd8f8f32	-0.07009734
91	0xbddc23d2	-0.1074902
92	0x3dae338d	0.08505926
93	0xbe139f71	-0.14416291
94	0x3c94b1ed	0.018151248
95	0x3dbe3b97	0.092887096
96	0x3cdae590	0.026720792
97	0x3dcbd2e6	0.09952335
98	0x3e292916	0.1651958
99	0x3d8bf9e8	0.06834775
100	0xbdc4e0f3	-0.09613218
101	0x3bdba1fe	0.0067026606
102	0xbe1c5bdb	-0.15269415
103	0x3e166f46	0.14690885
104	0x3dbdc33f	0.09265756
105	0x3b209c7a	0.002450733
106	0x3d155b6f	0.03646415
107	0x3e128966	0.14310226
108	0x3e138190	0.14404893
109	0xbdbd1cdf	-0.09234022
110	0xbbf6bbaf	-0.007529698
111	0x3d929625	0.07157544
112	0x3e069c53	0.1314557
113	0x3e12b946	0.14328489
114	0x3df16d0b	0.117883764
115	0x3e11e089	0.1424581
116	0xbd9f72f9	-0.07785601
117	0xbcc5d2cd	-0.02414837
118	0xbe25a192	-0.16174915
119	0xbcd072e1	-0.025445404
120	0x3e0c9d5a	0.137319
121	0x3e2c0bd2	0.16801384
122	0x3dba88c1	0.09108115
123	0x3e0a45c8	0.13503182
124	0xbdf59fa7	-0.11993342
125	0xbe1c582b	-0.15268008
126	0xbe235272	-0.15949419
127	0xbd045474	-0.032307103

critic.2.weight f4 [128, 128]
0	0x3c9977e9	0.018733935
1	0xbd382b02	-0.04496289
2	0xbdf40ad8	-0.11916131
3	0xbdbdd301	-0.092687614
4	0x3c34e740	0.011041462
5	0xbda54f50	-0.08071768
6	0x3d70120d	0.058610965
7	0x3dd28e2c	0.102810234
8	0xbde6df61	-0.11273075
9	0x3d82edc6	0.06393008
10	0x3b9189ca	0.0044414746
11	0xbdb6d6d9	-0.08927698
12	0x3da94b29	0.08266289
13	0xbd4325fc	-0.047643647
14	0x3d33c883	0.043892395
15	0x3ceec4f3	0.029146647
16	0xbd2c8df5	-0.04212757
17	0xbca7b24a	-0.020470757
18	0x3d642820	0.05570233
19	0xbdbd092a	-0.092302635
20	0xbd41565c	-0.0472015
21	0x3bed2792	0.007237383
22	0xbdccf9da	-0.10008593
23	0xbd0fd86c	-0.035118505
24	0xbc55a426	-0.013039624
25	0xbc1abb24	-0.009444032
26	0x3caa6be7	0.020803405
27	0xbd5b3d9e	-0.05352556
28	0xbd58a81c	-0.052894697
29	0x3d99442b	0.07483705
30	0x3d3e00e4	0.046387568
31	0x3cde9ad3	0.027173435
32	0x3da4fc9a	0.080559924
33	0xbbfeb520	-0.0077730566
34	0xbdfa3dba	-0.12218805
35	0xbce5c28e	-0.028046872
36	0x3d1e10f1	0.038590375
37	0x3dcf7383	0.10129454
38	0xbbbe6c0b	-0.0058112196
39	0xbcbe3f88	-0.023223653
40	0x3da74fe0	0.08169532
41	0xbceb8c97	-0.028753562
42	0xbe012ee5	-0.12615545
43	0xbda924e5	-0.0825899
44	0xbd065459	-0.032795284
45	0x3d181cac	0.03713672
46	0x3d890def	0.06692111
47	0xbb497902	-0.0030742292
48	0xbc370d5c	-0.011172619
49	0xbca1ce64	-0.019751735
50	0xbd5025b3	-0.050817203
51	0x3de52d71	0.11190308
52	0x3bce470a	0.0062950896
53	0x3d8ecef2	0.069730654
54	0xbd44c3f1	-0.048038427
55	0x3dd09dd2	0.10186352
56	0x3dd15feb	0.10223373
57	0x3c3651a3	0.011127862
58	0x3c9a9c3b	0.018873325
59	0xbde0e7ae	-0.109816894
60	0x3cc13081	0.023582699
61	0xbc7486e4	-0.014924739
62	0xbd781c22	-0.060573705
63	0x3d25b378	0.040454358
64	0x3dab9b57	0.08379238
65	0x3d812b61	0.06307102
66	0xbbb6e06e	-0.0055809533
67	0xbd9d882a	-0.07691987
68	0x3d6bf20c	0.05760388
69	0x3d12a042	0.035797365
70	0xbda9307c	-0.08261201
71	0x3a0e0e56	0.00054190063
72	0x3cc9ba11	0.024624856
73	0x3d61ac2e	0.055095844
74	0xbc9e27bf	-0.019306062
75	0xbbcb9803	-0.0062131896
76	0xbd96ecb8	-0.07369369
77	0x3c3674a7	0.0111362105
78	0xbb6e7a9f	-0.0036389006
79	0x3d384cd3	0.04499514
80	0x3da900fa	0.082521394
81	0x3cf7ca37	0.03024779
82	0xbda097fb	-0.07841488
83	0xbd53f6ea	-0.051749147
84	0x3bdc4948	0.006722603
85	0xbd889f65	-0.06671027
86	0xbca0f0ea	-0.019646127
87	0x3d2313fe	0.039813988
88	0x3d1691ed	0.03676026
89	0x3de8b75c	0.11363098
90	0x3c244e35	0.010028412
91	0x3d4404ca	0.04785613
92	0x3da25081	0.07925511
93	0x3dabb7b7	0.0838465
94	0xbc78c658	-0.015184008
95	0xbd42be73	-0.047544908
96	0xbdd6e63d	-0.10493133
97	0x3bf1278b	0.00735945
98	0xbc7e13a5	-0.015507613
99	0x3d69c408	0.057071716
100	0x3da55738	0.08073276
101	0xbdad6652	-0.08466782
102	0x3dad6074	0.084656626
103	0xbd501e4a	-0.050810136
104	0x3d3a05ca	0.045415677
105	0x3d832033	0.06402626
106	0xbca11b14	-0.019666232
107	0x3d1dc2c5	0.038515825
108	0x3b116930	0.002218794
109	0x3ca739cf	0.020413307
110	0xbc3c9bd2	-0.01151176
111	0xbd1ddcf2	-0.038540788
112	0x3cf7be01	0.030241968
113	0xbbf8c89c	-0.007592274
114	0xbc97eab6	-0.018544536
115	0xbdba3aa1	-0.09093214
116	0xbd128ba9	-0.03577772
117	0x3d106e87	0.035261657
118	0xbd69e9cb	-0.057107728
119	0xbce25284	-0.027627237
120	0xbdba2009	-0.090881415
121	0x3d3e2976	0.04642626
122	0xbd2e81a5	-0.042604107
123	0xbda62dd0	-0.08114207
124	0x3d998df1	0.07497776
125	0x3b8412cf	0.0040305625
126	0x3d22df08	0.03976348
127	0x3d3440cd	0.04400711
128	0x3d823035	0.06356851
129	0x3c999d2f	0.018751709
130	0xbd1b9e5e	-0.037992828
131	0x3cc67291	0.024224551
132	0x3d81c359	0.06336088
133	0x3c1c3751	0.009534673
134	0x3de6ce64	0.11269835
135	0x3bd3375d	0.006445809
136	0xbd02cd53	-0.031934094
137	0xbc09c87f	-0.008409618
138	0xbd4e6e2a	-0.05039803
139	0xbba74ed0	-0.0051058307
140	0x3d80b76b	0.06284984
141	0x3d12d68b	0.035849135
142	0x3d5017a3	0.05080379
143	0x3dd97c7c	0.10619447
144	0x3d2c441d	0.042057145
145	0x3de0aa12	0.10969938
146	0x3b010f91	0.0019693116
147	0xbde3d946	-0.11125426
148	0x3ce60d02	0.028082374
149	0x3d6a066a	0.057135023
150	0xbd6c9bb6	-0.057765685
151	0x3d92056b	0.0712994
152	0xbc6fcde8	-0.014636494
153	0x3da88c3a	0.08229871
154	0xbd11f9e8	-0.03563872
155	0xbcd2efd3	-0.025749123
156	0x3cdee0b6	0.02720676
157	0xbd32566d	-0.043539453
158	0xbc8fd79e	-0.017558869
159	0xbde22597	-0.11042326
160	0xbc37920f	-0.011204257
161	0x3cb29707	0.021800531
162	0xbdf36d27	-0.118860535
163	0x3d945e93	0.07244601
164	0x3bbbb5d2	0.005728462
165	0x3c67f8fa	0.014158482
166	0x3cd98b48	0.026555672
167	0x3df308c6	0.11866908
168	0xbc8323e3	-0.016008323
169	0x3d8b86cf	0.06812822
170	0x3a7f8d83	0.0009748565
171	0xbdd38c1b	-0.10329457
172	0xbc19fc57	-0.009398541
173	0x3d4c1203	0.049821865
174	0x3d8218af	0.06352364
175	0xbd18154e	-0.037129693
176	0x3da2522d	0.0792583
177	0x3db9a135	0.09063951
178	0x3d3d32e3	0.046191107
179	0xbd45d529	-0.04829899
180	0x3e004dad	0.12529631
181	0x3d9c5c13	0.07634749
182	0x3d5e2978	0.054238766
183	0x3d6ad583	0.057332527
184	0xbc97b0ef	-0.018516986
185	0x3dcaf199	0.09909362
186	0xbde4a541	-0.11164332
187	0x3c17bba0	0.009261042
188	0x3d9c8a90	0.07643616
189	0xbd882e8c	-0.06649503
190	0xbcc050bc	-0.023475997
191	0x3b02d3cd	0.001996267
192	0x3d5c06f4	0.05371757
193	0x3ca2d03f	0.01987469
194	0x3bc93748	0.0061406232
195	0xbd6b96ed	-0.05751698
196	0x3d5189fb	0.05115698
197	0xb9373546	-0.00017472086
198	0xbd7a4986	-0.061105274
199	0xbcfc9914	-0.030834712
200	0xbd644399	-0.05572853
201	0xbcc9138b	-0.024545452
202	0xbc0e08b5	-0.008669068
203	0x3d7fef36	0.06248399
204	0x3d9e8f57	0.07742184
205	0xbd80e7c3	-0.06294205
206	0xbc70894f	-0.014681174
207	0xbd71dc8d	-0.059048224
208	0x3dbc2013	0.09185805
209	0x3d052d10	0.032513678
210	0xbe0778bc	-0.1322965
211	0xbd551d99	-0.05203018
212	0x3d8becff	0.06832313
213	0x3dd822cd	0.10553513
214	0x3d9e22e9	0.07721502
215	0x3dbffb9f	0.09374165
216	0x3c9fbb50	0.019498497
217	0x3c7b8d8e	0.0153535735
218	0x3cb347a7	0.021884752
219	0x3d9e21f0	0.07721317
220	0x3d1ae984	0.037820354
221	0x3d76ba47	0.06023624
222	0xbd696568	-0.056981474
223	0x3d881577	0.06644719
224	0x3d45f837	0.04833242
225	0xbd376cf6	-0.044781648
226	0xbaaab8d9	-0.001302506
227	0x3d6e9157	0.058244076
228	0x3c9c918a	0.019112367
229	0xbd58d95a	-0.052941658
230	0x3dd98021	0.10620142
231	0x3d0c5538	0.03426096
232	0x3cb47fdb	0.022033622
233	0x3d169e32	0.03677196
234	0xbc7dbbf3	-0.015486705
235	0x3d15956c	0.036519453
236	0x3d73d9e5	0.059533972
237	0x3d5b178b	0.05348925
238	0x3dc77f8f	0.09741127
239	0x3dcd2944	0.100176364
240	0xbd7a5fb3	-0.061126422
241	0xbd8b0882	-0.06788732
242	0xbdbbba56	-0.091664
243	0xbdba5c21	-0.090996034
244	0x3d2e87a5	0.04260983
245	0xbd0536bd	-0.032522906
246	0xbd8655d9	-0.06559343
247	0xbcdfd814	-0.027324714
248	0x3d368b8f	0.044566687
249	0x3d7edbf5	0.062221486
250	0x3d59b157	0.05314764
251	0xbdb80945	-0.08986143
252	0x3cc075ee	0.023493733
253	0x3db9ba39	0.09068722
254	0x3d111034	0.035415843
255	0x3d2ea972	0.042642064

critic.2.bias f4 [128]
0	0x3ce29188	0.027657285
1	0x3d56eb89	0.052470718
2	0xbdd3e4e1	-0.103463896
3	0x3dcad1ef	0.09903323
4	0xbd327f6f	-0.04357856
5	0x3d35a567	0.044347193
6	0x3d624d13	0.055249285
7	0xbcfc6ea7	-0.030814482
8	0xbd9151af	-0.07095658
9	0xbd9c496f	-0.07631194
10	0xbda07c44	-0.07836202
11	0xbda04244	-0.07825139
12	0x3da172d8	0.07883233
13	0x3c455383	0.0120438365
14	0xbd752da3	-0.059857976
15	0xbc2da40b	-0.010598193
16	0xbcf07b29	-0.029355602
17	0x3d88dce7	0.06682759
18	0x3d8bb707	0.06822019
19	0xbb937ae3	-0.004500733
20	0x3ccdf5ca	0.025141615
21	0x3d94a1d4	0.07257429
22	0x3dc71dbd	0.09722469
23	0x3d7ae649	0.061254773
24	0x3ca5fc24	0.020261832
25	0x3d161c6a	0.03664819
26	0xbd471a10	-0.04860884
27	0x3d5175a9	0.0511376
28	0x3cf977f0	0.030452698
29	0x3ab8cb4e	0.0014098675
30	0xbdb1dbbe	-0.086844906
31	0x3d2cb8fe	0.04216861
32	0x3c6e1eae	0.014533682
33	0x3a914c90	0.001108544
34	0x3d8b7252	0.06808914
35	0x3dbd8567	0.0925396
36	0x3dd89713	0.1057569
37	0x3cba0600	0.02270794
38	0x3db7cf01	0.0897503
39	0xbdadcd56	-0.0848643
40	0xbcbb325e	-0.022851165
41	0x3d4cab7d	0.04996823
42	0xbd368130	-0.044556797
43	0xbd41ae4a	-0.047285356
44	0x3cd16079	0.025558697
45	0xbd0b60d9	-0.034027908
46	0x3d26a18c	0.040681407
47	0x3cb067d3	0.021533882
48	0xbcf037d3	-0.029323494
49	0x3ddd5d9c	0.1080887
50	0xbdad5bee	-0.084648
51	0xbdd13f86	-0.10217194
52	0xbc7cfd83	-0.015441301
53	0xbca7d374	-0.02048657
54	0xbcb4af92	-0.022056375
55	0xbcecac9e	-0.028890904
56	0xbd2cf425	-0.042225022
57	0x3d2616ce	0.040549092
58	0x3c4ebab9	0.01261776
59	0xbd8ee76d	-0.06977735
60	0x3d30385e	0.043022506
61	0xbdaefe0a	-0.08544548
62	0x3a77a130	0.0009446321
63	0xbc0eebb5	-0.008723189
64	0x3dc3ad83	0.09554579
65	0xbdbfc514	-0.093637615
66	0xbd8fa786	-0.070143744
67	0xbd971122	-0.07376315
68	0x3d99ebb5	0.07515661
69	0x3d8a3b4b	0.067495905
70	0xbdc18e5a	-0.094509795
71	0xbcbe8c2c	-0.023260199
72	0xbdc60993	-0.09669795
73	0xbda57469	-0.08078844
74	0xbd863b84	-0.065543205
75	0xbde34676	-0.11097424
76	0xbcda57e4	-0.026653238
77	0x3d8c65ca	0.06855352
78	0x3dcc8dd7	0.09987991
79	0xbc7d55d8	-0.015462361
80	0x3d50ed50	0.05100757
81	0xbd4cd986	-0.050012134
82	0x3da22723	0.07917621
83	0x3dad2e2b	0.084560715
84	0xbcd07f6f	-0.02545139
85	0x3d4e67c6	0.050391935
86	0x3d2e701f	0.042587396
87	0x3c0ce1aa	0.008598724
88	0xbbb5ac73	-0.005544239
89	0xbc637c2a	-0.0138845835
90	0xbde6622a	-0.11249192
91	0x3db59097	0.08865469
92	0x3ce2b6ed	0.027675116
93	0x3d9133b0	0.07089937
94	0xbdc06670	-0.093945384
95	0x3d9ecb5c	0.077536315
96	0x3d8c1599	0.06840057
97	0x3da050da	0.07827921
98	0x3d5ecfc2	0.054397352
99	0x3d989913	0.074510716
100	0x3b32d6e0	0.002728872
101	0x3db6a996	0.08919065
102	0x38d784f5	0.00010276764
103	0xbc40f1b4	-0.0117763765
104	0xbdb851c7	-0.08999973
105	0xbd4baa77	-0.049723115
106	0xbbbb131b	-0.0057090647
107	0x3dd504e0	0.104013205
108	0xbd0bb899	-0.034111593
109	0xbc47aaf7	-0.012186757
110	0x3c820507	0.015871538
111	0x3cea7d0a	0.028624076
112	0xbdc5dd4e	-0.09661351
113	0x3d85e733	0.065382384
114	0xbd806f74	-0.06271258
115	0x3dd36aa1	0.10323072
116	0xbd880cae	-0.066430435
117	0x3db11206	0.08646016
118	0xbdc77aa1	-0.097401865
119	0xba4bf3e7	-0.000778018
120	0xbc83e0d8	-0.016098425
121	0xbdbc0aeb	-0.0918177
122	0x3d97fd9f	0.07421421
123	0x3c2743c7	0.0102090305
124	0xbd33a8f7	-0.04386231
125	0xbd109f3d	-0.03530811
126	0x3c8768f3	0.016529536
127	0xbd8d8fb1	-0.069121726

critic.4.weight f4 [128, 128]
0	0x3d510b8f	0.051036414
1	0xbdd70b1f	-0.10500168
2	0xbd32656a	-0.043553747
3	0xbd29a4b8	-0.041416854
4	0x3c04d18e	0.008106602
5	0x3d0850d5	0.033280212
6	0x3dd8ece6	0.1059206
7	0xbdce75b4	-0.10081044
8	0x3d8365d6	0.06415908
9	0xbc5b2c6c	-0.01337729
10	0xbd6678d1	-0.056267563
11	0xbdb658d4	-0.08903661
12	0xbd3f00a4	-0.04663147
13	0xbd9d173d	-0.07670448
14	0xbdce1598	-0.100627124
15	0x3d7bd3f4	0.06148143
16	0x3d83cdd2	0.064357415
17	0x3c6e45d5	0.014543016
18	0x3d9d2f51	0.076750405
19	0x3d0d52ff	0.03450298
20	0x3d0327bd	0.03202032
21	0xbca263fb	-0.019823065
22	0x3d096c9d	0.033550847
23	0xbc3eb7ef	-0.011640533
24	0x3d90c7d1	0.07069362
25	0xb82948a2	-4.0360384e-05
26	0x3c8581a6	0.016297173
27	0xba2580a4	-0.00063134194
28	0xbcd6c17e	-0.026215311
29	0xbc7c42ba	-0.015396768
30	0xbd409b52	-0.047023125
31	0x3d707bcb	0.05871181
32	0x3db23825	0.08702115
33	0x3d5bd2ba	0.05366776
34	0x3d64642d	0.055759598
35	0x3d98b91f	0.07457184
36	0xbcdd2b98	-0.026998326
37	0xbc454fe0	-0.012042969
38	0x3d2a5cc5	0.04159238
39	0x3c44e754	0.012018044
40	0xbcd95509	-0.026529806
41	0xbd136f58	-0.035994858
42	0xbd6a8285	-0.05725338
43	0xbdc2bfa8	-0.09509212
44	0xbcdf09f1	-0.02722642
45	0x3d102e8a	0.035200633
46	0x3d21b9cc	0.03948383
47	0x3cc71786	0.024303209
48	0xbd6cbabf	-0.057795282
49	0x3d9f1592	0.07767786
50	0xbd697659	-0.05699763
51	0x3ab5410f	0.0013828593
52	0xbc358188	-0.011078246
53	0x3d07514b	0.03303651
54	0x3dc7dbdc	0.09758732
55	0xbd8c2b18	-0.06844157
56	0x3c24a9d0	0.010050252
57	0x3c395504	0.011311773
58	0xbc985203	-0.018593794
59	0x3d8cd7c7	0.06877094
60	0x3d2070a2	0.039169915
61	0xbda0c1d1	-0.078494675
62	0xbd8410df	-0.064485304
63	0xbd5d0b26	-0.05396571
64	0xbd813c60	-0.06310344
65	0xbd7d647c	-0.061863407
66	0xbdaa9ba8	-0.0833047
67	0xbd4db813	-0.050224375
68	0x3dc7f4a2	0.09763457
69	0x3db4e4f9	0.088327356
70	0x3d7542ba	0.05987809
71	0x3d342ca2	0.043987878
72	0xbd679c7b	-0.056545716
73	0x3ba0930f	0.0049003433
74	0xbd8039d4	-0.0626103
75	0xbdab77e8	-0.0837248
76	0x3dbc38ab	0.09190496
77	0x3c53f16c	0.012935977
78	0x3d855c7c	0.065117806
79	0x3db0fa37	0.08641475
80	0x3dc49b96	0.09599988
81	0xbdd3d837	-0.10343974
82	0x3dd6ee6c	0.10494694
83	0x3d7be9be	0.06150221
84	0x3c6fa775	0.014627327
85	0xbd2ef207	-0.042711284
86	0x3dcb1d32	0.09917678
87	0x3ceab89a	0.028652478
88	0xbc8951a3	-0.01676256
89	0x3cf2f83c	0.029659383
90	0xbd590f91	-0.05299336
91	0x3c7c2954	0.015390713
92	0xbc0db846	-0.008649891
93	0x3d01d099	0.031693075
94	0xbd74ae17	-0.059736338
95	0xbb0a552c	-0.0021107895
96	0xbb483d0f	-0.0030553972
97	0xbd1bbcaa	-0.03802172
98	0xbbc7686a	-0.006085445
99	0x3b643330	0.003482055
100	0x3ce26d70	0.027640074
101	0x3dc30d8c	0.09524068
102	0xbb20fff6	-0.0024566627
103	0xbbe74e49	-0.007058893
104	0x3d8f236d	0.06989179
105	0x3d89a56c	0.06721005
106	0xbc3bc9cc	-0.011461686
107	0xbd7ba152	-0.061433144
108	0x39f21cb0	0.0004617921
109	0x3cbab6f9	0.022792326
110	0x3ddad617	0.10685366
111	0x3d610c2c	0.05494325
112	0xbd0ee8e2	-0.034890063
113	0x3d9c54e6	0.076333806
114	0xbb13e43a	-0.0022566454
115	0x3d85f3b8	0.06540626
116	0xbda4c3cd	-0.080451585
117	0xbd905155	-0.07046763
118	0x3c858974	0.016300894
119	0xbd067e55	-0.032835323
120	0x388c47aa	6.689069e-05
121	0x3cd96ff6	0.026542645
122	0x3dbc3c24	0.091911584
123	0xbdac047e	-0.08399294
124	0x3caac057	0.020843668
125	0xbdcf34ef	-0.10117518
126	0x3d234026	0.0398561
127	0x3cfe9446	0.031076562
128	0x3b6b9564	0.0035947198
129	0xbd3d83b6	-0.046268187
130	0xbd8da9cb	-0.06917151
131	0xbd4ae5b7	-0.04953548
132	0x3d495720	0.049155354
133	0x3d5fc393	0.054629873
134	0xbcb6fb07	-0.022336496
135	0xbbcab864	-0.006186532
136	0xbad1e30a	-0.0016013097
137	0x3d34b89f	0.04412138
138	0xbc304842	-0.010759415
139	0x3d355cea	0.044278063
140	0x3d64558b	0.055745643
141	0xbd2578ee	-0.04039853
142	0x3d17429e	0.036928765
143	0x3d0583a8	0.03259626
144	0xbd8b43c2	-0.06800033
145	0x3d0cfa52	0.03441841
146	0x3cd47397	0.025934024
147	0x3ca262df	0.019822536
148	0xbd1f03fb	-0.038822155
149	0x3dc768dd	0.09736798
150	0x3c9c6f97	0.019096179
151	0x3d766745	0.06015708
152	0x3c8d9afe	0.01728582
153	0x3ca2e652	0.019885216
154	0x3d6bc2ba	0.057558753
155	0x3da7efd2	0.08200039
156	0x3bf2aa7b	0.0074055768
157	0xbcee8901	-0.029118063
158	0xbc3cf1df	-0.011532276
159	0xbc4443c5	-0.011979048
160	0x3dcd073b	0.10011145
161	0x3dc56f8e	0.09640418
162	0x3c7c20a5	0.015388642
163	0x3d37633d	0.044772375
164	0x3dbf63fa	0.09345241
165	0xbce5b1d6	-0.0280389
166	0x3cd89291	0.026437076
167	0xbdd53309	-0.10410125
168	0x3d8d5169	0.069002934
169	0x3dd671bb	0.10470911
170	0xbdadc36f	-0.084845416
171	0x3d7a15c5	0.061055917
172	0x3d867187	0.06564622
173	0xbc9403fe	-0.01806831
174	0xbbd5313a	-0.0065061124
175	0xbdb157e4	-0.08659342
176	0x3d3cf6c9	0.04613379
177	0x3dec342f	0.11533391
178	0x3ce7bdec	0.028288804
179	0x3d476710	0.048682272
180	0xbc4b3caf	-0.012404605
181	0xbc1c2675	-0.009530653
182	0xbd1c4219	-0.038148973
183	0xbdbf784a	-0.09349115
184	0xbc871243	-0.0164882
185	0x3ade0b6c	0.001694066
186	0xbbbe8bb9	-0.005814996
187	0x3c96b08a	0.018394727
188	0x3a87aaeb	0.001035062
189	0x3ccc55d5	0.024943272
190	0x3d7248dd	0.05915152
191	0xbc14f869	-0.009092429
192	0x3d6a867b	0.057257157
193	0xbdd1746e	-0.10227285
194	0x3d01761c	0.03160678
195	0xbd8802de	-0.06641172
196	0x3dea8ea1	0.114529856
197	0xbd0d2cdf	-0.03446662
198	0x3c5997fc	0.013280865
199	0xbd53be67	-0.051695254
200	0xbd7951fc	-0.060869202
201	0xbd651467	-0.05592766
202	0xbdc20569	-0.09473688
203	0x3d7ab4dc	0.061207637
204	0x3de6cec1	0.11269904
205	0x3d7d968f	0.061911162
206	0x3d756890	0.05991417
207	0x3dddd7ed	0.108322
208	0xbd41c6c6	-0.047308706
209	0x3b64ad97	0.0034893507
210	0x3c6a38e1	0.014295788
211	0x3dbc52da	0.0919549
212	0x3dcffa85	0.10155205
213	0x3d5799fe	0.052637093
214	0xbcea76ff	-0.028621195
215	0xbd506cde	-0.050885074
216	0xbd9367ef	-0.07197558
217	0x3db28da7	0.08718424
218	0xbdcc9800	-0.09989929
219	0x3d0d209a	0.03445492
220	0x3d0bbe1f	0.03411686
221	0x3d6c6d89	0.05772165
222	0xbdc3b95b	-0.09556838
223	0x3d3e14e5	0.046406645
224	0xbc99e2cf	-0.018784909
225	0x3db60f38	0.088896215
226	0x3decbde9	0.1155966
227	0xbd7786f8	-0.06043145
228	0xbcfb4fd1	-0.030677708
229	0x3c216bc4	0.0098523535
230	0xbdb165f1	-0.08662022
231	0xbd977a39	-0.07396359
232	0xbd87bce0	-0.06627822
233	0xbd8642df	-0.065557234
234	0xbd56dbaa	-0.05245558
235	0x3d0c61b8	0.03427288
236	0xbcd3ef3b	-0.02587091
237	0x3c83764f	0.016047625
238	0x3a3636c8	0.0006950912
239	0x3d873862	0.06602551
240	0xbdc65a30	-0.09685171
241	0x3d1b6826	0.03794112
242	0xbbfacdbe	-0.007653921
243	0x3d56e78d	0.052466918
244	0x3d5fd0c7	0.054642465
245	0x3ce071b5	0.02739797
246	0xbd6fd570	-0.05855316
247	0xbd5ae47b	-0.053440552
248	0x3bafe60d	0.0053680004
249	0xbbf8e500	-0.0075956583
250	0xbd63f0e6	-0.05564966
251	0xbbe1e99e	-0.0068943044
252	0xbda75ba1	-0.08171774
253	0xbd0e3b36	-0.034724437
254	0x3b2c92a8	0.002633253
255	0xbd5dc8e2	-0.054146655

critic.4.bias f4 [128]
0	0x3da6bc77	0.081414156
1	0xbd6123ac	-0.05496566
2	0x3dbbbf33	0.09167328
3	0x3cf632f6	0.030053597
4	0x3dbf8310	0.0935117
5	0x3d9be7e0	0.07612586
6	0x3da93f34	0.08264008
7	0xbdbf3ecc	-0.093381494
8	0xbd5b4886	-0.05353596
9	0x3d581e3c	0.05276321
10	0xbd0c9496	-0.03432139
11	0x3d901fb4	0.07037297
12	0xbcefbaf4	-0.02926395
13	0x3d393353	0.045214962
14	0xbd816a51	-0.06319106
15	0xbcc09e11	-0.023512872
16	0x3d3a26c3	0.045447122
17	0xbd57f295	-0.05272158
18	0x3ac21e0a	0.0014809978
19	0x3dad16d1	0.084516175
20	0x3b7d5ff8	0.0038661938
21	0xbd1e377b	-0.03862713
22	0x3d78afb8	0.060714453
23	0x3d18968d	0.03725295
24	0x3c5f800c	0.013641369
25	0x3dbfe9d4	0.09370771
26	0xbd3060f7	-0.043061223
27	0x3d4e2365	0.050326724
28	0xba50e5cc	-0.0007968813
29	0xbc994929	-0.018711643
30	0x3ce0cee2	0.0274424
31	0xbce39370	-0.027780265
32	0x3dd30474	0.10303584
33	0xbd198ca3	-0.037487637
34	0xbab47f0f	-0.0013770777
35	0x3d8349a2	0.06410529
36	0x3d52f6d1	0.051504914
37	0x3c8b31ed	0.01699158
38	0xbd845306	-0.06461148
39	0xbda6565f	-0.08121943
40	0xbd02c3f1	-0.031925146
41	0x3d69ee2c	0.057111904
42	0x3dd4ea9e	0.10396312
43	0x3cc2e822	0.02379233
44	0x3dac0058	0.08398503
45	0x3ca213c2	0.019784812
46	0x3bab047d	0.005219041
47	0x3d065f5d	0.03280579
48	0xbc1c9904	-0.009557966
49	0x3ddb0e04	0.10696033
50	0xbd8fe587	-0.07026201
51	0x3d413f6b	0.04717962
52	0x3d5b67eb	0.0535659
53	0x3cbfe9b1	0.023426862
54	0xbd9cd800	-0.07658386
55	0xbd29de29	-0.041471634
56	0x3d96d3aa	0.073645905
57	0xbd8a6153	-0.06756844
58	0xbde1b987	-0.11021715
59	0x3c527ce9	0.012847164
60	0xbcdfda9b	-0.027325919
61	0xbc870f72	-0.016486857
62	0x3d806a93	0.062703274
63	0xbd7a4b5a	-0.061107017
64	0xbcb54260	-0.022126377
65	0xbd4d565c	-0.050131187
66	0x3ccd7ade	0.025083002
67	0x3d5fa63a	0.054601885
68	0xbdbb2339	-0.091375776
69	0x3d019506	0.03163626
70	0xbd54d073	-0.051956605
71	0x3dbb5e1b	0.091488086
72	0x3db09cdc	0.086236686
73	0x3d87db05	0.066335715
74	0x3dc31435	0.095253386
75	0x3bca8417	0.006180297
76	0xbd95b811	-0.073104985
77	0xbd8ff73d	-0.07029579
78	0x3b7b1a97	0.003831541
79	0x3c6e8613	0.014558333
80	0x3c89adb7	0.016806467
81	0xbd048cc3	-0.032360803
82	0xbd4d4429	-0.05011383
83	0xbd8f3d4a	-0.06994112
84	0xbccc1db9	-0.024916517
85	0xbd142a20	-0.036172986
86	0xbcffe637	-0.031237705
87	0x3d31d466	0.04341545
88	0x3d58d9db	0.05294214
89	0x3d95e4f0	0.07319057
90	0x3cae8930	0.02130565
91	0x3cc625e0	0.024187982
92	0x3d8a6c15	0.06758896
93	0x3d7a854f	0.06116229
94	0xbd3cebb0	-0.046123207
95	0xbdc12d54	-0.09432474
96	0xbdb92938	-0.09041065
97	0xbd53baa7	-0.051691677
98	0x3d7a6775	0.06113382
99	0xbd58ad78	-0.052899808
100	0x3d7179c4	0.058954015
101	0xbc5789c4	-0.0131554045
102	0xbdb22096	-0.086976215
103	0xbdcc2955	-0.09968821
104	0x3cfbba0d	0.030728364
105	0xbd387ebd	-0.045042742
106	0xbd8a6621	-0.06757761
107	0xbc2804c3	-0.0102550415
108	0x3d90bb24	0.07066944
109	0x3d23d67e	0.039999478
110	0x3d8ef047	0.06979423
111	0x3d7922d8	0.060824245
112	0x3daf3675	0.08555309
113	0x3bc2ec3f	0.005948573
114	0xbac07dec	-0.0014685965
115	0x3d0bcd4e	0.03413134
116	0x3dae2765	0.08503608
117	0x3b444df1	0.0029953683
118	0xbd4f6c0b	-0.050640147
119	0x3cf23b33	0.029569244
120	0xbbb6bc5e	-0.0055766543
121	0x3d356ebd	0.04429506
122	0x3d8db778	0.069197595
123	0xbd1132d7	-0.035448875
124	0xbd39a3ec	-0.045322344
125	0x3c391786	0.011297112
126	0x3cf7dd27	0.03025682
127	0xbca834e2	-0.020533029

critic.6.weight f4 [1, 128]
0	0x3edf5ee8	0.43627095
1	0x3ee016f6	0.43767518
2	0x3ed845ab	0.42240652
3	0xbedf9e5c	-0.43675506
4	0x3edaceba	0.42735845
5	0x3ec00245	0.37501732
6	0x3ece4567	0.40287325
7	0xbec75d88	-0.38938546
8	0xbec17520	-0.37784672
9	0xbec4d614	-0.3844458
10	0x3ed262b0	0.41090918
11	0x3edf7479	0.4364355
12	0xbec84e91	-0.3912244
13	0x3ed9ed78	0.42563987
14	0xbee24892	-0.44195992
15	0x3ee1d7ff	0.44110104
16	0x3ec21562	0.3790694
17	0x3ec70f92	0.38879067
18	0xbec389f2	-0.3819118
19	0x3edbf036	0.42956704
20	0x3eddbdaf	0.4330878
21	0xbed778e3	-0.42084417
22	0x3ee768e0	0.451972
23	0xbedec4e6	-0.43509597
24	0xbedd56b0	-0.432302
25	0x3ed40d94	0.4141661
26	0x3ec4dd7f	0.38450238
27	0x3edd202c	0.43188608
28	0x3ec50bb8	0.38485503
29	0x3ed36992	0.4129148
30	0xbec043e3	-0.37551793
31	0xbec1f907	-0.37885305
32	0x3ebe17db	0.37127575
33	0x3ed91eac	0.42406213
34	0x3ee5a0f4	0.4484936
35	0x3edb74ec	0.42862642
36	0x3ece6c98	0.40317225
37	0x3ecdc9f0	0.4019313
38	0x3ec7a03c	0.38989437
39	0xbec4abe8	-0.38412404
40	0xbeba6b0f	-0.36409804
41	0xbee2fb42	-0.4433232
42	0x3ee1d191	0.441052
43	0x3ed93f75	0.42431226
44	0x3eddb529	0.43302277
45	0xbee5ea87	-0.44905493
46	0xbec4461a	-0.38334733
47	0xbed4c5af	-0.4155707
48	0x3ecdf36d	0.40224782
49	0x3ee46574	0.44608653
50	0xbecf8ac2	-0.4053555
51	0x3ee2da21	0.44307044
52	0x3ec1178a	0.3771327
53	0xbec231f9	-0.3792875
54	0x3ec3231e	0.3811273
55	0x3ed4ee26	0.41587943
56	0x3ee78728	0.45220304
57	0x3ec5c10d	0.3862385
58	0xbee5613b	-0.44800743
59	0x3ec274d7	0.37979767
60	0x3ec3618c	0.3816036
61	0xbecda957	-0.4016826
62	0xbec8d12b	-0.39222082
63	0xbece70af	-0.40320346
64	0xbec746e3	-0.3892127
65	0xbec5f90f	-0.3866658
66	0xbed89868	-0.42303777
67	0xbec12a99	-0.37727812
68	0xbec7f4c6	-0.39053935
69	0x3ecfaac2	0.40559965
70	0x3ed01b08	0.40645623
71	0x3ec032ae	0.37538666
72	0x3ee03cbf	0.43796346
73	0x3ee4274c	0.4456123
74	0x3ed7fd12	0.42185265
75	0x3ece59e3	0.40302953
76	0x3ed9224c	0.4240898
77	0xbec195d0	-0.3780961
78	0xbed47f51	-0.41503385
79	0xbec9c262	-0.39406115
80	0x3ee640bc	0.44971263
81	0x3eca2f0a	0.39489013
82	0x3edcceba	0.4312647
83	0xbeca1b30	-0.39473867
84	0x3eca3dce	0.39500278
85	0xbebd02b6	-0.3691613
86	0xbeba3919	-0.36371687
87	0x3ebe2233	0.37135467
88	0x3ebbb5d9	0.36662176
89	0x3ed8f70a	0.42375976
90	0xbeccbc60	-0.3998747
91	0x3ed2366e	0.41057152
92	0x3ed1f0fa	0.41004163
93	0x3edd4cf9	0.43222788
94	0xbed00d84	-0.40635312
95	0xbec9662c	-0.39335763
96	0xbed23f4d	-0.4106392
97	0xbed909dd	-0.42390338
98	0x3edb6ba0	0.4285555
99	0xbeda23d9	-0.42605475
100	0x3ec06950	0.37580347
101	0x3ec72abc	0.3889979
102	0xbebd8478	-0.37015128
103	0xbec73ae2	-0.38912112
104	0xbed25da2	-0.4108706
105	0xbed060e4	-0.40698922
106	0x3ebb1d03	0.36545572
107	0x3eb88eba	0.36046392
108	0xbeccf8b1	-0.40033486
109	0xbed58f65	-0.41710964
110	0x3ec0924b	0.37611613
111	0x3ec7b927	0.39008448
112	0x3eccfd92	0.4003721
113	0x3ed09f80	0.4074669
114	0x3edc14fd	0.42984763
115	0xbec70121	-0.3886805
116	0x3eccc8b6	0.3999688
117	0x3ed20ed5	0.4102694
118	0x3ecb2869	0.39679268
119	0xbed208f1	-0.41022447
120	0x3eceaa05	0.4036409
121	0x3edf0465	0.4355804
122	0x3ed97385	0.42470947
123	0xbed9c1cf	-0.42530677
124	0x3ee246a8	0.4419453
125	0xbee85c01	-0.45382693
126	0x3ebd0f97	0.36925957
127	0xbece047a	-0.4023779
