ippo_algorithm_belief_catmouse/checkpoints/ppo_critic_2num_agent_exp_3_run_0_catmouse.pth (torch, 175844 bytes, 7 tensors)

critic.0.weight f4 [128, 76]
0	0xbe0e1a7b	-0.13877289
1	0x3d8f10de	0.06985639
2	0xbd83ad56	-0.064295456
3	0x3d041dfc	0.032255158
4	0xbe0f65c1	-0.1400366
5	0xbd636878	-0.05551955
6	0xbd92adb3	-0.07162037
7	0x3d310651	0.043218914
8	0x3bac2488	0.0052533783
9	0xbd4548b1	-0.048165027
10	0xbddf01b1	-0.108889945
11	0xbd3f7b48	-0.04674843
12	0xbdc194fa	-0.09452243
13	0xbcff5313	-0.031167543
14	0xbe12930d	-0.14313908
15	0x3b0af2c9	0.002120184
16	0x3d78aab8	0.060709685
17	0xbd628f6e	-0.055312566
18	0xbd9cfab6	-0.07665007
19	0x3d03c8bc	0.032173857
20	0x3d7adb75	0.061244447
21	0xbdcaf9e9	-0.09910948
22	0x3d5fb1da	0.05461297
23	0xbdfa7f0a	-0.12231262
24	0xbc9e7daa	-0.01934703
25	0xbda80bfd	-0.082054116
26	0x3d4de1a6	0.050264023
27	0xbcb038a5	-0.021511385
28	0x3d72cae9	0.05927554
29	0xbc289a5b	-0.010290707
30	0xbd785ed5	-0.060637314
31	0xbd8bbcac	-0.06823096
32	0x3d4ce5fa	0.05002401
33	0x3d96f36f	0.0737065
34	0x3d2e16dc	0.04250227
35	0x3ce93351	0.028466852
36	0x3cec2af2	0.028829072
37	0x3cf985ef	0.030459372
38	0xbd7624df	-0.060093757
39	0xbb0216d0	-0.0019850023
40	0x3d249712	0.040183134
41	0xbb9c0ba2	-0.004762129
42	0xbb93b9e0	-0.004508242
43	0xbd1bd81d	-0.0380479
44	0xbd94483b	-0.07240339
45	0xbcd22322	-0.025651518
46	0xbde36154	-0.11102548
47	0xbdeb5c96	-0.11492269
48	0xbd9c65a5	-0.07636575
49	0xbcd2c586	-0.025728952
50	0x3bcb5a47	0.0062058303
51	0xbd47055b	-0.04858909
52	0x3c9fd8ff	0.019512651
53	0xbdc1812f	-0.09448468
54	0xbdb51426	-0.08841734
55	0xbddd06e1	-0.10792328
56	0x3d4aa595	0.049474318
57	0xbcf2140c	-0.029550575
58	0xbdfbcd4c	-0.12295017
59	0xbc9005f7	-0.01758097
60	0xbdac50f1	-0.08413876
61	0xbdb76644	-0.089550525
62	0xbd509f08	-0.050932914
63	0xbe1d2698	-0.15346754
64	0x3d6a5bf1	0.05721659
65	0xbd58fe6e	-0.052977018
66	0xbd943bb6	-0.072379515
67	0x3cd372cd	0.025811577
68	0xbd9d5a90	-0.07683289
69	0x3c232aa0	0.009958893
70	0x3c4bc512	0.012437122
71	0xbd77672b	-0.060401123
72	0x3d90ada3	0.070643686
73	0x3d5bdf3b	0.053679686
74	0xbd8f9fb0	-0.0701288
75	0xbd6abafc	-0.05730723
76	0xbd0ef750	-0.034903824
77	0xbdce8e5f	-0.10085749
78	0xbd84744d	-0.06467495
79	0xbcff93bd	-0.031198377
80	0xbdb1f71b	-0.0868971
81	0xbdf47a6c	-0.119374126
82	0xbdce5aca	-0.100759104
83	0xbd97d77f	-0.074141495
84	0x3d6b19ab	0.057397526
85	0x3cf339b9	0.02969061
86	0x3cb09788	0.02155663
87	0xbdd1fd83	-0.10253432
88	0xbddbbd81	-0.107295044
89	0xbd0255aa	-0.031819977
90	0x3c1104e5	0.008851265
91	0xbdcc4c49	-0.09975488
92	0x3d1c8a58	0.038217872
93	0x3cd176df	0.025569377
94	0xbdf0143c	-0.117226094
95	0x3c1b3c21	0.009474785
96	0xbdb5622c	-0.088566154
97	0xbd448b42	-0.04798437
98	0x3d610622	0.05493749
99	0xbd77bc47	-0.06048229
100	0xbc42ff49	-0.011901685
101	0x3dab2f84	0.08358672
102	0xbda7d2a0	-0.081944704
103	0x3d9680a0	0.07348752
104	0xbdafaeff	-0.085783
105	0x3cd7a86d	0.026325429
106	0xbdac9ad9	-0.08427972
107	0xbdfe0ab9	-0.12404389
108	0xbdb15632	-0.086590186
109	0xbd5faec8	-0.054610044
110	0x3cf30458	0.029665157
111	0x3d779589	0.060445342
112	0xbd05e3ab	-0.032687824
113	0xbe060f80	-0.1309185
114	0xbc8c7a51	-0.017148169
115	0xbd5ee43f	-0.05441689
116	0xbd9923b4	-0.07477513
117	0x3d8c4480	0.06849003
118	0xbd3de448	-0.046360284
119	0x3d6cef09	0.05784515
120	0xbdb75ce9	-0.08953268
121	0xbd9aee88	-0.075650275
122	0xbdbf245a	-0.093331054
123	0xbd7b7340	-0.061389208
124	0x3d0f52ef	0.0349912
125	0xbd858018	-0.065185726
126	0x3da9b9d9	0.08287401
127	0x3d936544	0.07197049
128	0x3ce8af11	0.02840379
129	0x3da93f5b	0.08264037
130	0x3cd84812	0.026401553
131	0xbd612dd9	-0.054975364
132	0x3dd3cc8e	0.1034175
133	0xbdcbb4c5	-0.099465884
134	0xbd060070	-0.03271526
135	0x3cc9aff1	0.024620028
136	0xbe08e92a	-0.13370195
137	0x3d09124d	0.03346472
138	0x3c80f61f	0.01574236
139	0xbd15c5f5	-0.03656574
140	0xbde2e4c0	-0.11078787
141	0xbdf8134f	-0.12113058
142	0xbd74f617	-0.059805002
143	0xbd17707a	-0.0369725
144	0xbe0e668d	-0.13906308
145	0x3d80909d	0.06277583
146	0xbd811b06	-0.063039824
147	0x3d097385	0.033557434
148	0xbd8df91f	-0.06932282
149	0xbd93d213	-0.07217803
150	0xbde2ce50	-0.11074507
151	0x3c985e7b	0.01859974
152	0xbde61281	-0.11233998
153	0xbcaa81a0	-0.020813763
154	0xbe0ac95e	-0.13553378
155	0x3cf7fdcc	0.030272387
156	0xbc6ef379	-0.014584416
157	0xbd40785e	-0.04698979
158	0xbc0be202	-0.008537771
159	0x3cebdf75	0.028793076
160	0xbdf62235	-0.12018243
161	0x3d89910d	0.06717119
162	0xbd510f81	-0.051040176
163	0x3a1f68ed	0.0006081004
164	0xbd8fa086	-0.07013039
165	0x3ca70227	0.020386769
166	0x3c3c98e9	0.011511066
167	0xbd65549b	-0.05598889
168	0xbe0f4b4a	-0.13993564
169	0xbd214d50	-0.03938037
170	0x3d6313b0	0.055438697
171	0xbd94765b	-0.07249137
172	0xbe079eeb	-0.13244216
173	0x3c38ff11	0.011291281
174	0xbe1964bc	-0.14979833
175	0x3d4b9548	0.049702913
176	0xbd97d4ae	-0.07413612
177	0x3c8fc3ae	0.017549362
178	0x3c910961	0.017704668
179	0x3d4ea5c8	0.05045107
180	0xbe10ae89	-0.1412908
181	0x3d28aa87	0.041178253
182	0x3d58e4ff	0.052952763
183	0x3d0ad2a9	0.033892307
184	0xbd351558	-0.044209808
185	0xbd854cd7	-0.06508797
186	0xbe08b29d	-0.13349386
187	0x3d3876f1	0.045035306
188	0xbd66a0c0	-0.056305647
189	0x3d99c366	0.075079724
190	0x3d55b600	0.05217552
191	0xbe1273e3	-0.1430202
192	0xbdbe8324	-0.09302357
193	0xbd0517d5	-0.03249343
194	0xbdf0c8c4	-0.11757043
195	0xbd4fe589	-0.05075601
196	0x3d68bb2a	0.05681912
197	0xbdca9535	-0.0989174
198	0xbdab797b	-0.0837278
199	0xbdcf1462	-0.101113096
200	0x3b95deef	0.004573695
201	0x3d5ccb50	0.05390483
202	0xbdeaa8f1	-0.11458004
203	0x3dc447af	0.09583985
204	0xbd599bbc	-0.053127035
205	0xbdb7547a	-0.089516595
206	0xbd5ee5c0	-0.054418325
207	0x3caafe46	0.0208732
208	0x3c91c3a7	0.01779349
209	0xbaf9c8ea	-0.001905707
210	0xbd4956da	-0.049155094
211	0x3d39a5fe	0.045324318
212	0xbd97e8a6	-0.07417421
213	0x3d769011	0.060195986
214	0x3da2bfac	0.07946715
215	0xbda46c90	-0.08028519
216	0xbd87ce46	-0.066311404
217	0x3d84f63c	0.06492278
218	0xba94b619	-0.0011345773
219	0xbdfdf254	-0.12399736
220	0xbdd48472	-0.103768244
221	0x3d9c9a14	0.076465756
222	0xbd8e2952	-0.06941475
223	0x3d6d39af	0.05791634
224	0x3d4ba3c1	0.049716715
225	0x3d69b4c8	0.057057172
226	0x3d26f8e4	0.040764704
227	0xbc4e1c07	-0.012579924
228	0xbdbc6664	-0.09199217
229	0xbd00b815	-0.031425554
230	0x3d8d1457	0.06888645
231	0xbce4f1b4	-0.027947284
232	0xbcb3c9b6	-0.02194677
233	0x3cb0d34f	0.021585135
234	0xbde01646	-0.10941748
235	0x3c1ea2d8	0.00968238
236	0xbdabb034	-0.083832175
237	0xbc857d8b	-0.016295215
238	0xbdc471f3	-0.095920466
239	0xbdec31de	-0.11532949
240	0x3cf9a676	0.030474883
241	0x3d685214	0.0567189
242	0xbdf08324	-0.11743763
243	0x3d6d2d32	0.05790443
244	0xbdc724f9	-0.09723849
245	0x3b6cc365	0.0036127206
246	0xbc7f6d39	-0.015590006
247	0xbd3ac0d9	-0.04559407
248	0xbd2ee4c0	-0.04269862
249	0x3d40f69a	0.047110178
250	0xbc276848	-0.010217734
251	0x3d7dd134	0.06196709
252	0x3d5ece24	0.05439581
253	0x3c4d3ee6	0.012527203
254	0xbd67423b	-0.056459647
255	0x3b8b9f9b	0.00426097

critic.0.bias f4 [128]
0	0x3c7d9569	0.015477517
1	0xbdd8154a	-0.105509356
2	0xbdc47af9	-0.09593768
3	0xbdf280ac	-0.118409485
4	0x3cd43e69	0.025908666
5	0x3e09facd	0.13474579
6	0x3dfc0447	0.12305503
7	0x3d89612a	0.06707986
8	0x3d788c08	0.06068042
9	0xbd7fec76	-0.062481366
10	0xbdb4ad24	-0.088220865
11	0x3e16208f	0.14660858
12	0x3df8c59d	0.12147067
13	0x3d201aa4	0.039087906
14	0xbc9d00a3	-0.019165343
15	0xbb171631	-0.0023053999
16	0xbd827c33	-0.06371345
17	0x3de83ffb	0.11340328
18	0x3cf4e196	0.029892724
19	0xbd6649c6	-0.0562227
20	0x3c8a38bc	0.016872756
21	0xbdc787c2	-0.097426906
22	0x3e052b1d	0.13004728
23	0x3be771a4	0.0070631076
24	0xbe0e3688	-0.1388799
25	0xbdfc4cd4	-0.12319341
26	0x3de66fe6	0.11251812
27	0xbc9909c8	-0.018681422
28	0x3d5c7777	0.053824868
29	0x3c8c0912	0.017094169
30	0x3d6435fc	0.055715546
31	0x3e2e3237	0.17011343
32	0xbd473194	-0.048631266
33	0xbcd87712	-0.026423965
34	0xbd87f8c6	-0.06639247
35	0xbc244dea	-0.010028342
36	0x3c3db641	0.011579097
37	0xbe1a8bfa	-0.1509246
38	0x3dcdb708	0.10044676
39	0xbd2cee95	-0.042219717
40	0xbd2735bd	-0.040822733
41	0x3dc7d2ae	0.09756981
42	0x3db69b01	0.089162834
43	0x3de7348c	0.112893194
44	0x3ad476e4	0.0016209749
45	0x3c787e7d	0.015166876
46	0xbb8218c1	-0.003970236
47	0x3e09d7de	0.13461253
48	0xbcd3eb27	-0.025868965
49	0x3d0adff9	0.033905003
50	0x3dd7a5a4	0.1052964
51	0x3b7ab159	0.003825268
52	0x3e1d0641	0.15334417
53	0xbdf72433	-0.12067451
54	0x3df141bd	0.11780117
55	0x3e18e4ba	0.14931002
56	0xba2d1385	-0.0006602335
57	0xbd702d11	-0.05863673
58	0xbe0b1d89	-0.13585486
59	0x3d8aceee	0.0677775
60	0x3cb064ea	0.021532495
61	0x3d271fea	0.04080192
62	0x3d98f299	0.07468147
63	0xbdacfb37	-0.08446353
64	0x3d920d2d	0.07131419
65	0x3d14b142	0.03630186
66	0xbcfaffae	-0.030639496
67	0x3c3b7f14	0.011443872
68	0xbda6c099	-0.08142204
69	0x3debe216	0.11517732
70	0xbdcd4230	-0.1002239
71	0xbd451532	-0.048115917
72	0xbdfc279e	-0.12312244
73	0x3da48f71	0.08035172
74	0x3d8a6d5d	0.06759141
75	0x3cc63595	0.024195472
76	0x3dfade05	0.12249378
77	0xbe023acc	-0.12717742
78	0x3e12d493	0.14338903
79	0x3e017f22	0.12646154
80	0x3d70245f	0.058628436
81	0xbe0fb29b	-0.14032976
82	0x3d81e9b6	0.06343405
83	0x3d7c4ccb	0.061596673
84	0xbd27c0eb	-0.040955465
85	0x3d42630f	0.04745775
86	0xbd12feda	-0.035887577
87	0x3e1a6360	0.15076971
88	0xbdcd3994	-0.10020748
89	0xbda7a8f3	-0.081865214
90	0xbaf4a553	-0.0018664993
91	0xbe2e8def	-0.17046331
92	0x3d084034	0.033264354
93	0x3cc4351a	0.023951102
94	0xbd03e2a3	-0.03219856
95	0xbcdd0502	-0.026979927
96	0x3d2bb9f0	0.04192537
97	0xbe065b1f	-0.13120697
98	0x3df6374c	0.12022266
99	0xbe117122	-0.14203313
100	0x3dacd6fd	0.08439443
101	0xbdd214d2	-0.102578774
102	0xbdd379ad	-0.10325942
103	0x3d1e9258	0.038713783
104	0x3dd032ac	0.10165915
105	0xbd48d6b7	-0.049032893
106	0x3e0c25e7	0.13686334
107	0x3e084ac2	0.13309768
108	0xbd43469e	-0.047674768
109	0x3d9202dc	0.07129452
110	0xbd489159	-0.04896674
111	0xbe1336c0	-0.14376354
112	0x3d433aa2	0.04766334
113	0xbbd44c5f	-0.0064788307
114	0x3d7bc57b	0.06146763
115	0xbdb2e4b3	-0.08735027
116	0xbd83c902	-0.064348236
117	0x3e08e21c	0.13367504
118	0x3cd29f36	0.025710683
119	0x3e09289f	0.13394402
120	0xbd0d1dae	-0.034452133
121	0xbc8485d6	-0.0161771
122	0x3d8f740a	0.070045546
123	0x3ded3949	0.11583192
124	0xbb5bad38	-0.0033519994
125	0x3d506139	0.05087397
126	0x3d742868	0.059608847
127	0x3defa845	0.11702017

critic.2.weight f4 [128, 128]
0	0x3b93138b	0.0044884137
1	0x3dadeea2	0.08492781
2	0x3db22482	0.086983696
3	0xbc3bcdb6	-0.0114626195
4	0x3db5eadf	0.08882689
5	0x3c43d4a1	0.01195255
6	0xbd2152ca	-0.039385594
7	0xbd16f59e	-0.036855333
8	0xbdd0d97d	-0.101977326
9	0x3dbe513b	0.09292837
10	0xbb7f0333	-0.003891182
11	0x3d05a7d9	0.032630775
12	0xbcd4ef66	-0.02599306
13	0xbcd60db4	-0.026129581
14	0xbd9496c0	-0.07255316
15	0x3ddc7a07	0.10765462
16	0x3d5d8b24	0.054087773
17	0xbd11ecbb	-0.035626154
18	0x3d59d3d8	0.053180546
19	0xbd945e8c	-0.07244596
20	0x3c78afd9	0.015178644
21	0x3da894db	0.08231517
22	0xbd86f74e	-0.065901384
23	0x3ce4c00f	0.027923612
24	0xbd3b0127	-0.045655396
25	0x3dc747f5	0.097305216
26	0x3c4bd65d	0.012441245
27	0x3cb7d9b9	0.022442685
28	0xbc84b759	-0.016200708
29	0x3d1c5875	0.038170297
30	0xbb6406c8	-0.003479408
31	0xbde302e6	-0.11084537
32	0x3c2825e5	0.010262941
33	0xbe08a907	-0.13345729
34	0xbd392e1c	-0.04520999
35	0x3d294635	0.04132672
36	0x3d5159db	0.051111083
37	0x3be1905b	0.0068836636
38	0xbccc1624	-0.024912901
39	0xbd8ecaee	-0.069722995
40	0xbc94d997	-0.018170161
41	0xbdef3d5c	-0.11681625
42	0xbdaf5e25	-0.085628785
43	0x3c79971c	0.015233781
44	0xbd12ddfb	-0.03585623
45	0xbd7f5f96	-0.062347017
46	0x3d3e301c	0.0464326
47	0xbd8a9e31	-0.06768454
48	0xbc06daad	-0.008230847
49	0xbbf544e9	-0.0074850214
50	0xbdc9253f	-0.09821557
51	0x3dcf6446	0.101265475
52	0xbe05b229	-0.13056244
53	0x3d609959	0.054833744
54	0xbda249ff	-0.0792427
55	0xbd91c391	-0.071173795
56	0x3d1ca59f	0.038243886
57	0x3e008e81	0.12554361
58	0x3dbd14b3	0.09232464
59	0xbdd87717	-0.105695896
60	0x3d0785e4	0.033086672
61	0x3b0ea2bf	0.0021764485
62	0x3cad67d4	0.021167673
63	0x3d5f6697	0.054541197
64	0xbc9a2b4b	-0.018819472
65	0xbc85fc93	-0.016355788
66	0x3c2d49a6	0.010576641
67	0x3a948e2a	0.0011333872
68	0x3ca9bd76	0.020720225
69	0x3c0400b4	0.008056808
70	0x3cac7f0b	0.021056673
71	0xbcbd38cf	-0.023098378
72	0xbb96711b	-0.00459112
73	0xbdbf76af	-0.09348809
74	0xbdb76a4b	-0.08955821
75	0x3c7df4f5	0.015500297
76	0x3cc8cb90	0.024511129
77	0x3caa1fdf	0.02076715
78	0x3d2546c5	0.040350694
79	0xbdbb21d7	-0.09137314
80	0xbd190085	-0.03735401
81	0x3d412059	0.04714999
82	0xbdeb1074	-0.114777476
83	0xbc5e160c	-0.013555061
84	0x3de89716	0.11356942
85	0x3d04e191	0.03244168
86	0xbd8d4c42	-0.06899311
87	0x3cb8f063	0.022575563
88	0x3d7c03b5	0.061526973
89	0xbd0a7640	-0.03380418
90	0xbd3790c9	-0.044815812
91	0xbcff235f	-0.031144796
92	0x3d5a9c9b	0.053372007
93	0x3c635cf0	0.0138771385
94	0xbc520365	-0.012818192
95	0x3dd6a18a	0.1048003
96	0x3cf1dba5	0.02952368
97	0x3dcf1ebc	0.10113284
98	0xbceec49a	-0.029146481
99	0x3d45dad4	0.048304394
100	0xbd5d5c99	-0.054043386
101	0xbc677979	-0.014128082
102	0xbcd5fc8e	-0.026121404
103	0xbbdc0419	-0.0067143557
104	0xbd7c7769	-0.061637316
105	0xbcfc5149	-0.030800479
106	0xbdaa064a	-0.08301981
107	0x3c4122f9	0.011788123
108	0xbdb9c0bf	-0.090699665
109	0xbcfe61bd	-0.031052465
110	0xbd2e86a5	-0.042608876
111	0x3dbf667c	0.09345719
112	0xbdd7dae2	-0.105397955
113	0xbd023335	-0.031787116
114	0xbd422b9b	-0.047404867
115	0x3d4ea7fc	0.05045317
116	0xbd515286	-0.05110409
117	0xbddb06ee	-0.10694681
118	0xbd5a1616	-0.05324372
119	0x3cda0ca6	0.02661736
120	0xbc9c2389	-0.019059913
121	0xbde5558d	-0.11197958
122	0xbd852f6a	-0.06503184
123	0xbc3498bf	-0.011022746
124	0x3c344dfb	0.01100492
125	0xbc8ab585	-0.016932258
126	0xbdb102cc	-0.086431116
127	0xbdb031d9	-0.08603258
128	0x3d88d1e9	0.06680662
129	0xbd4b2e80	-0.049604893
130	0x3d79992d	0.060937095
131	0x3ddeeaef	0.10884654
132	0x3d8d7dda	0.0690877
133	0x3d149392	0.036273547
134	0xbde5fbe5	-0.11229686
135	0xbbf07dd7	-0.00733922
136	0x3c153f63	0.009109351
137	0xbcdee9b0	-0.02721104
138	0x3d8665c4	0.06562379
139	0xbd7b5fab	-0.061370533
140	0xbde510da	-0.11184855
141	0x3de641f3	0.112430476
142	0x3c86d20a	0.016457576
143	0xbd1a9bd0	-0.03774625
144	0x3d2a0ebe	0.041517965
145	0xbdc73187	-0.097262435
146	0x3c73c034	0.014877368
147	0xbbc1d122	-0.005914823
148	0x3d040300	0.032229424
149	0x3dd4fe59	0.104000755
150	0xbd9b092a	-0.07570107
151	0xbda58d13	-0.080835484
152	0xbbd6a5b7	-0.0065505165
153	0xbc97e541	-0.018541934
154	0xbad242b4	-0.0016041608
155	0xbc19841b	-0.009369875
156	0xbdde1fb7	-0.10845893
157	0xbddaa9bb	-0.10676905
158	0x3cf9f206	0.030510914
159	0xbbe487b7	-0.0069741863
160	0xbd4ff10e	-0.050766997
161	0xbdcab8f6	-0.0989856
162	0x3ce3330e	0.027734306
163	0x3dc6b2e3	0.09702089
164	0xbde54b1d	-0.11195967
165	0x3d822410	0.063545346
166	0x3ca4e872	0.02013037
167	0xbdb09690	-0.086224675
168	0x3dd67451	0.10471404
169	0xbd53785a	-0.051628448
170	0x3c1450fc	0.009052511
171	0xbd81bbee	-0.06334673
172	0xbce0a809	-0.027423875
173	0xbc4744b7	-0.012162379
174	0x3d154ead	0.036451984
175	0xbd03a243	-0.032137167
176	0xbd28845b	-0.04114185
177	0x3cefcaac	0.029271446
178	0xbd86daa5	-0.06584672
179	0xbcb2aadc	-0.021809988
180	0xbdee88fe	-0.11647223
181	0x3d2c9aff	0.042140003
182	0xbbdc9cff	-0.0067325826
183	0xbd620458	-0.055179924
184	0xbd4cc91c	-0.04999648
185	0x3d4d5f6a	0.050139822
186	0xbd2a0a64	-0.041513816
187	0x3c9c3859	0.019069837
188	0xbdc18056	-0.09448306
189	0xbd890f6c	-0.066923946
190	0xbb4f42cb	-0.0031625505
191	0x3d2c4e8c	0.042067096
192	0x3df79e23	0.12090709
193	0x3d78c8d9	0.06073842
194	0x3cb40906	0.021976959
195	0xbd020a4b	-0.031748097
196	0x3d008136	0.031373225
197	0x3d0fc38c	0.035098597
198	0x3ddc23e3	0.10749032
199	0x3c0e7ed3	0.008697229
200	0x3d513a2f	0.05108088
201	0xbdf1df71	-0.11810196
202	0xbd8347dd	-0.06410191
203	0x3dea7bcd	0.114493944
204	0xbd7ed6a1	-0.062216405
205	0x3de3798c	0.111071676
206	0xbd8fa7cc	-0.070144266
207	0xbd907143	-0.07052853
208	0xbdcb49a1	-0.09926153
209	0x3c1f4383	0.009720686
210	0x3c27e628	0.010247745
211	0xbd7c2f7a	-0.061568715
212	0x3d9a2cba	0.07528062
213	0xbda73f0f	-0.08166324
214	0xbd3f6444	-0.04672648
215	0x3d36bde6	0.044614695
216	0x3deeb94e	0.11656438
217	0x3dab6750	0.08369315
218	0x3d83bba1	0.06432272
219	0x3c777e9a	0.015105868
220	0xbd203de9	-0.039121542
221	0x3db94a2a	0.09047349
222	0x3c9a65bc	0.018847339
223	0xbd13572e	-0.035971813
224	0x3c81481e	0.015781458
225	0xbd4382a1	-0.047732
226	0x3c0d736c	0.008633476
227	0xbd2a9f21	-0.041655663
228	0xbdb6556c	-0.08903012
229	0x3db7fd90	0.0898391
230	0xbc07b95c	-0.008283939
231	0xbdf35f77	-0.11883443
232	0xbda567f6	-0.080764696
233	0xbc86dcb8	-0.016462669
234	0xbd936eb0	-0.07198846
235	0xbde90f5a	-0.11379881
236	0xbd8d522d	-0.069004394
237	0xbcb74b22	-0.022374693
238	0xbba35c2e	-0.004985354
239	0x3d8e8d05	0.06960491
240	0xbdaef743	-0.08543255
241	0xbd9bc299	-0.07605476
242	0xbdc6a935	-0.097002424
243	0xbcd76557	-0.02629344
244	0x3d0c42c1	0.03424335
245	0xbd0760e5	-0.03305139
246	0x3c3c74b1	0.011502431
247	0xbd8b7941	-0.06810237
248	0xbd25355d	-0.040334094
249	0x3c4c15b9	0.012456351
250	0xbcadb94d	-0.021206522
251	0xbdfcdaf0	-0.123464465
252	0xbd350dc0	-0.044202566
253	0x3d077822	0.033073552
254	0xbd4fe9a3	-0.050759923
255	0x3d21c8c6	0.039498113

critic.2.bias f4 [128]
0	0xbdaeab7a	-0.085288
1	0x3d0753e7	0.033039
2	0xbd62ea7e	-0.05539941
3	0x3c1fdf0c	0.009757768
4	0x3c89bed6	0.01681463
5	0xbdc76a70	-0.09737098
6	0xbd8de711	-0.06928838
7	0xbde3547d	-0.11100099
8	0xbdde757b	-0.10862251
9	0x3dd6e43f	0.10492753
10	0x3d2c7cf6	0.04211136
11	0xbbd3e526	-0.0064665256
12	0x3dd43d56	0.103632614
13	0x3d251dbc	0.04031156
14	0x3d2d7922	0.04235185
15	0xbd2131d3	-0.039354157
16	0xbdae5b22	-0.08513476
17	0xbd1385e8	-0.036016375
18	0x3ca7ce4e	0.020484116
19	0x3ce9c11b	0.028534463
20	0xbd9cdcbf	-0.076592915
21	0x3d9de3a3	0.07709434
22	0xbd9173bc	-0.07102153
23	0x3dccbe0e	0.099971876
24	0xbd4818d7	-0.048851814
25	0x3bdad7bc	0.0066785496
26	0x3d1e7474	0.038685277
27	0x3d0b6385	0.034030456
28	0xbcf8b7f3	-0.030361151
29	0xbc9ff1ad	-0.01952442
30	0xbd2e0437	-0.04248449
31	0x3a95e21d	0.0011435185
32	0x3c231a4e	0.009955002
33	0x3dab7150	0.08371222
34	0x3d98e590	0.074656606
35	0xbdddab73	-0.10823717
36	0x3d24a694	0.040197924
37	0x3d0a1a32	0.033716388
38	0x3dab5138	0.083651006
39	0x3d469315	0.048480112
40	0xbb2cd852	-0.0026374054
41	0x3d7e06bd	0.062018145
42	0x3cc46237	0.023972614
43	0x3bca052d	0.006165168
44	0x3dbcf119	0.09225673
45	0xbc93eb16	-0.018056434
46	0xbbdbc33f	-0.0067066248
47	0xbd4e389e	-0.050346963
48	0x3d95a20b	0.07306298
49	0xbd292378	-0.04129359
50	0xbdd8acb0	-0.105798125
51	0x3d0e94ff	0.034810062
52	0x3d4b0fe2	0.049575694
53	0x3d52b239	0.051439498
54	0xbc355755	-0.011068185
55	0x3c893ab1	0.016751619
56	0x3d13cc7b	0.03608368
57	0x3da3b25e	0.07993005
58	0xbd992e6b	-0.07479557
59	0xbaa29b73	-0.0012405947
60	0x3b959e06	0.004565957
61	0x3d3cfdc5	0.04614045
62	0x3d98a4b8	0.074532926
63	0xbdcd51f0	-0.10025394
64	0xbdd7bf08	-0.10534483
65	0x3ad2c94f	0.0016081723
66	0x3ddea38b	0.10871037
67	0x3d693657	0.05693659
68	0x3d613bbf	0.05498862
69	0x3d4cf063	0.05003394
70	0xbbe4952a	-0.0069757896
71	0xbc476c5a	-0.012171829
72	0xbc77d2e6	-0.015125966
73	0x3dda8fc6	0.10671954
74	0xbdc9647a	-0.098336175
75	0x3da706b9	0.08155579
76	0x3dcf6c68	0.10128099
77	0xbd777778	-0.06041667
78	0xbdbe6b26	-0.09297781
79	0x3d11dfad	0.035613704
80	0xbdcb364a	-0.09922464
81	0xbd0dbb9f	-0.034602758
82	0x3ddd2681	0.1079836
83	0xbb80f4db	-0.003935439
84	0xbd9fbcfc	-0.07799718
85	0xbd12d5c1	-0.035848383
86	0xbd8a174a	-0.06742723
87	0x3c834270	0.01602289
88	0xbdae00b6	-0.08496229
89	0xbd654ce0	-0.055981517
90	0x3dbbda1e	0.09172462
91	0xbd1934e6	-0.037403964
92	0xbd603b36	-0.054743968
93	0xbdd64120	-0.1046164
94	0xbdd46ea8	-0.103726685
95	0xbdd4f6d5	-0.10398642
96	0x3d157c44	0.036495462
97	0x3ccf02e2	0.02526993
98	0x3d5944da	0.053044178
99	0xbd513a65	-0.05108108
100	0x3d92f2fd	0.071752526
101	0x3ccc5dc5	0.024947057
102	0x3d20f5ec	0.03929703
103	0xbbd6c880	-0.006554663
104	0xbc92613b	-0.017868629
105	0x3da18db5	0.078883566
106	0x3cb1c0c2	0.02169836
107	0x3db4b70e	0.088239774
108	0x3d233c4b	0.03985242
109	0x3c0cee82	0.008601787
110	0x3c0a5d16	0.008445045
111	0xbdd5388e	-0.104111776
112	0x3d7382e7	0.05945101
113	0x3d86dbe5	0.0658491
114	0xbd25f987	-0.04052117
115	0xbdbb2e2c	-0.09139666
116	0xbd3a0fd1	-0.04542524
117	0x3dc6c26d	0.097050525
118	0x3c3db2ef	0.011578306
119	0xbd645125	-0.055741448
120	0xbd87c86d	-0.06630025
121	0x3da5bc3c	0.080925435
122	0xbda35c1c	-0.07976553
123	0xbdd4c29e	-0.10388683
124	0xbd9c0d6c	-0.076197475
125	0x3d4f94ef	0.050679144
126	0x3d65ea29	0.056131516
127	0x3dd07696	0.101788685

critic.4.weight f4 [128, 128]
0	0xbc85bb04	-0.016324528
1	0x3b87a9a6	0.0041400967
2	0x3e0fb006	0.14031991
3	0xbe08dca0	-0.13365412
4	0xbbb28438	-0.0054478906
5	0xbde7be03	-0.11315539
6	0xbdd0c472	-0.10193719
7	0x3c9872ee	0.01860949
8	0xbd80d51e	-0.06290649
9	0xb985e4bc	-0.00025538157
10	0x3e02988c	0.12753505
11	0x3d8683af	0.065680854
12	0x3cf6d854	0.03013245
13	0x3b4efe10	0.0031584539
14	0xbe46eea2	-0.19426969
15	0x3e28e869	0.16494907
16	0xbd17622d	-0.036958862
17	0xbde00ced	-0.109399654
18	0x3cab9cce	0.020948794
19	0x3d6ff8aa	0.058586754
20	0xbd4bf69f	-0.049795743
21	0x3d480e4f	0.04884177
22	0xbe0d645b	-0.13807814
23	0x3dafbd29	0.08581001
24	0x3c14796b	0.009062151
25	0xbc2ebca3	-0.010665092
26	0x3b9af204	0.0047285575
27	0x3d5fb311	0.05461413
28	0xbbe68990	-0.0070354417
29	0x3dd75a41	0.105152614
30	0xbc370973	-0.011171686
31	0x3c1cf595	0.009580036
32	0x3c32aaeb	0.010905008
33	0x3dd987e5	0.10621623
34	0x3d8a6cb0	0.06759012
35	0xbb4f766c	-0.0031656278
36	0x3e237f77	0.15966593
37	0x3d44d1cb	0.048051637
38	0x3db69963	0.08915975
39	0x3c6393b8	0.013890199
40	0x3c9a543d	0.018838996
41	0x3e131edf	0.14367245
42	0x3cc46d31	0.023977848
43	0x3dbff882	0.09373571
44	0x3da74ec1	0.08169318
45	0xbe00c35b	-0.12574522
46	0xbcb50b19	-0.022100018
47	0xbd729c3a	-0.05923102
48	0x3df24731	0.11829985
49	0xbd15961a	-0.0365201
50	0x3c08ba28	0.008345164
51	0xbdee9386	-0.116492316
52	0xbbce5e4e	-0.006297863
53	0xbd2f5f69	-0.0428156
54	0xbd3aad8f	-0.045575675
55	0x3d90ba94	0.07066837
56	0x3d8e266d	0.06940923
57	0x3e040066	0.12890777
58	0xbdfcebb6	-0.12349646
59	0x3e02c742	0.12771323
60	0x3cb16e40	0.021659017
61	0x3c82a618	0.01594834
62	0x3db3fe46	0.08788733
63	0xbc37cdac	-0.01121847
64	0xbdd4ad48	-0.10384613
65	0xbbaf7886	-0.0053549437
66	0x3e00319e	0.12518927
67	0x3c61c035	0.013778736
68	0x3d36a529	0.044591103
69	0x3ddbcd84	0.10732558
70	0x3dad6d7c	0.08468148
71	0xbdfb10ef	-0.12259089
72	0xbd8de538	-0.06928486
73	0x3d8c19e6	0.06840877
74	0xbcd798e2	-0.026318017
75	0x3cc51258	0.024056599
76	0x3bed6f66	0.0072459457
77	0xbe0eedd3	-0.1395791
78	0xbe095947	-0.13412963
79	0x3dbf81d2	0.09350933
80	0xbdc00e06	-0.09377675
81	0x3c4347a2	0.011918934
82	0x3d408814	0.047004774
83	0xbcf53272	-0.02993128
84	0xbc9caf63	-0.0191266
85	0x3e24999f	0.16074227
86	0xbd9652c4	-0.07340005
87	0xbb88213a	-0.0041543515
88	0xbe029b2d	-0.12754507
89	0xbcdcbc54	-0.02694527
90	0x3d30a779	0.043128464
91	0x3cfb6836	0.03068934
92	0x3dc0b502	0.094095245
93	0xbe12cd73	-0.14336185
94	0x3c165bbd	0.009177146
95	0xbdbeda40	-0.09318972
96	0x3dd20e99	0.102566905
97	0x3dc1ec18	0.094688594
98	0x3c0f56d4	0.008748729
99	0xbd0c7352	-0.034289666
100	0x3d03c7d2	0.032172985
101	0xba4addce	-0.000773874
102	0x3df7a694	0.12092319
103	0xbc648bf6	-0.013949385
104	0xbdc1ad4c	-0.09456882
105	0x3dd21106	0.10257153
106	0x3d1419e0	0.03615749
107	0x3d7243f6	0.059146844
108	0xbce7deb5	-0.028304437
109	0x3cc088aa	0.023502667
110	0x3c11e183	0.008903864
111	0xbdc5c3aa	-0.096564606
112	0x3dea711b	0.114473544
113	0x3e1e686f	0.15469526
114	0xbd881f1e	-0.0664656
115	0x3d14dfba	0.036346175
116	0x3daa8143	0.08325436
117	0x3c94bae1	0.018155517
118	0x3ca5af51	0.020225199
119	0xbd6529e8	-0.055948168
120	0x3c3523fd	0.011055944
121	0xbc842bd8	-0.016134188
122	0xbe0a1aa8	-0.13486731
123	0x3ba4ac34	0.005025411
124	0xbd0a1e36	-0.033720218
125	0xbd8862d2	-0.066594735
126	0xbc92b75b	-0.017909696
127	0x3e13e4f1	0.14442803
128	0x3df5850b	0.119882666
129	0x3cb47864	0.022030063
130	0xbd9d4e16	-0.07680909
131	0x3e0e599b	0.1390137
132	0xbe202aa6	-0.15641269
133	0x3da9375b	0.08262511
134	0x3de263ff	0.11054229
135	0xbc8c0bef	-0.017095534
136	0x3de35242	0.11099674
137	0xbd3aaf40	-0.045577288
138	0xbe134bad	-0.14384337
139	0xbe08ae2e	-0.13347694
140	0xbb9e36b0	-0.0048282966
141	0xbd7ce91f	-0.06174576
142	0x3e125d28	0.14293349
143	0xbcdb7c2d	-0.02679261
144	0x3e09c5e8	0.13454401
145	0xbc9ee27f	-0.019395111
146	0xbc82f1b7	-0.0159844
147	0xbe1db1c4	-0.15399843
148	0x3da7b720	0.08189225
149	0xbe0580a3	-0.13037352
150	0x3ce1a3e9	0.027543979
151	0xbd1475df	-0.036245223
152	0x3cfdd606	0.030985843
153	0xbcdb7284	-0.026788004
154	0xbd8307cf	-0.06397974
155	0xbb8158ee	-0.003947369
156	0xbc6d467d	-0.014482138
157	0xbdc8c496	-0.09803121
158	0x3ca77070	0.020439357
159	0x3d329986	0.043603443
160	0x3dc3f843	0.095688365
161	0xbdebc9af	-0.115130775
162	0xbd776966	-0.06040325
163	0x3d308754	0.04309781
164	0x3bdd7086	0.0067577986
165	0xbe0499ec	-0.12949342
166	0x3d1748d8	0.036934704
167	0x3e07d668	0.13265383
168	0x3c737392	0.014859097
169	0x3ae171a1	0.0017200002
170	0xbc0d1ccf	-0.008612826
171	0xbdb6aea8	-0.08920032
172	0xbdf7b1f6	-0.1209449
173	0x3dae5346	0.08511977
174	0xbddc14a5	-0.10746125
175	0xbcc7aa12	-0.024373088
176	0x3c873258	0.016503498
177	0x3e129f3e	0.14318559
178	0x3dce6850	0.1007849
179	0x3d8b67ff	0.06806945
180	0x3c878668	0.016543582
181	0x3db617bf	0.08891248
182	0x3b1b1b77	0.0023667493
183	0xbdb1b435	-0.0867695
184	0xbc56a10d	-0.013099921
185	0xbdcd17ab	-0.1001428
186	0x3db9982d	0.09062228
187	0xbd94e14a	-0.07269533
188	0x3ba9b1f2	0.0051786834
189	0xbb3464c8	-0.002752589
190	0xbdee9b7e	-0.116507515
191	0xbc8d00ed	-0.017212356
192	0x3d386f1d	0.04502784
193	0x3bcf6c00	0.0063300133
194	0x3cae10d1	0.021248253
195	0xbda3c14d	-0.079958536
196	0xbd32888b	-0.04358725
197	0xbd3505e6	-0.04419508
198	0x3b911cc2	0.004428477
199	0x3daaa22b	0.08331712
200	0x3e091c57	0.13389717
201	0x3cea34eb	0.028589686
202	0xbcc84411	-0.02444652
203	0xbddeaba8	-0.108725846
204	0xbda771e7	-0.08176022
205	0x3c99289f	0.018696127
206	0x3de150bf	0.11001729
207	0xbe05a40d	-0.13050862
208	0x3dff89e4	0.124774724
209	0xbe00a5f6	-0.12563309
210	0x3cd9e8d4	0.026600279
211	0x3dd70963	0.10499837
212	0x3dc5b583	0.09653761
213	0xbe075fa3	-0.13220076
214	0xbc164625	-0.009171997
215	0x3d339748	0.043845445
216	0x3dd31113	0.10305991
217	0x3c33cac9	0.010973641
218	0xbdc42403	-0.09577181
219	0x3df15e3a	0.117855504
220	0xbce4390b	-0.027859231
221	0xbccf0879	-0.025272595
222	0x3da8552c	0.0821937
223	0xbd1c6fd6	-0.038192593
224	0xbd5ccbe6	-0.05390539
225	0xbde0302b	-0.10946687
226	0xbc632d5e	-0.013865797
227	0xbc7fce93	-0.015613216
228	0xbd79331d	-0.06083976
229	0x3db0130b	0.08597382
230	0xbc243a45	-0.010023658
231	0x3d1d5a8e	0.038416438
232	0x3dd1fe40	0.102535725
233	0xbcc82594	-0.024431981
234	0x3d2d8f81	0.042373184
235	0x3c1734bf	0.009228884
236	0x3cead3cd	0.028665448
237	0x3d1aaac0	0.037760496
238	0xbded5ebc	-0.11590335
239	0x3cb38923	0.021915978
240	0xbdb15010	-0.08657849
241	0xbcfc4dbe	-0.03079879
242	0x3d33251c	0.043736562
243	0x3d938c00	0.07204437
244	0x3c1e8b3a	0.009676749
245	0x3bb210c1	0.005434126
246	0xbd84f1db	-0.06491443
247	0x3c730f76	0.014835229
248	0x3dd47a07	0.10374837
249	0xbdd07892	-0.10179247
250	0x3d4acc78	0.049511403
251	0x3d82b26e	0.06381689
252	0x3dfd0d85	0.12356094
253	0xbcfca22a	-0.030839045
254	0xbdda0fd8	-0.10647553
255	0xbd5abd15	-0.05340298

critic.4.bias f4 [128]
0	0x3d44cd53	0.048047375
1	0x3b9b62a8	0.0047419854
2	0x3dd85b1c	0.10564253
3	0xbd57853f	-0.052617308
4	0xbc689a28	-0.01419691
5	0xbdcd7474	-0.10031977
6	0xbdd0016b	-0.101565205
7	0xbce01b4f	-0.027356772
8	0xbb68af23	-0.003550478
9	0xbd31b2e5	-0.043383498
10	0x3c88e553	0.016710913
11	0x3de89358	0.113562286
12	0x3d6c1753	0.05763943
13	0x3b8c0e8c	0.004274195
14	0xbde7f09b	-0.11325189
15	0x3dd8d62b	0.10587724
16	0x3ca2b38d	0.019861007
17	0x3cec51f0	0.028847665
18	0xbc44dffc	-0.012016293
19	0xbdeea09a	-0.11651726
20	0xbd84b634	-0.06480065
21	0x3d4783f7	0.048709836
22	0x3da0a326	0.07843618
23	0x3c8b5844	0.017009862
24	0x3bd7076e	0.006562165
25	0xbdb2ed53	-0.08736672
26	0x3d32ef64	0.043685332
27	0xbd057837	-0.03258535
28	0xbd455629	-0.04817787
29	0xbd3ce352	-0.046115227
30	0x3d2a1a82	0.041529186
31	0xbd4b7b21	-0.04967797
32	0xbd8b8dce	-0.068141565
33	0xbb9bc8cf	-0.004754163
34	0x3b4af887	0.0030970888
35	0xbd392277	-0.045198884
36	0xbdc5a487	-0.09650522
37	0xbd842785	-0.0645285
38	0x3d814adf	0.06313109
39	0xbdea8b00	-0.114522934
40	0x3d62404f	0.05523711
41	0x3a76e47c	0.0009418202
42	0x3bdbd4f6	0.0067087365
43	0x3d47b671	0.048757974
44	0x3da146d8	0.078748405
45	0xbc4cf557	-0.012509665
46	0x3da81f7a	0.08209129
47	0xbca2f669	-0.019892888
48	0x3b7ceb4f	0.0038592403
49	0x3cd5e7ec	0.026111566
50	0x3d811550	0.06302893
51	0x3d981939	0.07426686
52	0x3cb04682	0.021517996
53	0x3cf2ea55	0.029652754
54	0x3c37266d	0.011178595
55	0xbd8fbe41	-0.0701871
56	0x3d84f43e	0.06491898
57	0x3d5ceec7	0.053938653
58	0xbd55ee03	-0.05222894
59	0x3bf2e3c6	0.0074124066
60	0x3b8e739d	0.0043472783
61	0x3dd77ea5	0.105222024
62	0xbd64bb56	-0.05584272
63	0x3cf8a17b	0.030350437
64	0xbd7bc4fe	-0.061467163
65	0xbd5a5cdd	-0.053311218
66	0x3ba55ce4	0.005046474
67	0xbd79e944	-0.061013475
68	0xbd05ad8c	-0.03263621
69	0x3ce23d86	0.027617227
70	0xbd82ac47	-0.063805155
71	0x3cc06274	0.023484446
72	0x3d1caeb2	0.03825254
73	0x3d760df4	0.0600719
74	0x3d251f4a	0.040313043
75	0xbd4bca45	-0.049753446
76	0x3d3ba00f	0.04580694
77	0xbce0f19a	-0.027458955
78	0xbd0215ab	-0.031758945
79	0xbc1ddd0d	-0.009635222
80	0x3b24aafd	0.002512633
81	0x3d2c12a9	0.042009983
82	0x3a9e0512	0.0012055954
83	0x3dc4086e	0.0957192
84	0xbd30ceda	-0.04316602
85	0xbd941306	-0.07230191
86	0x3cedc670	0.029025286
87	0xbdd8715a	-0.10568495
88	0x3dabbf21	0.08386064
89	0xbc9ee3d8	-0.019395754
90	0x3d20fecf	0.039305504
91	0x3d179939	0.03701136
92	0xbd7c3875	-0.06157728
93	0x3dc4f6ca	0.09617384
94	0xbdaefc31	-0.085441954
95	0xbd2b8f65	-0.0418848
96	0x3d0444c5	0.032292146
97	0xbb967496	-0.004591535
98	0xba0fb53c	-0.0005482023
99	0xbdbc1dc7	-0.09185367
100	0xbd785be3	-0.060634505
101	0x3d44555c	0.047932968
102	0x3d755cc4	0.05990292
103	0x3d8ef417	0.0698015
104	0xbd83d101	-0.06436349
105	0x3d1d1cac	0.03835742
106	0x3cfce038	0.030868635
107	0x3d446228	0.04794517
108	0xbdb7fdb9	-0.08983941
109	0x3d1ffc8e	0.039059214
110	0x3ccc5ffc	0.024948113
111	0x3d833f83	0.06408598
112	0xbdd100fc	-0.10205266
113	0xbd7f943f	-0.062397238
114	0x3d36fe8f	0.04467636
115	0xbd582f97	-0.05277976
116	0xbc111604	-0.008855347
117	0x3c92e386	0.017930757
118	0xbc08a5aa	-0.008340279
119	0x3d00a9cc	0.03141193
120	0x3da74f2e	0.08169399
121	0x3cc0fe2a	0.023558695
122	0xbd6e85bc	-0.058233008
123	0x3d8e889e	0.069596514
124	0xbc362c20	-0.011118919
125	0xbdbc7972	-0.09202851
126	0xbdd9ef9b	-0.10641404
127	0xbcab7214	-0.02092842

critic.6.weight f4 [1, 128]
0	0x3f0bbd50	0.5458574
1	0xbf0eb67e	-0.5574721
2	0x3f09a085	0.5376056
3	0xbf1583c7	-0.584042
4	0xbf07758d	-0.52913743
5	0xbf14fd2f	-0.5819883
6	0xbf100ee3	-0.56272715
7	0xbf133757	-0.57506317
8	0x3f0fa926	0.56117475
9	0xbf1a8b29	-0.6036859
10	0xbf0685b0	-0.5254774
11	0x3f08ac97	0.5338835
12	0xbf1c08da	-0.60951006
13	0x3f07330e	0.5281228
14	0xbf15f5c6	-0.58578146
15	0x3f0cff00	0.550766
16	0xbf07df51	-0.5307513
17	0x3f1aae7b	0.60422486
18	0xbf15f108	-0.5857091
19	0xbf0e3a7e	-0.55558
20	0xbf170ebe	-0.5900687
21	0x3f0b72ff	0.54472345
22	0x3f0e224a	0.5552107
23	0x3f13f21c	0.57791305
24	0x3f0d5cc4	0.55219674
25	0xbf1163a4	-0.56792665
26	0x3f0f8875	0.5606759
27	0xbf1739b2	-0.5907241
28	0xbf146f64	-0.5798247
29	0x3f14a679	0.5806652
30	0x3f12b2bc	0.57303977
31	0x3f12bacf	0.573163
32	0xbf16600d	-0.5874031
33	0x3f17380b	0.5906989
34	0x3f1112d5	0.5666936
35	0xbf06c128	-0.52638483
36	0xbf11c297	-0.56937546
37	0xbf121c5d	-0.5707453
38	0x3f0d8a4c	0.5528915
39	0xbf0e0f86	-0.55492437
40	0x3f190f90	0.5978937
41	0xbf110f4b	-0.5666396
42	0x3f18246b	0.5943057
43	0xbf122af7	-0.5709681
44	0x3f10f035	0.56616527
45	0xbf1206b9	-0.5704151
46	0x3f1532e4	0.5828078
47	0x3f093675	0.5359872
48	0xbf1a190b	-0.6019446
49	0x3f105896	0.5638517
50	0xbf1b313f	-0.6062202
51	0x3f1880f3	0.5957176
52	0xbf0ef126	-0.55836713
53	0xbf0bba12	-0.54580796
54	0x3f0f64b0	0.5601301
55	0xbf062ee9	-0.5241533
56	0x3f18e78a	0.597283
57	0x3f1c305f	0.6101131
58	0x3f0e76af	0.55649847
59	0x3f0da7fc	0.5533445
60	0xbf1878d8	-0.5955939
61	0x3f07cf5a	0.5305077
62	0xbf08fef3	-0.5351402
63	0x3f1b9349	0.60771614
64	0x3f1930f2	0.5984031
65	0x3f0aea09	0.5426336
66	0x3f0ad1b0	0.5422621
67	0xbf1d9bfb	-0.6156613
68	0xbf087e96	-0.53318155
69	0x3f0f55e0	0.5599041
70	0xbf1d94f8	-0.61555433
71	0x3f11281a	0.56701815
72	0x3f1117fe	0.56677234
73	0x3f0f6d6e	0.5602635
74	0xbf080afb	-0.53141755
75	0x3f076126	0.5288261
76	0x3f08cae0	0.5343456
77	0x3f0eed53	0.5583088
78	0x3f0d8300	0.55278015
79	0xbf1687a3	-0.58800715
80	0x3f0af26a	0.54276145
81	0xbf09d474	-0.538398
82	0x3f08ef44	0.5349009
83	0x3f0b556b	0.5442721
84	0x3f1b625a	0.6069695
85	0xbf1af6d5	-0.60532886
86	0x3f1b9af0	0.6078329
87	0xbf1b93f0	-0.6077261
88	0x3f07c389	0.5303274
89	0x3f14bb7f	0.58098596
90	0x3f194d4e	0.5988358
91	0x3f144589	0.579186
92	0xbf192983	-0.59828967
93	0x3f0df9f8	0.5545955
94	0xbf093daa	-0.53609717
95	0x3f1a2ea5	0.60227424
96	0xbf065d91	-0.5248652
97	0xbf0aa650	-0.5416002
98	0xbf0ab502	-0.54182446
99	0xbf085bfb	-0.5326535
100	0x3f0fccd4	0.5617192
101	0x3f11cc91	0.5695277
102	0xbf1b0240	-0.6055031
103	0x3f068d5e	0.5255946
104	0x3f10a797	0.5650572
105	0x3f08c079	0.5341869
106	0xbf17c212	-0.592805
107	0x3f117e59	0.56833416
108	0xbf0cdf9b	-0.55028695
109	0xbf0d348b	-0.551583
110	0xbf16f14c	-0.5896194
111	0x3f12681c	0.5719011
112	0xbf18502a	-0.5949732
113	0x3f14310b	0.57887334
114	0x3f0870ad	0.5329693
115	0x3f15e5a8	0.5855355
116	0xbf136f58	-0.5759177
117	0x3f09591c	0.53651595
118	0xbf1913e8	-0.59796
119	0xbf19c0a5	-0.6005958
120	0x3f1596c9	0.58433205
121	0x3f095c6d	0.53656656
122	0xbf0cb955	-0.54970294
123	0x3f0f8a9e	0.5607089
124	0x3f07c5ff	0.53036493
125	0xbf161b99	-0.5863586
126	0xbf1b1d0b	-0.6059119
127	0x3f1699d5	0.5882848
