ippo_algorithm_belief_catmouse/checkpoints/ppo_actor_2num_agent_exp_4_run_0_catmouse.pth (torch, 192792 bytes, 8 tensors)

actor.0.weight f4 [128, 101]
00000000: a818 8f3d e29f bcbd 9873 2ebd 5ab5 adbc
00000010: 3299 c1bd 72e0 743d ead4 97bd ed4f d2ba
00000020: e113 6bbd 42b1 fa3c 53bf 0c3d 2ea7 0e3d
00000030: 3d09 273a 5663 6e3c 9a9a 333d 5d48 503d
00000040: bcb0 a8ba 1187 1dbc f807 b5bc 34e7 553d
00000050: 2a55 1c3d 827a 9b3d 1e92 6cbd 3ab9 fb3c
00000060: 6d15 163d 4b33 aabd a478 8abd 0f0a 9c3c
00000070: e3b9 26bd 9ac9 adbb a9f9 653d 8962 993d
00000080: 07bd 84bd 0a19 ebbc 64a4 953d b7a1 7abd
00000090: 46c2 013d 649c 853d ad74 c2bd 0070 db3c
000000a0: 7a75 a6bc 404a 043c 2b03 50bd 6336 2f3d
000000b0: d44f d53c 32b7 d73b e619 1bbb c9ef a63d
000000c0: 2a24 a2bc fa8d c63d b2fe 96bd 9fc0 463d
000000d0: 9fbd 8e3d 4b35 66bd 8b5b a83d bb6c a4bd
000000e0: 4804 aa3d b74d 013d b1ce c23c aef1 443d
000000f0: ab23 4abc b98c 973d 8bce f23c 9a06 4f3c
00000100: 3e8a 603c 76f6 9e3d 2e1c a8bd 9dec b2bc
00000110: a64d b93d f68b c6bc 4557 643c 1654 4d3d
00000120: 45fe bb3d 9728 563d f82e ba3a 9126 563d
00000130: 5cd3 a4bd 0dbb 893d 2bd6 0cbd aa1c 913d
00000140: d383 bcbc 56e7 00bd be46 ae3d 5261 a4bd
00000150: 313f 733c 51b1 bf3d 09a3 80bc 5a48 e6bd
00000160: 714e 25bd 2210 c43d 2257 b23c 380d 173d
00000170: 75f6 b0bd 086a debd 582f 76bc 5909 b4bd
00000180: 5466 a93d 7f70 c6bd f269 b53d 6c93 18bd
00000190: 8dfe 39bc 98b9 c7bb 1a6e 80bd a9d1 b5bd
000001a0: 5d3c c13d 52bc 903d 2f60 34bd 98ae d0bc
000001b0: ac4d cebd 02ae e03c 6ad6 4c3a f51b 473d
000001c0: d658 053d 9ae2 903d 5de6 cc3c a8bc cd3d
000001d0: 2d93 323b b0ff 79bd 300d 5cb9 d534 87bd
000001e0: 71bd 023d 2a55 e03c 5833 6d3c a5f3 a33d
000001f0: 9888 0c3d 4120 8ebd 8c23 abbc 4a1c a0bd
00000200: 1a30 04bd c676 ec3d 14a6 35bd c9b7 05bd
00000210: 874b 9dbd 2a46 90bc dc8e 853d 299e a23d
00000220: b6a7 aebd 8e80 27bc a21b 71bd 2383 c03d
00000230: f5f3 6d3d e26f cbbc 9d79 4bb9 4d5c 9e3d
00000240: dfdd e2bc cfd7 e63d e16f d5bd 9e4a 8cbd
00000250: aee3 873d ca10 eabd 953a a2bd 3668 9a3d
00000260: b9fc 013e b48c a93d 3cad 85bd 2ffe 5d3d
00000270: 5c47 dcbc 0505 d23d 2aa3 493d 45e4 dcbc
00000280: 51f2 24bd d112 fb3b cafd bf3d b256 113d
00000290: 047b 18bd 0873 05bd b80a 223b f6b0 23bd
000002a0: b746 b3bc 7649 46bc b9b9 bf3b df76 2dbd
000002b0: baad 213b 47e1 a6bd 319e 643a df9e 01bd
000002c0: 94fa b13d a202 b03d 5714 a5bd d7f4 2f3d
000002d0: 7953 653d e443 01bd a788 68bb b134 04bd
000002e0: c466 9ebd fdbb aabd bc8d 32bd 55c1 74bd
000002f0: 44f7 863d d365 46bd d072 443d d09c 21bd
00000300: f5ec ac3d 9945 ee3b 060e 2abd 6997 b3bd
00000310: 9ecb b6bd c77e 823d 6f3c ddbd 01b1 32bd
00000320: 2584 843d 9240 c1bb f464 8e3d a150 833b
00000330: dec9 bd3d 9d9f ed3d c9b6 86bc 867c 193e
00000340: c141 293d afbe 11be b1ae 743d c499 aebd
00000350: 07c3 fa3c 1a0b 713d 811e ccbd 63fd 2abd
00000360: fc5f 0dbd 89c7 d53d bb56 c6bd b2fa d6bd
00000370: f68c c3bb 6c7a 123d aa0c 29bc 84d4 693d
00000380: eff1 933c d11b 5dbc 7d30 69bd 9027 66bd
00000390: bc2a dbbd ebc6 bdbd e777 893d f9f5 b53d
000003a0: e985 f5bc a8d8 a83d b88f c73d 0057 2d3d
000003b0: f0a5 7ebd 8a75 a03c 87cc bb3d 949d 30bc
000003c0: 8357 2ebb cf24 c23c 5a43 893d 14af 98bd
000003d0: 0e56 053d 370f 88bd 84cf 073e fee1 a73d
000003e0: 9f93 35bd 6526 8cbb ffd6 733d ffe6 803c
000003f0: e0a1 e63c a98e 43bd f833 a7bd 65b3 d13c
0.06987125 -0.09210183 -0.042590708 -0.02120464 -0.09453048 0.05978436 -0.07413657 -0.0016045548
-0.057392005 0.030602101 0.03436215 0.034827404 0.0006371921 0.014550051 0.04384861 0.05085026
-0.0012870054 -0.009614722 -0.022098526 0.052222446 0.038167156 0.07591726 -0.057756536 0.030727971
0.036641527 -0.083105646 -0.067612916 0.019047765 -0.04070462 -0.005303574 0.056146298 0.07489497
-0.064813666 -0.028698463 0.07306746 -0.06118938 0.031679414 0.0652397 -0.094949104 0.026786804
-0.020319689 0.008074343 -0.05078427 0.042776477 0.026039042 0.006583118 -0.002366656 0.08151204
-0.019792635 0.09695049 -0.07372798 0.04852354 0.06969761 -0.056203168 0.082205854 -0.08028551
0.08301598 0.031568255 0.023780199 0.048082046 -0.0123376055 0.073998876 0.029639503 0.012635851
0.0137048345 0.077618524 -0.082085 -0.021841342 0.090480134 -0.02423666 0.013936822 0.05012902
0.091793574 0.052284803 0.0014204672 0.052282874 -0.08048126 0.0672513 -0.034383934 0.07085545
-0.023012077 -0.03147062 0.08509587 -0.08026375 0.014846609 0.09359992 -0.015702741 -0.11244269
-0.04035801 0.095733896 0.021770064 0.03687784 -0.08640758 -0.108600676 -0.015025936 -0.087908454
0.08271471 -0.09689426 0.08858098 -0.037249967 -0.011352194 -0.0060951225 -0.06271 -0.0887788
0.094353415 0.07067169 -0.04403704 -0.025473878 -0.100734085 0.027426723 0.00078139326 0.048610646
0.032555424 0.07074471 0.02501219 0.10045749 0.0027248368 -0.06103486 -0.00020985748 -0.06601874
0.031918947 0.02738436 0.014477573 0.08005456 0.034309953 -0.06939746 -0.020890974 -0.07817896
-0.032272436 0.11546092 -0.044347838 -0.032645974 -0.07680421 -0.017611582 0.06521389 0.07940323
-0.08528082 -0.010223521 -0.058864243 0.09400012 0.058093984 -0.024833623 -0.00019404893 0.07732449
-0.027693687 0.11271631 -0.1042173 -0.068501696 0.06635223 -0.114289835 -0.0792133 0.07539408
0.12694062 0.0827879 -0.065271825 0.054197486 -0.026889496 0.10254864 0.04922787 -0.026964316
-0.040270153 0.007662155 0.09374578 0.03548307 -0.03722669 -0.032580405 0.0024725627 -0.039963685
-0.021884305 -0.012102475 0.0058509973 -0.042349692 0.00246702 -0.08148437 0.0008721082 -0.031645652
0.08690372 0.08594252 -0.0806052 0.042958107 0.05598781 -0.031558886 -0.0035481842 -0.032276813
-0.07734445 -0.08336637 -0.0435922 -0.05975469 0.06590131 -0.04843695 0.047961056 -0.03945619
0.084436335 0.0072714803 -0.04151728 -0.087691136 -0.08925556 0.06371837 -0.108025424 -0.043625835
0.06470517 -0.00589759 0.06952849 0.0040074144 0.09267019 0.116027094 -0.01644458 0.14988908
0.041322473 -0.14232896 0.05973691 -0.08525422 0.030610574 0.058848478 -0.09966756 -0.041745555
-0.034515366 0.10438449 -0.09684511 -0.10497035 -0.0059677316 0.03576128 -0.010317961 0.057087436
0.018059699 -0.0134954015 -0.056931008 -0.056190073 -0.1070151 -0.09266456 0.06712323 0.08884806
-0.02997108 0.08244449 0.09744209 0.042319298 -0.06216997 0.019587297 0.0916987 -0.010779757
-0.0026602454 0.023699192 0.067022994 -0.074552685 0.03255277 -0.06643527 0.13262755 0.081974015
-0.044330236 -0.004277038 0.059531208 0.015735148 0.02815336 -0.047743473 -0.08164209 0.025598237

actor.0.bias f4 [128]
00000000: d9e2 c33d 05a0 04bd 6478 49bd 24c7 0dbd
00000010: dd14 a6bd 4e9c 2e3d c54a 82bd 7c49 8b3d
00000020: 4ef7 79bd 4dd0 afbd 4f84 593d 3d6f 5c3d
00000030: 69c8 e6bc 10c9 943a c88d 603d 7d1a b53c
00000040: 7cc2 6e3d 34b9 8bbd 2f22 90bd 48d3 88bd
00000050: cdad b3bd 38b6 8a3d 520e 8dbd 5303 6e3d
00000060: b73b 6d3d da85 dabc 642b a93a b6ed 28bd
00000070: 851b 31bc 0876 7cbd 0c85 91bd 6e7e cfbd
00000080: 7b66 a8bc 2ffc 19bc 827f 33bd 8234 7d3c
00000090: 2cc1 54bd e52a d3bc b2cd 6b3c 7d66 c83c
000000a0: 2bd3 babd 5e5e 9dbd 9a28 68bd e146 a33d
000000b0: d962 883d 1640 7f3d ff29 d6bc 37dd 4bbd
000000c0: e1b5 ef3c 0df4 dcbc 94bf 943d 1ed6 a13d
000000d0: c2d4 183b cd66 34bd 31c1 da3c 1924 903d
000000e0: 9518 44bd 863d 183a 40d9 90bd 2a0f 963b
000000f0: d352 b5bb d52d 1d3c 0a0f b73d 428b ddbc
00000100: 1de6 8fbd bed5 89bc 7275 99bd 1f80 0d3d
00000110: 51e6 bd3d 5909 573d b7b7 2cbd 3abf 2b3d
00000120: ba19 af3c 1e2e b73c 79c2 3a3d 7d92 ca3d
00000130: 5b26 a6bd 2b99 9c3d cd48 423d 6ee6 f13c
00000140: 8d7d f3bb 4676 553d 00a9 cfbd 80aa c9bd
00000150: f793 923d 6ff2 b4bd a63d b93d 6944 56bd
00000160: d7a4 92bd cefd 6ebd 2198 ac3d f18d 7a3c
00000170: 4b8d 8cbc 2fda 9e3d f096 9abc 29a1 afbd
00000180: 3f6a 8abd 0286 0abd 3675 243d f9f7 cc3d
00000190: fcc0 86bb 5599 4f3d 4e8f e0bd 9e2c d53c
000001a0: cf31 e43c d7f1 2fbc aee1 95bd 83ce febc
000001b0: b57f 38bb 87ce ef3c c8f5 fe3c 9b37 30bd
000001c0: 70a2 863c 877e a53c e122 d7bc 5d3c 25bd
000001d0: 264e b63c eb78 543c af1c a7bd 9787 b53b
000001e0: 12e5 7b3d 8722 91bd 780c 40bd f7b9 b93d
000001f0: f7ea 3cb9 b0ab bdbb d06b a63d dd6c 733c
0.09564752 -0.03237917 -0.04918708 -0.034613743 -0.08109448 0.042629533 -0.063619174 0.068011254
-0.061026864 -0.08584652 0.053104695 0.053817023 -0.028171735 0.0011351425 0.054822713 0.022107357
0.058290944 -0.06822434 -0.0703777 -0.06680924 -0.08773384 0.06773037 -0.06887497 0.05810864
0.057918277 -0.026675154 0.0012906608 -0.041242324 -0.010809784 -0.061636 -0.07105455 -0.101315364
-0.020556679 -0.009398504 -0.043822773 0.015454413 -0.051942036 -0.02577729 0.014392303 0.024462933
-0.09122308 -0.07684015 -0.056679346 0.079725035 0.06659479 0.062316976 -0.026143072 -0.049771514
0.029261531 -0.026971841 0.07263103 0.07902168 0.0023320173 -0.04404335 0.026703449 0.07038135
-0.047875006 0.00058075076 -0.07072687 0.0045794444 -0.005533555 0.009593447 0.08938415 -0.027043942
-0.070263125 -0.016825553 -0.07493104 0.034546014 0.09272445 0.05249915 -0.04216739 0.041930415
0.021374572 0.022360858 0.04559562 0.09891222 -0.081127845 0.07646402 0.04743271 0.029528823
-0.0074307383 0.052114747 -0.10139656 -0.098469734 0.07157128 -0.08835303 0.09044962 -0.052311335
-0.07160347 -0.058347516 0.08427454 0.0152926305 -0.017157217 0.07756459 -0.0188708 -0.08575661
-0.06758546 -0.033819206 0.040150844 0.100082345 -0.004112361 0.05068334 -0.10964833 0.026022252
0.027855782 -0.010738811 -0.073184356 -0.031104332 -0.0028152291 0.029273285 0.031123057 -0.04302178
0.016434878 0.020201935 -0.026261749 -0.04034077 0.022254061 0.012968282 -0.08159768 0.005539845
0.061497755 -0.07086664 -0.04688689 0.09068673 -0.00018016608 -0.005788289 0.08126032 0.014857498

actor.2.weight f4 [128, 128]
00000000: 5ed1 753d cbac 053d cbc8 b4bd 49ac 9dbb
00000010: baa8 3d3d 0c30 b73c 37ae 723c 83bb 42bd
00000020: b382 753d dc4a 43bd 7fb3 f33d ebbb 063d
00000030: b858 4a3d 3905 d5bc 2aca 2bbc b3ff a1bd
00000040: be84 883b 3978 ec3c 66ce 923c 4218 72bd
00000050: ec90 90bd 7dd4 693d 1e64 043d 5140 0bbd
00000060: e5a2 40bd 1ca8 613d e208 383d cc58 c7bd
00000070: bf5a be3d 6db6 a0bb 4374 8ebd 9d3a f5bc
00000080: 5845 50bd 1b2b 4b3d 42cb 35bd 177a bcbd
00000090: 135a 90bc 75af 42bc 0af8 9c3c 646e e03d
000000a0: 685b 00bc 99cf c13d 885f 713c 242e 7ebd
000000b0: 5f26 c4bd 5972 a2bd 942c 863d 7a57 41bd
000000c0: cd00 08bd 7825 0f3c 161f dfbc 5e85 033e
000000d0: 4819 94bd 7007 a2bd 6b2e 9ebc c85e 423c
000000e0: 32ad ebbc fd6f 7c3d ae82 2e3d b7ed 90bd
000000f0: 1352 e53d 4d19 313d 192c f13c 3956 f23c
00000100: 95a7 20bd 1dc0 773d 2677 773d c2ee b33c
00000110: e60d d7bc 4b69 003d 6c65 51bd 7414 dc3d
00000120: de40 643d 55a1 83bd 175c 9d3c dcd2 b53d
00000130: b65c ebbd 7def 8b3d 7785 b03d c234 92bd
00000140: f639 313c a250 a4bc cad5 b83c 82e9 9c3c
00000150: f6e6 c3bd 11d9 fd3c d0ab 60bd 0844 6e3d
00000160: 4486 87bd e838 b4bc 1c65 1c3b cd1b f2bd
00000170: a34c a83d a4ba 0c3d 50fc 43bb 0b83 a13d
00000180: e327 893d 265f b93d 8def 9e3d d640 c63c
00000190: 238e cd3d 8697 623c f6e3 333d aee7 c53d
000001a0: 9c45 58bd a945 873d 8832 aa3c a62c b0bc
000001b0: afca 2a3d 4924 733d 51b7 85bd 13ef 3b3d
000001c0: b773 393d 0a5e a23d 4915 99bd 3d39 b8bd
000001d0: e182 e13c 20c4 5abd 8a56 923d 6407 693d
000001e0: 2bb9 aabd 1861 5f3b 1f98 31bd b88e 89bd
000001f0: 1c03 483a db23 473d 995e a83c e082 443b
00000200: 9c0a b9bc 3788 1ebb c530 07be dc9d fe3b
00000210: c07b 0d3d f672 52bc fa11 8dbd 8a86 e53c
00000220: c352 01be 53bc 683c f06a 823c 8362 8abd
00000230: 6457 d3bc 2658 65bc e19e 843c f35a 9ebc
00000240: 4d86 0b3e 615d adbc 1875 4c3d e064 4abb
00000250: feb7 2b3d 6b68 e2bc 075a 153d 32fb bc3b
00000260: 4907 cf3d c7e6 0dbd 4261 1ebd 5cce 8e3d
00000270: 75a3 c73b 3ca5 2c3d 9a8e 73bd ee42 c73d
00000280: 0e35 98bd 49ef 9c3d ddd2 6a3c 37c7 6b3d
00000290: b920 c9bd 876e bebc e298 7bbd d43b a73d
000002a0: dc45 a33d 488c f33c aac3 8bbd efe5 94bd
000002b0: 7170 91bd 3135 7fbd 436f b13d 6c64 bf3d
000002c0: 0be5 4e3c 8a8b d6bd f0fb d5bd 4811 9fbc
000002d0: c982 10bd bc20 d03d 73d6 b63c e652 873d
000002e0: 8eb8 7dbd df31 883b a3c0 2dbd 70e5 60bd
000002f0: 0b09 633d 644d 43bd 9bde b53d 0ced 973b
00000300: 9f2e cd3c 620a 0a3d d718 a33d bff6 983d
00000310: 39e4 20bd 4a98 89bd 7748 3b3c f9f5 59bd
00000320: 84b1 98bc 8a6d 503d 3e28 6b3d ed4e 793d
00000330: 1cd0 3e3d 643f e6bc 1f98 253d ddeb b03d
00000340: 32ff 903d 9866 abbd 53e8 38bd 87f2 a43d
00000350: 3567 d23c d38c 8e3d 055b cebd b336 56bd
00000360: c185 d93d d178 d5bd 408a 903d c115 503d
00000370: fbec b93c 9fd4 c9bc 4e07 bf3c 59a9 7abc
00000380: 4875 d63c 2424 f13d 8d14 6d3b 5d08 46bd
00000390: 12aa 9cbd 8413 98bd ec76 99bc edaf e1bc
000003a0: 9f73 81bd befb a6bc acf5 babd 1627 42bd
000003b0: d652 873c 6ac1 b8bc cd2c 6c3d b53e 4a3d
000003c0: 46c3 0c3d ecf0 06bc 3ab4 88bc 7511 11bd
000003d0: 3fe2 28be 9930 ed3d c778 a73d 4148 0f3d
000003e0: 1f99 b03d 2402 9c3d e929 313d 5025 c83d
000003f0: 0958 b6bd 5b3d 863b cad0 973d 8b7c 85bd
0.06001412 0.03263549 -0.08827361 -0.0048117978 0.04630349 0.022361778 0.014812044 -0.047542106
0.059939098 -0.047678813 0.118994705 0.032894056 0.049401015 -0.026003467 -0.010485211 -0.07910099
0.0041662147 0.02886592 0.017920684 -0.059105165 -0.07058892 0.05708741 0.03232204 -0.033996884
-0.04703035 0.055091962 0.044930346 -0.097337335 0.09294652 -0.0049045593 -0.06955769 -0.029935176
-0.05084738 0.049601655 -0.044383295 -0.09202974 -0.017621076 -0.0118826525 0.019161243 0.10958555
-0.007834293 0.09463424 0.014732249 -0.062055722 -0.09577631 -0.07931966 0.06551471 -0.047202565
-0.03320389 0.008736961 -0.027236503 0.12843844 -0.072313845 -0.07911575 -0.019309243 0.011863418
-0.02876911 0.061630238 0.042605095 -0.070765905 0.11197295 0.04323702 0.029439973 0.02958213
-0.03922232 0.060485948 0.060416363 0.021964435 -0.026251744 0.031350415 -0.051122114 0.107460886
0.055725925 -0.06427256 0.01920895 0.08878109 -0.114922926 0.06832788 0.086192064 -0.07138969
0.010817042 -0.02005798 0.02256288 0.019154314 -0.09565537 0.030987294 -0.054851353 0.05817035
-0.06617406 -0.021999791 0.0023863977 -0.11821709 0.08217742 0.034357682 -0.0029905029 0.078863226
0.06697061 0.09051351 0.077605344 0.024200838 0.10036876 0.013830071 0.043918572 0.0966333
-0.05280076 0.066050835 0.020776048 -0.021505665 0.0416972 0.059360776 -0.065291055 0.045882296
0.04527637 0.07928093 -0.07474763 -0.08995292 0.027528228 -0.053409696 0.07145412 0.056891814
-0.08336099 0.0034084972 -0.043357965 -0.067166746 0.0007629858 0.04861818 0.02055292 0.0029985234
-0.022588067 -0.0024190077 -0.13202198 0.007770283 0.034541845 -0.012844792 -0.068881944 0.028018255
-0.12629227 0.014205056 0.015920132 -0.06757071 -0.025798507 -0.013998067 0.01618904 -0.019330477
0.1362545 -0.02116269 0.049916357 -0.003088288 0.041923515 -0.027637681 0.03646281 0.0057672495
0.101088114 -0.034643915 -0.03866697 0.06972954 0.0060924836 0.042149767 -0.059462167 0.09729563
-0.074319944 0.076628275 0.0143325 0.057563033 -0.098206945 -0.023246063 -0.061425097 0.08165708
0.07972309 0.029729977 -0.06824429 -0.07270419 -0.071015246 -0.062306587 0.086637996 0.09345326
0.01262785 -0.10475834 -0.10448444 -0.01941742 -0.035280976 0.101624936 0.022319054 0.066076085
-0.061943583 0.0041563357 -0.04242004 -0.05490631 0.055428546 -0.047681227 0.08880349 0.0046364125
0.025046645 0.033701308 0.07963722 0.07468938 -0.03928015 -0.067185 0.011430851 -0.053213093
-0.018639334 0.050885715 0.057411425 0.060866285 0.046585187 -0.028106399 0.040428277 0.08638737
0.07079925 -0.083691776 -0.045143437 0.08054071 0.025683979 0.06960454 -0.10075954 -0.05229826
0.10621215 -0.104234345 0.07057619 0.050801996 0.022696009 -0.024637518 0.023318913 -0.015299165
0.026178971 0.117744714 0.003617558 -0.04834782 -0.07649626 -0.07425597 -0.018733464 -0.027549708
-0.06320881 -0.020383712 -0.091288894 -0.047400557 0.016518991 -0.022553165 0.057659913 0.04937621
0.034365915 -0.008236151 -0.016687501 -0.03541704 -0.16492556 0.11581535 0.08177333 0.034981016
0.086229555 0.07617596 0.04325286 0.09772742 -0.0890351 0.0040966696 0.0741287 -0.06517895

actor.2.bias f4 [128]
00000000: f17e 41bd 5d2d 43bd a2a9 dcbc deb3 133d
00000010: 8ce0 40bd 37f8 d5bc 5a45 853d b11a 23bd
00000020: f5a5 6c3d 4498 a53d 0b11 6d3d 1158 293d
00000030: 8b07 98bc 5bee c93c ebb6 093d 57d6 f4bc
00000040: 5b93 bebd 4d71 723d 5130 7cbd 268f 2abd
00000050: 5b7b acbd 6d1f b23d b9ac 883d a038 333d
00000060: 8556 843c ac68 a6bd 5300 35bd 3799 9cbc
00000070: 08d3 43bd dec2 b3bd 0e0a 51bc e596 51bd
00000080: 5e71 59bd b6a5 56bd b52f 2cbd 147c 55bd
00000090: 1549 bc3c a919 d5bd f761 3e3d c5a3 abbc
000000a0: 577d 3d3d b6fa bdbb 2e84 c73d 4aef 6cbd
000000b0: 447a c5bc 8dec 5d3c 074e 86bd f7d8 b0bd
000000c0: 48be 9d3d 533c 98bd 4936 a2bc 72a3 0a3d
000000d0: 4d6e 48bd c04a 2cbc c017 30bc f454 7dbd
000000e0: 37ab ab3c 3ccf c13c 2cca f7ba 0e0e 89bd
000000f0: 07cc 2cbd cfe6 f0bc 1e6c 263d 41b9 8f3d
00000100: b572 483d a98e 683d 4694 afbd 0f55 803c
00000110: ddf2 0c3d 3f99 13bd 547a 9abd f6cd 25bd
00000120: e1bc ac3c 8bb8 9e3c 42f0 7abc b326 3dbd
00000130: f07f 14bd 23f3 2cbd eb01 afba 2352 d33b
00000140: 941d e3b9 9d29 633d 1e7b 163d 8648 83bd
00000150: 0306 73bd c1f6 8b3d 782c c53c 25e6 953d
00000160: 40d8 febc 87c9 27bd 5184 95bd 78d1 8fbd
00000170: 38ae 92bd ce80 b33d feb6 823d abb6 96bd
00000180: b50d f53c 2f2e 23bd f2d1 8dbd c92b 9ebd
00000190: 6597 babc 9fbe 31bd 1ef9 803d 79a5 1d3d
000001a0: c73e 083d e64e 14bd 0111 6aba ae3e edbc
000001b0: bbfa 05bc 58be 3d3d df52 85bd 4af3 b63c
000001c0: da48 c63d 57f7 4cbb c5c3 9abd 0c16 7abd
000001d0: 7c98 073d 2296 53bd 4498 0c3d d316 8f3c
000001e0: 0c1f 51bd 6c9b 2ebd 3342 803d 1053 1f3c
000001f0: c200 883d 2bbc a3bd a93d b4bd 6941 b0bc
-0.0472402 -0.047650684 -0.026936356 0.036060207 -0.047089145 -0.026119335 0.065073684 -0.039820377
0.057775456 0.08085683 0.05787758 0.041343752 -0.018558284 0.02464979 0.03362171 -0.029887361
-0.093054496 0.059190083 -0.061569516 -0.041640423 -0.08421966 0.086974 0.06673569 0.043755174
0.016154537 -0.08125433 -0.044189762 -0.019116027 -0.047808677 -0.08777402 -0.012758745 -0.051169295
-0.05308663 -0.052404128 -0.042037684 -0.052120283 0.022984067 -0.10405285 0.046480145 -0.020952115
0.04626211 -0.0057977093 0.09742008 -0.05784539 -0.024106152 0.013545168 -0.06557851 -0.08635133
0.07702309 -0.07433381 -0.019801276 0.03384728 -0.048933316 -0.010515869 -0.01074785 -0.061848596
0.020955665 0.023658387 -0.0018904856 -0.06692134 -0.042186763 -0.029406933 0.040630452 0.07017756
0.04893752 0.056776676 -0.08573203 0.01566556 0.0344113 -0.03603482 -0.075428635 -0.040479623
0.021086158 0.019375106 -0.015316071 -0.046179485 -0.036254823 -0.04222406 -0.0013352012 0.0064490004
-0.0004331885 0.055459607 0.036738507 -0.06410317 -0.059331905 0.06834174 0.024069056 0.07319287
-0.031108975 -0.040963676 -0.07300628 -0.07022375 -0.07162136 0.08764802 0.06382559 -0.0735906
0.029913763 -0.039838966 -0.069248095 -0.07723195 -0.022777269 -0.04339468 0.06297515 0.038487885
0.033262994 -0.036208056 -0.00089289254 -0.028960552 -0.008177455 0.046324104 -0.06509947 0.022332806
0.09681864 -0.0031275356 -0.07556871 -0.06105618 0.033104405 -0.05165685 0.0343249 0.017466938
-0.051055 -0.04262869 0.062626265 0.0097243935 0.066407695 -0.079948746 -0.08800823 -0.021515565

actor.4.weight f4 [128, 128]
00000000: 7f6f 97bd 85ed c8bb 9cbf 783b 4489 c13c
00000010: db36 d93d 170f 153d ec2a bbbc 9e95 9bbc
00000020: ca50 07bd 4d57 65bd 2dfd b03d 1487 f03b
00000030: ba93 f73d 2bb2 2abd 0151 813d 4ce2 353d
00000040: aec7 ed3d d76e 583d 52ac 0b3c ef0d 32bd
00000050: 1eee 9abc 8a33 1ebd adc7 1d3d f461 babb
00000060: 9e40 a43b 2521 2a3d eaa0 073c b17b 91bd
00000070: b227 42bd 8234 7c3d dbca d33c cb3a ad3c
00000080: e7af 913d e55e 413b e402 993d 7825 103b
00000090: 789f f23c 6645 8bbb cb49 47bc 3179 c4bc
000000a0: bc13 eb3b 00d1 ea3b 0448 223c 2be4 acbc
000000b0: 4754 c0bb ce57 833d a03c cbbc 1727 4dbd
000000c0: 26ed 08bd a878 353c fc24 993d dd5f 98bd
000000d0: 9655 a53d f4ae bcbd 1f83 1d3d 9163 52bd
000000e0: 351a 2b3d 7ae8 6f3d 5472 9a3d e015 afbd
000000f0: 89d5 a5bc 7ee9 b43c ba79 d23b c458 a3bc
00000100: c5b2 c8bc f5bc 603d 6515 e33c 9edd 2c3d
00000110: 2148 d1bd ee92 8f3d 111e d83c 91b5 b9bc
00000120: ea5a 24bc d004 9ebc f956 bcbd 6f7b 93bc
00000130: 8a19 623c 6ab7 14bd 4341 963d be74 1ebc
00000140: 48f9 99bd 6daa dd3c 2499 b13d a20d aabb
00000150: 4c7b 513d f9b6 123c 4cbe 8a3c 38fa c336
00000160: 6b64 253c ce40 60bc bf1b 553d 0ecc 8ebd
00000170: 870e 8a3d 1ae9 cbba df9e 643d bd36 d53c
00000180: a5c0 e4bc b159 bbbc 4c7b 7d3d 22e2 fa3c
00000190: bed2 9ebd 34d0 4ebd 5947 e5bd 6f6e 2bbd
000001a0: ef7d 54bd 11c8 e1bd 7eec 693d 2efe 97bc
000001b0: 3bdf 2ebc 2f11 273d 9050 cd3c d440 523d
000001c0: fe41 3cbd ee56 a8bc bcc1 0fbd 9ae1 cf3c
000001d0: 337e b9bc 5cb8 913d 44b5 04bd 48b5 8abc
000001e0: b884 ac3d 4466 f2bd f522 433d 6717 92bd
000001f0: 4eb2 1f3d bea7 133d 3dcc 8abd b6bf babb
00000200: dce2 e43b 40b2 a93d 6cc8 c83d df4c 5e3d
00000210: 973e 883d 3423 65bd 03c5 b0bc fe85 663d
00000220: 9073 953d c262 50bd 8851 26bd c803 6e3d
00000230: 5e66 febc 5506 d83c 0199 14bd 81af 81bb
00000240: 77ec be3d a8c4 723d 14be 6fbd 32cc c23c
00000250: 5b3f 343c 161e 103d b0f1 0abd ecb8 99bd
00000260: 8b88 013e b2ed 6cbd efcd d03b 0cf6 0ebc
00000270: 6f64 cabb 157b 223d e804 b43c aeb8 ad3d
00000280: 5f2f 32bd 3169 b33b 644d 5fbd 8ee8 3dbd
00000290: f1ef 89bd 3c3a 39bb fc54 d1bc 1893 813d
000002a0: a2de c93d af05 06be f1fb 423d 50b9 2bbd
000002b0: 14a9 87bc 4b59 8dbd d3dd 65bd 4084 e33d
000002c0: dcff cfbc 727a 73bd 981b 6ebd a34b ca3d
000002d0: e517 1d3d 720e 01bd 7765 703d 35ce 15bd
000002e0: e03b b5bd 3bd3 acbc fcdc c53c 35b4 b4bd
000002f0: abeb d1bc f97f 873d 08c2 cbbd 1aa4 4abc
00000300: f63c 0d3d dca9 08b9 b75e 2dbd 8812 603d
00000310: 2d7c dbbd 67a0 123d 72bc 453d 744a 6e3d
00000320: 8149 65bd bdd9 8b3c 3637 953d 8436 643d
00000330: a19e 163c eac4 b13d 0146 d33d 6c14 a2bc
00000340: 64e1 313d 9a52 d3bd 8368 cd3d 0a70 5d3d
00000350: d384 0cbd c736 0f3d ee42 acbd 33ee b03d
00000360: 73c4 013d c916 91bc b02b b33d 6155 473c
00000370: 8204 643d 0a97 fe3c 79a1 83bc d40d b1bb
00000380: 82c1 d33c 0eaa 5fbb feab 1dbd d66b 933d
00000390: ef5a 263d a81e 3f3d dd68 603c 4959 d2bd
000003a0: 10b3 0dbc 3c51 76bd d301 9bbc 6214 4cbd
000003b0: 7877 a2bd 866c d03d 946c 04bd f74f 6bbd
000003c0: 0f79 f4bc 9337 4fbd e561 fe3c 46e7 ab3d
000003d0: 30ab f4bd d1c1 b6bc 3798 b83c 720a 303c
000003e0: 1e32 fe3c cd92 40bd c951 0bbc eb51 91bd
000003f0: bd6b 9abc 002f 65bd 0151 2b3d 0de9 51bd
-0.07394313 -0.00613183 0.0037956005 0.023625024 0.10606166 0.036391344 -0.022847615 -0.018992241
-0.03303603 -0.05599146 0.086420394 0.0073403213 0.120887235 -0.04167382 0.063142784 0.044405267
0.116103515 0.05284008 0.008524971 -0.04347032 -0.018912371 -0.03862337 0.038520504 -0.0056879465
0.005012586 0.041535515 0.008278111 -0.071036704 -0.047401138 0.061573513 0.025853565 0.021146199
0.07113629 0.0029506024 0.074712545 0.002199499 0.029617056 -0.0042502163 -0.01216359 -0.02398357
0.0071739834 0.007166028 0.009904865 -0.021104893 -0.0058694216 0.06413232 -0.024809182 -0.050086107
-0.033429287 0.01107613 0.07477757 -0.074401595 0.08072965 -0.09213057 0.038455125 -0.051364485
0.04177304 0.058571316 0.075413376 -0.08549094 -0.020243423 0.022083994 0.0064232023 -0.019939788
-0.024499306 0.054867703 0.027720163 0.042203538 -0.102188356 0.070104465 0.026381524 -0.022669585
-0.010031441 -0.019289404 -0.09196276 -0.018003194 0.013800034 -0.03630773 0.073366664 -0.009671388
-0.0751825 0.027058804 0.086717874 -0.0051896134 0.051142976 0.008954757 0.016936444 5.840582e-06
0.010094742 -0.013687326 0.052028414 -0.06972514 0.06741052 -0.001555714 0.055815574 0.026027078
-0.027923891 -0.022869917 0.061885163 0.030625407 -0.0775504 -0.050491527 -0.11195249 -0.041853365
-0.051877912 -0.11024488 0.057110302 -0.01855382 -0.0106733395 0.040787872 0.02506283 0.051331356
-0.045961373 -0.020549264 -0.03509687 0.02537613 -0.022643184 0.07115242 -0.03239943 -0.016932145
0.084237516 -0.11835912 0.04764076 -0.0713337 0.038988404 0.036048643 -0.067772366 -0.0056991233
0.0069850516 0.082859516 0.098038524 0.05427253 0.06652563 -0.055941775 -0.021578318 0.05628013
0.072974324 -0.050875433 -0.040605098 0.058109075 -0.031054672 0.026370207 -0.03627873 -0.0039576893
0.09322446 0.059269577 -0.058530882 0.023779009 0.011001433 0.035184942 -0.033921897 -0.07505974
0.12649743 -0.05784387 0.0063722054 -0.008725654 -0.0061765234 0.03966816 0.021974996 0.084824905
-0.043502208 0.0054751863 -0.054517165 -0.04636436 -0.06735218 -0.002826347 -0.025553219 0.06326884
0.09856917 -0.13088106 0.04760355 -0.041924775 -0.016560115 -0.06901797 -0.05611975 0.11109209
-0.025390558 -0.059442945 -0.058131784 0.09877708 0.038352866 -0.031507917 0.058690514 -0.036573607
-0.08849311 -0.021096816 0.024153225 -0.08823434 -0.02562507 0.06616206 -0.09949118 -0.012368226
0.034481965 -0.00013033248 -0.042326655 0.054705173 -0.10717044 0.035797503 0.04827542 0.058176473
-0.055978302 0.0170716 0.07285921 0.055716053 0.0091930935 0.086801365 0.103160866 -0.019785129
0.04342784 -0.103184894 0.100297 0.054061927 -0.03430636 0.03496435 -0.08411203 0.08639183
0.03168149 -0.01771106 0.08748567 0.012166352 0.05566836 0.03107788 -0.016068207 -0.00540326
0.025849108 -0.003412846 -0.038494103 0.071983024 0.040614065 0.046660095 0.013696876 -0.10270936
-0.008648649 -0.060136065 -0.018921768 -0.049824126 -0.07932943 0.10176949 -0.03233011 -0.057449307
-0.029842881 -0.05059011 0.03105254 0.08393721 -0.11946714 -0.022309216 0.02253352 0.010744678
0.031029757 -0.047015 -0.008503386 -0.07095703 -0.018850202 -0.055953026 0.0418253 -0.051247645

actor.4.bias f4 [128]
00000000: ab24 1a3d a1c7 4abd 1e27 27bb 080b 4cbd
00000010: 2750 873c 1e26 c5bc 9dc0 bcbd d00e 73bc
00000020: 50ae 1fbd 1fb6 853d 74fd 8dbd c25b 49bc
00000030: ae57 d23a fb66 acb9 e65d babc 7699 883d
00000040: 8265 2bbd 650f 88bd 4d6f ce3c 25c1 40bd
00000050: aea0 0dbd 9fe8 073c 8bd3 7f3c 23b2 af3d
00000060: 4f1b 883d 2ccb bbbb e0cd c3bd 3d96 edbb
00000070: 7b47 993d 0a86 89bd f7e3 a9bd 8585 913c
00000080: 6eca 5a3d 9a06 63ba c0aa 4f3d c6e2 1cbd
00000090: 7ddb 78bd 1532 253d ae09 48bd 1fb9 bdbd
000000a0: 6c6d b93c 55df 8c3d 6238 a63c b13a b6bb
000000b0: f88a ebbb 0f99 bf3d a4c8 5b3d e392 2b3d
000000c0: 2770 28bd 854d 84bd a101 f93c 5e18 83bd
000000d0: 580f 793d 7584 4b3d c834 403c 1e09 11bd
000000e0: 7b55 633d 1c89 8bbd 2183 02bc b6c5 b23c
000000f0: ec22 4ebd 7be9 de3b 46d6 33bc c13a 9bbd
00000100: 8eb0 e0bc 9345 993d cacf fabc 8c00 7dbd
00000110: 9589 80bd 3504 b1bd 3b85 e53b a326 2cbc
00000120: 596c ac3b ff75 ed3a 0014 953d 89db 2b3d
00000130: 32cf 8a3d 533a 22bd b516 e6bc 38a9 8abd
00000140: c07c 1839 c758 083d d495 533d ade9 1f3c
00000150: 1b06 42bd c69d 10bc 0a29 33bd cc20 3b3d
00000160: 704c ddbd 3d96 44ba bb3b b5bd f8fa 8bbc
00000170: 060c ce3b e1eb 46bd f424 4ebd bcfd bbbd
00000180: c630 aa3d 6da0 5bbd 5de6 20bb b887 1cbd
00000190: ae66 5a3c a908 8a3d 3a96 31bd a8b5 08bd
000001a0: de8a 70bd 97f9 ab3d e1c2 10bd 947a 063d
000001b0: 90bc b3bc 00fb b8bc 43f2 ccbc 208e edbd
000001c0: 2572 3cbd df9a bfba bfb3 3bbc 4b2e e0bd
000001d0: 86aa be3b d496 86bd 4ab4 a8bd 55e8 cfbc
000001e0: 7cae 13bd ba2d 1b3d 6312 943d 2941 d8bc
000001f0: 7bb2 12bd 4ae5 90bd ec29 5b3d 8116 373c
0.037632626 -0.049506787 -0.0025505493 -0.049815208 0.016517712 -0.024066027 -0.092164256 -0.014835075
-0.038984597 0.065288775 -0.06933108 -0.012289943 0.0016047859 -0.00032883123 -0.022749852 0.06669895
-0.041844852 -0.06643561 0.025199557 -0.047059197 -0.034577064 0.008295207 0.015614401 0.08578899
0.06645834 -0.005731007 -0.09560752 -0.007250576 0.07484337 -0.06715019 -0.08295434 0.017763862
0.05341571 -0.00086603465 0.05069995 -0.038302206 -0.060756195 0.040330965 -0.048837356 -0.09263825
0.022635184 0.06878535 0.020290557 -0.005561196 -0.007188197 0.093553655 0.053658143 0.04188813
-0.04112258 -0.06460098 0.030396285 -0.06401132 0.06080565 0.049686868 0.011731334 -0.035409085
0.055501442 -0.06813261 -0.007965834 0.021822792 -0.050326273 0.0068027354 -0.01097638 -0.07579566
-0.027427938 0.07483973 -0.03061666 -0.0617681 -0.06276242 -0.086433806 0.0070044077 -0.010507259
0.0052619395 0.0018116831 0.07279205 0.041957412 0.067778006 -0.039606404 -0.028087 -0.06770557
0.00014542323 0.03328779 0.05165656 0.0097603025 -0.047369104 -0.008826679 -0.04374031 0.045685574
-0.10805595 -0.0007499194 -0.08849283 -0.017087445 0.0062880544 -0.048564795 -0.05032821 -0.09179255
0.08310084 -0.05361979 -0.002455137 -0.03821537 0.013330145 0.06739933 -0.043356158 -0.033376366
-0.058726184 0.08397215 -0.0353421 0.032831743 -0.0219405 -0.022580624 -0.025017863 -0.11599374
-0.046007294 -0.0014618299 -0.011456429 -0.1094633 0.005818668 -0.06571737 -0.082375124 -0.02537934
-0.036055073 0.037885405 0.072300695 -0.026398258 -0.035814743 -0.070749834 0.053506777 0.011174799

actor.6.weight f4 [9, 128]
00000000: f665 2f3c 36af 15bd 5955 d03c 037c 2bbb
00000010: 6602 14bd 6f4a 03bc 4938 dabc 76f5 1c3c
00000020: ecc9 2e3d 391d 8abd a07a 503c 3bae 72bd
00000030: 2718 10bd 7346 debc 6fdb 39bd 6257 763d
00000040: 67ed 35bd 81be 25bd 0e7f 9cbd bf3d b3bd
00000050: 6ece 85bd e9c9 d03d 64a1 81bd c640 673d
00000060: 8f2d 843c 9329 a4bb da0f ba3d 5016 773c
00000070: 9aaf b7bd 6886 433b 0482 e83c 1986 8cbd
00000080: f296 69bd f27e 2bbd e81e 5a3c 2800 dabc
00000090: 1348 36bd cf34 1c3d 750d 743d 9aff d8bc
000000a0: 0641 dfbc f108 babd 7325 973d 0ae8 0c3d
000000b0: 6f01 973d f399 3bbd f08b 2f3c 7c7e a239
000000c0: 14f3 4b3d 3439 3cbd b4eb 84bd b358 063c
000000d0: 8792 a13d 2b63 65bc d0f6 b5bc 7ac5 993c
000000e0: 85e5 c5bc e715 29bd 9f5b 88ba d6ed 843d
000000f0: bfc2 a83d 7987 a9bd 56c1 873d 830d 93bd
00000100: dab3 3cbd 0ed4 3c3c dc1a 763b f811 2d3d
00000110: 4390 b4bc c688 e43c 12b0 cebc 2ce0 b7bd
00000120: ee72 1f3c 066b cfbd 4dca a13d f221 143d
00000130: 4a4b c6bc f897 4ebd cc4e d73c dfd9 a83d
00000140: 4792 8abd 5855 53bd 1401 a13c 98f8 843d
00000150: 9eb4 943d 1461 833d 6c16 84bd b77c a4bd
00000160: 3318 bf3d 0e3d b3bd 2279 ad3d e87f 94bd
00000170: 1960 973d c0f5 ac3d 2250 ec3c 917c 2dbd
00000180: 8420 91bd a15b 483a 9ef6 a23d 1d0c 13bd
00000190: d7b4 993d 538a 2c3d 6ab0 41bd 0985 9b3d
000001a0: cc33 4bbd d40b b5bd dfe8 1e3c d289 823d
000001b0: ed7e 433d 42d3 e3bc 77f1 693d 16ee 823d
000001c0: 63f3 54bc 3bb9 db3d fc78 ac3d c0f4 9e3d
000001d0: 83bc 8dbc 1298 02bc 72ef 52bd 61c0 ef3c
000001e0: 20fb 63bd 776a a4bd f97f 253d 1fd9 2fbc
000001f0: 0a96 a9bd 818c 3e3c 5a73 92ba 241e 0b3d
00000200: 91a9 43bd b867 bf3c 053f 9f3d 478a 903d
00000210: e60e 6c3d 6170 903d be16 393c de75 8ebd
00000220: e293 1c3d 668e 12bb 89cc ba3c 38dd 0abd
00000230: 32f6 b7bd 7d25 703d 9d37 c43c 1f07 d83d
00000240: 28ad 0d3b 7464 a83d 32cd 353d 8d15 8b3d
00000250: d327 a83c a202 b3ba aedd 02bd b583 49bd
00000260: 8f48 27bd 9f39 833d b610 dbbc 5817 0cbd
00000270: e1a7 febc 6539 81bd d4ae 9dbd bc86 2abd
00000280: 1e92 2cbc 12e0 063d 47f6 593d 7e87 d63c
00000290: 2741 20bd 864f 9b3d df0f c43c 58e8 4d3d
000002a0: b0e9 893c a497 8b3d c411 243c 0e88 40bd
000002b0: 1be5 1fbd c351 b3bc c41e 853c 432f 8b3d
000002c0: 22b7 ad3d 253d ac3d 3186 f3bc eae5 0fbd
000002d0: 0b74 91bc a0ca 31bd 6982 bdbc 9ab1 053d
000002e0: 95c2 613c 9cff 0cbd b8da ba3d a0b8 75bd
000002f0: 0687 da3d ebd2 99bc c551 303d 16f1 cfbd
00000300: 38d2 5a3b 3e32 a93d 081c ab3c 4636 c73c
00000310: 1fa6 c13b 655d 9a3d c57d 713d 2941 28bd
00000320: 5c9f ffbb 4fed 4fbd ec32 25bd 6f71 e1bc
00000330: 3cce 8d3d 909a 9e3d 2813 6dbd bbb1 81bd
00000340: 286e ddbd 1054 8abc a331 57bd 0a92 cd3c
00000350: 289f c5bc 5181 85bb f935 62bd 0046 83bd
00000360: f57f 953d 0f08 b53d 7df9 213d e9a4 a33d
00000370: 5d01 e33d fad3 deba 7e1f a0bd 6543 cfbc
00000380: 65ab 62bd 1f0a 9d3d 18a1 cd3b 5859 e0bc
00000390: c997 25bd 36dc 07bd a428 883d f73b e13d
000003a0: 0549 56bd c928 94bd 7e34 e93c d187 793d
000003b0: cb1b a8bd 0498 9fbc ded9 533d 6231 40bd
000003c0: 70d3 753c 0a95 aa3d 4688 193d cf1d 403b
000003d0: 7e26 63ba b0e1 af3d 0a18 603d c215 923c
000003e0: 2a9d 26bc 7fc0 383d 4a24 a43d 2d3d 923d
000003f0: c094 403d 0257 d13c f986 c03c a108 733d
0.010705462 -0.036544047 0.025431322 -0.0026166446 -0.0361351 -0.008013352 -0.026638167 0.009580007
0.042673036 -0.06743855 0.012724549 -0.05924819 -0.035179283 -0.027133202 -0.045375284 0.06014193
-0.044415858 -0.04046488 -0.07641421 -0.087520115 -0.06533514 0.10194761 -0.06329611 0.056458257
0.016135005 -0.005009839 0.09085055 0.015081003 -0.0896904 0.002983475 0.028382309 -0.068615146
-0.05702872 -0.04186911 0.013313033 -0.026611403 -0.04450233 0.0381363 0.059583146 -0.026489068
-0.027252685 -0.09083737 0.0738019 0.034400977 0.0737332 -0.045801114 0.010714516 0.00030993286
0.049792364 -0.04595299 -0.06490269 0.0081998585 0.07889276 -0.014000694 -0.022212416 0.018770922
-0.024157295 -0.041280653 -0.0010403282 0.06490676 0.0824027 -0.082777925 0.06628673 -0.071803115
-0.046069957 0.011525167 0.003755263 0.042253464 -0.022041446 0.02789725 -0.025230441 -0.08978304
0.009731991 -0.10127835 0.07899914 0.036165185 -0.024205822 -0.050437897 0.02628269 0.082446806
-0.067661814 -0.051595062 0.019653834 0.06492728 0.072610125 0.064150006 -0.06449589 -0.080316
0.093307875 -0.0875188 0.0847037 -0.07250959 0.07391376 0.084453106 0.028846804 -0.042355124
-0.0708628 0.00076430483 0.07957195 -0.035900224 0.075051956 0.042124104 -0.047287382 0.07593734
-0.049609944 -0.08840147 0.0096990755 0.063739434 0.047728468 -0.027810697 0.057115044 0.063930675
-0.012997481 0.10728689 0.084215134 0.07761526 -0.017301803 -0.007970827 -0.051497884 0.029266538
-0.055659413 -0.08028119 0.040405247 -0.010732918 -0.08280571 0.011630178 -0.0011173293 0.03396429
-0.047769133 0.023364887 0.07775692 0.07057624 0.057631396 0.070526846 0.011296926 -0.06956075
0.03822697 -0.0022362708 0.022802608 -0.033902377 -0.08982505 0.0586295 0.0239523 0.10548233
0.0021618102 0.08222285 0.044385143 0.0679122 0.020526802 -0.0013657401 -0.03194969 -0.04919787
-0.04084068 0.06407475 -0.026741367 -0.03420195 -0.03108591 -0.06309775 -0.076993614 -0.0416324
-0.010532884 0.032928534 0.053213384 0.026187655 -0.039124634 0.07583527 0.02393335 0.05027041
0.016835064 0.068160325 0.010014001 -0.04700475 -0.03903685 -0.021889573 0.016250022 0.06796124
0.084821954 0.084101 -0.029727073 -0.035131373 -0.017755529 -0.04340613 -0.023133473 0.032640077
0.013779302 -0.034423456 0.091237485 -0.059990525 0.10670285 -0.018777331 0.04304673 -0.10153405
0.003338946 0.08261536 0.02088739 0.024317872 0.0059096958 0.07537345 0.058957834 -0.041077767
-0.0078009795 -0.050763424 -0.040331766 -0.02751991 0.06924102 0.07744324 -0.057879597 -0.063327275
-0.10812026 -0.016885787 -0.05253757 0.02509405 -0.024123743 -0.0040742536 -0.055227254 -0.06409836
0.072997965 0.08839428 0.03954457 0.079904385 0.110842444 -0.001700043 -0.07818507 -0.02530069
-0.055339236 0.07667946 0.0062753074 -0.027386352 -0.040427957 -0.033168994 0.066483766 0.109977655
-0.05231573 -0.07234342 0.028467413 0.06092054 -0.08208426 -0.019481666 0.051721446 -0.046922095
0.015004024 0.08329208 0.037483476 0.0029314642 -0.00086650986 0.08587968 0.054710425 0.01783264
-0.010169307 0.045105454 0.08014734 0.071405746 0.04701686 0.025554184 0.02350186 0.0593344

actor.6.bias f4 [9]
00000000: 13f2 3cbd e238 2b3b db63 8dbb 4d5f 42bc
00000010: 701f 8d3d c935 963c 9a1a ccbc 94d1 503d
00000020: 8b8d 3b3d
-0.046129297 0.0026126434 -0.004314882 -0.011863542 0.06890762 0.018336194 -0.024915028 0.05098112
0.045789283
