mappo_lumberjacks/model3/MAPPO_actor_env_simple_spread_v3_number_3_seed_0_step_3435k.pth (torch, 27216 bytes, 6 tensors)

fc1.weight f4 [64, 22]
000000 26 0c 31 bb 96 d5 dd be 0e 0c 60 3d 11 fe 3c 3f
       -0.0027015298 -0.43327016 0.054698996 0.73825175
000010 9d cc 19 3e 16 6f fc be 35 04 c9 be d1 26 92 3f
       0.1501946 -0.49303502 -0.39261022 1.1418096
000020 fa cd 4f 3e 3f e7 00 3f 51 e5 b8 bf 57 9a f6 be
       0.20293418 0.50352854 -1.4444982 -0.48164627
000030 34 32 ab 3e ca c0 07 3e 42 d8 10 3f 40 3b fa bd
       0.3343674 0.13257137 0.56579983 -0.12218332
000040 b5 36 d1 3e 79 33 f0 be 9f b6 0f c0 61 bc 07 be
       0.4086205 -0.4691427 -2.2455213 -0.13255455
000050 29 78 76 3e 19 81 b3 bd 70 e2 fa bd 27 97 9c 3d
       0.24069275 -0.08764858 -0.12250221 0.076460175
000060 c0 9b 03 bf c2 00 ef be 82 da 03 bf 26 0f 55 3f
       -0.5140953 -0.46680266 -0.5150529 0.8322624
000070 10 78 49 bf 0e e6 9a 3f e7 56 21 3e eb f3 53 3e
       -0.78698826 1.2101457 0.15755807 0.20698516
000080 8f 4f 03 3f 9e 92 ff 3e 7c be 69 bd 6f 76 51 3f
       0.5129327 0.49916548 -0.057066426 0.8182134
000090 f8 63 a1 be 50 71 cd bd 6d 59 16 bf 7f 31 e1 3e
       -0.31521583 -0.10031378 -0.587302 0.43983075
0000a0 62 1f d3 3f a9 75 cb be 61 3d bb bd b6 33 5c bd
       1.6493952 -0.39738205 -0.091425665 -0.053760253
0000b0 12 df 95 3e 2f 12 2d 3f 31 e7 b5 bd 6a 2e 34 bf
       0.29271752 0.6760587 -0.08881987 -0.7038332
0000c0 78 c5 0d 3f 85 89 2f 3e ec c7 15 3f 05 00 42 40
       0.5537944 0.17142303 0.5850818 3.0312512
0000d0 f6 35 75 3e aa 9c a9 bd 2f cb 9d be e6 31 38 bf
       0.23946366 -0.082818344 -0.3081908 -0.7195114
0000e0 70 5b c8 3c 0e 6c 97 bd 85 24 29 be 88 ab 3c bc
       0.024457663 -0.07393657 -0.16517837 -0.011515506
0000f0 dc 4a 81 be 4a 83 08 3d 7b 98 a8 bf 93 59 d2 be
       -0.25252426 0.033328332 -1.3171533 -0.41083965
000100 bb 64 74 3e be 6f 1c 3e 48 68 eb bd e9 35 38 3e
       0.2386655 0.15277001 -0.114944994 0.17989315
000110 b1 d3 d8 3e 03 7a 25 bf b3 08 8f 3e 8b 95 59 bf
       0.42349008 -0.646393 0.27936324 -0.8499381
000120 6b 4d ba 3e 3f ab bc 3f e7 51 45 be 6f b1 a3 3e
       0.3638719 1.473976 -0.19269525 0.3197131
000130 5a dc fd 3e b1 fc dd be 28 fe 04 be e2 de 67 be
       0.49582177 -0.4335685 -0.12987578 -0.22643617
000140 4e a6 55 3e 1e eb 7b bf 8d df ff 3f e2 ff 19 3f
       0.20864221 -0.98405635 1.9990097 0.6015607
000150 fd 86 c3 3d 21 e5 32 3f ee dc 86 be cd 32 8d be
       0.09547231 0.6988087 -0.2634043 -0.2757782
000160 a8 68 a5 be c7 f3 07 be 18 74 c1 be ce 38 69 b9
       -0.3230641 -0.13276587 -0.37783885 -0.00022241773
000170 ed 4f 80 3e 36 7c 58 bf 7e 92 fe bd 99 5e 32 40
       0.2506098 -0.8456453 -0.12430285 2.7870238
000180 05 09 88 3e ca 22 a6 3c ce 9b 51 bf 5d 0b 30 bf
       0.2656938 0.02028026 -0.81878364 -0.6876734
000190 7c 90 13 3f b5 f7 18 3e 27 c3 8f 3d 03 f4 29 be
       0.5764234 0.14938243 0.07019644 -0.1659699
0001a0 be 7a 1e 3e ef 72 bb bf a8 7c a8 bf 26 01 2c 3e
       0.1547651 -1.464445 -1.3163042 0.16797313
0001b0 e0 df 3a 3e 12 6c b0 bd 8a 32 c1 3c bd 33 66 3d
       0.18249464 -0.08614363 0.02358367 0.056201685
0001c0 af 9d e3 3d 12 bd ec be e9 b3 07 3f c8 d5 58 3e
       0.1111406 -0.46238 0.53008896 0.21175301
0001d0 fb 4a 1f 3f 31 ea c8 bf 4f cd db be 6b 3c a8 be
       0.62223786 -1.569647 -0.42930076 -0.32858595
0001e0 6c f6 0c bf 25 d7 6f 3e a1 55 9b bd 8e c2 8a be
       -0.5506351 0.23421915 -0.07584692 -0.27101558
0001f0 89 ef 2c be cd f1 2c be 1c 60 0e 40 18 b4 6b 3e
       -0.1688825 -0.16889115 2.224616 0.23017919
000200 2e c6 85 bf e0 87 3b 3f fd fb 95 be 73 44 1a be
       -1.0451105 0.73254204 -0.29293814 -0.15065174
000210 2f 02 a3 bd e7 91 a4 3d ff bc f0 3e e5 d0 82 be
       -0.07959401 0.08035641 0.47019193 -0.2555
000220 f8 5a 43 be 1c 32 9a 3f ad 3b 45 3d 0a 1e 43 c0
       -0.1907767 1.2046542 0.048152614 -3.0487084
000230 df e6 21 bf 3e 8f 06 3b 95 0f 8b bd 18 e2 de 3e
       -0.63242906 0.0020532156 -0.067900814 0.4353187
000240 5b 84 d7 be cf 7f 3e 3e 5c c5 f8 be a8 da 7c 3e
       -0.42093167 0.18603443 -0.48588073 0.24692786
000250 24 cf 69 3f 3b b9 7c 3f 4a db 42 3f 3b c5 ec 3e
       0.91331697 0.9872014 0.7611586 0.46244225
000260 df 10 dd be 12 0e 72 bd ab 2b b7 3d 9a d4 07 bf
       -0.43176934 -0.05909545 0.08943876 -0.5305878
000270 63 3f 36 be 32 c0 8c 3f ad 47 10 bf 1d 54 e8 3d
       -0.17797618 1.0996153 -0.5635937 0.11344168
000280 05 45 30 be 13 e6 06 c0 0f 9a 54 3e 8f 09 4c be
       -0.17213829 -2.1077926 0.20761894 -0.19925521
000290 b9 7c 15 bf 2f f8 dd 3d c5 74 a6 bc ce dd 0e bf
       -0.58393437 0.10838353 -0.020319352 -0.558072
0002a0 c4 90 08 3e ec d8 87 3e 93 7d 74 3e f1 1a 20 be
       0.13336474 0.26532686 0.23876028 -0.15635277
0002b0 f0 c8 a9 bf 8c d1 61 3f 69 5f 8d 3e ed a0 98 3d
       -1.3264446 0.8821037 0.27611855 0.07452569
0002c0 9e d1 d6 3d 27 70 6d 3e 5b a2 ef 3d bc ba ce be
       0.104892 0.23187314 0.11700889 -0.40376842
0002d0 55 38 d8 3e 45 19 3d 3d f9 10 ad 3e 89 df 20 bf
       0.42230478 0.046166677 0.33802012 -0.6284109
0002e0 1d 52 a4 3d 0c a3 d5 3d ef 62 96 3f d7 95 bd 3e
       0.08023474 0.10431489 1.1748942 0.3702838
0002f0 ca 5d be be 08 b3 23 be a8 88 f5 be 13 07 c8 3e
       -0.3718093 -0.15986264 -0.47955823 0.39067897
000300 73 40 cf 3e af 91 d5 3e 40 f5 a3 3f ff 13 03 3f
       0.40478858 0.4171271 1.2809219 0.51202387
000310 b6 a3 83 bf ba 2c cb bd 48 3d 6d 3e c3 cc d6 3e
       -1.0284336 -0.0992064 0.23167908 0.41953096
000320 43 fa 45 3e ae 98 d2 be 64 39 fa 3d fd 71 26 bf
       0.19333749 -0.4113211 0.12217978 -0.6501768
000330 7f c6 01 3f f6 5a 79 40 ea c7 15 3f 33 31 1b be
       0.50693506 3.8961768 0.5850817 -0.15155487
000340 1c 5e 25 be f4 e6 5d bf 59 76 b9 be 9f 95 71 bd
       -0.16149181 -0.8668053 -0.36223105 -0.05898058
000350 04 88 3c 3c 6a d7 2b 3c 43 d4 ee be 4e 1a 60 3e
       0.011507038 0.01048837 -0.46646318 0.21885034
000360 51 ff 85 be 14 c6 0a 3e c8 70 52 be 20 a0 df 3d
       -0.26171353 0.13552123 -0.20550835 0.10919213
000370 75 10 23 bd 65 d1 87 3e 77 0c c5 be ba cf d0 3d
       -0.039810617 0.26526943 -0.38486072 0.10195871
000380 63 98 ba 3e dd 99 42 bf 63 4c 1d 3d 3f a0 31 40
       0.36444387 -0.76016027 0.038402926 2.7754056
000390 b6 82 21 3f 11 95 85 be 84 d2 39 bf 44 39 54 bf
       0.63090074 -0.2609029 -0.72586846 -0.8289988
0003a0 0e d2 13 3f 8c 67 83 3e ac ff 64 3e bf 7d 76 be
       0.57742393 0.25664937 0.22363156 -0.24071406
0003b0 7d 72 a4 bd 52 14 b2 bd 8d be ae bf b9 45 ac be
       -0.080296494 -0.08695282 -1.3651901 -0.33646944
0003c0 02 d5 2e 3f 9b ca 93 be 1e f8 4f be d7 39 18 bf
       0.68293774 -0.28865513 -0.20309493 -0.59463257
0003d0 4a 7b ff be c5 f6 2d 3f fa 7a 14 bf 32 71 f8 3e
       -0.4989875 0.67954665 -0.5800015 0.4852386
0003e0 4b 07 b5 3e f1 51 f3 bf 86 cb 2d be 57 99 25 bf
       0.35357127 -1.9009382 -0.1697217 -0.64687103
0003f0 44 0c c7 bf 44 a5 24 3e 42 6b af be a3 d3 d8 3b
       -1.5550618 0.16078669 -0.3426152 0.006617026

fc1.bias f4 [64]
000000 9c db 98 be a9 b0 7d 3d 8c 90 7a bd d2 98 29 bd
       -0.2985505 0.061936054 -0.061173007 -0.041405506
000010 c2 17 8e be 72 f6 9e 3d a5 e9 cf 3d 5f 0e 70 3d
       -0.277525 0.077618495 0.10151986 0.058607455
000020 9a 01 c8 bb a6 76 29 be 8c 83 c7 bd 27 85 4f bd
       -0.0061037065 -0.16549167 -0.097418875 -0.050664093
000030 b6 2a 0a 3e b0 08 cb bc a4 50 d8 be 95 0e bc bd
       0.13492855 -0.024784416 -0.42249024 -0.09182469
000040 92 17 2f be f7 56 32 bd 37 ee 8c 3d 83 4c d5 bb
       -0.17098835 -0.043539967 0.068813734 -0.006509365
000050 f2 cb 20 be bd 72 9e 3d 4e 80 9f b9 7a b9 fe bc
       -0.15702799 0.07736728 -0.00030422438 -0.031094301
000060 d7 9e 66 3e 75 c2 c0 be 99 40 5f be 64 ba 75 3d
       0.2252153 -0.3764836 -0.21801986 0.05999221
000070 d6 1f 22 be 71 44 4c 3e 66 12 30 3d c9 e7 9d 3e
       -0.15832457 0.19947983 0.042986296 0.308409
000080 fc 29 cb 3d f5 19 f2 bd 97 40 5f be 82 1b 61 3e
       0.09920117 -0.11821357 -0.21801983 0.2198315
000090 f5 58 43 3d 7f 18 98 be d9 2a 00 be 7f 8a 37 bc
       0.047692258 -0.2970619 -0.12516345 -0.011202454
0000a0 0e ca c4 3d 43 bd de 3b 86 be 4f be ae af cc 3d
       0.096088514 0.006797464 -0.20287523 0.09994446
0000b0 ab 71 f7 3b 81 70 41 be 77 d8 e6 3d 1e 7f 85 be
       0.007551392 -0.18890573 0.11271756 -0.26073545
0000c0 99 e5 8f 3e c9 4f e7 bb d7 84 f2 3d b9 09 28 3e
       0.28104857 -0.0070590717 0.118417434 0.16409959
0000d0 fd ca bb bd 18 a0 d4 3e 89 2e ff bd f4 f4 20 bd
       -0.09169576 0.41528392 -0.12460048 -0.039296106
0000e0 86 df 80 3e 87 4c dc bd c3 fc d7 3d 1d c7 25 be
       0.25170535 -0.10756784 0.10546257 -0.16189237
0000f0 3f 16 20 be b1 94 04 bd 6a 1b 64 bc 79 13 9f be
       -0.15633486 -0.032368366 -0.013922552 -0.31069544

fc2.weight f4 [64, 64]
000000 4b 1e 63 3f a5 0c 1a bf c3 e9 03 3f 53 90 19 3f
       0.887181 -0.60175544 0.5152857 0.59985846
000010 46 e6 03 3f b0 b0 90 be 5d e9 87 bf 3f 25 77 be
       0.51523244 -0.28259802 -1.0618092 -0.24135302
000020 27 07 e4 be 8a ea 7d 3f 6f 1a 84 3f c4 a0 18 be
       -0.44536707 0.99186003 1.0320567 -0.14905077
000030 9e 79 a3 bc 5c 1b 4a bf 28 ba 32 be 02 ab 77 bd
       -0.019955453 -0.78948 -0.17453825 -0.06046582
000040 89 57 2a 3e 62 e2 80 3f f7 5e 19 bf 1c f9 b1 bf
       0.16634955 1.0069087 -0.5991053 -1.3904147
000050 2f a8 50 be 2b 70 ce 3e 43 9f c1 bd 9f 0f 29 3f
       -0.20376657 0.40319952 -0.09454205 0.6603946
000060 2f 6e cc bc df cd 3d 3f 65 c6 59 bc f3 20 4e 3e
       -0.024954883 0.7414226 -0.01329193 0.20129757
000070 dd 58 2a 3e 0d 5c 18 bf eb e1 b6 3c 04 18 38 bf
       0.16635461 -0.5951546 0.022324523 -0.71911645
000080 25 b0 db 3e ec d1 3d 3e c7 f4 77 bf 8c df 3e 3f
       0.42907825 0.1853711 -0.96857876 0.74559855
000090 8b 98 ea 3d 04 8a 89 3f 92 5a 5a 3e 7f 50 cb 3e
       0.114548765 1.0745244 0.21323612 0.3970985
0000a0 d8 55 d2 3c 34 3b 65 be 94 b5 5d 3f 0e f3 83 3d
       0.0256757 -0.22385865 0.8660519 0.064428434
0000b0 f4 bd 4f be d6 e9 42 3e 2b 73 20 be 7e 4a d9 3f
       -0.20287305 0.19034514 -0.15668933 1.6975858
0000c0 07 87 70 bf a5 e5 f3 3e d2 59 07 be 47 8d 52 bf
       -0.93956035 0.47636142 -0.13217857 -0.8224682
0000d0 e0 7f af 3e 14 b0 2b bf eb 0b c1 bd 1b 13 92 3d
       0.34277248 -0.6706555 -0.09426101 0.0713255
0000e0 9d 53 a0 3e 86 a3 26 bf da d4 b5 bf 91 b2 f3 3d
       0.31313792 -0.65093267 -1.4205582 0.11899293
0000f0 a8 5e 8a be 68 3f 8c 3b ac fe 51 bf 67 cf e5 3e
       -0.27025342 0.0042800196 -0.82029223 0.44884798
000100 fa 0f bf 3f 09 e9 f7 bb 2a f0 85 3d 76 a9 97 3e
       1.4926751 -0.0075656218 0.06539948 0.29621476
000110 8f e1 c9 3f 0c 2e 6b 3c 6c 29 13 bf 18 b3 59 bd
       1.577196 0.01435424 -0.5748508 -0.053149313
000120 ba fa 93 be 2b 55 19 bf 6d 7e 38 3f 22 a1 98 3e
       -0.28902227 -0.5989558 0.7206791 0.29810435
000130 cb fe d4 bc e4 e2 bd bc d7 2a a6 be b8 d6 4c be
       -0.026000401 -0.023179479 -0.3245456 -0.20003784
000140 a0 f9 00 3e 93 f3 a3 3c 32 85 18 be 97 74 b4 be
       0.12595224 0.020013606 -0.1489456 -0.352452
000150 6a 07 8f 3d d1 55 af be a2 d0 c6 3c ee 55 11 3f
       0.06983836 -0.3424516 0.024269406 0.56771743
000160 ab d8 08 bf 1a 2d 3b 3e d0 f8 40 3f 39 a0 91 b8
       -0.5345561 0.18278924 0.7537966 -6.9439826e-05
000170 28 ae 0f 3f 40 2f 15 bf 3f 5c e9 bb a0 0d 6b bf
       0.56125116 -0.5827522 -0.0071215923 -0.91817665
000180 7a bb 11 3e 2a 8b cd 3e 33 33 49 be e3 f0 c6 bd
       0.14231673 0.40145236 -0.19648437 -0.09713914
000190 86 c7 20 bf 1d 4e ca 3e 54 cf ae 3e 5c d0 37 3f
       -0.6280445 0.3951272 0.34142554 0.71802306
0001a0 49 d8 74 3e 2c d8 4d 3e 7b 68 16 3f bf 41 44 3e
       0.23910631 0.20101994 0.58753175 0.19165705
0001b0 f1 4c 67 be e4 17 a2 3f 82 11 99 be 18 46 65 3e
       -0.22587945 1.2663541 -0.2989617 0.2239002
0001c0 ac 92 56 bf 21 f7 f7 bd 54 ff 7d 3d c2 7c cb be
       -0.83817554 -0.12107683 0.062011078 -0.3974362
0001d0 e9 1d 02 3e e9 76 13 bf cb cd e3 3e 8c 57 c4 be
       0.12706722 -0.5760332 0.44492945 -0.38348043
0001e0 63 cd a5 be 88 fb cd 3e d1 6b 57 be 9c 7c 7e be
       -0.3238326 0.40230966 -0.21037222 -0.24852222
0001f0 21 1f 3e be 4e af 5d be f4 8b e9 be c4 fe 79 3e
       -0.18566562 -0.21648905 -0.45614588 0.24413592
000200 41 1c a9 bf 2b 45 31 3e b0 bf 77 be 09 3e 33 bd
       -1.3211747 0.17311542 -0.24194217 -0.043760333
000210 39 7b 74 bf a0 7e 17 be 3f cd 23 be 1f e3 47 3e
       -0.9550052 -0.14794397 -0.15996264 0.19520234
000220 68 4f 40 3e 96 84 32 3d 91 9c 11 bf 57 2c a4 3c
       0.18780291 0.043583475 -0.56879526 0.020040674
000230 13 b6 a6 be c0 3a 11 be e8 b0 1a bf 7d 4c bc bb
       -0.32560787 -0.14182568 -0.6042619 -0.005746423
000240 3c f5 b9 bd 73 70 8f be 00 49 e8 3e fd 25 46 be
       -0.09079978 -0.2801548 0.45368195 -0.19350429
000250 23 ef e5 3e ef 36 13 3f 31 dd e5 be e3 a5 5d bf
       0.4490901 0.57505697 -0.44895318 -0.8658125
000260 22 88 02 3e 1f d8 86 bf 82 49 58 bf 8d 4f 0a 3d
       0.12747243 -1.0534705 -0.84487164 0.03376727
000270 da 93 55 bf 71 69 ba 3e c0 48 01 3e a3 7d 66 3f
       -0.8342873 0.3640857 0.12625408 0.90035456
000280 55 77 40 bf 6f e9 80 3d 2d 18 ee be b2 07 9f 3d
       -0.75182086 0.06294524 -0.4650282 0.0776514
000290 53 77 55 3f c8 d0 1e bf fd f3 0c bf a2 52 51 3e
       0.833852 -0.62037325 -0.55059797 0.20441678
0002a0 60 3f 6a 3e 5a 8b de bd 7a 80 59 3e 65 a8 92 be
       0.22875738 -0.10866423 0.21240416 -0.286441
0002b0 c3 96 87 3c bb 58 c9 bf f6 6d fd 3e ea e4 16 bf
       0.016551381 -1.5730203 0.49497956 -0.58943045
0002c0 ce 7d 98 3f a9 5e 1b 3f e6 f9 c7 3e 9c b3 2d 3e
       1.1913393 0.60691315 0.39057845 0.16963047
0002d0 ca 8a 61 3e 59 1b 81 3f dc 64 e8 be 01 10 96 3e
       0.220256 1.0086471 -0.4538945 0.29309085
0002e0 2c 22 13 3f 5d 18 ec be 6d 41 a4 3e 91 d8 90 be
       0.5747402 -0.46112338 0.32081166 -0.28290227
0002f0 60 9a 32 be f9 b4 0b 3c 04 22 1a be 4d d1 b0 bd
       -0.17441702 0.008527034 -0.15052038 -0.08633671
000300 97 39 7e bf 4b 6b e6 bc cc 22 74 bd 33 05 3f bd
       -0.99306625 -0.028127333 -0.059603497 -0.046635818
000310 41 01 94 be cf 50 5c be a1 03 2c 3f cb 9f 53 3d
       -0.28907207 -0.21515201 0.6719304 0.051666062
000320 81 1e 92 3f d2 a3 1a 3f 83 06 3c 3d 92 0a b7 be
       1.1415559 0.6040622 0.045904648 -0.35750252
000330 a2 c8 ae bf 41 22 2b 3e 9e d0 bd 3e 22 95 c1 3e
       -1.3654978 0.16712286 0.37073225 0.37809092
000340 d2 0f 7e bc 95 7e 05 bf a3 bb b9 3e 93 c8 ab 3f
       -0.015506702 -0.52146274 0.36275968 1.3420585
000350 bf 23 0e 3e 8b f1 11 3f 1a 1b 46 bf b8 22 ad be
       0.13880824 0.5700919 -0.77385104 -0.3381555
000360 1b 57 f2 bd d1 49 7c bf 47 b7 77 bf d2 5b d0 bd
       -0.1183302 -0.98550135 -0.96764034 -0.10173763
000370 3e 59 54 3e 7c ed 16 be 98 20 23 3e be 84 d3 3c
       0.20737168 -0.1473903 0.15930402 0.025820132
000380 f6 d1 e6 bf ef 0a cf be a3 fe b1 3c 61 5b 67 bf
       -1.8032825 -0.4043803 0.021727866 -0.9037381
000390 a0 fa 15 3f 7a 42 a8 bd c7 fd 80 bf ee 71 48 bf
       0.5858555 -0.082158044 -1.0077447 -0.7829884
0003a0 2f fd 9a be be 41 46 be 16 0c 02 3f a9 ab 95 bf
       -0.3027129 -0.19361016 0.5079969 -1.1693012
0003b0 6a a0 7b 3e 1b 4d fe be a6 4e 80 bf 53 d8 f9 bf
       0.24572912 -0.49668202 -1.0024002 -1.9519142
0003c0 ba 43 ab 3e 20 44 75 3f 6b 3c 7b 3f 0c 75 41 3c
       0.3345011 0.95807076 0.98139066 0.011807691
0003d0 20 35 e1 3e 58 62 8a 3e 2d c3 66 3f 7e c0 06 3e
       0.43985844 0.27028155 0.90141565 0.13159367
0003e0 ab d4 5e bf cc ed 81 3f fd 65 9a 3d ab 95 66 3e
       -0.87043256 1.0150695 0.07538984 0.22518031
0003f0 df c6 a6 be 8a 1f 31 3e b6 76 c7 bd c4 2d 4d 3e
       -0.32573602 0.17297187 -0.09739439 0.2003699

fc2.bias f4 [64]
000000 10 d9 0a 3d e0 44 c3 be e8 78 5e 3e 43 8c ca be
       0.033898413 -0.38138485 0.2172581 -0.39560136
000010 93 7d 26 bf 01 0a 10 3f e2 b4 a0 3a a6 39 7e bc
       -0.6503536 0.56265265 0.0012260939 -0.015516674
000020 4b 3b 82 3e be b9 0f be 56 13 98 3d 61 ad b7 bc
       0.25435862 -0.14035699 0.07425563 -0.02242154
000030 0c 94 47 bd f7 26 19 be 1a 9a 9e bd 30 92 1a 3e
       -0.048725173 -0.1495627 -0.07744236 0.15094829
000040 46 fa 8e be 3a 42 9c 3e 4d 90 0c 3d a7 e5 c2 be
       -0.27925318 0.30519277 0.034317303 -0.38065836
000050 95 c0 3c bc 5b 0c 84 bc 83 f1 9c be 6f 3b ec 3d
       -0.0115205245 -0.016119173 -0.3065301 0.115347736
000060 4c c1 1e be ba 37 23 be 9d be 8b 3e d5 87 ed 3b
       -0.15503424 -0.15939227 0.27293864 0.0072488585
000070 93 b6 5a 3e a1 df 90 bd 37 06 9d be 33 2e ee 3b
       0.21358709 -0.07073904 -0.30668804 0.007268691
000080 86 c9 02 bd 4a d7 69 be a2 b4 02 be 26 ad 1c 3f
       -0.03193047 -0.22836033 -0.12764218 0.61201704
000090 4f 48 88 bd 91 11 ea 3d 29 02 6d 3d 4f a6 b8 bd
       -0.06654417 0.11429132 0.05786339 -0.09016096
0000a0 a4 ad 8e 3e c4 50 e8 be 4b 31 f5 3d dc bf 19 be
       0.27866852 -0.4537412 0.119722925 -0.15014595
0000b0 46 d6 91 3e 48 e9 20 be ae 3e 30 3e d2 76 b3 3e
       0.2848379 -0.1571399 0.1721141 0.3505159
0000c0 35 85 44 be 38 f4 1d 3d c4 20 d9 3d 20 f6 24 3e
       -0.1919144 0.038562983 0.10601953 0.16109514
0000d0 70 37 f6 3d 79 38 41 be 17 29 48 3e 57 97 96 bc
       0.120222926 -0.18869199 0.19546925 -0.018382711
0000e0 32 c9 01 3e 3b ec f3 3e 44 c8 fc 3e 24 ea 24 3e
       0.12674406 0.47641167 0.4937154 0.16104943
0000f0 e2 89 3f 3e 7d c2 ea 3e a2 56 e0 bd 7a 05 8c be
       0.18704942 0.45851508 -0.10954024 -0.27347928

fc3.weight f4 [5, 64]
000000 d6 b3 1c bc be c6 99 be 43 cc 51 3f 81 23 45 3f
       -0.009564361 -0.3003444 0.81952304 0.770073
000010 37 a0 21 be a5 a8 b2 3e c6 83 8a bd 0e 1b c9 bd
       -0.15783773 0.3489429 -0.06763415 -0.098196134
000020 70 76 03 bd 83 20 f3 3b 04 b7 86 be d1 b7 c8 3e
       -0.032095373 0.007419647 -0.26311505 0.3920274
000030 90 6b b6 3e dc b4 1f be c1 38 f6 3e e3 76 ac be
       0.3562894 -0.15596336 0.48090175 -0.33684453
000040 55 85 1e bf e3 94 0d 3c 7d 53 e0 be 72 47 84 3f
       -0.619222 0.008641454 -0.43813697 1.0334303
000050 af 7a 5c 3f 25 8e 32 bf d1 ad 3e be e9 b5 da 3e
       0.861247 -0.69748145 -0.18620993 0.4271691
000060 45 a0 1d 3e dd 52 17 3f 70 a0 13 3f 20 d1 82 3f
       0.15393169 0.59110814 0.57666683 1.022007
000070 cc e7 34 bf 45 5f 2b 3f ec f8 a1 3e 4c 63 08 bf
       -0.70666194 0.66942245 0.31635225 -0.53276515
000080 82 7e 3e bf 72 41 86 be 69 bb 40 3f 0b 88 4a bf
       -0.74411786 -0.26221806 0.75285965 -0.79113835
000090 e7 c3 dd bd cc 38 b3 be 3e b4 1b 3f 2c 90 87 bf
       -0.10828381 -0.3500427 0.608219 -1.0590873
0000a0 ea fb 36 be b1 f5 b9 3e 0e 21 c6 be 6b 53 43 bf
       -0.17869535 0.3632026 -0.38697094 -0.7629916
0000b0 e5 55 c1 be 16 d5 5b bf 94 0b e8 bd a7 5a 3a 3f
       -0.37760845 -0.8587202 -0.11330333 0.72794574
0000c0 af c8 7f 3e f1 fe c1 3e 12 7c 9f bf 82 19 c1 3d
       0.24978898 0.37889817 -1.2459738 0.09428693
0000d0 a7 0c 6e bf 4a 72 c3 be 5a 25 28 bf 40 20 17 bf
       -0.92988056 -0.38173133 -0.65681994 -0.59033585
0000e0 d5 a8 aa be 43 44 56 bf 7f a6 1b 3f 1c 0d 97 be
       -0.33331934 -0.8369791 0.6080093 -0.2950219
0000f0 63 5b e4 bd 39 88 4e 3e 9c a6 8f 3e 35 2b dc 3e
       -0.11150243 0.20169152 0.280568 0.43001714
000100 4e fe d5 3e ff ec 9b 3e a7 66 2c 3e 03 0a e5 be
       0.41795582 0.3045425 0.16836034 -0.447342
000110 51 76 15 bf 86 fc 6f 3f 43 2f d5 3e 01 4e 14 3f
       -0.5838366 0.93744695 0.4163762 0.57931525
000120 de af a7 bc 35 4a 4f bf 5d 62 1b 3f 11 22 ea 3d
       -0.020469602 -0.80972606 0.60696965 0.11432279
000130 fe c9 0c 3f c0 cc 85 3f 89 54 23 bf b8 18 b6 3f
       0.54995716 1.045311 -0.63800865 1.4226294
000140 77 a4 45 3f b2 b1 65 bf 84 70 5b bf 5d ba 19 3c
       0.7720408 -0.89724267 -0.8571856 0.009382811
000150 90 6d 1b be e3 50 25 40 7b fa 9a 3f 94 64 c5 3b
       -0.15178514 2.583062 1.210769 0.0060239527
000160 16 ed a3 3f 21 50 0a bf 4b 83 d5 be 32 11 62 3f
       1.2806728 -0.54028517 -0.4170173 0.8830749
000170 fc d9 90 be 67 4b d5 be be fc 6a 3d e2 e3 14 3e
       -0.2829131 -0.4165909 0.05736994 0.14540055
000180 c2 c9 29 3e f5 7c 35 3f 2f 83 f2 bf 95 14 91 3f
       0.16580871 0.70893794 -1.8946284 1.1334406
000190 c6 be 04 bf 7d 85 b6 3e 03 9e 22 bf 35 65 99 3e
       -0.518536 0.35648718 -0.63522357 0.29960027
0001a0 06 ea 1c 3f db 93 9a 3d d9 7b ef be bd a4 e5 3e
       0.6129459 0.075477324 -0.46774176 0.44852248
0001b0 57 0f e0 3e 88 5e a2 be 41 29 2a bf f9 d6 bb 3d
       0.43761703 -0.31712747 -0.664692 0.09171862
0001c0 a9 99 d6 be 9a 03 54 bf 57 fd c8 be 7a 97 60 bf
       -0.41914108 -0.82817996 -0.39255783 -0.87731135
0001d0 3e 30 bb be 25 a7 28 be fb 6f 99 be 90 f9 19 40
       -0.36560243 -0.1647001 -0.29968247 2.405857
0001e0 bf c1 ec bc d4 6a 8f 3f 79 39 e1 be c5 11 aa bd
       -0.02890098 1.1204476 -0.4398916 -0.083041705
0001f0 83 a7 d1 3f b8 41 e0 3e 0e 1d dd 3e a1 09 22 bf
       1.6379246 0.4380014 0.4318623 -0.6329594
000200 cd 8c e2 bf bb 03 82 bf 18 12 84 bf 4d 4d 34 3f
       -1.7699219 -1.0157388 -1.0318022 0.7043045
000210 74 3d 95 3f 9c e7 28 bf 13 13 79 3f 6b 42 33 3f
       1.1659379 -0.6597841 0.9729473 0.7002322
000220 2f 49 66 bf 08 46 46 be 12 ae fe 3d 48 26 da be
       -0.8995542 -0.19362652 0.12435545 -0.4260733
000230 d6 23 e6 be da fc 5c bf a9 f6 68 be 54 49 b6 be
       -0.44949216 -0.8632332 -0.22750343 -0.3560282
000240 39 0d 17 be e4 67 f0 3e ab e6 38 bf 66 22 25 bc
       -0.14751138 0.46954262 -0.7222697 -0.010079002
000250 92 8b 36 3f fd 06 ee be dd d9 eb 3e 5c 35 76 bf
       0.7130672 -0.46489707 0.46064654 -0.9617517
000260 38 fa 17 bd ef b2 33 bf e0 36 23 3f bd 26 80 3c
       -0.03710386 -0.70194906 0.6375561 0.015643472
000270 29 b9 24 3f 02 64 78 3f 7d 3f 3b bf b9 35 83 bf
       0.6434503 0.970276 -0.7314375 -1.025077
000280 5b a7 61 3d d5 62 27 bf 09 4c 01 3f 5e fb 6c be
       0.055091243 -0.6538518 0.50506645 -0.23142764
000290 4c c9 2a 3f e7 76 6b bf 76 90 c2 be 20 12 04 bf
       0.66713405 -0.91978306 -0.3800084 -0.51590157
0002a0 90 fc 88 3f ec f9 37 be a3 cf e3 be 6e e3 3f bf
       1.0702076 -0.17966431 -0.44494352 -0.74956405
0002b0 08 5f 5b be d1 21 99 3f e8 0e b4 3e 90 f8 3f bf
       -0.2142297 1.1963445 0.35167623 -0.7498865
0002c0 81 17 7e 3f 2d 72 14 bf 7f 55 09 be ad 26 2d 3f
       0.99254614 -0.5798672 -0.1341152 0.6763714
0002d0 27 39 24 3f 53 38 03 3f 2e 99 b6 be d6 26 fb be
       0.6414971 0.5125782 -0.35663742 -0.49053067
0002e0 02 ad 99 bf 57 34 a6 3e e2 68 92 3f 47 7a a8 bf
       -1.2005923 0.32461807 1.1438258 -1.3162316
0002f0 19 b8 cf be 47 71 67 3f 89 a5 d3 3d 9e 90 1a 3f
       -0.40570143 0.9040722 0.10334308 0.6037692
000300 c7 68 86 3f b6 f4 0b 3e 63 99 b2 3e a3 53 0c 3f
       1.0500726 0.13667569 0.3488265 0.5481512
000310 3d aa 05 3e 22 f1 62 bd e6 1a 73 bf b0 59 92 bf
       0.13053222 -0.055405743 -0.9496292 -1.143362
000320 84 84 91 3e ee b1 39 be 21 21 89 bf 3b d9 31 bf
       0.28421414 -0.18134281 -1.0713235 -0.6947209
000330 88 6f 87 bf ba 01 11 be 08 a2 5e 3f b0 72 1c bd
       -1.0580912 -0.14160815 0.8696599 -0.038195312
000340 fd 7b 52 bf 58 d2 6e 3f 9b 19 0a 3f 3e 45 9f 3e
       -0.8222044 0.9328971 0.5394532 0.31107515
000350 02 48 84 3e 68 cd 2b bf b1 45 95 bc 24 de 88 3e
       0.25836188 -0.671103 -0.018221708 0.2673198
000360 cb f5 75 bc 35 9f 45 3f 97 cb 41 3e 1b b8 17 bf
       -0.015012215 0.77196056 0.1892532 -0.592653
000370 a4 93 62 3e ad 68 ea be 8c 41 9a be 40 9e 9c 3e
       0.22126633 -0.45782986 -0.30128133 0.30589485
000380 9a 00 83 3f 21 66 5a bf 3c 64 51 3f 01 be 5e bf
       1.0234559 -0.85312086 0.8179357 -0.8700867
000390 3c 3b 05 3f 33 58 b2 3e 47 07 4c 3f 84 48 7e 3f
       0.5204351 0.34832916 0.79698604 0.993294
0003a0 9b c0 01 bf 73 15 9e 3f b8 0b d2 3e c4 02 81 be
       -0.5068452 1.2350296 0.41024566 -0.25197423
0003b0 0e e9 45 3f cb fa 0e bf 22 c8 40 3f 10 27 60 3f
       0.7730874 -0.5585143 0.7530538 0.87559605
0003c0 10 4b f4 3d 7a 19 15 3f f5 4f d2 3e 24 66 1e 3f
       0.119283795 0.58242 0.41076627 0.61874604
0003d0 6f 8a cd 3e 77 16 32 3f c2 4f d4 bd 94 4c 1d bf
       0.4014468 0.6956553 -0.10366775 -0.61444974
0003e0 8c 27 6a 3f 2f a7 2c bf 1c ff 58 be 8a b1 aa 3f
       0.91466594 -0.674426 -0.21191067 1.3335431
0003f0 82 c2 1d bf ae 97 2c be 83 b8 8b bf b0 08 e0 3e
       -0.6162492 -0.16854736 -1.0915684 0.43756628

fc3.bias f4 [5]
000000 94 a0 ae 3d 6a da 0d bd 55 a1 37 be 3f cd 5b 3e
       0.085267216 -0.034632124 -0.17932637 0.21465014
000010 1f 24 36 3d
       0.04446804
