ippo_algorithm/checkpoints/ppo_critic_1num_agent_exp_4run_0_lumberjacks.pth (torch, 171260 bytes, 7 tensors)

critic.0.weight f4 [128, 67]
00000000: 61c5 863d a7c2 1abd 1615 ac3c 3a9e 813d
00000010: 7b04 3dbd fba7 94bb 0c75 9f3d 373d 193e
00000020: a598 05bc d202 b83d 312a 36bd 38ce a73d
00000030: c637 ec3d 9363 f83c 7ab2 bcbd 0980 f83d
00000040: 475a b43d d3eb ef3d 1148 153c a169 93bd
00000050: 5eb6 01bc b755 e43c abb1 a63d 2183 bc3d
00000060: c74c af3d 6cbc 9f3c b085 043e 1a40 cb3d
00000070: ac58 0e3d fdd8 d13c 5872 c2bd 2532 bc3d
00000080: 483a 48bd bf47 a33d 05a4 a73c f1e4 82bd
00000090: 9196 f8bd acae df3d f068 7d3d 5f26 a83c
000000a0: fed8 753d eea5 87bd 3a1f ad3d 9cdf edbd
000000b0: b72e f2bd 24df 5dbd ef09 f3bd ee6c 2ebb
000000c0: cc9a 503d b72e b4bd d484 9d3d 63a0 69bd
000000d0: bfea a13c e4c6 3fbd 2129 1a3c 84e6 0fbd
000000e0: c576 cebd 9811 bebd fc07 0a3d e19f d7bc
000000f0: 6567 bc3d 8401 f03d da42 ccbd 450b eabd
00000100: 117c e33d 9cbe c53d a730 973d 4d55 b3bb
00000110: 8208 4dbc 717c 84bb 89f9 b0bd d4b7 af3d
00000120: c5cd a33d 47cd 3b3c 06b8 05bd a607 6d3d
00000130: 1189 e03d f2b1 943c 6081 e73d 2e49 babc
00000140: 3f6a 103d 3a60 90bc ef46 3a3d be8c cabc
00000150: 3fc0 0f3d f738 6dba aedb b439 0c60 aabc
00000160: 7b61 c33d 99f2 e63d 4a10 72bd b4fa b83d
00000170: 187b 88bd 7c48 3e3d 4f26 ed3d e118 383c
00000180: 3d5b 87bd 0c20 503c b835 aabc c3fb 6d3d
00000190: dad4 b7bd 405e acbd db59 923d c05e 6e3d
000001a0: 37e6 d43d 0fc8 ef3d 447e 72bc 5794 1ebd
000001b0: f96f 5ebd 6ad6 933c 6f7f 85bc 5c22 cd3d
000001c0: 5252 dbbd f38b d43b 4ec4 a03d 493b 593b
000001d0: e5ae fd3c 2449 dc3c 7c14 61bd 1adf 86bd
000001e0: dafa 973d 3110 153d 382c 2abc 78e6 443d
000001f0: d313 e33c 471e 88bd 2706 1c3d f77f 893d
00000200: 5db1 31bd fe78 083d 08f7 9dbc 2c24 283d
00000210: 1e81 ccbc f31f 5ebd ef42 14be 41cc e3bd
00000220: 8b34 cbbd 2f01 8dbd 931e 0fbd 9ce1 5d3d
00000230: 4139 8fbd 9125 b03d 0420 10be 8ce1 a53d
00000240: 8971 5c3d 5c96 a53d 6164 563a cce5 533d
00000250: 4a5a 80bd 49c5 b2bc 3a18 0ebd 7c14 6b3c
00000260: 0aa1 133d 2f1c d53d 322c f9bd 45cf b7bd
00000270: 094d f13c b705 a8bd 8494 8b3d 61cd aabd
00000280: 1090 0ebd ad13 c8bd ce1c 063d fc85 86bd
00000290: 60d3 af3d 8920 1d3c 6b73 cebd 0444 533d
000002a0: 4d50 4f3d 3e54 aa3d b7de a03d 5e87 753d
000002b0: 4853 1b3d a4b1 e1bd 56dd 23bd 437a fcbc
000002c0: 1b0f c23b 70d3 ab3d 62b4 923d 3733 d4bd
000002d0: 8e43 02bc 0cbb a1bd e846 08bd 01dd d73d
000002e0: 607c 85bd 2c96 f73d a496 a23a b923 4f3d
000002f0: 4151 b2bc ad98 16bd c205 f33d 55a8 a13d
00000300: 9cd0 8abd 5787 a7bd 3866 2f3c ccc5 dc3d
00000310: 6816 c03d ce67 48bd 3c7c 993d 3f77 96bd
00000320: 17a5 393d ed73 65bd 02c7 b73d 44e3 683d
00000330: 0c4d ff3d 210c f1bb 2de8 163d 4499 90bd
00000340: 2fd8 863d 8772 3ebd 570a da3d 7472 d83b
00000350: 581a ff3d 0ecb e93c 9a48 e4bd 5d50 abbd
00000360: da4d babb cce8 a3bd d822 7bbd 66ae b73d
00000370: e23d 7abd 3e0e 103c b0df bfba 614a 44bd
00000380: 4ea7 e3bc ed14 b43d 1f7d f03c 7f7c 5bbd
00000390: e8f4 9e3d 0f66 123d 69da 08bd b591 e1bc
000003a0: 03b3 77bd 072b b93d 723e 1f3d 32a2 df3d
000003b0: 9182 f13c 57c0 47bd bbdb 82bd dc1f 95bd
000003c0: e658 f53b 70ff 3abd 99fd 663d 37e3 5a3d
000003d0: abda 6fbc 4b61 423d b814 4e3d 5a2c bfbd
000003e0: a1db ba3c 123c 163d 1a05 213d 17f9 3dbd
000003f0: 0071 5a3d 2449 f5b9 162a 0fbd 7183 03bd
0.06580616 -0.03778329 0.021006148 0.063290074 -0.04614685 -0.0045366264 0.07785997 0.14964758
-0.008154069 0.08984913 -0.04447383 0.0819363 0.115340754 0.030320918 -0.09213729 0.12133796
0.088062815 0.11714902 0.00911142 -0.071978815 -0.007917015 0.027872903 0.08139356 0.09204698
0.08559566 0.019499026 0.12941623 0.09924336 0.034752533 0.025616163 -0.094944656 0.09189252
-0.048883706 0.07972669 0.020463953 -0.06391323 -0.12138093 0.10921988 0.061867654 0.02052611
0.060021393 -0.066234455 0.084532216 -0.11614916 -0.118253164 -0.05416788 -0.11867129 -0.002661522
0.050928876 -0.08797973 0.076913506 -0.057037722 0.019765256 -0.046820536 0.00940922 -0.035131946
-0.10081247 -0.092806995 0.03369902 -0.026321353 0.091994084 0.11719039 -0.099736884 -0.11427931
0.11107648 0.096554965 0.073823266 -0.005472815 -0.012514235 -0.004043155 -0.08641345 0.08579984
0.07998232 0.011462516 -0.0326462 0.057868622 0.10963643 0.018151257 0.11303973 -0.022739973
0.035257574 -0.01762401 0.045477804 -0.024725314 0.03509545 -0.0009049321 0.0003449595 -0.020797752
0.09540077 0.112767406 -0.059097566 0.09032193 -0.06664103 0.046455845 0.115795724 0.0112364
-0.06609199 0.012702953 -0.020777568 0.058101427 -0.08976145 -0.08416414 0.07146045 0.05819583
0.103954725 0.1170808 -0.014800612 -0.038715687 -0.054306004 0.018046577 -0.016296117 0.10016319
-0.10709061 0.00648641 0.07849942 0.003314691 0.030967185 0.026890345 -0.054951176 -0.06585522
0.07420893 0.036392394 -0.010386519 0.048071355 0.027719414 -0.066464 0.038091805 0.067138605
-0.043382037 0.033318512 -0.019282833 0.04105012 -0.024963912 -0.054229688 -0.14478658 -0.11122943
-0.09922131 -0.068849914 -0.034941267 0.054170236 -0.06993342 0.08600915 -0.14074713 0.0809966
0.053819213 0.080853194 0.000817841 0.051732823 -0.06267221 -0.021822589 -0.034691073 0.014348146
0.03604225 0.10405766 -0.12166633 -0.089750804 0.029455679 -0.08204215 0.068154365 -0.08339954
-0.034805357 -0.09769378 0.032742314 -0.06568524 0.085852385 0.0095902765 -0.10080608 0.051578537
0.05061369 0.08316849 0.078549795 0.05994355 0.03792122 -0.110202104 -0.040006004 -0.030820018
0.005922211 0.08389938 0.071633115 -0.10361331 -0.007950677 -0.078970045 -0.033270746 0.105402
-0.06517863 0.1208919 0.0012404514 0.050571177 -0.02176726 -0.036766697 0.118663326 0.07893435
-0.0677807 -0.08180111 0.010705523 0.10779914 0.09379274 -0.04892712 0.07494399 -0.07346963
0.045323458 -0.05601876 0.089735046 0.056857362 0.124658674 -0.007356182 0.036842514 -0.07060483
0.065842025 -0.04649594 0.106465034 0.0066054408 0.124561965 0.028539207 -0.1114666 -0.083649375
-0.00568555 -0.08003387 -0.061312526 0.08968811 -0.061094172 0.008792458 -0.0014638808 -0.047922496
-0.027789738 0.08793054 0.029356537 -0.053585526 0.07761556 0.035741862 -0.033411417 -0.027535299
-0.060473453 0.0904141 0.038877912 0.10919608 0.029481204 -0.048767414 -0.063895665 -0.07281467
0.007487404 -0.04565376 0.056394193 0.053439345 -0.014639537 0.047456067 0.050312728 -0.09334631
0.022809805 0.03667838 0.039311506 -0.04638013 0.05333042 -0.00046784536 -0.034952246 -0.032107774

critic.0.bias f4 [128]
00000000: b6d4 aa3c 2d22 cf3d 1523 1abe 2a1e a73d
00000010: 224a 44bd 624b 89bc a455 10bd c1fc c83d
00000020: 4434 dd3b 2353 a73d f3b3 c1bd cd93 6fbd
00000030: 57b4 12bd bb37 6a3d b488 103e de35 aebd
00000040: 348b 953d 1940 823c 27cc 18be 9ca2 acbd
00000050: 6c9e 96bc 140c c43d 4838 bb3d d764 6fbd
00000060: bdd4 ef3d d8e7 f8bc 9960 073e 12aa d5bd
00000070: 8021 16be 7411 b03d a313 c63c b756 ab3b
00000080: 2512 60bd 01f0 acbd d71b 013e 658b 9dbd
00000090: 8d4b 6abd 0c91 ea3d 24ec 983d 8742 e63d
000000a0: 7137 313d 96ec 0b3d c26f a33d 6a9f 0fbe
000000b0: dab5 df3d 34e5 e63d b77c ffbb 04a5 86bd
000000c0: 1319 063e e9a7 c83b 133f 2fbd 3294 d93d
000000d0: 5a39 85bd be6d 06be 555f 08be d616 953d
000000e0: 76ec b4bc b8e4 85bd 3b34 0c3e a713 4dbd
000000f0: be0e 12bd 3974 2d3d 7c3c 953d 6709 58bd
00000100: ce67 163e 1575 853c eb31 463d 580e 953c
00000110: 76b5 c2bd 19d1 cbbb b93f 9cbd 7311 0e3e
00000120: 9967 fdbd b8b7 d73d e8f3 8c3d 1c97 0cbc
00000130: 6142 edbc 5394 9cbb a28c b13d a5ea 0fbd
00000140: a0d2 b8bd a9d9 143e f843 093e 1df1 303c
00000150: 95d6 603c 2e5c f4bd 75c2 97bd 0725 89bd
00000160: 8861 f3bc 4cbf a6bc 8087 933c 8235 9a3d
00000170: 5317 aabc aba4 d23c f3bf c13c f36e 8f3c
00000180: c94d 1ebe 6c40 fa3d 3f5c 0cbe dba8 d43d
00000190: c6ca 97bd 1b79 803c e4c7 cc3a 510b 0cbe
000001a0: 79ba 3e3d 8a3b afbd adc7 11be 2348 c63d
000001b0: 2539 c73d cccd 9bbc 7d01 cebd daaf bb3d
000001c0: d49b d1bb 5cdf 053e 1df1 c5bd 9f9b d53d
000001d0: 4bac abbd 8576 133d 809d f9bd fe01 a7bd
000001e0: 4ac4 d7bc fbfa 81bd c900 6a3d 9fe3 0bbe
000001f0: b677 7d3c 27ed d1bd cd32 d3bc 8b54 61bc
0.020853382 0.101139404 -0.15052445 0.0816005 -0.04792226 -0.016759578 -0.035237923 0.09813834
0.0067506153 0.08170154 -0.09458151 -0.058490563 -0.035816517 0.057182055 0.14114648 -0.08506368
0.073019415 0.015899705 -0.14921628 -0.08429453 -0.018386088 0.09572616 0.09141594 -0.058445778
0.117104985 -0.03038399 0.13220443 -0.10432829 -0.14661217 0.08597079 0.024179285 0.005228843
-0.054704804 -0.084442146 0.12608276 -0.07692603 -0.057200957 0.11453447 0.07466915 0.11243158
0.043265764 0.034161173 0.079803005 -0.14025655 0.10923357 0.11274186 -0.0077968496 -0.06574443
0.13095503 0.006123532 -0.04278476 0.10623969 -0.065050796 -0.13127801 -0.13317616 0.07279746
-0.02208541 -0.06537765 0.136918 -0.05006757 -0.03565859 0.042347167 0.07286927 -0.05274334
0.14688036 0.01629118 0.04838745 0.018195316 -0.09507267 -0.0062199947 -0.07629342 0.13873844
-0.12373275 0.105330884 0.06882459 -0.008580949 -0.028962316 -0.004778424 0.08669402 -0.035135884
-0.090245485 0.14536156 0.13404834 0.010799673 0.013723035 -0.119316444 -0.074101366 -0.066965155
-0.029709592 -0.02035489 0.018008947 0.07529737 -0.020763075 0.025713285 0.023651099 0.01750896
-0.1545936 0.12219319 -0.13707064 0.10383769 -0.07411723 0.015682748 0.0015623537 -0.13676192
0.046564553 -0.08556278 -0.14236327 0.09681728 0.09727696 -0.01901903 -0.100588776 0.091644004
-0.00639675 0.13073486 -0.09665129 0.10430073 -0.08382472 0.0360017 -0.12188244 -0.08154677
-0.026338715 -0.06346699 0.057129655 -0.1366105 0.015470436 -0.10250311 -0.02578106 -0.013753067

critic.2.weight f4 [128, 128]
00000000: 1e8a 3c3d fabd 90bc e563 26bc 9550 38bd
00000010: 838b 5ebd 0126 d0bd cce0 5a3d a82b 583d
00000020: 7976 803c 1706 753b b5a5 13bc 2263 a93b
00000030: 93ff 8c3d 9afb e1bd 7046 d5bd b818 483d
00000040: c92e ee3c a8f6 d9bc 2180 80bd c875 14bc
00000050: 0fd5 01bd 7e29 053d 9b43 20bd 7691 6f3c
00000060: d73b 583d ae3f c0bd 2cfd 2b3d 68dc 19bd
00000070: 9150 eebc 780b 78bd 1e97 93bc 87fb d3bc
00000080: 6d3d 2c3d e8ec ae3d 1de9 b9bd a16c 47bd
00000090: 784a ae3d 213e 4dbd aead 73bc 246a 39bd
000000a0: 6a24 813c 61fd 60ba 2f2d b63d ed98 98bc
000000b0: 6808 88bd 2a5a 91bb b78d 943d 3704 42bd
000000c0: b1d3 22bd 000f 04bd 1a71 d23d d142 d73c
000000d0: 22a8 91bd ccd9 60bd d1f3 b43d 9f9a 93bd
000000e0: a886 8cbd d582 6dbd 89ae c6bd 3a1b 0ebd
000000f0: 524e d4bd 770b e4bc 9722 203d 0f67 863b
00000100: 2257 903c b90f b73d b145 2ebd 592c c23c
00000110: 8fa5 a23d b81a b33c 9f10 203c 0bbe e3bd
00000120: ca6c 89bd 2e79 493d 1314 87bc 37ad e83b
00000130: a931 efbc 592e 293d 799b 91bd 50f1 ab3d
00000140: b6a2 d03d 5b5f 92bd 329d 173d 724c 5fbd
00000150: 31ac 3e3c 6892 9c38 1a7f 1c3c b1d1 5b3d
00000160: 1389 cd3d 0208 4fbd c469 a63d e27e 613d
00000170: 046d 993d 73d0 a9bb aaaf b73d ebca 05bc
00000180: 14ef cebc a093 bd3c 8a93 8b3d 51fb 15bd
00000190: 2a17 0c3d 5e22 c4bd c765 59bb 1ef9 a13d
000001a0: ac95 02bd f409 a03c 05bc b43d 8f41 69bd
000001b0: ffea 42bd dc3f bb3a 8b4f 38bc fc45 123c
000001c0: c245 0bbd fd0f 8fbd 2158 343d e6c5 7c3d
000001d0: 6227 843d 5ebf b23d 0a0a 833d 3a2d 71bc
000001e0: 8e69 063d e3c2 043d 7eeb a63c 635a 5cbc
000001f0: ebc4 bfbc 2ad8 58bd 9f78 99bd 3a68 febb
00000200: 5077 703c 9ec3 a6bc 8f2a 583d 9760 123d
00000210: cfbc b5bc df8b cd3d e95e a4bc b19c 24bd
00000220: 9f69 90bc 3f83 83bd e8ea a0bd ec7b 893d
00000230: 91b2 d7bc 261a 473d 7f25 d53d 463d 8fbd
00000240: 35ab b13d 5532 a7bb 776a 01bd 9457 dc3c
00000250: 3dcb a7bd 41df ebbc 0f3d 3abd cb04 a4bd
00000260: ebcb 883d 6ebe 5e3c 3923 05bd f53c cebb
00000270: 2c74 91bc 1cf3 51bd 519e 9e3c 5b18 73bc
00000280: 4390 a13d bef5 92bc 1c68 0e3d 4baa 6c3d
00000290: 2166 b2bd 3929 aa3d d3b0 cdbc 518a 8dbd
000002a0: bc2b 93bc be46 b13d 10b7 cdbc 1931 d5bc
000002b0: 835e 803d c753 15bd 86d5 283d 294f 91bd
000002c0: 9a38 6b3d f67c c1bc f510 dbbb b9ef c13d
000002d0: 6641 9b3d ce41 a9bb d571 0b3d d1a0 7ebd
000002e0: 6f17 34bc 9eb8 bcbd a018 cd3c 291f 8dbd
000002f0: 100b 35bd ad4c 06bd 9835 c13d 3bde 373d
00000300: d326 d8bc 04a1 ccbd 3740 853d 52f8 b73d
00000310: fa36 6abd 2b3a d13d 8369 fb3c bf71 923c
00000320: aa1f 8cbd 2203 b3bc 3a5e 373b b147 8f3c
00000330: b9aa 483d 744b 1c3d d453 e0bb 1e4a 6f3c
00000340: 589f c8bd c995 903d ddca 5f3d da5b 4c3d
00000350: 33e2 023c 4b75 dabd bd95 a6bc 270a 8ebc
00000360: 6bd6 9ebc 56e2 993c c8d9 a7bc 3d6f d53a
00000370: 67b6 d1bd dd20 7fbd 75ef 1b3d 9066 223d
00000380: a4ea 47bd 2ee1 b53d df05 48bd e0bc 853d
00000390: 73bf a6bd 99e4 7fbd 17c8 f03b 3ab8 423c
000003a0: e436 a13c 82f0 0cbd 324d 843d 9cdd 11bd
000003b0: 1e79 953c ecf8 d7bc 7aa5 a53c f97d 683d
000003c0: 2d26 353b 6628 ee3b 2394 b3bd fb07 193b
000003d0: c41b 8fbd 1d0d b7bd 55d9 6dbd 4a65 cdbc
000003e0: ae5d 91bd 5153 ac3d 9499 ccbb 0b2c f03c
000003f0: debb 8c3d bd1a 99bd e503 9b3d 8417 633d
0.046030156 -0.017668713 -0.010155653 -0.044998724 -0.054332267 -0.10163499 0.05343704 0.05277601
0.015681492 0.0037387663 -0.009011676 0.0051692883 0.068846844 -0.11034317 -0.104138255 0.0488517
0.029075043 -0.026606873 -0.06274439 -0.009061284 -0.03169733 0.032510273 -0.039126974 0.014622083
0.052791443 -0.09387146 0.04198949 -0.03756371 -0.029091151 -0.060557812 -0.018016394 -0.025876774
0.042050768 0.0854128 -0.09077666 -0.04868758 0.085102975 -0.05010808 -0.014872951 -0.04526724
0.015764434 -0.0008582678 0.08895337 -0.018627608 -0.06642228 -0.004435797 0.072535925 -0.0473673
-0.039752666 -0.032240868 0.10275479 0.026276978 -0.07112147 -0.054895207 0.08835567 -0.07207226
-0.06861621 -0.0579861 -0.09701259 -0.034693934 -0.10366501 -0.027837498 0.039095487 0.004101641
0.017619673 0.08938546 -0.04254693 0.023702787 0.07941734 0.021863326 0.009769588 -0.11120232
-0.06710203 0.04918783 -0.016489064 0.007100727 -0.029198484 0.041303966 -0.07109732 0.08395636
0.10187285 -0.07147094 0.037015148 -0.054516263 0.011637733 7.46593e-05 0.009551788 0.053666774
0.100359105 -0.050544746 0.08125642 0.055052646 0.07491496 -0.00518232 0.08969052 -0.008166055
-0.025260486 0.023141682 0.0681525 -0.036616627 0.03420178 -0.095768675 -0.0033172236 0.079088435
-0.03188102 0.019535996 0.088249244 -0.056947287 -0.04758739 0.0014285999 -0.011249433 0.008927818
-0.034002073 -0.069854714 0.04402936 0.06171217 0.06452824 0.08727907 0.06398399 -0.0147202555
0.03281551 0.03241242 0.020375963 -0.013449284 -0.023409327 -0.052940525 -0.0749371 -0.0077638896
0.014676884 -0.02035695 0.052774962 0.035736647 -0.022184758 0.10036444 -0.020064788 -0.040188495
-0.017628489 -0.064215176 -0.07857305 0.06713089 -0.026330264 0.04860892 0.104075424 -0.06994109
0.08675233 -0.0051024356 -0.031595673 0.02689723 -0.081930615 -0.02879298 -0.045468386 -0.08008727
0.06679519 0.013595207 -0.032504294 -0.0062938877 -0.01775559 -0.051257238 0.0193626 -0.01483735
0.07888844 -0.017939445 0.034767255 0.05777959 -0.08710886 0.08308644 -0.02510873 -0.069111474
-0.01796519 0.08656071 -0.025111705 -0.026024388 0.06268027 -0.03645685 0.041219257 -0.07095177
0.057427026 -0.023619156 -0.006685371 0.094695516 0.07580833 -0.0051653152 0.034044106 -0.062165085
-0.010991915 -0.092149004 0.025036156 -0.06890709 -0.044200003 -0.032787967 0.0943405 0.04488967
-0.0263857 -0.09991649 0.06506389 0.0898291 -0.057181336 0.10216173 0.03068996 0.017876504
-0.06841977 -0.02185208 0.0027979747 0.01749024 0.04899094 0.038157895 -0.0068459306 0.014605073
-0.097960174 0.07059819 0.054636825 0.049892284 0.0079885 -0.10666903 -0.020335073 -0.017338825
-0.019389352 0.018784683 -0.020489588 0.0016283762 -0.102398686 -0.0622872 0.03807016 0.039648592
-0.048807755 0.0888084 -0.048833724 0.06530166 -0.08141985 -0.062473867 0.0073480713 0.011884743
0.019679494 -0.034409054 0.06460036 -0.035611734 0.01824623 -0.026363812 0.020220507 0.056760762
0.0027641163 0.0072679995 -0.08768489 0.0023350704 -0.06987718 -0.08938048 -0.058068592 -0.025072712
-0.07097946 0.08414329 -0.006243894 0.029317876 0.0687177 -0.07475803 0.07569102 0.055442348

critic.2.bias f4 [128]
00000000: 33f5 2dbd b671 643c 9f29 073d 88ad 22bd
00000010: f8db 113c 1d09 9abd c1dd 9abd deae 7f3d
00000020: c01b a6bd 9093 863d 2bc0 dc3d f030 363d
00000030: aafb 6a3d aaa8 143d 39ac 603d 7161 d93d
00000040: b092 9e3d f0a2 e53c 2172 6d3c 7831 093d
00000050: b079 a4bc de59 6f3d 65a9 d7bd 2860 06bd
00000060: 77a0 76bd 3726 cf3c ecb9 e43c 1b9b a53d
00000070: e214 92bc d8e1 a1bd 430c b1bd 3cf8 833d
00000080: f203 d3bd 6d28 dd3b 3216 da3c d0d9 c6bd
00000090: a573 3abd c39f 31bb 65d4 b83d 12d1 bd3a
000000a0: 7907 8cbd 528a 273d 6b48 43bd da57 e03d
000000b0: d76e 0fbc 1270 17bd 1f92 39bd 3f2b 7dbc
000000c0: b55b 9cbd 3c45 72bd 8d2f b43d 7ffb d13d
000000d0: 3883 863d edea 79bc bf49 4c3d 97cb 6c3c
000000e0: c6c8 e0bd 9258 03bd 269a ea3c 0719 cabd
000000f0: 3c49 37bb 5ac3 e63d ad3b a5bd a998 cdbd
00000100: c2e2 10bd cc03 cfbd 35de 16bb d8f1 50bd
00000110: e2cb 0f3c 7d75 8fbc 62e2 12bd ffb6 d2bd
00000120: 3a89 2a3c 4073 54bd 15b2 d9bc 90a2 c43d
00000130: 3feb a93d 568c 303c 774f 9bbc e167 4abd
00000140: 274d 1d3c 94ee a2bd 7ff8 a73d d58e 8ebd
00000150: 3f32 42bd fce7 4e3d 2edf 493d 3aba ab3d
00000160: 0662 ba3c d3fb 523d 6dfc cd3d 4713 ab3d
00000170: c96a b8bb e68c 14bc 3450 dbbd b326 3f3d
00000180: 8c33 b4bd 1dfd 4d3d 5e55 8bbd f057 1e3d
00000190: 1fff d63c 56f5 42bd 2664 a83d 9ba9 61bd
000001a0: 69cc b83d 1c40 733d 651c 79bd e66e b6bd
000001b0: ece0 b1bb 842a c03c 3c1f 163b 77f2 173d
000001c0: 1725 3c3c f5ad 91bd 8590 42bd 6404 10bd
000001d0: 2f6f 043d b8cb 3d3d 51eb 603d 571d ddbc
000001e0: 96ce 943d 5aa6 8a3c 22d6 a2bc 44c5 df3d
000001f0: 99ff bbbd 0226 df3b aecb dbbd 1045 833d
-0.04247017 0.013943126 0.032998677 -0.039716274 0.008902542 -0.075212695 -0.075618275 0.062422626
-0.08110762 0.06571114 0.10778841 0.044480264 0.05736891 0.036293663 0.054851744 0.106142886
0.07742822 0.028031796 0.0144925425 0.033494443 -0.020077556 0.058435313 -0.10530356 -0.032806545
-0.060211625 0.025286777 0.027920686 0.08086225 -0.017832223 -0.079044044 -0.08644917 0.06443831
-0.10303487 0.006749204 0.026621912 -0.09709513 -0.045520443 -0.0027103282 0.09024886 0.0014481863
-0.06837363 0.040903397 -0.047676485 0.10954256 -0.008754454 -0.036972113 -0.045305368 -0.015452205
-0.07634679 -0.05914806 0.08798132 0.10253047 0.06567997 -0.015253765 0.049875017 0.0144528365
-0.109757945 -0.03206689 0.028637957 -0.09868055 -0.0027967235 0.11267729 -0.08068023 -0.10038883
-0.035372503 -0.10108146 -0.002302063 -0.05101189 0.008776637 -0.017512077 -0.035860427 -0.1028881
0.010408694 -0.051867723 -0.026574174 0.09601319 0.08296823 0.010775646 -0.01895879 -0.049415473
0.009600914 -0.079556614 0.08201694 -0.06960837 -0.0474112 0.050514206 0.049285106 0.08385129
0.02275182 0.05150969 0.10057912 0.08353286 -0.005627964 -0.009066796 -0.10708657 0.046667766
-0.08798894 0.050290216 -0.06803392 0.038658082 0.026244698 -0.04759725 0.08222227 -0.05509339
0.09023363 0.05938731 -0.060818095 -0.08907871 -0.005428424 0.023457773 0.00229068 0.037096467
0.011483452 -0.07113258 -0.047501106 -0.035160437 0.032332595 0.04633686 0.054911915 -0.02699153
0.07265966 0.016925026 -0.019877497 0.10926297 -0.09179611 0.006809951 -0.10732208 0.06409657

critic.4.weight f4 [128, 128]
00000000: 0377 a43c 068c 373d e522 a93d 1971 4d3d
00000010: ef16 7bbc 81de d3bc adcf 6dbd 9cf4 733d
00000020: 1625 dfbc 6198 803d 7d38 87bd 930f bfbd
00000030: 1b44 c23c 9fbe 983d 0335 043d 8fd3 cf3c
00000040: 9146 873d 097f aabd d894 41bd a47c 24bc
00000050: 8d58 64bc 38de 29bd 89b2 19bd 0b5c e63c
00000060: a8b0 153d 29d3 58ba ddd6 df3b 3e7d d4bd
00000070: f242 d43c b1d8 743d 30d9 5b3d 1d1d 823c
00000080: 93e3 e03d 32bb d0bd b362 08bd c959 11bd
00000090: faf4 c53d d4ae c3bc 79a1 6d3c 16b4 b63d
000000a0: 44e1 a53d 9672 98bd 1a0f 123d aa01 74bd
000000b0: 7e6a c13d 19bf 6d3d 94fb bd3d bd79 c33d
000000c0: 57e3 c73d 3313 a5bc 77e8 613c 572c a43c
000000d0: 40a6 333a 7905 203d b92d 5c3d 801c 3cbc
000000e0: 2669 9c3d a2c3 aabc e880 a33d b20f 02bd
000000f0: 2a81 d13c 63a1 433d 52a0 963b f39e 193b
00000100: aeab 6f3d 5bc2 cabb c98e 4e3d bce7 8fbd
00000110: b0f5 1ebd 5aa6 8fbb 779d 9ebc 7f7b b43c
00000120: ba3e b53d ee03 21bc 8fa4 443d 8261 443d
00000130: cc57 e7bc 8204 ca3d 59c3 ca3d 9a72 9e3d
00000140: 5458 cabd 9fdd f83b 0a2b 24bd 2338 073d
00000150: 3219 01bd 10cd a9bc 29ef 04bc 6be9 b2bd
00000160: f9a0 c63d 1f40 8e3c 4426 1abd c30a 8c3d
00000170: 8dea 2abd ee21 8e3c 3c6e d4bc 1000 813d
00000180: 75ee d73d 6119 ac3d 1138 5c3d 1b98 e6bc
00000190: 5cc0 4eba 16ed 9c3c d44f c0bc e289 59bd
000001a0: a445 c8bd 895d 0fbd 1e93 39bd defe 4cbd
000001b0: 1ab3 86bd 8603 b8bc 5ce6 5bbd 881b cbbd
000001c0: ce24 0cbd 981a afbc 26bf debc d583 603d
000001d0: 3850 ef3b cbed dabc f203 f1bc 4442 26bd
000001e0: b854 b8bd f5d3 023a d2c1 373c 0eb1 ccbd
000001f0: 54c5 3bbd e8c1 183d e9e9 8b3d 6c62 083d
00000200: 1254 b43d 9e8b 14bd 8f74 c63b 3021 d13c
00000210: 282a 2b3c 17c4 793d bb26 853d 19a0 06bc
00000220: b139 d23d c690 cebd 0538 e43b d5f2 e0bd
00000230: b02e 3fbd 2b5a aebc d293 cbbc de75 d23c
00000240: 60ec 303b 34cc 113b c094 edb5 41cb 5abc
00000250: 030b 7a3d 0018 1a3b 9a8a b03d d7fa 833d
00000260: 8bb2 b4bd e6cf b9bd 9686 7a3d 7b3a e93b
00000270: 2e0a aa3c a00c 753c c0a1 113d 4b67 b83c
00000280: 8312 783d d008 8dbd ffb1 71bd 85cc 853c
00000290: 9933 4bbd cb33 383d eb00 4c3c a941 ae3d
000002a0: ec48 433d fbc8 cd3c 73ee c7bc 455b b4bd
000002b0: 3334 2e3d 7caa 063d 0774 bf3d f8a4 c03d
000002c0: a048 883d 9a68 efba 70e3 303d 959d 9abb
000002d0: 8afb 823b aceb 203d 7223 6a3d 5242 6a3d
000002e0: 5683 603d 5565 90bd 2998 453d 8fc4 82ba
000002f0: 150d acbb 0df2 82bd 4c8e 51bd 9696 203d
00000300: e13d 13bc a1e8 ac3d 882f 52bb aad0 06bc
00000310: 4a8b 843c ba97 1c3d acb0 97bd 24aa 3dbd
00000320: 91f4 2cbd 16e3 b5bd d85a be3d dc37 b3bd
00000330: 4b04 8a3b eea5 643d 9ea5 62bd 04d8 ae3d
00000340: 7ef6 f43c 0bb3 213d ead7 a7bd 6bc8 20bd
00000350: 1e14 7c3d dc0e 00bc 1424 773c 6efd 0fbd
00000360: 6902 6cbc e15e aebc f9c9 2cbd acfd 4cbd
00000370: e4ab 53bd 16fd 8a3d 3230 53bd 7aa7 3b3c
00000380: e95b 79bd 6889 8c3c f6f2 0a3d 5c22 ac3d
00000390: b86a 7dbd a7d5 de3c f4a2 7bbd 0053 a6bc
000003a0: c98c 19bc d71c 3f3d 37d4 7d3d 77ae a23d
000003b0: 97f6 3d3d 2ec7 28bd bccd d2bb aa4c 9cbd
000003c0: 8300 623d 1014 253d 6b76 19bd 9a72 903d
000003d0: d4f8 9ebd 79e9 9a3d 17cb e6bc 2596 583d
000003e0: 6f40 9bbd dd2b 123d caeb 41bc 65b1 a53a
000003f0: 150e c6bb fe51 053d 263d f53c c466 163d
0.02007628 0.04481127 0.08258609 0.050156686 -0.015325292 -0.025862934 -0.058059383 0.05955945
-0.027239364 0.06279064 -0.06602571 -0.093291424 0.023714116 0.07458233 0.03227712 0.025369434
0.06605256 -0.08325011 -0.04726109 -0.010039482 -0.013937128 -0.04147169 -0.03752378 0.028120061
0.036545426 -0.00082712114 0.0068310336 -0.103754506 0.025910828 0.059776966 0.053673923 0.015883023
0.10980906 -0.10191955 -0.033297252 -0.035486016 0.09665866 -0.023887075 0.01450383 0.089210674
0.08099607 -0.074437305 0.035658933 -0.0595719 0.0944414 0.058043573 0.092765 0.09544704
0.097601585 -0.020150756 0.013788334 0.020040674 0.0006853081 0.03906772 0.053754542 -0.011481404
0.07637243 -0.020845238 0.07983571 -0.03175325 0.025574286 0.047761332 0.0045967484 0.0023440688
0.058513336 -0.0061877198 0.05042914 -0.07026622 -0.038808525 -0.0043838443 -0.019362194 0.022031544
0.08849855 -0.009827597 0.048008498 0.047944553 -0.028240107 0.09864141 0.09900541 0.07736702
-0.098801285 0.0075947787 -0.040080108 0.03301252 -0.03151817 -0.020727664 -0.008113661 -0.08735927
0.09698672 0.01736456 -0.03763415 0.0683799 -0.04172759 0.017350163 -0.02593147 0.0629884
0.10543529 0.08403278 0.053764407 -0.028148701 -0.000788694 0.01915602 -0.023475565 -0.05311001
-0.09778908 -0.03500131 -0.045306318 -0.050047748 -0.0657713 -0.022462618 -0.053686485 -0.099173605
-0.034214787 -0.021374986 -0.027190756 0.054813225 0.007303264 -0.026724717 -0.029420827 -0.04059054
-0.09000534 0.00049906905 0.011215644 -0.09994708 -0.045842484 0.0372943 0.06831724 0.033296987
0.08805098 -0.03626596 0.0060563753 0.02552852 0.010447063 0.06097802 0.06501528 -0.008216881
0.1026491 -0.10086207 0.006964686 -0.109838165 -0.046675384 -0.02128323 -0.02485076 0.02569097
0.002699636 0.0022246959 -1.7701168e-06 -0.013354124 0.061045658 0.002351284 0.08620186 0.06444328
-0.08823117 -0.090728566 0.061163507 0.007117567 0.020756807 0.014956623 0.035554647 0.022510191
0.06056453 -0.068864465 -0.05900764 0.016332874 -0.049609754 0.04497127 0.012451391 0.085086174
0.047676966 0.025120249 -0.024405694 -0.08806471 0.04253025 0.03287743 0.09348302 0.09406465
0.06654477 -0.0018265427 0.04318565 -0.0047184923 0.003997271 0.039287254 0.05716271 0.057192154
0.05481275 -0.070505776 0.048240814 -0.0009976792 -0.005250583 -0.06393824 -0.051161095 0.03920611
-0.008986921 0.08442808 -0.0032071788 -0.00822846 0.0161797 0.038230635 -0.07406744 -0.046304837
-0.042225424 -0.08881204 0.09294671 -0.08750889 0.0042119375 0.055822305 -0.055333726 0.085372955
0.029902693 0.03947739 -0.08195479 -0.039253633 0.061542623 -0.007816043 0.015084285 -0.0351538
-0.0144048715 -0.021285476 -0.042184804 -0.050046608 -0.0516776 0.067865536 -0.051559635 0.011453504
-0.060878668 0.017155364 0.03392311 0.08404991 -0.061869353 0.027201487 -0.0614347 -0.02030325
-0.009371945 0.046658363 0.061969962 0.07943433 0.046377745 -0.041205578 -0.006433217 -0.0763181
0.05517627 0.040302336 -0.037466448 0.070531085 -0.07762304 0.075640626 -0.028173013 0.052877564
-0.07580649 0.035686363 -0.011836002 0.0012641369 -0.006044159 0.032548897 0.029936384 0.0367191

critic.4.bias f4 [128]
00000000: 2b63 933d 5a29 bdbd 8ace 9fbd f2c2 093d
00000010: abba 9b3d 1779 6cbc 30a6 8a3c 892c adbd
00000020: 28a7 8ebc 7669 b73b 955c 813d da39 93bd
00000030: 5dcc afba ef12 1b3c 5764 ebbc 62ac 9ebd
00000040: 79c2 ec3b c98a 663d 2524 2e3d 0d62 99bc
00000050: a97a c5bd 739f 073d 4a5d 2fbd c2bf 403c
00000060: 6b02 8a3d 93c3 973b 4be9 5cbd 7062 cd3c
00000070: a0fc 3d3d e00e 1cbd 2238 14bc bbf5 353d
00000080: 405b c5bd f1a6 3cbd 8298 563d 0910 143d
00000090: beff e6bc 72a9 8dbd e84e 873c d9dc 053d
000000a0: f0bd 573c d795 933d 9bd5 38bd a127 8cbd
000000b0: 019d b8bd 1309 8c3c 85b2 fcbc 6a9c 1a3d
000000c0: de70 0bbd ddf1 2bba 9e9b 23bc 1697 85bd
000000d0: 2c58 823d eed3 91bd 40d3 82bc 1e55 37bc
000000e0: 1261 80bd b39d ce3c 071b 793d bea2 843d
000000f0: 8269 26bd 837d 3c3d 18fb a5bc 3ed5 cebd
00000100: eb3f 433d ef0a 14bd cfd5 9cbd ffa0 c7bc
00000110: 71c4 81bc 4f41 a93b 4641 b4bd 1bc9 8f3d
00000120: dc56 d13d 24cd 373c 203a 153d c9ea e4bc
00000130: a559 9e3c 5fcc 393d f4dc 1cbd aea4 903d
00000140: be45 963d e33c 1b3c e192 4a3c 9146 193b
00000150: 6a78 463d 8ab7 b13d 4807 e7bc 240c c3bc
00000160: df9c 4ebd 9aad a4bc f39e 16bd 7caa 453d
00000170: 5971 3c39 71b4 e83b 562d 043c 43c5 f8bb
00000180: c6b3 b6bd 1784 c6bc dcdd a33d 4519 713d
00000190: 97f6 95bd 0078 cb3d 3b7e 2b3d 1113 35bc
000001a0: 9085 90bd 2215 0ebb dab7 cfbb 2e40 47bd
000001b0: 60fd 443d 2622 e7bc 9386 543a 9e79 2e3d
000001c0: 429d 273d 4387 47bd 521f 913b 4102 abbd
000001d0: 7025 203c c350 81bd 5695 35bb 965f 683c
000001e0: ff3b ba3d 7f1d afbd cd6a 873d f42e cbbd
000001f0: 3435 803d 33b4 14bd bd5b afbd e2eb 54bd
0.07196649 -0.09236403 -0.07803066 0.03363318 0.076039635 -0.014433167 0.016924948 -0.0845576
-0.01741369 0.0055972887 0.06316487 -0.07188769 -0.0013412345 0.009464963 -0.02873437 -0.07747723
0.0072253314 0.0562847 0.04251494 -0.018723512 -0.09642536 0.033111047 -0.042813577 0.011764469
0.067387424 0.0046314686 -0.053933423 0.025071353 0.0463835 -0.038100123 -0.009046586 0.0444238
-0.09636545 -0.046057645 0.052391537 0.036148105 -0.02819812 -0.06917085 0.016517118 0.03268132
0.013167843 0.07206314 -0.045125585 -0.06843496 -0.09014321 0.01709417 -0.030846843 0.037746824
-0.034043185 -0.0006559173 -0.0099858325 -0.06522958 0.06364474 -0.071205005 -0.015969872 -0.011189727
-0.06268515 0.025221681 0.06081679 0.06476353 -0.040627964 0.046018135 -0.020261332 -0.100992665
0.04766838 -0.03614324 -0.07657968 -0.024368761 -0.01584074 0.005165256 -0.088015124 0.0702078
0.10221645 0.011218343 0.036432385 -0.027943986 0.019329855 0.04536092 -0.038296655 0.0706266
0.07337521 0.009474966 0.01236412 0.0023388008 0.04845468 0.086775854 -0.028201714 -0.0238095
-0.050442573 -0.02010231 -0.03677268 0.04825829 0.00017971302 0.0071015884 0.00806745 -0.007591875
-0.08921008 -0.024232907 0.08001301 0.05886199 -0.07322424 0.099349976 0.04186843 -0.011051909
-0.07056725 -0.0021680077 -0.0063390555 -0.04864519 0.0480932 -0.028214525 0.00081072113 0.042596452
0.040921457 -0.04871298 0.0044287825 -0.08350039 0.009774551 -0.06314232 -0.002770742 0.014182946
0.090934746 -0.08550548 0.066121675 -0.09921065 0.06260148 -0.036304664 -0.085624196 -0.051982768

critic.6.weight f4 [1, 128]
00000000: 1f14 8d3d 0ec8 bc3d 96b1 e03c 91dd 32bd
00000010: c607 a3bd 1e55 7dbd efd2 b23d 0e67 3c3d
00000020: cd7f 803d a42e b53d 3b77 383d 8256 683d
00000030: 5e9d f13c f7b5 c7bd 333f 473d b58b 463d
00000040: 9299 c0bd 40e0 4a3d 3013 d0bd 246c 32bd
00000050: 45c4 ae3d 3629 c3bd f7e8 c6bd c6d9 e9bc
00000060: addd b23d b56a 2fbd bb8d 953d baae 9fbd
00000070: 5f28 533d 0869 00bd 48bd 143d 7854 8bbd
00000080: c0bb a43d 2301 25bd 6c0c ce3c e795 95bd
00000090: ba92 6c3d 25aa 0c3d c67e 27bd b2bc 84bd
000000a0: 50e1 883d 13f6 3bbd 30f1 e83c f777 b9bd
000000b0: e70c ae3d 7017 c93d 4969 b3bd 4674 703d
000000c0: f1e3 6d3c 7687 733d 98af c2bc 97f4 333d
000000d0: 3a27 493d 9385 2ebd 90b3 f1bc 5fb1 c13d
000000e0: 2871 c53c 8246 a83d d15e cc3c 3861 81bd
000000f0: 554c 4e3d 9643 b2bd cfa1 51bd 97a2 2a3d
00000100: 1f77 d7bc c2d5 a53d 50bf 8e3d d91c 9ebd
00000110: 6794 ccbd f7ff 99bd e84e af3d ed6b 843d
00000120: cabb 6abd e387 14bd a522 a7bd 572b 16bd
00000130: 5490 c53d ca9f cd3d e3fa b43d 9d79 08bd
00000140: 9851 08bd 7d13 9ebd 9c15 12bd 7746 763d
00000150: 580b 25bd 73ea 60bd e259 08bd b03b 803d
00000160: ccfa 813d 359c 7dbd f8a5 c63d 5953 8c3d
00000170: c724 7bbd ac99 d9bd 0b79 94bd 9df8 bebd
00000180: f063 263d c676 51bd 7ffb 68bd e572 63bd
00000190: 71ab 9b3d 9ead 81bd b8b4 a33c cc66 893d
000001a0: 121a 603d 4e4b cfbd dc6f 9abd 49ea a23d
000001b0: 7463 1dbd c398 a13d 2bd5 2a3d d71c 12bd
000001c0: ce9f ab3d 2765 bbbd a944 523d 96c6 5c3d
000001d0: a95c 8cbd e12b 7e3d 6f12 db3d 242e ac3d
000001e0: e916 d4bd bd81 843d cec3 dbbc 8ae3 8b3d
000001f0: 405c 22bd 8e39 02bd ab2f aa3d 1b0e dd3d
0.068886034 0.09217845 0.02742843 -0.043668333 -0.07960467 -0.061848752 0.08731639 0.045996718
0.06274376 0.088467866 0.045035582 0.056723125 0.029493984 -0.09751504 0.048644256 0.04847308
-0.09404291 0.049530268 -0.1015991 -0.043560162 0.08533529 -0.09529345 -0.09712403 -0.028546225
0.087336875 -0.042826373 0.073024236 -0.07796998 0.051552173 -0.031350166 0.036313325 -0.068032205
0.08043623 -0.040284287 0.025152408 -0.07303982 0.057757117 0.03434195 -0.040892385 -0.06481303
0.066836 -0.04588897 0.02843532 -0.090560846 0.08498555 0.098189235 -0.08760316 0.058704637
0.0145196775 0.059455357 -0.02376537 0.04393443 0.049109675 -0.042607855 -0.029504567 0.09457659
0.024101809 0.08216573 0.024947556 -0.06317371 0.050365765 -0.08704297 -0.051179703 0.041658964
-0.026301919 0.08097412 0.06970084 -0.07720346 -0.09989243 -0.075195245 0.08559972 0.06465898
-0.057307996 -0.036262404 -0.08160905 -0.036662426 0.09646669 0.10040243 0.08836915 -0.033319104
-0.03328094 -0.07718561 -0.03566514 0.060125794 -0.04029402 -0.05491109 -0.033288844 0.062613845
0.06346664 -0.06191655 0.09699625 0.06851835 -0.06131437 -0.10625014 -0.072496496 -0.09324763
0.04062265 -0.05113866 -0.05688047 -0.055529494 0.07601059 -0.06331943 0.019983634 0.0670906
0.054712363 -0.10121785 -0.07540867 0.079548426 -0.038424924 0.07890465 0.0417072 -0.035672035
0.0838009 -0.09150153 0.05133501 0.053900324 -0.06853611 0.062053565 0.10696875 0.08407238
-0.10355932 0.06470058 -0.026826765 0.06830509 -0.039638758 -0.03179317 0.08309873 0.10793706
