ippo_algorithm/checkpoints/ppo_critic_1comm_rad_exp_1run_0_lumberjacks.pth (torch, 164080 bytes, 7 tensors)

critic.0.weight f4 [128, 53]
000000 2e 83 d0 bc ae 2a e2 3d 3d f1 96 3c f5 73 6c 3d
       -0.025453176 0.11043297 0.018425578 0.057727773
000010 01 b2 08 3e b7 7a df bd c2 b3 f6 3c 1b 78 87 3d
       0.13349153 -0.10912078 0.030115012 0.06614705
000020 45 66 fc bc 7d d9 f9 3c 6c 23 6f bd 2f c6 82 bb
       -0.030810485 0.030499214 -0.05838339 -0.0039909105
000030 bc 16 82 3d db 9c 82 bd 78 b8 ee bd dc 4e e3 3d
       0.063519925 -0.06377574 -0.11656278 0.110990256
000040 65 1b 0e bb 90 7c cd bb 4e ac a8 bd 75 c1 c3 bc
       -0.002168381 -0.0062709525 -0.082359895 -0.023895958
000050 31 a2 3d bd 83 6b e8 3d cd c1 37 3c b9 78 6c bc
       -0.046297256 0.11348631 0.011215639 -0.014433079
000060 29 ea 08 3e 29 a2 e6 3d 6a ee 47 3d eb bc bc bc
       0.13370575 0.11261398 0.048811354 -0.023039302
000070 e5 40 b0 bd aa 04 b7 bc 7c 08 03 3e 07 11 a9 3b
       -0.08606128 -0.022341091 0.12796205 0.0051595005
000080 33 c7 98 bd ce 59 dd 3d 3b 4d ab bc 8d 65 80 bc
       -0.07459869 0.108081445 -0.02091085 -0.015673423
000090 cf ce 09 3e 41 9a 85 bd c8 cb a3 bd 0d 1d aa bd
       0.13457797 -0.06523562 -0.079978526 -0.08306322
0000a0 85 a0 39 bd e2 23 ff bd f4 0a dd bd fa f3 c2 bd
       -0.0453191 -0.12458016 -0.10793105 -0.09519191
0000b0 72 2f 06 be e0 23 ac 3b ab e5 0b be 8a 7e d5 bd
       -0.13104036 0.0052533 -0.1366183 -0.10424526
0000c0 2e ee f0 3d ca a8 e3 3d 8e a1 8a bd 49 25 02 be
       0.11764179 0.11116178 -0.06769095 -0.12709536
0000d0 61 e0 90 bc 0b 95 02 be b7 97 c3 3d 8c 79 8d bd
       -0.017685117 -0.12752168 0.09550422 -0.06907949
0000e0 36 14 05 3e c3 c5 1a be d6 c5 0f 3e c0 da 7e 3d
       0.12995991 -0.15114503 0.14040312 0.062220335
0000f0 8a 28 9b 3d 84 dc 9b bd 50 a6 b4 3d ed 3e 17 be
       0.075760916 -0.076104194 0.08820784 -0.14770098
000100 f7 dc 0e bd 9a a2 f1 bd 1d 5b 11 3c 57 00 2d 3c
       -0.034878697 -0.11798592 0.008871821 0.010559163
000110 97 b2 07 be f2 9e 0a 3d 4b ac 17 bd 4d 86 75 3d
       -0.1325172 0.03384299 -0.037029546 0.059942532
000120 51 d4 b8 bc 28 a8 b8 3c e9 43 81 3d d4 33 9d bd
       -0.022562178 0.02254112 0.06311781 -0.07675901
000130 c4 ad 64 3c 3a 0f 18 bd fd 80 1d 3d 55 e9 d9 bd
       0.013957445 -0.037123896 0.03845309 -0.10640208
000140 14 35 db bc 7f eb 2c bd 09 28 94 bd 47 67 06 bd
       -0.026758708 -0.042216774 -0.072341986 -0.032813337
000150 99 ac 85 3c be 1e ab 3d 0a f4 d6 3b be a3 07 3c
       0.016317653 0.08355473 0.0065598534 0.008278785
000160 f4 fe c2 3d 85 d7 f9 bd db e9 5a 3d 59 89 d2 bd
       0.09521285 -0.1219931 0.05344568 -0.10280103
000170 ec bf f3 3d 38 2a ef 3d 76 2e c1 3d e6 fd 64 bd
       0.119018406 0.116779745 0.0943269 -0.0559062
000180 82 cd 42 bd da 84 1a bd a4 fb e4 bd ad 45 d0 3d
       -0.04755927 -0.037724353 -0.11180809 0.101695396
000190 eb b9 97 3d 06 a8 f6 bd 0d 7e f3 3c 70 aa b5 3b
       0.07408508 -0.12043767 0.029723192 0.0055439994
0001a0 59 0e df 3d 34 17 14 3d 31 ae 6c bd 47 29 c5 bc
       0.108914085 0.03615494 -0.05778331 -0.024067534
0001b0 e7 94 a5 bd 33 3e f3 bd f4 58 85 3d 6a ad ef bd
       -0.080850415 -0.11877098 0.06511107 -0.11702998
0001c0 fa 1d 56 3d ba cf 1d 3d f0 88 21 bd aa 64 12 be
       0.05227468 0.03852818 -0.039437234 -0.14296213
0001d0 3b c8 48 bd d0 83 f4 bc 50 51 21 3c e4 d2 bf 3d
       -0.04901908 -0.02984801 0.009846047 0.09366396
0001e0 22 d0 69 bd f2 29 7e 3d a3 43 86 bd 4f 5c ea 3d
       -0.057083257 0.06205172 -0.065558694 0.11443388
0001f0 cc 4a 70 3c 46 2b 5e 3d 7a 80 97 3c 37 5e fa bd
       0.01466627 0.054240488 0.01849388 -0.12225001
000200 3a 61 ee 3d 26 65 04 3e c1 36 f8 3c 8c 55 06 3e
       0.11639638 0.1292921 0.030299546 0.13118571
000210 d9 69 71 3d c3 0e 00 3d f7 fb d5 3d ce 00 db 3d
       0.058938835 0.031264078 0.10448449 0.10693513
000220 6b f7 4f bd 4d e2 89 bd 72 3a 84 bc b1 7f 28 3d
       -0.050773066 -0.067326166 -0.01614115 0.0411374
000230 25 e9 3f bd 73 23 d5 3c 02 8f d6 bb 79 86 d1 bd
       -0.046853203 0.02601788 -0.0065478096 -0.10230727
000240 2c 83 4a bb ab b5 50 3d 5f 20 ad bd 72 f5 ef 3d
       -0.0030900938 0.050954502 -0.0845344 0.11716737
000250 90 6c c0 3d 7a e5 d4 bd 32 7c 8d 3d 97 e8 c3 3d
       0.09395707 -0.10395332 0.06908454 0.09565847
000260 f2 0e 0e 3d 27 dd a8 bd 73 e2 bd 3d 40 5a 04 3d
       0.03468222 -0.082453065 0.092717074 0.03231263
000270 60 53 89 bc bd ce c0 3d 26 4c bc 3d 80 c8 e0 3d
       -0.01676339 0.09414432 0.09194212 0.10975742
000280 8c 51 12 3d 5b 93 f8 3d ca 8a 9d bd f6 dc a0 bd
       0.0357223 0.12137481 -0.076924875 -0.07854645
000290 f3 17 14 bd 91 10 a1 3d c7 16 19 3d aa 4e 03 3e
       -0.036155652 0.07864488 0.037375238 0.12822977
0002a0 b4 d4 c1 bd a5 4e bb 3d 36 17 a1 bc 9d 3b d1 3c
       -0.09464398 0.0914586 -0.019664388 0.025541121
0002b0 ba 29 e4 3c 81 79 0b 3c 5f 3a 56 3d a1 35 d7 bd
       0.027851928 0.0085128555 0.05230176 -0.10508276
0002c0 69 5d 95 3d 54 91 9c bd e8 11 ce 3d 2f 0d a7 3c
       0.07293207 -0.07644907 0.10062009 0.020392029
0002d0 3d b8 f0 3d ce 90 f4 3b 4b cc a2 ba fc 4e 0a be
       0.11753891 0.007463551 -0.0012420503 -0.13506693
0002e0 2e 5b b9 bd c7 d7 ee bd c9 1c 20 bd 0a fd 3c 3d
       -0.09050594 -0.1166225 -0.03908995 0.046139754
0002f0 52 f1 e3 bd 98 9d 82 bd f9 77 e0 bd 78 38 e9 3d
       -0.111300126 -0.06377715 -0.10960383 0.11387724
000300 84 1b af 3d 48 1b 27 bd 70 12 a8 bd 89 ab 11 bd
       0.0855017 -0.0407975 -0.08206642 -0.03556398
000310 d9 21 5b 3c fe 60 91 3d 56 a1 b0 bd 6b fa 96 bd
       0.013374769 0.07098578 -0.086245224 -0.07371982
000320 c4 ac ac bd af 1d ce ba d1 37 39 3d 1c 96 b5 ba
       -0.0843139 -0.0015725399 0.045219246 -0.001385394
000330 74 e5 ab 3d fd cd b0 bc f6 86 67 bd 09 71 9b 3d
       0.08393374 -0.021582598 -0.056525193 0.07589919
000340 04 a0 9a 3a 24 62 fc 3d cf 14 ef 3c 71 94 08 bd
       0.0011796956 0.12323406 0.029184727 -0.03334469
000350 14 68 a3 3d b0 5c c2 3d ea aa a7 bd a7 c4 fb 3b
       0.07978836 0.09490335 -0.08186896 0.007683355
000360 c0 86 95 3d cc dd d4 bb 81 5e 8a bd 6c 53 1c 3e
       0.07301092 -0.006496167 -0.067563064 0.15266198
000370 fc 53 b3 bc d5 4a b3 3c de 7c af 3c d9 87 5a 3c
       -0.021890633 0.021886269 0.021421846 0.013338053
000380 72 e9 a8 3c 4b 5c 34 bd 0b b4 d7 bd e0 4a e7 3d
       0.020619128 -0.04403333 -0.10532387 0.11293578
000390 1d 99 14 3c 85 b6 b4 bc 5a 1a 00 3d 73 0e ca 3c
       0.009069708 -0.022059688 0.03127513 0.024665093
0003a0 e0 70 d1 bc 32 4a d5 3c 3c 09 a1 bc ba 2d ba bd
       -0.025566518 0.026036356 -0.019657724 -0.09090753
0003b0 8b dd ec ba b4 8c fd 3d 85 05 fd 3d 67 2c fa 3d
       -0.0018071396 0.123803526 0.123545684 0.122155
0003c0 76 f1 c4 3d ad 3f d9 3d 00 9d 85 bd 92 e6 ad bc
       0.096163675 0.10607848 -0.06524086 -0.021228109
0003d0 9d ff 8c 3d 7f cb 84 3d 07 45 e3 bd 41 fd c1 3d
       0.06884692 0.06484126 -0.1109715 0.094721325
0003e0 12 a3 86 3d e5 71 61 bc d5 e2 a7 3d 4f 40 95 3d
       0.06574072 -0.013760065 0.08197562 0.072876565
0003f0 54 b7 c6 bd 89 34 f3 3d b8 cc ac bd 3f bd 8f 39
       -0.09702936 0.11875255 -0.084374845 0.00027416085

critic.0.bias f4 [128]
000000 9e 84 42 bd 54 d1 03 bd 4f 9b f3 bd 42 f1 8d 39
       -0.047489755 -0.032182053 -0.11894857 0.00027073367
000010 0a 8e d9 3d 21 64 d6 3c 13 09 13 be e6 95 75 3d
       0.10622795 0.026170792 -0.1435893 0.059957407
000020 f7 84 19 bd c0 03 c1 bd d3 66 c0 3d ab 39 d1 3d
       -0.03748032 -0.094245434 0.09394612 0.102160774
000030 9e a2 96 bd 58 c1 da 3b 51 e7 b1 3d 4f 0b c8 3d
       -0.073552355 0.0066758804 0.08686698 0.09767782
000040 4b 20 62 bd 43 d9 a4 bd 7c 77 48 3b 33 2c 90 3d
       -0.05520658 -0.08049252 0.0030588796 0.0703968
000050 d7 3f 48 bd 6a 7d 6f bd e2 80 b2 3c e1 44 28 be
       -0.048889007 -0.058469214 0.021789972 -0.16432525
000060 e9 1d 06 3e bc 0f 22 3d 78 3a 82 3d a8 d3 b4 bd
       0.13097347 0.039565787 0.06358808 -0.08829433
000070 e7 60 cb 3c 30 85 78 3d 84 77 bd 3d 77 62 31 3d
       0.02482648 0.060673892 0.092513114 0.043306794
000080 fd df 1b 3e 4a 81 f9 bd 5f a4 b7 3d 2a 9d 95 bd
       0.15222163 -0.12182863 0.08966898 -0.07305367
000090 b5 b2 d9 3c 45 d1 5d bd b1 31 74 3d e1 16 db 3c
       0.026574472 -0.054154653 0.059617702 0.026744308
0000a0 2a a4 1a be 24 6c 9b bd 80 56 ed bd b2 7a 57 bc
       -0.15101686 -0.075889856 -0.11588764 -0.013151811
0000b0 d5 47 ed 3c e0 8c 1a 3d 97 67 28 3e 29 9f d8 3c
       0.028964916 0.037732005 0.16445766 0.026443081
0000c0 07 b7 7a bd 2b d8 e3 bd 1d f0 e0 bd 4e d8 07 be
       -0.061209705 -0.11125215 -0.10983298 -0.13266107
0000d0 e9 6b 1b 3e 54 a4 3e 39 be 0d be 3d 09 a9 20 be
       0.15177883 0.00018181029 0.09279965 -0.15689482
0000e0 c2 a7 9c bd 45 ff eb bd 4f d7 27 3c aa c1 08 3e
       -0.07649185 -0.11523298 0.010244205 0.13355127
0000f0 ff a0 08 3c df 42 b5 3d 80 9f 9d bd 50 16 ca 3c
       0.008339166 0.08850645 -0.07696438 0.024668843
000100 b1 40 59 bc c4 28 00 3e 29 17 83 3d 3b 8f 64 3d
       -0.013260053 0.12515551 0.06400902 0.055800658
000110 d3 96 4f bd 20 60 29 bd bf c5 41 bd 1b cd e5 bd
       -0.050680947 -0.041351438 -0.047307726 -0.112207614
000120 70 d4 c7 3c 33 2c 4c 3d 95 fb 1b 3e 06 8f e1 3d
       0.02439329 0.04984684 0.1523269 0.11013608
000130 bb a0 b3 bd a2 87 01 3e 07 b5 95 3c c0 9a 0d 3e
       -0.08770891 0.12649396 0.018274797 0.13828564
000140 62 36 26 3e 23 fe b0 3c e1 27 1b be b3 1c 1c 3e
       0.16231683 0.021605557 -0.15151931 0.15245323
000150 b1 33 5c bc e2 47 bc bc ca 8f 64 bd 64 c1 a2 bc
       -0.013440059 -0.022983495 -0.05580119 -0.019867606
000160 8d 40 c3 3c 3a 1a 4d 3c 78 7d bb 3d 24 45 3d 3d
       0.023834491 0.01251846 0.09154791 0.046208516
000170 cc 83 50 3d 41 22 a2 bd fd 87 26 be 6e 59 ce bd
       0.05090694 -0.0791669 -0.16262813 -0.10075651
000180 cb 2f 18 3b ab be 1e be c0 fe c5 3c 89 61 55 bd
       0.0023221846 -0.15502422 0.024169326 -0.05209497
000190 e3 0d f8 bc 97 a3 fb 3d f4 3a e1 bc fa 52 15 bd
       -0.03028006 0.12287062 -0.027493931 -0.036456086
0001a0 96 b6 b5 3d 05 f1 b5 3c e0 9f 0a be 73 6e bb bd
       0.08872716 0.022209654 -0.1353755 -0.09151926
0001b0 e5 3b 64 bb 55 a1 ff bd e6 a4 de 3d 0e d4 71 bd
       -0.003482574 -0.124819435 0.10871296 -0.05904012
0001c0 12 8f b0 bc d8 cd 1e 3e b1 29 a2 3d bc f5 b0 3d
       -0.021552596 0.1550821 0.07918108 0.0864062
0001d0 8c 53 ae bd 98 5b 74 bd 7e dc d1 3d f3 67 ea 3d
       -0.08512029 -0.059657663 0.10247134 0.11445608
0001e0 e6 9f d1 bd 67 69 ef bd 9a 34 88 3d d9 4c a0 bc
       -0.10235576 -0.11690026 0.06650658 -0.019567894
0001f0 bf df 1c 3c 53 43 1f 3e ed ff 8e 3d 50 24 8f 3d
       0.00957483 0.15553026 0.06982408 0.06989348

critic.2.weight f4 [128, 128]
000000 65 b1 2c 3c a4 7c 4c 3c ea c7 db bc 42 02 99 3d
       0.010540341 0.0124808885 -0.026828725 0.07471134
000010 0b 65 3d bc 5b d5 26 3c a1 9f 63 bd 90 35 a8 3d
       -0.011559735 0.010182704 -0.055572156 0.08213341
000020 c8 e9 7c bd 50 f3 6f 3c 26 c0 fe 39 a8 b5 ce 3d
       -0.06174639 0.014645413 0.00048589817 0.10093242
000030 78 e1 ef bc cb 0a 2d 3d b2 f5 8c bd 92 be bb bc
       -0.029282317 0.04224662 -0.068828 -0.02291802
000040 48 c1 9c 3d f9 b6 96 bd a2 d6 f5 bb 97 30 22 bd
       0.07654053 -0.07359118 -0.007502393 -0.03959712
000050 05 fe fb bc f9 99 11 bd ee 86 38 bd ce eb f2 3c
       -0.030760774 -0.03554723 -0.045050554 0.029653456
000060 f3 1c 63 3d 9b 1b 33 bc 70 6f 21 bd 42 50 bb 3d
       0.05544753 -0.010931875 -0.039412916 0.09146167
000070 38 92 94 3d 0e 9d 51 bc 60 6f 68 bd 3d 6d 87 3d
       0.072544515 -0.012793792 -0.05674684 0.066126324
000080 0e 41 74 bc 64 5c 2b 3d 6e b0 06 bd 13 ab 72 3c
       -0.014908088 0.041836157 -0.0328831 0.014811295
000090 8a 16 99 3d c3 d8 3d 3d 11 41 2a bd 77 85 3a bc
       0.07475002 0.0463493 -0.04156596 -0.01138436
0000a0 db 71 69 3d 51 43 b2 3d a5 96 4f 3d 32 82 76 3d
       0.056993347 0.08704246 0.050680775 0.060182758
0000b0 88 fa 93 bd 38 18 93 bd 1b db ea 3c 3b e5 19 bc
       -0.072255194 -0.07182354 0.02866893 -0.009393032
0000c0 15 db 70 3b 18 0e d3 bd 06 84 82 3c 1f 41 9a 3b
       0.0036751677 -0.103054225 0.015932094 0.00470747
0000d0 2f 11 60 bd a7 d2 96 3c c3 d8 64 3c 9e 57 2d 3d
       -0.054703888 0.018410994 0.013967696 0.042319886
0000e0 b9 a4 c9 3c 54 f8 1e 3d ed c4 49 3c bf ab 38 3c
       0.024614679 0.038811043 0.012315017 0.011271416
0000f0 78 d5 bf bd d4 70 05 bd 98 be 40 bd 73 c2 9e 3d
       -0.09366888 -0.032578304 -0.047056764 0.07751932
000100 58 52 ff 3c db e4 de 3c 7d c6 b8 bd 9f f0 75 3c
       0.031167194 0.027208736 -0.09022234 0.015010982
000110 1e 89 54 bc 9e 87 96 3c 84 33 29 3d bc b4 29 3c
       -0.012972144 0.018375214 0.041308895 0.010358032
000120 dd 43 f9 3c aa ab 03 3d c8 42 60 3d 86 14 bd 3d
       0.030427868 0.032146133 0.054751188 0.0923243
000130 b5 13 85 bd 40 83 1e bd 38 54 ca bd f3 8e 20 3d
       -0.064978994 -0.03869939 -0.09879345 0.039198827
000140 53 5e e1 3c 79 16 a9 3d a8 0e 98 bd 47 28 4b 3d
       0.027510798 0.082562394 -0.074246705 0.04959896
000150 7b 08 7a bd 20 3c 12 3d cf 90 53 bc e1 ef 7a bd
       -0.061043244 0.03570187 -0.012912943 -0.061263923
000160 a3 6f 66 3d 4e f6 90 39 c5 5c 93 bd 3d 57 80 bb
       0.05625881 0.00027649332 -0.07195429 -0.0039166496
000170 f2 89 b5 3d 6e f6 09 3d da 19 80 bd 30 a9 a1 bc
       0.088642016 0.03368228 -0.06254931 -0.019733995
000180 89 33 51 3d 51 95 ae bc de 00 c6 3c b4 8d b7 bc
       0.05107454 -0.021311434 0.024170335 -0.022406437
000190 9f 46 94 bd 0d d4 21 3d 2a 07 b2 bd 80 0f a5 3c
       -0.072400324 0.039508868 -0.08692773 0.020148993
0001a0 15 9b 86 3d f6 f8 cb bc 11 72 2b bc 89 7c 00 3d
       0.06572548 -0.024898987 -0.010464207 0.031368766
0001b0 01 9a e4 bc 49 a0 1d 3d 91 9e 0b bd e8 03 6d bd
       -0.027905466 0.038482938 -0.034086768 -0.057865053
0001c0 1f 7c b8 3d b7 86 9d 3d 87 81 9f 3d 1d 53 d5 3d
       0.09008049 0.076917104 0.07788377 0.10416243
0001d0 fd 0f 01 bd 7b a0 22 bc 4b 66 4e bd d4 b3 a7 3d
       -0.03150939 -0.009925957 -0.050390523 0.08188596
0001e0 80 2c 86 3b 2b f0 17 bc 2a c3 26 bb 32 a3 18 3c
       0.0040946603 -0.009273569 -0.0025445917 0.009316253
0001f0 17 06 8f bd b0 d1 b9 3d 70 b5 1b 3d b6 95 69 bd
       -0.069835834 0.09073198 0.03801483 -0.05702754
000200 14 49 5e bd 02 e7 47 3d fe 71 b3 3d 0a 60 63 3d
       -0.05426891 0.04880429 0.08761977 0.05551151
000210 02 08 30 3d fa 3c a7 3c 7e f5 b4 3d a2 24 f4 ba
       0.042976387 0.020414818 0.088358864 -0.001862664
000220 b7 5d a2 3c 39 21 91 3d f0 bb 8b 3d 79 34 5d 3d
       0.019820077 0.07086415 0.068229556 0.05400512
000230 94 b5 9f 3d 2b 04 af 3d b3 a1 29 3d 56 de 29 3c
       0.07798305 0.08545717 0.041413974 0.01036795
000240 63 b4 57 bd fc 8b 33 bd de a4 9b bd c2 a4 a7 3a
       -0.052662265 -0.04383467 -0.07599805 0.001279019
000250 95 cc 0e bd 9d 00 a2 3c 90 da b4 3d 94 28 89 bb
       -0.034863073 0.019775683 0.0883075 -0.0041857455
000260 48 ff 70 bd f6 f8 19 3a 06 8b c9 bd 00 d6 82 bd
       -0.058837205 0.0005873585 -0.0984097 -0.063884735
000270 30 c5 95 bd 8c b3 66 bd 11 fa 8f 3d 9d 02 5d bd
       -0.07313001 -0.056323573 0.07030118 -0.05395757
000280 52 d5 b1 bd 9b 8d b9 3d c3 d2 0d 3d 0f 0b 4a bd
       -0.08683266 0.09060212 0.034624826 -0.049326953
000290 f3 d1 63 bd f9 dd 64 3d 1f 79 48 bd 84 5b b0 3d
       -0.055620145 0.055875752 -0.048943635 0.08611205
0002a0 d6 d9 b5 3b 52 d8 8e 3d 01 4e 1a bd e7 fb 93 bd
       0.0055496497 0.069748536 -0.037672047 -0.07225781
0002b0 35 26 98 bd bc 80 6c bb ee 45 3f bd 44 5f 75 bd
       -0.074291624 -0.0036087474 -0.04669755 -0.059905306
0002c0 da 6b 92 3d 8f f3 8f bd aa b0 ac bc ec fb ad bc
       0.07149477 -0.07028877 -0.021080334 -0.02123829
0002d0 1a d2 35 bc 6a 2b 80 3d e1 c1 b0 bd 08 34 46 3d
       -0.011097455 0.062582806 -0.086307295 0.048389465
0002e0 86 4a a7 bb 9f c1 3e 3d 16 ab aa 3d 8b da 80 bd
       -0.0051053194 0.04657137 0.08333413 -0.06291684
0002f0 a5 e8 ef 3c 87 b4 0d 3d 60 07 74 3d 3a e4 fc 3b
       0.029285738 0.034595992 0.059577346 0.0077176364
000300 ce 23 2b 3d b6 6a 7f 3d a1 03 82 3d 60 6c 50 bd
       0.041782193 0.062357627 0.063483484 -0.050884604
000310 37 3b c7 3c 76 ab 95 3d eb 66 9e 3d a0 51 a5 bc
       0.024320228 0.07308094 0.07734474 -0.020180523
000320 c8 62 ac 3c 2f b8 97 ba 31 9f de 3c e5 30 60 bd
       0.021043196 -0.0011575277 0.027175518 -0.05473413
000330 84 c4 cf 3d 25 8c c6 bc 8d ef 1e bc bf 4a 63 bd
       0.10144904 -0.024236748 -0.009700668 -0.055491205
000340 de 56 cc bd 64 01 f6 3c 5b 46 9e bd f6 28 2e bc
       -0.09977506 0.03002996 -0.07728263 -0.010629883
000350 8b b7 fb bb 2b 63 18 3b b2 44 29 3d 60 5b 95 3d
       -0.007681792 0.0023252468 0.04132528 0.07292819
000360 0d 5b 6c bd a6 94 de 3b 00 26 72 3c 37 7a b0 bb
       -0.05770402 0.0067926226 0.014779568 -0.005385663
000370 58 85 96 3d 6f eb d7 3d 40 50 54 bd 6c 1a 03 3d
       0.07349652 0.10542952 -0.051834345 0.03200762
000380 6e 1a 54 3c b1 95 f6 bb 85 69 b7 3d a2 62 21 ba
       0.012945754 -0.007525169 0.08955673 -0.000615636
000390 cb 60 49 bd d5 61 a8 bd ca 36 50 3d 26 44 55 bd
       -0.049164575 -0.08221785 0.0508335 -0.052066945
0003a0 cd 53 97 bd a2 04 57 bd d2 bf 9d bd ba 6b 1f 3c
       -0.073890306 -0.052494653 -0.077026024 0.009730274
0003b0 b3 53 83 bd de cb fa 3d b2 8e e9 bb 17 98 cb 3d
       -0.06412449 0.12245916 -0.0071276063 0.09941118
0003c0 06 dc 6f 3d 5d cc 8b 3d 3c dd a8 ba 39 36 fd 39
       0.05855944 0.068260886 -0.0012883316 0.0004829632
0003d0 3b f0 9b bd 47 b5 20 bd 03 8c 30 bd 43 42 55 bd
       -0.0761418 -0.03923538 -0.043102276 -0.052065145
0003e0 b8 7f 97 3c 18 af 9a 3c 74 a3 aa 3d 7c e7 a2 bd
       0.018493518 0.01888232 0.083319575 -0.079543084
0003f0 3f cd 7e bb 20 17 90 bd a2 95 92 3d 0c 92 ca bd
       -0.003887966 -0.07035661 0.071574464 -0.098911375

critic.2.bias f4 [128]
000000 32 ca b5 3d ed 3a ea 3c ba 92 a4 3d 16 be 2a 3d
       0.08876456 0.028592551 0.08035798 0.041685186
000010 32 ef 46 bd 51 06 5a 3d 49 84 0a bc 66 c4 9f 3c
       -0.04856796 0.05322868 -0.008454391 0.01950283
000020 c9 a5 32 3c c5 03 fe bc e0 76 61 bd 5d c6 57 bd
       0.010903784 -0.031007657 -0.05504501 -0.05267941
000030 ff 55 ab bd bb 27 da bd e6 4a a5 bd 63 d0 c6 bc
       -0.08366012 -0.10652109 -0.08070926 -0.024269288
000040 e3 f7 6f 3d a1 59 d9 3a ae ab 19 bd 1d 6b 18 3d
       0.058586013 0.0016582498 -0.037517242 0.037211526
000050 8c 31 a5 bd bc 49 68 bc 25 b5 c0 3d 06 c5 40 bd
       -0.08066091 -0.014177736 0.094095506 -0.047062896
000060 a0 2e 41 bd 6a dd 1f 3d 4e b8 5e bc 02 bc a8 bc
       -0.047163606 0.039029516 -0.013593746 -0.020597462
000070 c5 a2 93 bd 09 97 d5 bd 65 18 1a bd 79 cd e0 bd
       -0.0720878 -0.10429198 -0.03762092 -0.10976691
000080 c2 66 ba 3d ff 63 9b 3c ff 90 9b bd dc 39 d9 3c
       0.09101631 0.01896858 -0.07596015 0.026516847
000090 72 ad 2c 3d 8d d3 a5 3d 44 aa 9b 3d c1 e9 35 bd
       0.042157598 0.08096991 0.07600835 -0.04441238
0000a0 0e fd 5c bd 0e fd e8 bd ef 8b c7 bd 72 f5 91 3d
       -0.05395227 -0.11376391 -0.09743487 0.07126893
0000b0 57 24 bf bb 28 0b d5 3d 93 35 de bc 59 97 27 bd
       -0.0058331895 0.104025185 -0.027125156 -0.04091582
0000c0 ca 09 58 bd 02 d7 73 bc d4 2c 87 bb 77 4c 95 3d
       -0.05274371 -0.014882805 -0.004125217 0.07289975
0000d0 ab 7b 7a bb 31 55 0e bd 79 0b 2d bc bf b7 01 3b
       -0.0038220685 -0.034749214 -0.010561817 0.001979336
0000e0 f1 8d 6b bd 65 d0 b8 3c 96 43 9c bd 8c d9 07 3c
       -0.057508413 0.022560308 -0.076300785 0.008291613
0000f0 75 0b ab 3d 7d 3a d0 3b 9b 1d b6 bd 43 7d 98 3d
       0.08351795 0.0063546286 -0.088923655 0.07445767
000100 e7 f3 ec 3d e7 51 d1 3a 82 90 0d bd 8d 2f 5b 3d
       0.11569958 0.0015969843 -0.03456164 0.053512145
000110 b8 e4 e8 3a 11 5f a6 bb 0e 88 14 bd b7 b2 1a bb
       0.0017768359 -0.005077251 -0.036262564 -0.0023605058
000120 6f db bf 3d 0c 48 ea 3b 3a fe cb bd 8c 86 73 3c
       0.093680255 0.007149702 -0.09960599 0.014863621
000130 be d9 ce 3c a8 f5 ac 3d 3c fa 80 3c 96 13 aa 3c
       0.025250312 0.08445293 0.015744321 0.020761292
000140 d0 2d 82 3d 59 5f a4 bd 41 ef 88 3c 4e 19 52 3c
       0.06356394 -0.080259986 0.016715648 0.012823416
000150 c5 0d 76 bd 80 db 24 3d fd 11 d2 bc 72 35 6b bc
       -0.060071725 0.040248394 -0.025643343 -0.014356004
000160 8d 37 ab bd 1c ad b9 bd db e7 73 bc ba 7e e5 bc
       -0.08360205 -0.09066221 -0.014886822 -0.02801453
000170 7c c0 ac 3d 43 a4 c4 bd 69 55 e1 bd 4d 74 9e 3d
       0.08435151 -0.09601643 -0.11002619 0.07737026
000180 f8 bd da 3c 20 3c a3 bd b5 27 5f bd ca 4e ca 3c
       0.026701912 -0.07970452 -0.054481227 0.024695773
000190 09 c0 c2 3d b9 fa 41 3d 82 c6 a0 3d f0 ea 49 3c
       0.09509284 0.04735825 0.07850362 0.01232408
0001a0 9b ad 43 3c f7 d3 f6 ba 6a 66 97 3d 2f 99 9a 3c
       0.011943246 -0.0018831481 0.07392581 0.018871872
0001b0 0e bd b1 bd 60 da 13 3d 98 64 28 bb e9 88 0c 3d
       -0.086786374 0.03609693 -0.0025694724 0.034310255
0001c0 7b 56 8e bc 70 54 d3 bd 8c b1 6c 3d 3c 5e 8c 3d
       -0.017375221 -0.103188396 0.05778651 0.06853911
0001d0 98 03 26 3d cf 1e 8f bd cb 8c 1a bc c0 7f 8a 3d
       0.04053077 -0.06988298 -0.009432982 0.06762648
0001e0 f1 6d dc 3d 8d 0b 91 bd a4 3b 2d bd 79 15 bf 3d
       0.10763157 -0.07082281 -0.042293206 0.093302675
0001f0 f4 b8 86 3d 20 4e 7d 3d da 6a 38 bd 03 f5 ea bd
       0.06578246 0.061842084 -0.045023777 -0.114725135

critic.4.weight f4 [128, 128]
000000 cc 83 cb 3c e6 50 bc 3d d8 4b ba 3c e6 8d 72 3d
       0.02484312 0.09195118 0.022741243 0.059217356
000010 23 b4 6d bd f2 c3 b3 bd cb 6b 9a 3b 46 3f 84 3d
       -0.05803312 -0.08777608 0.004712557 0.06457381
000020 43 c2 84 3d d2 e5 b3 3d de 16 8c bc aa 45 5d bd
       0.06482365 0.08784069 -0.017100748 -0.054021515
000030 c0 ec d2 3c 67 e8 09 3d 40 80 f3 3a db 5c 79 bd
       0.025747657 0.0336689 0.001857765 -0.06087957
000040 17 6f 99 bd 26 c5 c1 3d e4 e9 1f bd 70 7d a2 bd
       -0.07491892 0.09461431 -0.039041415 -0.079340816
000050 f6 11 97 bc c9 bb 46 3d 45 b9 48 3d 6f bb 85 3d
       -0.018441182 0.04851893 0.04900481 0.06529891
000060 47 f8 96 bd 64 00 b3 3b 38 f6 c0 bc cd 52 a5 bd
       -0.07371574 0.005462693 -0.023554906 -0.080724336
000070 f5 b9 81 bb c5 ff c7 3d 19 e4 64 3d d1 61 ab 3c
       -0.0039589354 0.09765581 0.055881593 0.020920666
000080 83 49 ff bb 68 a6 ad 3b c8 63 78 bd 0d 5b 94 3d
       -0.0077907457 0.005299378 -0.060642034 0.07243929
000090 2e c4 37 3b 46 9a 6c bd 3b 22 c2 bc 04 8d 3d bd
       0.0028040516 -0.057764314 -0.023697963 -0.04627706
0000a0 de 72 cb bd e8 af a6 bc 90 d3 75 3d ad 29 47 bd
       -0.099340186 -0.02034755 0.060016215 -0.04862373
0000b0 76 ce fd 3b f0 d2 6c 3c a1 1d 87 3d 67 79 c1 3c
       0.0077455593 0.014454588 0.06597448 0.02361746
0000c0 9e ed 73 bd 61 38 55 bd 04 f2 98 3d 82 4b 77 3d
       -0.05955278 -0.05205572 0.07468036 0.060374744
0000d0 1d c1 6a bd f3 19 72 bd b5 24 91 3d 60 df 58 3d
       -0.057313073 -0.05910678 0.070870794 0.052947402
0000e0 84 dc 48 bd 63 94 1d 3d 76 2c 13 3c 51 27 97 bd
       -0.049038425 0.03847159 0.008982768 -0.07380546
0000f0 41 6f 12 bd 25 80 20 3d af f4 d2 3d 08 a2 d6 bc
       -0.03575063 0.03918471 0.10300576 -0.02620031
000100 62 b4 bd bc 16 16 8c bd 03 f2 33 3d b8 62 25 3b
       -0.023157302 -0.0684015 0.043931972 0.0025235843
000110 27 28 31 3c d5 17 c5 3c e9 0f 53 bd 45 ec cb bb
       0.010812796 0.024059216 -0.051528845 -0.006223234
000120 ec 28 73 bd 35 49 0d 3d 9d 81 43 bd 01 c9 92 3d
       -0.059365198 0.034493644 -0.04773103 0.07167245
000130 44 f1 1b bd e5 7d c1 bd 4e 10 49 3d 0a 12 24 3d
       -0.038071886 -0.094478406 0.049087815 0.040056266
000140 3d 6d b5 bd ed 64 3b bd 22 35 97 3d c9 6c 5c 3d
       -0.08858726 -0.045750547 0.07383181 0.053814683
000150 aa 3c c6 bc e2 33 c4 bc e6 ce 06 3d f9 0f f8 bc
       -0.024198849 -0.02395052 0.032912157 -0.030281054
000160 92 6e 40 3c 44 b5 a3 3d 2d 1a 32 3d 13 46 eb bc
       0.011745112 0.07993558 0.043481994 -0.028719937
000170 fc 48 89 3d b8 f7 a2 bb b4 4c f0 3c cc fe 8b bd
       0.06703374 -0.004973378 0.02933345 -0.06835708
000180 37 10 3a bc 69 d0 7f 3d 04 ec 8b bd 43 39 79 bc
       -0.011356405 0.062454615 -0.06832126 -0.015211406
000190 74 83 b7 bd 3e 1c c8 bc 35 5c c2 3a f1 e7 5f 3d
       -0.089606196 -0.02442753 0.0014828505 0.054664556
0001a0 45 9c 8a bd 25 66 2f bb 81 32 a0 bd 74 7d 8d bb
       -0.06768087 -0.0026763764 -0.07822133 -0.0043179337
0001b0 60 31 08 3d 79 2e 75 3d da 97 2b bd b7 fe ad bc
       0.033250213 0.059858773 -0.041892864 -0.021239622
0001c0 d6 88 82 bc c3 50 ae 3d 5f 8c 42 bb d0 bd ae 3d
       -0.01593439 0.08511498 -0.0029685718 0.085322976
0001d0 d7 6e 94 3d f5 0e 45 3b 2b 0f b2 bb 54 61 24 bd
       0.072477035 0.003006873 -0.005433937 -0.04013188
0001e0 fa 44 f0 3a ab 7c 86 bb 13 20 53 bd 0d c9 60 bd
       0.0018331103 -0.004104217 -0.05154426 -0.054879237
0001f0 c0 35 0e bc 03 ef 74 3d dd af 50 3d 07 9d 44 3b
       -0.008679807 0.05979825 0.050948966 0.0030000822
000200 24 70 40 3c 38 26 be bd cb 61 eb 3c db 87 51 bd
       0.011745486 -0.092846334 0.028733155 -0.051154952
000210 50 31 62 bd 46 75 92 3d f9 fb af 3c 38 15 b2 bc
       -0.05522281 0.071512744 0.021482455 -0.021738634
000220 4e 6f 01 bd 2d ed ab bd 03 87 4c bc 44 d7 a2 bc
       -0.03160029 -0.08394847 -0.012483361 -0.019878037
000230 a6 30 23 3d 15 c2 08 3d d1 46 3e 3d 7b 13 ea bc
       0.039841317 0.033388216 0.046454255 -0.028573742
000240 ef d5 59 bd ae db 01 bd 05 b4 5a 3d 31 97 42 bc
       -0.05318254 -0.031703644 0.053394336 -0.011876867
000250 1c 94 47 3d ad 9b 48 3d 7c f3 cd 3d f8 e6 17 bd
       0.048725232 0.04897659 0.100562066 -0.037085503
000260 18 72 81 3d 21 66 8e bd f7 50 4f 3d 4b 8e 80 bd
       0.0632059 -0.06953073 0.050614323 -0.0627714
000270 c6 76 a1 3b e1 ee 59 3c ba bb 03 3d f5 3f 29 bd
       0.004927489 0.013301582 0.032161452 -0.04132076
000280 b3 2a 3f 3d a7 ec c2 ba 48 a9 75 bd 22 18 6e bd
       0.04667158 -0.0014871553 -0.059975892 -0.058128484
000290 23 d3 bc 3d 75 aa 4b 3d 8f 5f b5 3c e6 85 88 3d
       0.09219959 0.049723107 0.022140292 0.06666164
0002a0 9a 24 65 3d 50 6a 6b bd c4 04 48 bd 29 9e 5d 3d
       0.05594311 -0.057474434 -0.04883267 0.05410591
0002b0 ab c4 af bd e0 21 62 3c 15 1b 2e bd 83 1d 44 bc
       -0.08582433 0.013802022 -0.042506296 -0.011969927
0002c0 a5 8d d5 3c c2 45 42 bd a9 a6 23 3c c2 b5 9c bc
       0.026068518 -0.047429807 0.009988465 -0.019129638
0002d0 53 b0 5d 3d db 1e 18 3d 29 f5 6a bc 21 da 9c 3d
       0.054123234 0.0371388 -0.014340677 0.07658792
0002e0 bb 8b 44 bd b0 a4 a4 3d 1b ff 8d bd bd 5d 0a 3d
       -0.04798482 0.08039224 -0.06933423 0.033780802
0002f0 09 bb 1f 3d 01 ed 58 3d 6a c2 11 3d 5a c6 85 3c
       0.03899673 0.0529604 0.0355858 0.016329933
000300 ed 6a 1c bd 8c 3d dc bc 02 00 89 3d e7 fb 34 3d
       -0.03818791 -0.026884817 0.066894546 0.044185545
000310 29 77 02 3d fc b0 80 3d c6 67 19 bd 09 e6 18 3d
       0.03185192 0.06283757 -0.03745248 0.037328754
000320 e3 bf 59 3d 75 ac 4c bd 62 02 4f 3d da 12 5b bd
       0.053161513 -0.049969155 0.05053938 -0.053484775
000330 28 c5 81 bd 0e 54 8c 3d be 95 5d 3d 39 e8 25 bd
       -0.06336433 0.0685197 0.054097883 -0.040504668
000340 62 97 3d bc fb 1b 8c bd 6b f3 89 3d 51 fd 3c 3d
       -0.011571737 -0.06841274 0.067358814 0.04614002
000350 d1 fb 8d bd 78 84 36 3d 3d 7b 39 bd 92 79 4b bd
       -0.06932796 0.044559926 -0.045283545 -0.049676485
000360 12 09 65 bd 2f bc a0 bd a0 0f 2e 3c 9d 64 75 bd
       -0.055916853 -0.07848393 0.0106238425 -0.059910405
000370 ad 76 8b bd 7b a5 0f bc fc 6f 4a 3c 3b 76 ee bc
       -0.06809745 -0.008767481 0.012355801 -0.029109111
000380 ef ce 28 bd 9c f3 19 3b e5 50 b0 3b 1f 3a ac bd
       -0.041212972 0.002349115 0.005380737 -0.08409523
000390 b9 bf 10 3c 11 c6 a0 bd 58 d2 ab 3d c3 bc 1c 3c
       0.008834773 -0.07850278 0.08389729 0.009566489
0003a0 22 32 bb bc 42 b3 e9 3a ce 0c 76 bc de 88 1d bd
       -0.022851054 0.0017829912 -0.015017701 -0.038460605
0003b0 ed 71 11 bd bc db 07 3c ed d7 ba 3c 5b 43 a2 bc
       -0.03550904 0.008292135 0.02280804 -0.019807508
0003c0 7a dd 8b bc 1f 99 a9 bd 16 9e 04 bd bd 21 a9 3d
       -0.017073382 -0.08281159 -0.032377325 0.08258388
0003d0 44 91 35 bd fd 9c da bc da 52 0e bd 22 e4 72 3d
       -0.04432799 -0.026686186 -0.034746982 0.059299596
0003e0 09 01 23 3d f6 7d d5 3b 9a a2 8c 3d 4d cc b4 3a
       0.03979591 0.00651526 0.06866951 0.0013793797
0003f0 8c bb 79 3d b7 30 e8 bc 0b 82 39 3d 9c 77 83 bd
       0.060969874 -0.028343542 0.045290034 -0.06419298

critic.4.bias f4 [128]
000000 61 af da bc ca 38 11 3c 40 f2 c6 3d bd ef 2b 3c
       -0.026694955 0.008863637 0.09714174 0.01049417
000010 55 9c 9a bb 2b f9 68 3d 0c 33 59 3c 3d f6 72 3d
       -0.0047183433 0.05687825 0.013256799 0.059316862
000020 7e d8 68 3d 00 4f 8c 3d 83 89 12 3c 30 90 74 3a
       0.056847088 0.068510056 0.008943918 0.0009329347
000030 21 53 81 bd e8 3f 40 3d 42 92 ab 3d a6 05 64 bd
       -0.06314684 0.046935946 0.08377506 -0.05566945
000040 ef 10 a4 bb 58 3a 9e bd 30 53 c1 bc 90 1e 96 3c
       -0.0050069015 -0.07725972 -0.023599237 0.01832512
000050 3c 83 e9 bc 6e 3c 0e bd c8 36 77 3d 71 e3 ad 3d
       -0.02850496 -0.0347256 0.060354978 0.08490647
000060 ee 10 2b bd ab ca 4c bc 2c 5c 80 bd bf 5f 3f bd
       -0.041764192 -0.012499492 -0.062675804 -0.04672217
000070 27 4f 8f bc bb 8d fe 3b 60 01 dd 3d 19 64 68 3d
       -0.017493797 0.0077683604 0.10791278 0.056736086
000080 e2 bb 11 3d 0c d9 ae bc 6e 4d 9a bc b6 6e 2e 3d
       0.03557957 -0.02134373 -0.01883575 0.04258605
000090 8c 1f 3b 3d d0 b5 85 bd 45 84 4a 3d ff 92 9a 3d
       0.045684382 -0.065288186 0.04944255 0.075475685
0000a0 ae 4b df bd 60 8a 64 3b 35 9c 9f bb 6c ef 42 bd
       -0.10903107 0.0034872517 -0.0048709163 -0.04759161
0000b0 b6 46 37 3c 25 66 60 bd a0 a2 86 3d 3b 3a 3e bd
       0.011186292 -0.054784913 0.06573987 -0.04644225
0000c0 bc 01 ee 3b 94 cb 22 3d 02 98 7c 3c ef 12 5f 3d
       0.0072633903 0.03974493 0.015417101 0.054461416
0000d0 1b 10 c7 bc e7 34 dc bd 61 50 b5 3b d9 65 99 bd
       -0.024299672 -0.10752278 0.0055332636 -0.07490129
0000e0 08 45 a0 bd 45 57 3c bd 1f 6f 6d bd a5 08 11 bd
       -0.07825667 -0.045981664 -0.0579673 -0.035408635
0000f0 71 ec 22 3d 85 99 e6 3c dc e4 aa bd 4d 5e a3 3d
       0.03977627 0.028149376 -0.08344433 0.07976971
000100 5d 4c a8 bd 5a 9c 9b 3b 34 fc 9b bc 6a 4f d0 bb
       -0.0821769 0.004748863 -0.019041158 -0.006357123
000110 50 67 1b 3d 88 15 87 3d 51 32 86 bb 45 67 f0 bc
       0.037940323 0.06595904 -0.0040953537 -0.029346118
000120 01 5c 77 bd 84 ab 8e 3d 9b b9 41 bd a4 e6 cd 3d
       -0.060390476 0.06966308 -0.047296148 0.10053757
000130 af 93 2b bd 87 0b 4b bd a7 d9 c5 bc 50 d3 1a bd
       -0.04188889 -0.04957154 -0.024151636 -0.03779918
000140 3a ca ff bc 8c d1 6b 3d 94 29 2c bd 5a 3e f2 bb
       -0.031224359 0.057572886 -0.04203184 -0.007392687
000150 ed ae a6 3d bd 40 84 bd 3b 04 18 bd f2 1a 3b bd
       0.08138833 -0.0645766 -0.03711341 -0.045679994
000160 11 69 16 3d 7d a7 6d 3c be 88 d9 bc 5d 0a c8 3d
       0.036721293 0.014505264 -0.026554462 0.09767602
000170 f2 b6 2b bc 30 a8 b9 bd c5 85 7d 3c a6 48 0e 3d
       -0.010480629 -0.09065282 0.015473788 0.03473725
000180 d7 8d f0 bc fa 35 0f 3d b5 6a 6d bb 66 3c b8 3d
       -0.02936451 0.034963585 -0.0036226932 0.08995895
000190 67 14 35 bd b4 c2 c5 bc 2f 03 a9 bc 3f 5a 80 bd
       -0.04420891 -0.024140693 -0.0206314 -0.06267213
0001a0 b6 69 a3 3d 9d b8 cf bd cc 6e 53 bd c3 1f 50 3c
       0.07979147 -0.10142634 -0.051619336 0.012702885
0001b0 52 71 d6 3c 4e 2c 6e bc f3 3c ae 3b b0 95 43 bc
       0.026177082 -0.01453693 0.0053173243 -0.011937544
0001c0 b7 a4 79 bd c2 6f 6b bd b1 b7 3c bd 61 95 b0 3d
       -0.0609481 -0.057479627 -0.04607362 0.08622242
0001d0 bc b9 a0 bc 6e 19 71 bd d4 d0 eb 3c f8 ad 49 bc
       -0.019619815 -0.058862142 0.0287861 -0.012309544
0001e0 22 b9 82 3d 72 11 2f 3d 23 60 de 3c f5 9f 2d 3d
       0.063829675 0.042741247 0.027145451 0.042388875
0001f0 8f 00 ba bd d4 c3 1c 3d f1 d8 4b bd 6d 82 80 3d
       -0.09082138 0.038272694 -0.04976744 0.06274877

critic.6.weight f4 [1, 128]
000000 cf cf 8f 3d 20 1b 49 bd 70 c0 be bc 67 49 b6 3d
       0.07022058 -0.049098134 -0.02328512 0.08900719
000010 ee 2b 23 bd 94 5a 36 3d 70 a6 a8 bd bc be 31 3d
       -0.039836816 0.044519976 -0.082348704 0.04339479
000020 7d b0 d3 3c f7 27 a6 bd a8 17 97 bc d3 31 bc bc
       0.025840992 -0.081130914 -0.018443897 -0.022972977
000030 eb 87 2c 3c 89 2b 6f 3d cf d5 62 bd 3a c9 38 3b
       0.010530452 0.058391128 -0.055379685 0.0028196112
000040 f8 07 b4 bd ec 2c ac 3d 23 e7 64 bd 2d 9a 9f bc
       -0.087905824 0.08407006 -0.05588449 -0.019482696
000050 6a f6 c4 bc 1a ec 97 3d c3 34 9f bc 2e 9d 99 bc
       -0.02404328 0.0741808 -0.019434338 -0.018751707
000060 72 86 63 bd 5b ff 47 bd c1 a9 93 3d 3e 49 5e bd
       -0.05554814 -0.04882751 0.07210112 -0.054269068
000070 78 53 23 bc ea 47 4e 3d e9 eb c5 bd 3f 2e c2 bd
       -0.009968631 0.05036155 -0.09664137 -0.09481477
000080 a3 ed d7 3c 76 14 02 3d b0 57 49 3d 3b 0a c3 bd
       0.026358431 0.031757794 0.04915589 -0.09523436
000090 8e a7 1e bd ea c6 d3 bc 1d 43 9d 38 51 85 1c bd
       -0.03873401 -0.025851686 7.498844e-05 -0.038213078
0000a0 5e 98 47 3d 8b 3f a9 3d 3a 9f 46 3d 66 f8 99 bb
       0.048729293 0.08264073 0.048491694 -0.004698801
0000b0 a7 92 b7 bd a3 2b 65 bd 8c 86 bd bd fd 18 a0 3c
       -0.089635186 -0.05594982 -0.092541784 0.019543165
0000c0 13 ed 70 bd 99 b0 0e bd 5c b7 32 bd f4 80 25 3d
       -0.05881984 -0.034836385 -0.043631896 0.040406182
0000d0 f4 4e 93 bd 0a ce 85 3c 85 02 32 bd 51 9b 6b 3c
       -0.071927935 0.016333599 -0.043459434 0.014380292
0000e0 cd 42 37 3d 80 d7 32 3c 4c 94 c3 39 c7 fe 12 bd
       0.04474144 0.010915637 0.00037303788 -0.035887506
0000f0 06 2f 74 3c aa e7 84 bd b4 9f 31 3d d5 73 93 bd
       0.014903789 -0.06489499 0.043365195 -0.071998276
000100 82 3b ae 3d fc c0 79 3d 46 f7 b0 bd 0b ea 8a 39
       0.08507444 0.06097506 -0.08640914 0.00026495787
000110 e2 d7 8e bd 91 c0 8f bc ef e7 8e 3d de c2 e5 bb
       -0.0697477 -0.017547878 0.069778316 -0.0070117554
000120 85 08 4a bc 2e d7 70 bb 68 55 65 3d 4b b0 47 bd
       -0.012331133 -0.003674935 0.055989653 -0.04875211
000130 3d 57 94 3d 18 0a 85 bd fd 8f 59 bd 8c 1a 87 bd
       0.07243202 -0.06496066 -0.053115834 -0.0659686
000140 ae 4a 0c 3d 60 26 aa bb 9d 88 c2 3c 04 49 13 bd
       0.034250908 -0.005192563 0.023746783 -0.035958305
000150 8f 40 06 bd fa e6 42 3d e7 87 75 bd f4 93 a6 3b
       -0.03277641 0.047583558 -0.05994406 0.0050835554
000160 e4 ee ae 3d 47 de 66 bd a7 99 51 bd fc be 9e bd
       0.085416585 -0.056364324 -0.051171925 -0.07751271
000170 b9 7a 01 3d da 90 c3 3d 38 b9 71 3d e0 0d e0 bc
       0.031611178 0.095491126 0.05901453 -0.027350366
000180 af b2 c8 3c fa 53 94 3d a2 ff 6c 3d ad c6 a6 bd
       0.024499265 0.0724258 0.057860978 -0.08143363
000190 8e 3b 3d 3d 8a dd 55 3d 75 08 b5 3d 6d 83 1d 3b
       0.046199374 0.05221323 0.08839504 0.0024034635
0001a0 33 cb 3f bd 5d 51 8e 3d 57 5a 89 3d 0c 13 c1 bd
       -0.046824645 0.069491126 0.06706684 -0.09427461
0001b0 e0 fa 52 bd 87 00 50 3d c3 eb 9a 3d cc be ed 3c
       -0.051508784 0.050781753 0.07564499 0.029021643
0001c0 60 95 3a 3c bc da af bd 0a 53 ce bc e1 94 62 bd
       0.011388153 -0.08586642 -0.02518608 -0.055317763
0001d0 81 e6 85 3d 4e 71 23 bd 26 ac a4 bd 6a 01 b9 bc
       0.06538106 -0.039902978 -0.08040647 -0.022583682
0001e0 0b 80 74 bd 7b ad a6 3d d3 ca 7a 3d d9 47 3e bd
       -0.059692424 0.081385575 0.061228584 -0.046455238
0001f0 d7 26 4a 3d 19 29 f0 bc d9 09 9d bc 18 f1 86 bd
       0.049353447 -0.029316472 -0.019169735 -0.06588954
