ippo_algorithm/checkpoints/ppo_actor_0_lumberjacks.pth (torch, 323944 bytes, 6 tensors)

actor.0.weight f4 [128, 492]
0	0xbba2dcd8	-0.0049701743
1	0x3cac5c40	0.021040082
2	0xbd0e2f4f	-0.034713086
3	0x3cbeaed7	0.02327673
4	0xbcb4f9ab	-0.022091707
5	0xbcbaf3c7	-0.02282132
6	0x3cfab504	0.030603893
7	0xbc210811	-0.009828583
8	0x3ccc5f39	0.02494775
9	0x3cbb0c9c	0.022833161
10	0x3cb6cbd2	0.022313986
11	0xb9b54abd	-0.00034578695
12	0xb93aeedb	-0.00017827323
13	0xbd13f278	-0.036119908
14	0x3d1b4b70	0.03791374
15	0x3c22a007	0.009925849
16	0xbc8571e8	-0.016289666
17	0x3cb5f418	0.02221112
18	0x3d2e5f3f	0.042571303
19	0x3d212dfb	0.03935049
20	0xbd0bcb0f	-0.0341292
21	0x3c1e07cc	0.009645414
22	0xbd1f18ee	-0.038842134
23	0xbd0a7764	-0.033805266
24	0x3d113b2a	0.035456814
25	0xbd0c06d1	-0.034186188
26	0xbbcd35b5	-0.006262506
27	0x3c49f331	0.012326048
28	0xbce5d111	-0.028053792
29	0x3c28757c	0.010281917
30	0x3c5a0c06	0.013308531
31	0x3d190809	0.03736118
32	0xbd04ce62	-0.032423384
33	0xbd2b446d	-0.041813303
34	0x3d2a60d2	0.04159624
35	0xbd0ab145	-0.033860464
36	0xbb5efe0f	-0.0034025942
37	0x3d2b20d0	0.04177934
38	0xbd2a1306	-0.04152205
39	0xbc3f8432	-0.011689233
40	0x3c7baca5	0.015360986
41	0x3ced6878	0.028980479
42	0xbbb04f31	-0.005380534
43	0x3af6b79d	0.0018823032
44	0xbd2e5694	-0.042563036
45	0xbcbdaef8	-0.02315472
46	0xbc892b30	-0.016744226
47	0x3c767d80	0.01504457
48	0xbd199104	-0.037491813
49	0xbc75c45e	-0.015000431
50	0xba654d38	-0.0008747163
51	0xbc979985	-0.018505821
52	0x3cf0e052	0.02940384
53	0xbcc5a041	-0.024124267
54	0x3d1f483d	0.03888725
55	0x3cdfaf84	0.027305372
56	0x3cb4bb51	0.022061976
57	0xbce49e9f	-0.027907668
58	0xbae8da76	-0.0017765302
59	0xbd18564a	-0.037191667
60	0x3b52bf7e	0.0032157595
61	0xbc798fb6	-0.015232017
62	0xbc179584	-0.009251956
63	0xbd054024	-0.032531872
64	0xbd106a42	-0.035257585
65	0x3d094b0c	0.033518836
66	0x3be6a63e	0.0070388606
67	0x3c500e8d	0.012698782
68	0x3c744959	0.014910066
69	0xbd060583	-0.0327201
70	0xbcd90219	-0.026490258
71	0xbd1d881b	-0.03845988
72	0xbc722c1f	-0.014781027
73	0xbcdf4b07	-0.027257456
74	0x3d229f16	0.039702497
75	0x3c95b1cb	0.018273255
76	0xbd0e4736	-0.03473588
77	0x3d00ddcb	0.03146152
78	0xbd266ae9	-0.0406293
79	0x3cb65c6b	0.022260865
80	0x3c02b530	0.007977769
81	0x3d131868	0.035911947
82	0x3cf14128	0.029450014
83	0xbcf62dee	-0.030051198
84	0xbc3cfc59	-0.011534774
85	0xbcbfffd6	-0.023437422
86	0x3d0cea7f	0.03440332
87	0xbca50658	-0.020144626
88	0xbd08f950	-0.033440888
89	0x3d2ab375	0.04167505
90	0x3cd8ec6d	0.026479924
91	0x3cee704f	0.029106287
92	0x3c736333	0.014855194
93	0x3c88c80c	0.016696952
94	0xbbdbb1de	-0.006704553
95	0x3b979a40	0.0046265423
96	0xbcbf2938	-0.023335084
97	0xbc819285	-0.015816936
98	0x3b041f57	0.0020160282
99	0x3d1a2b18	0.037638754
100	0xbcb9020f	-0.02258399
101	0xbca66ab8	-0.02031456
102	0x3d06b323	0.03288568
103	0xbd2a12b5	-0.041521747
104	0xbcd845f7	-0.02640055
105	0x3cf4703c	0.029838674
106	0x3cdd2ebc	0.026999824
107	0x3cf23dee	0.029570546
108	0x3cdaee21	0.026724877
109	0x3d2be517	0.041966524
110	0xbc2d3e2d	-0.010573906
111	0xbc89a5cd	-0.016802693
112	0xbc8c52d3	-0.017129337
113	0x3d01fd57	0.031735744
114	0xbc394e7c	-0.011310216
115	0x3ccea47f	0.025224922
116	0x3842833f	4.6375437e-05
117	0xbcd07694	-0.025447167
118	0xbbd2f581	-0.0064379578
119	0x3ca75a6d	0.02042886
120	0x3c6bbdd5	0.014388521
121	0x3cbd04be	0.02307355
122	0x3cfe7e27	0.031066014
123	0x3d19bf6c	0.03753607
124	0xbd165f46	-0.036711954
125	0x3d11179b	0.035422903
126	0x3cd85652	0.026408348
127	0xbd308461	-0.043094996
128	0xbb9459f7	-0.004527326
129	0xbbf255ab	-0.0073954663
130	0x3c0536d0	0.008130744
131	0x3d058a83	0.0326028
132	0x3cc20f99	0.023689078
133	0x3cfb57a7	0.030681444
134	0x3cac18e9	0.021007972
135	0x3cca21ba	0.024674285
136	0xbba6fe3b	-0.0050962246
137	0xbd08e838	-0.033424586
138	0xbc83f87e	-0.016109701
139	0x3beb0397	0.007172059
140	0xbd1e5d30	-0.03866309
141	0xbc38927d	-0.011265394
142	0x3c9b8483	0.018984085
143	0x3ca57496	0.020197194
144	0xbca93e29	-0.020659523
145	0x3cc7ca72	0.024388526
146	0xbd31f1f6	-0.043443643
147	0x3c8c7189	0.017143982
148	0xbbe8227a	-0.007084188
149	0xba87ee23	-0.0010370653
150	0x39c888be	0.00038248854
151	0xbcb8d38b	-0.022561809
152	0x3ce99be2	0.028516714
153	0xbccd83d1	-0.025087269
154	0x3c8f145e	0.017465767
155	0x3cd179b5	0.02557073
156	0x3bf32961	0.0074207042
157	0x3ccfb411	0.025354417
158	0xbcfc190d	-0.030773664
159	0x3d16c63d	0.03681015
160	0xbd1d1369	-0.03834859
161	0x3b1773b4	0.0023109736
162	0xbd20292b	-0.03910176
163	0x3c96c807	0.018405927
164	0xbd263718	-0.040579885
165	0xbd032264	-0.03201522
166	0xbce1eea3	-0.027579611
167	0xbd25e832	-0.04050464
168	0x3c503569	0.0127080465
169	0xbb280822	-0.0025639613
170	0xbd378ef1	-0.044814054
171	0xbc6df0b8	-0.014522724
172	0xbca14746	-0.019687306
173	0x3cbfe15f	0.023422895
174	0x3d1e9dee	0.038724832
175	0xbd23687f	-0.039894577
176	0x3c87e815	0.016590158
177	0x3cfd9224	0.030953474
178	0x3cd2695c	0.025685005
179	0x3b85f1af	0.004087649
180	0xbbfe35f6	-0.0077578975
181	0xbd167aad	-0.036738086
182	0xbd27bae5	-0.04094972
183	0x3965c328	0.00021911843
184	0x3c9808a0	0.0185588
185	0x3b896e62	0.004194067
186	0xbd0017ef	-0.031272825
187	0x3ca9c278	0.020722613
188	0x3b6e443d	0.003635659
189	0x3c9e1b0c	0.019300006
190	0xbc4f10d2	-0.012638288
191	0xbb579dc8	-0.0032900441
192	0xbd145d8b	-0.036222022
193	0xbcc2d4dc	-0.02378314
194	0x3cf31e24	0.029677458
195	0x3cc440ba	0.023956645
196	0xbc5b9a56	-0.013403496
197	0x3c89534f	0.016763357
198	0x3c898dc0	0.016791224
199	0x3cbed059	0.023292707
200	0xbd37c38b	-0.04486422
201	0xbbabd226	-0.0052435575
202	0xbcd618ea	-0.026134927
203	0x3c66f9e5	0.014097665
204	0xbc6e627d	-0.014549849
205	0xbbf543db	-0.0074848956
206	0xba068ab3	-0.0005132362
207	0xbcac086b	-0.021000108
208	0xbd2512be	-0.040301077
209	0xbc7da3b6	-0.015480926
210	0xbc4d4e4d	-0.012530875
211	0x3ba49728	0.005022902
212	0xbc852460	-0.016252697
213	0x3cec2c8b	0.028829833
214	0x3d344b1c	0.044016942
215	0xbccd8d03	-0.025091654
216	0xbd2f15ad	-0.04274528
217	0xbd116520	-0.03549683
218	0x3aa2ad6a	0.00124113
219	0x3c15e7b1	0.009149478
220	0x3beae154	0.0071679745
221	0x3cf538db	0.029934337
222	0x3d00ea15	0.031473238
223	0x3b00d120	0.0019655898
224	0xbc323e92	-0.010879176
225	0x3ce53ff4	0.027984597
226	0xbd2541ad	-0.040345836
227	0x3cc5912d	0.024117077
228	0xbc821aef	-0.015881984
229	0x3caa4413	0.020784413
230	0x3cca7c3b	0.02471744
231	0xbcbb3784	-0.02285362
232	0x3cc081f0	0.023499459
233	0x3d0b6b22	0.034037717
234	0xbce5ea3e	-0.028065797
235	0x3c8ba843	0.017048007
236	0xbd02e0fd	-0.031952847
237	0x3d2b30ee	0.04179471
238	0x3b3fab3d	0.0029246353
239	0x3c6915ae	0.01422636
240	0x3d1e7a8d	0.038691092
241	0xbd2fe2cd	-0.042940903
242	0xbcca04c0	-0.024660468
243	0xbb9f94ce	-0.004870034
244	0xbc615c12	-0.013754861
245	0xbd246bbd	-0.04014181
246	0xbd01eb94	-0.031718805
247	0xbd00de0c	-0.03146176
248	0xbc6331dd	-0.013866869
249	0x3d34cfaf	0.044143375
250	0xbbec01e8	-0.0072023757
251	0x3c497604	0.0122962035
252	0xbc9978c7	-0.018734349
253	0x3a321a8c	0.0006794117
254	0x3c3318d2	0.010931211
255	0x3d351ad9	0.044215057

actor.0.bias f4 [128]
0	0x3cc5dfaa	0.024154503
1	0xbd273222	-0.040819295
2	0x3cf3caaa	0.029759724
3	0xbbcbeb33	-0.0062231063
4	0xbb418102	-0.0029526358
5	0x3ce6eb92	0.0281885
6	0x3d03723e	0.03209137
7	0xbd2ade8f	-0.041716155
8	0x3ce2776b	0.027644834
9	0xbc176de9	-0.009242513
10	0xbccc03eb	-0.024904212
11	0x3cc05ad7	0.023480816
12	0x3c5f30d2	0.0136224795
13	0x3ca08130	0.019592851
14	0xbbe262c5	-0.006908747
15	0x3ca304d2	0.01989976
16	0x3ce8d35c	0.028421097
17	0x3c4a82d9	0.012360298
18	0x3ca5f0f5	0.020256499
19	0x3cf6564a	0.030070443
20	0xbbf8d6d3	-0.0075939684
21	0x3c99f08e	0.018791463
22	0x3c468598	0.012116812
23	0xbd3578f8	-0.044304818
24	0x3ce5917f	0.02802348
25	0x3c7a0004	0.015258793
26	0xbc78f98a	-0.0151962135
27	0x3b9e4315	0.004829774
28	0xbc31fcf9	-0.010863536
29	0xbc2bcdfb	-0.010486121
30	0xbd1ef0ba	-0.038803793
31	0xbd11e384	-0.035617366
32	0x3c1c6941	0.009546579
33	0x3aacd181	0.0013184996
34	0x3d08f269	0.033434305
35	0xbcdcd3e4	-0.026956506
36	0xbc0e9c72	-0.008704292
37	0x3c710466	0.014710521
38	0xbcdaff2b	-0.026733002
39	0xbd12352e	-0.035695247
40	0xbc80ff36	-0.015746694
41	0x3d0a1977	0.03371569
42	0xbce25d4b	-0.027632376
43	0x3d381592	0.044942446
44	0x3bb90b83	0.0056471243
45	0x3c81d04f	0.0158464
46	0x3cba0f83	0.022712475
47	0x3bd23c36	0.006415869
48	0xbc2a498a	-0.01039351
49	0xbd33597e	-0.04378652
50	0x3d34bd1b	0.044125658
51	0x3c5e26c9	0.013559052
52	0xbd1a7b56	-0.03771528
53	0x3d170f52	0.036879845
54	0xbd305be7	-0.043056395
55	0xbd26a654	-0.040685967
56	0xbd32ea0b	-0.043680232
57	0xbbbbbc7b	-0.0057292557
58	0xbcbdba5d	-0.023160154
59	0x3cbad50e	0.02280667
60	0x3a2043c6	0.00061136147
61	0x3cb51190	0.022103101
62	0xbcae9d9a	-0.021315385
63	0xbd0380d8	-0.032105297
64	0xbc81e41a	-0.015855838
65	0xbd205560	-0.03914392
66	0x3d2e08ec	0.042488977
67	0xbb96c3be	-0.004600971
68	0xbb0cd73e	-0.00214906
69	0xbc0c25c6	-0.008553928
70	0x3c2da7b2	0.010599064
71	0x3bcbaa8d	0.0062153996
72	0x3caab7f9	0.020839678
73	0xbd0c9b5d	-0.034327853
74	0xbc3d9198	-0.011570357
75	0xbd16af49	-0.03678826
76	0xbd3213da	-0.043475963
77	0xbcfb1998	-0.030651852
78	0xbcfc3a41	-0.030789496
79	0xbd0b1d71	-0.033963624
80	0xbc94bbdd	-0.018155986
81	0xbcbdc45f	-0.023164926
82	0xbd1bb3ba	-0.038013197
83	0x3ca8df71	0.020614358
84	0xbcc242b3	-0.023713445
85	0xbcad26d6	-0.021136682
86	0x3ce37885	0.02776743
87	0x3d163a84	0.0366769
88	0x3d164c51	0.036693875
89	0xbbf42968	-0.007451225
90	0x3c5b25a9	0.013375678
91	0xbd2390b7	-0.039932933
92	0xbd2f9623	-0.04286779
93	0x3cf6babc	0.030118339
94	0x3d073b29	0.033015404
95	0x3a86ec70	0.0010293853
96	0x3cb9a7ee	0.022663083
97	0xbc21e671	-0.009881602
98	0x3b9811b9	0.0046407846
99	0x3ccaf43c	0.024774663
100	0xbc2df6f9	-0.010617965
101	0xbd2392c9	-0.039934907
102	0xbca69be5	-0.020338008
103	0x3d231e5c	0.039823875
104	0x3ad56208	0.0016279826
105	0xbd114e3f	-0.035475012
106	0x3d0d321b	0.034471612
107	0x3ca0452e	0.019564237
108	0x3d30212a	0.043000378
109	0x3c873269	0.01650353
110	0x3bd337a4	0.006445842
111	0x3d0f94d2	0.035054035
112	0x3cdaf78a	0.026729364
113	0x3b782f40	0.003786996
114	0x3cd4e112	0.025986228
115	0xbc863379	-0.016381966
116	0x3d128b75	0.035777528
117	0x3c0c1c93	0.0085517345
118	0x3cf5ff81	0.03002906
119	0x3b93f182	0.004514874
120	0xbbff792a	-0.0077964263
121	0xbc46bbb2	-0.012129711
122	0xbcf8bcb3	-0.030363416
123	0xbb1473c1	-0.0022652003
124	0x3cd3112c	0.025765024
125	0xbd2f604e	-0.042816453
126	0x3b8df782	0.0043324837
127	0xbcabd0f2	-0.020973656

actor.2.weight f4 [128, 128]
0	0xbdb4a359	-0.088202186
1	0x3d90a597	0.07062834
2	0x3d56a279	0.05240104
3	0xbcfb7da7	-0.030699564
4	0x3d27b227	0.040941384
5	0x3d2b5b5b	0.04183517
6	0x3c5eae8d	0.013591421
7	0xbda7c583	-0.08191969
8	0x3dae36f4	0.08506575
9	0xbd14a69e	-0.03629171
10	0xbd2350ed	-0.0398721
11	0x3c86825b	0.01641958
12	0xbd99a5d6	-0.07502334
13	0xbc56fac8	-0.013121314
14	0xbc85b19a	-0.016320039
15	0x3db02eea	0.08602698
16	0xbd2577da	-0.040397502
17	0x3b263845	0.002536313
18	0x3d1327ee	0.03592675
19	0x3d88ad4d	0.066736795
20	0xbd473fd5	-0.04864486
21	0x3c6d8e7f	0.014499306
22	0xbb36dad2	-0.0027901423
23	0xbc03184e	-0.0080014
24	0x3d3dc727	0.046332505
25	0x3d9fe42a	0.07807191
26	0x3c2f3d49	0.010695764
27	0x3c951863	0.018200105
28	0xba426d3f	-0.00074167916
29	0xbd357446	-0.04430034
30	0x3d8df316	0.069311306
31	0x3d965d5a	0.07342024
32	0xbc925175	-0.017861107
33	0xbd9e2c06	-0.077232406
34	0xbd5053e2	-0.050861247
35	0x3cd34b64	0.025792785
36	0x3b3bb234	0.0028640153
37	0xbc3f12ff	-0.011662244
38	0x3d9afb26	0.07567434
39	0xbd3c6125	-0.04599108
40	0xbaa0096a	-0.0012209837
41	0x3d3ce99e	0.046121232
42	0xbc5fd23b	-0.013660963
43	0xbd91c622	-0.07117869
44	0xbd8dc8a3	-0.06923034
45	0xbd9661d8	-0.07342881
46	0x3d9055e6	0.07047634
47	0x3ccd99f5	0.025097826
48	0x3d2987e2	0.041389354
49	0xbd1e0efe	-0.038588516
50	0xbc6f74c4	-0.014615241
51	0x3bd138f4	0.006384963
52	0xbd96a9c2	-0.073565975
53	0x3cb16d5b	0.02165859
54	0x3c66e566	0.014092779
55	0xbdaef8b2	-0.085435286
56	0xbd89b5ba	-0.06724115
57	0xbd58e87a	-0.052956082
58	0xbd2c3635	-0.042043883
59	0x3d4dc4c5	0.050236482
60	0x3d28c78f	0.04120594
61	0xbd4114a4	-0.047138825
62	0xbbb35f40	-0.005474001
63	0xbd0a099b	-0.033700567
64	0x3d33195e	0.043725364
65	0xbd07fadb	-0.03319822
66	0xbc9ef467	-0.01940365
67	0xbda8afe6	-0.08236675
68	0x3ccd7b00	0.025083065
69	0x3d61d79a	0.055137254
70	0x3cc769f3	0.024342513
71	0x3d60430c	0.05475144
72	0xbdb4a662	-0.088207975
73	0xbdaa023d	-0.08301208
74	0x3d2e1904	0.042504326
75	0x3d420750	0.047370255
76	0x3dac68c1	0.08418418
77	0x3d867f89	0.06567294
78	0x3da39b2c	0.07988581
79	0x3c17a71f	0.009256153
80	0xbd77d2ec	-0.060503885
81	0x3c828a93	0.015935218
82	0x3d730d02	0.059338577
83	0xbd81f3cd	-0.063453294
84	0x3da041a5	0.07825021
85	0x3aee5296	0.0018182572
86	0xbb8c82e0	-0.0042880625
87	0xbc2a7767	-0.010404444
88	0x3bc8213f	0.006107479
89	0x3d1b08e0	0.03785026
90	0x3d611d25	0.054959435
91	0x3cd015b6	0.025400978
92	0x3cbc2bc2	0.022970084
93	0x3c29b367	0.010357714
94	0xbd3e7363	-0.04649676
95	0x3d67875c	0.056525573
96	0x3d466926	0.04844012
97	0xbd9a1e67	-0.0752533
98	0x3d40a70d	0.047034312
99	0xbc159b55	-0.009131272
100	0x3da0c9bd	0.078509785
101	0x3cb395e5	0.021922061
102	0x3da4b367	0.08042031
103	0x3d346af4	0.04404731
104	0x3c142f4e	0.009044481
105	0xbd8fed6c	-0.070277065
106	0xbd62b9e6	-0.055353068
107	0x3d99bb5a	0.075064376
108	0xbd8cd1de	-0.068759665
109	0xbba5740d	-0.0050492347
110	0x3da0fad0	0.07860339
111	0x3d7c4e37	0.06159803
112	0xbcae537a	-0.02128004
113	0xbd111e51	-0.035429303
114	0x3952195f	0.00020036612
115	0xbd74d6e2	-0.05977524
116	0x3d3b5119	0.045731638
117	0x3d1b9c79	0.03799102
118	0xbd81db5d	-0.06340668
119	0xbd8e9a55	-0.0696303
120	0xbd1c4a66	-0.03815689
121	0x3c716e20	0.0147357285
122	0x3d056a10	0.032571852
123	0xbce323a5	-0.027726958
124	0xbcc22722	-0.0237003
125	0x3d1c16dc	0.038107738
126	0x3d05ae9f	0.032637235
127	0x3da668db	0.08125468
128	0xbccf2ff8	-0.025291428
129	0xbb814b3a	-0.0039457353
130	0x3d87d521	0.06632448
131	0x3dab2971	0.08357514
132	0x3d8e021c	0.06933996
133	0x3c1dc766	0.00963006
134	0xbd659008	-0.056045562
135	0xbc28cdfe	-0.010303019
136	0x3ca30ac4	0.019902594
137	0xbd9d0af7	-0.07668107
138	0xbd65918e	-0.056047015
139	0xbd996798	-0.07490462
140	0xbd0356fe	-0.032065384
141	0xbb072936	-0.002062393
142	0xbca88cce	-0.020574953
143	0xbcce975e	-0.025218662
144	0x3c6bb095	0.014385362
145	0x3bc81c1e	0.0061068675
146	0xbd88db9f	-0.066825144
147	0xbd2715df	-0.040792342
148	0xbd369592	-0.044576235
149	0x3d99f7b5	0.075179495
150	0xbd97d7b3	-0.07414188
151	0xbca7953a	-0.020456899
152	0xbcea580b	-0.028606435
153	0x3d28ebc4	0.04124047
154	0x3c877c02	0.016538624
155	0xbbd8a197	-0.00661106
156	0x3d4a3f71	0.04937691
157	0x3d435a2e	0.047693424
158	0x3d240cd4	0.040051296
159	0x392b573f	0.00016340333
160	0xbdb43a16	-0.088001415
161	0xbc65c9ce	-0.014025165
162	0x3c89e37a	0.016832102
163	0xbd92ddc9	-0.071712084
164	0x3d13a52a	0.036046185
165	0x3d895f74	0.06707659
166	0x3c3b03a3	0.011414441
167	0xbd2cbc91	-0.04217202
168	0x3d78d6e2	0.060751803
169	0xbbcafa45	-0.0061943852
170	0xbd607831	-0.054802123
171	0x396325a2	0.00021662426
172	0xba94e2d3	-0.0011359103
173	0x3d55b469	0.052174006
174	0x3dabad0e	0.08382617
175	0xbbe3fea0	-0.006957844
176	0x3d65133f	0.055926558
177	0x3d7c3e32	0.06158275
178	0xbd5751e4	-0.05256833
179	0xbda6cf98	-0.08145064
180	0x3d73121d	0.059343446
181	0xbda3b149	-0.07992799
182	0x3cd2e3fa	0.025743473
183	0xbd3fc508	-0.046818763
184	0xbd043c98	-0.03228435
185	0xbd904576	-0.070444986
186	0x3cc56502	0.024096016
187	0xbc0b9922	-0.008520396
188	0x3ccf96cf	0.025340466
189	0xbc4d85a6	-0.012544071
190	0x3d900919	0.07032985
191	0xbd5fa51c	-0.05460082
192	0xbd0292ea	-0.03187839
193	0xbb9d1e71	-0.0047948887
194	0x3d1529e3	0.0364169
195	0xbd9a15cf	-0.07523691
196	0x3dab48bb	0.083634816
197	0xbb7e2731	-0.0038780684
198	0x3c83cbaa	0.016088326
199	0xbd6d261f	-0.057897683
200	0xbd086a09	-0.033304248
201	0x3cd6191b	0.026135018
202	0xbda07ddf	-0.07836508
203	0xbb8d2b14	-0.004308114
204	0xbcd225fd	-0.02565288
205	0xbd744122	-0.059632428
206	0x3d94d165	0.07266501
207	0xbd725538	-0.059163302
208	0x3c7a93b6	0.015294006
209	0x3d1ae6a0	0.037817597
210	0x3d16e273	0.036837053
211	0xbb7cfe08	-0.0038603563
212	0x3d86c6dc	0.06580898
213	0xbd65180e	-0.055931143
214	0xbd2113e7	-0.03932562
215	0x3da183b6	0.0788645
216	0x3d5454b1	0.05183858
217	0x3d4982cf	0.049197014
218	0xbd77c454	-0.060489967
219	0x3d231e88	0.03982404
220	0xbd7e9f5e	-0.062163703
221	0xbd48f6ef	-0.04906362
222	0x3d77cc10	0.060497344
223	0xbd5ad17f	-0.053422447
224	0xbda9385f	-0.08262705
225	0xbd063d5e	-0.032773368
226	0x3c620cd3	0.013797003
227	0x3dadf602	0.08494188
228	0xbd1a57f7	-0.037681546
229	0xbdaaea44	-0.08345464
230	0xbd89dd79	-0.06731696
231	0xbd10139e	-0.03517496
232	0xbca74400	-0.020418167
233	0x3d1d78ff	0.03844547
234	0x3d213206	0.039354347
235	0xbd3fc256	-0.046816193
236	0x3c787720	0.01516512
237	0xbbd39abe	-0.0064576557
238	0xbd6fbf88	-0.058532268
239	0xbad1f27a	-0.0016017698
240	0xbc70bf34	-0.014694024
241	0xbd02e641	-0.03195787
242	0x3d54982a	0.051902927
243	0x3b6e51e1	0.0036364722
244	0x3d987146	0.0744348
245	0x3d334f65	0.04377689
246	0x3d5fc8f3	0.054635
247	0xbd2be08f	-0.041962203
248	0x3b486fe9	0.0030584282
249	0xbcf6290c	-0.03004887
250	0xbcec1240	-0.028817296
251	0xbcdd3045	-0.027000556
252	0xbc98b060	-0.01863879
253	0xbd90c3dd	-0.07068608
254	0xbcc75615	-0.02433304
255	0xbd9ecced	-0.0775393

actor.2.bias f4 [128]
0	0xbd11af98	-0.03556785
1	0xbd516d28	-0.05112949
2	0x3d005c1a	0.031337835
3	0x3c5c4ad0	0.013445571
4	0x3d899b08	0.06719023
5	0x3d9ccd42	0.07656337
6	0x3d5006b0	0.050787628
7	0x3d40c54d	0.04706316
8	0xbd99e200	-0.07513809
9	0x3c8214ee	0.01587912
10	0xbcd908b2	-0.026493404
11	0x3d2bcd77	0.041943993
12	0xbce03d5c	-0.027373008
13	0x3c397d18	0.011321329
14	0xbd5e9e14	-0.054349974
15	0xbb07b373	-0.0020706325
16	0xbd61e353	-0.055148434
17	0x3b95ac59	0.0045676646
18	0x3d975fd2	0.07391323
19	0xbbc670c3	-0.0060559227
20	0x3c3ffcd3	0.011717993
21	0x3bee0d4a	0.007264768
22	0xbd1752db	-0.03694425
23	0xbd899250	-0.0671736
24	0xbcfa4a26	-0.030552935
25	0x3c0b213c	0.00849181
26	0x3d4cc9fb	0.04999731
27	0xbd117907	-0.03551581
28	0x3c89b809	0.016811388
29	0xbc8af50a	-0.016962547
30	0x3d1aa90d	0.037758876
31	0xbd6a5b56	-0.05721601
32	0xbdb43714	-0.08799568
33	0x3da7bb13	0.081899785
34	0xbd5f220a	-0.05447582
35	0x3d947093	0.07248034
36	0xbc8c020d	-0.017090822
37	0x3b957d53	0.004562059
38	0xbb750afa	-0.0037390576
39	0x3cf7df30	0.030257791
40	0xbdac5396	-0.0841438
41	0x3bc8024f	0.006103791
42	0xbd4b25c8	-0.049596578
43	0x3d185b9f	0.03719675
44	0xbd03ea75	-0.032206018
45	0xbd7acee0	-0.061232448
46	0xbd1ef637	-0.038809028
47	0xbc6f8e66	-0.014621353
48	0xbc5027be	-0.012704788
49	0x3d555690	0.052084506
50	0x3cf5d6fa	0.030009735
51	0x3d35245f	0.04422414
52	0xbd95e6c7	-0.07319408
53	0x3d6268b1	0.055275623
54	0xbda6022d	-0.08105884
55	0xbd2cfa5a	-0.04223094
56	0x3c1e6cf3	0.00966953
57	0xbd7b3fea	-0.06134025
58	0x3d1929e6	0.037393473
59	0xbd499a99	-0.0492197
60	0x3daacbc9	0.0833965
61	0x3d5a4980	0.05329275
62	0xbc042cb2	-0.008067297
63	0x3d1640c1	0.036682848
64	0xbd9df252	-0.077122346
65	0x3d56a1e6	0.052400492
66	0x3b36af28	0.0027875397
67	0x3d494a73	0.049143266
68	0xbdb22eb6	-0.08700316
69	0x3d0eb1f1	0.034837667
70	0x3da98ef8	0.08279222
71	0xbdb178ae	-0.08665596
72	0xbca15bfc	-0.019697182
73	0xbcbdfbc1	-0.023191335
74	0x3d6da054	0.05801423
75	0xbdb29619	-0.08720035
76	0x3d5b4f27	0.053542282
77	0xbd224f3d	-0.03962635
78	0xbd3367bc	-0.0438001
79	0x3dadbd8a	0.08483417
80	0x3d1d3d15	0.03838833
81	0x3d80617d	0.062685944
82	0xbd958943	-0.07301571
83	0xbc3d4a78	-0.011553399
84	0xbd45ec6e	-0.04832118
85	0x3cc42d27	0.023947312
86	0x3d44b359	0.0480226
87	0x3dad0e66	0.08450012
88	0x3c95f01f	0.018302975
89	0xbb78acd3	-0.0037944808
90	0xbdacdf03	-0.084409736
91	0x3db1121e	0.08646034
92	0xbd14ca0d	-0.036325503
93	0xbd1914d4	-0.03737338
94	0x3ca70648	0.020388737
95	0x3d8e9e55	0.06963793
96	0x3d9e5e86	0.07732873
97	0x3da41338	0.08011478
98	0x3d8d64d3	0.06903996
99	0x3bcf53f7	0.006327148
100	0x3c591385	0.013249283
101	0x3d6b67a1	0.057471875
102	0x3c7f263d	0.015573082
103	0x3bb5e8e7	0.0055514458
104	0x398d142f	0.00026908654
105	0xbb1d7116	-0.0024023703
106	0xbcc80912	-0.024418388
107	0x3d571f7a	0.052520253
108	0x3d1a62af	0.03769177
109	0xbcdfe7c1	-0.027332189
110	0xbd386311	-0.045016352
111	0x3d8c4f84	0.06851104
112	0xbd80a1ef	-0.062808864
113	0x3d3a494b	0.045480054
114	0x3a9061e3	0.0011015501
115	0xbd8453c3	-0.06461289
116	0x3d61d263	0.05513228
117	0x3d8f8ec5	0.07009653
118	0xbd445b45	-0.047938604
119	0xba910d01	-0.0011066498
120	0xbc5c2085	-0.013435488
121	0xbbdc1195	-0.006715963
122	0x3cba8cc7	0.022772206
123	0xbbe0c733	-0.006859684
124	0x3c5dc600	0.013535976
125	0xbb9a0f25	-0.0047015124
126	0xbbdbf070	-0.006712012
127	0x3d13f251	0.036119763

actor.4.weight f4 [5, 128]
0	0xbc567573	-0.0130895255
1	0x3d899b7b	0.06719109
2	0x3ce8efaf	0.028434603
3	0xbd2d283f	-0.04227471
4	0x3d53afd6	0.051681362
5	0x3cafb1c2	0.021447066
6	0xbd4b602c	-0.049652264
7	0x3d32202d	0.043487716
8	0xbd384e73	-0.04499669
9	0xbcf9f442	-0.030511979
10	0x3d9e11dd	0.07718251
11	0x3d1829a9	0.037149105
12	0xbcbf496b	-0.023350438
13	0x3d5aa45d	0.053379405
14	0x3d8a935c	0.06766388
15	0xbccfbe9b	-0.025359442
16	0xbd171c9e	-0.036892526
17	0x3d9e90f9	0.07742495
18	0x3d44a086	0.04800465
19	0x3d9f4b74	0.077780634
20	0x3c075222	0.008259328
21	0xbd5e5ab7	-0.05428573
22	0x3d73957e	0.05946874
23	0x3b8fc570	0.00438755
24	0x3cae0b4e	0.021245625
25	0x3cd2f098	0.02574949
26	0x3d9333a7	0.07187586
27	0xbd2dbd29	-0.042416725
28	0x3d8a75ee	0.067607746
29	0x3d4fe960	0.050759673
30	0xbd632802	-0.055458076
31	0xbcb08c7a	-0.02155136
32	0xbd45a6b4	-0.048254684
33	0x3cbc8cc4	0.023016341
34	0x3da81be9	0.082084484
35	0xbd988cd9	-0.074487396
36	0xbd3aaa2d	-0.04557245
37	0x3d213ed9	0.039366577
38	0x3ce91ac0	0.028455138
39	0xbb9f6985	-0.004864874
40	0xbd2a5ef7	-0.04159447
41	0xbc37ca9f	-0.011217742
42	0x3d162e64	0.036665335
43	0x3cf868fc	0.030323498
44	0x3cb1980c	0.021678947
45	0x3c26ad4c	0.010173153
46	0xbce9c573	-0.028536534
47	0xbd8149c9	-0.063129015
48	0x3d16a7de	0.036781184
49	0xbd9c01fb	-0.07617565
50	0x3d590a79	0.052988503
51	0xbd95b00a	-0.073089674
52	0xbd9c7147	-0.076387934
53	0xbcc1a6ed	-0.023639167
54	0x3d5b49d9	0.053537223
55	0x3d93fbfe	0.07225798
56	0xbd852344	-0.06500867
57	0xbda25add	-0.07927487
58	0x3d151dd8	0.036405414
59	0xbdb0007d	-0.08593843
60	0x3d237b8a	0.039912738
61	0x3d641b71	0.055690233
62	0xbb812ca5	-0.0039420896
63	0xbc121a04	-0.008917335
64	0x3d952962	0.07283284
65	0x3d92978c	0.071578115
66	0xbda1f284	-0.07907584
67	0x3d1cc430	0.038273036
68	0x3c79bd53	0.015242892
69	0x3d952548	0.072825015
70	0xbb18e5e5	-0.0023330387
71	0x3dae9ad6	0.08525626
72	0x3d8c5474	0.06852046
73	0xbcaff555	-0.021479288
74	0x3d935491	0.07193864
75	0x3cd4d20c	0.025979064
76	0x3d975f26	0.07391195
77	0x3d1b9d3f	0.03799176
78	0x3d032842	0.032020815
79	0x3daa21af	0.08307206
80	0x3c8cec47	0.01720251
81	0xbd1b4c32	-0.037914462
82	0xbd6fc059	-0.058533046
83	0x3d93ad74	0.07210818
84	0x3c23f1d6	0.010006389
85	0xbd9f9a3b	-0.07793089
86	0x3dab1358	0.08353299
87	0x3d53a222	0.051668294
88	0xbd06c801	-0.032905582
89	0x3d9a9a4f	0.07548963
90	0x3d7dc74a	0.061957635
91	0xbd9839c4	-0.07432893
92	0xbd041f8c	-0.032256648
93	0x3d1da28d	0.0384851
94	0xbda4e854	-0.080521256
95	0x3c87eaa0	0.01659137
96	0xbd99b7d3	-0.07505765
97	0x3dad7b88	0.08470827
98	0x3bf0daa6	0.0073502837
99	0xbd49c0d3	-0.049256157
100	0xbd27493f	-0.040841337
101	0x3ce42617	0.027850194
102	0x3ccb7f7f	0.024841068
103	0xbd2e5653	-0.042562794
104	0xbd8ed452	-0.06974091
105	0x3bcd3093	0.006261894
106	0xbd5e4c57	-0.054272022
107	0xbcb969b7	-0.022633417
108	0xbc7c55a7	-0.0154012805
109	0xbdb12d22	-0.086511865
110	0xbd988ef3	-0.074491404
111	0xbda4b831	-0.08042944
112	0xbdb0355d	-0.08603928
113	0x3dad8d75	0.084742464
114	0xbbc813e6	-0.0061058877
115	0xbbe710ee	-0.0070515787
116	0xbc8637aa	-0.016383965
117	0xbd71636e	-0.058932714
118	0x3d4b49dd	0.04963099
119	0x3d3d4377	0.046206918
120	0xbcdd3911	-0.02700475
121	0xbd7c9efb	-0.061675053
122	0xbc1499c5	-0.009069865
123	0xbda3d062	-0.0799873
124	0xbcdc8576	-0.026919108
125	0xbb96c04c	-0.0046005603
126	0xbc23837c	-0.009980079
127	0xbcdf4e5b	-0.027259042
128	0xbd2cafc9	-0.04215983
129	0xbc99ca72	-0.018773291
130	0x3d8301cc	0.06396827
131	0xbc652216	-0.0139851775
132	0xbc85f3ce	-0.016351607
133	0x3d33288c	0.04373984
134	0xbd1102f3	-0.035403203
135	0xbc084966	-0.008318281
136	0xbd8efb65	-0.069815435
137	0xbd2cfacb	-0.042231362
138	0x3cce1679	0.0251572
139	0xbcae6ff0	-0.02129361
140	0x3d669ddc	0.05630289
141	0xbd163eb5	-0.036680896
142	0x3b51afa8	0.0031995568
143	0xbd5e3846	-0.054252885
144	0x3c8807dc	0.01660531
145	0x3d540472	0.051762052
146	0x3b55dbeb	0.0032632302
147	0xbd39e208	-0.045381576
148	0x3da7b667	0.08189087
149	0x3da8359c	0.0821335
150	0x3cca5b5f	0.024701772
151	0x3d031eef	0.032011922
152	0x3d1f360e	0.03886991
153	0x3bba1a61	0.005679414
154	0x3d1f4c38	0.038891047
155	0xbcf1b8c5	-0.02950705
156	0xbc587762	-0.013212057
157	0xbc7b3450	-0.0153322965
158	0xbd8cb946	-0.068712756
159	0x3bbc18bc	0.0057402533
160	0x3d822b3c	0.063559026
161	0xbd6eadfe	-0.0582714
162	0x3cbca556	0.023028057
163	0x3d93af14	0.07211128
164	0xbd92c020	-0.07165551
165	0x3d59c227	0.053163674
166	0x3d939324	0.07205799
167	0x3dadcde9	0.0848654
168	0xbd9c50be	-0.07632588
169	0xbcccf26b	-0.025017938
170	0xbda7c1c0	-0.08191252
171	0x3da4f22b	0.080540024
172	0x3c0bf03d	0.008541164
173	0xbc7ccfa0	-0.015430361
174	0x3d84cefc	0.06484792
175	0xbc53e536	-0.012933066
176	0xbd1ef429	-0.038807068
177	0xbda84b6b	-0.0821751
178	0x3d06f827	0.0329515
179	0x3ccce627	0.025012089
180	0x3cf0691d	0.029346997
181	0xbd4daa4f	-0.050211247
182	0xbd3d3971	-0.04619736
183	0xbd3c0b1a	-0.045909025
184	0x3b87a02e	0.004138968
185	0x3c1afabf	0.009459197
186	0xbc88f24f	-0.016717104
187	0xbc5f939c	-0.013646033
188	0x3d109121	0.035294656
189	0x3d3e4e52	0.04646141
190	0xbd9df569	-0.07712824
191	0xbd5d2435	-0.053989608
192	0x3d3ccc79	0.046093438
193	0x3d01c33f	0.03168034
194	0x3a7814cb	0.00094635476
195	0xbd8df5fc	-0.069316834
196	0x3d25b43b	0.040455084
197	0x3cb5f3b5	0.022210935
198	0xbdb287ad	-0.08717284
199	0x3d30b1b3	0.043138217
200	0xbd9da7e2	-0.07698037
201	0xbd1954f5	-0.037434537
202	0xbc4aaa80	-0.012369752
203	0xbd8c03b3	-0.06836643
204	0x3c24eef0	0.010066733
205	0x3da591c5	0.08084444
206	0x3d2a8c7f	0.041637894
207	0xbd9357d2	-0.07194485
208	0x3a066886	0.00051272695
209	0x3d98c30c	0.07459077
210	0x3d850676	0.06495373
211	0x3d51cb80	0.051219463
212	0xbd7b34d2	-0.06132967
213	0x3d18e22c	0.03732507
214	0x3d2791d3	0.040910553
215	0x3d45e59d	0.04831468
216	0xbd4b9441	-0.049701933
217	0xbd1b7288	-0.037951022
218	0xbda128ef	-0.078691356
219	0x3d7699eb	0.06020538
220	0x3d81cbd5	0.06337706
221	0xbd2a22b7	-0.041537013
222	0x3c06ce2b	0.008227865
223	0x3db0a75e	0.08625673
224	0xbc0ca5ca	-0.008584449
225	0xbd8fb791	-0.070174344
226	0xbd6c2a5e	-0.057657592
227	0x3c80ff20	0.015746653
228	0x3d8d610e	0.06903277
229	0x3c5731a1	0.013134391
230	0xbc8e5783	-0.017375713
231	0xbd55586e	-0.052086286
232	0xbd8d5ab7	-0.06902068
233	0xbbed0ba3	-0.007234053
234	0xbd0b6fcf	-0.034042176
235	0xbc84984f	-0.016185908
236	0xbd5dd3bc	-0.054157004
237	0x3c50e666	0.012750244
238	0x3c470859	0.012147986
239	0x3cede354	0.029039063
240	0xbd6f9841	-0.05849481
241	0x3d0e30af	0.034714397
242	0x3d0791c0	0.033097982
243	0xbd4d87d6	-0.05017837
244	0xbbd9af70	-0.0066432282
245	0x3b35ad6b	0.0027721773
246	0x3d902c63	0.07039716
247	0xbce20988	-0.027592435
248	0x3cae37ad	0.021266783
249	0x3cd11029	0.025520401
250	0x3d267731	0.040641014
251	0xbceff2fc	-0.029290669
252	0xbd221273	-0.039568376
253	0x3c541d83	0.012946489
254	0x3d02bcb3	0.03191824
255	0x3d2a2fc1	0.041549448

actor.4.bias f4 [5]
0	0xbd9f3d19	-0.07775325
1	0xbd9716b4	-0.07377377
2	0x3da9f8b4	0.082993895
3	0x3cd84edb	0.026404789
4	0xbc4dcb4d	-0.012560678
