ippo_algorithm/checkpoints/ppo_actor_2num_agent_exp_4run_0_lumberjacks.pth (torch, 173296 bytes, 8 tensors)

actor.0.weight f4 [128, 67]
00000000: 74ba 8b3b 419f a6bd be79 413d 68f2 f73d
00000010: c38d eebd 6ac5 c03d 23e5 353d 1a3a e43c
00000020: 2d04 adbc dbdf b53c b577 8bbd 5ae2 35bd
00000030: 2516 aebd c409 39bd 1da9 eabd e17f a1bd
00000040: 47a1 b6bd e2ff 5b3d f96b 99bd e84d bebd
00000050: 7bc2 e43d 5a3e 61bc fda6 c83d 1a45 b4bd
00000060: 288a e23d f94a d03b c315 f8bd 68ea 813d
00000070: a437 5f3d b7d3 e23d ee4c 20bd dac9 4ebd
00000080: 0b50 8dbd 86f2 013d ffd4 02bb 3a15 c2bd
00000090: 09bc a4bb cb2b 763d a0ac 17bd 4f14 babd
000000a0: 54ad 923c a38a 5c3d 5439 9c3d 8da9 4b3d
000000b0: a826 3b3d 4224 c6bd cfea 35bc 628c 9e3c
000000c0: af47 08ba f1a8 3c3d dd48 d73d bfd4 b8bc
000000d0: 7101 36bd 24c2 993d 8d22 c33d 71a5 eebd
000000e0: f9f7 3a3d f4d4 f63d 50aa 46bd b1a7 c43d
000000f0: ad6f 49bd 5edf dabc 43b1 2abc 3d3b ee3d
00000100: d829 be3d 8a95 f2bb 16dd 4f3d 8543 263d
00000110: 7efc fabc 194e d3bd 1ecd 6e3d 9add 513d
00000120: cf46 c03d 15f2 36bd 8534 ecbd 8ee7 c03d
00000130: 01b0 e0bd 4234 bc3c f881 ce3c f3ee 9fbc
00000140: d2bd b5bc 07e7 75bd b2a9 6dbd b2cc 9cbd
00000150: f090 e5bd dc31 c83d f662 653b dab0 be3d
00000160: 5823 b2bd c4ac aabd 1902 f53d f959 3bbd
00000170: f2db dfbd 73b5 9abd 845d c9bd c272 90bd
00000180: 4074 c0bd 53c0 973c 3609 01bd 8e4b 1b3d
00000190: 803f d43c 66e3 9e3c 4b72 54bc 8a6b a7bd
000001a0: b599 b73d 0e5b 8c3d 9145 b1bd eac6 bfbd
000001b0: bf5d 233d 22f7 be3d 4469 da3d 1885 eb3d
000001c0: 0c79 dfbc 2059 1f3d 4971 013d 92dc f2bd
000001d0: cb23 ec3d 8bae a5bc a0fc 3cbc 33de ae3d
000001e0: b930 d73d facf e5bd 06ac 3c3d b9a9 083c
000001f0: 2f08 c43d 4296 89bd 95fe 32bb 89d4 48bd
00000200: bb51 08bd 5ebb f9bd 8e75 cd3d 4a94 7a3d
00000210: 4c23 66bc 1ea2 ac3d 0972 afbc 2aa3 8f3d
00000220: 4912 c53d 56be d8bc 3685 093d 85fc a83c
00000230: 340e f2bc 120b e73d c61a de3c 4daf cc3d
00000240: 811f a3bc 71f7 cbbd bed8 c83d 60d6 f43d
00000250: 376f c1bd a92b 79bd 5aae a4bc 04ec 8ebd
00000260: 5905 823d 7741 1d3c c30d c43d 4180 8a3d
00000270: 6af7 85bd 1949 9c3d 8648 acbd 4e08 2f3c
00000280: 5983 513d 9a5d 363c 0b8c ebbd c7c7 4cbd
00000290: 68c4 ae3c 18fa a13d dd6a debd cb66 1fbc
000002a0: 6115 c8bd f810 a9bd 1f4c 46bd 87cb 3e3d
000002b0: c9e1 edbd 2d72 88bd 65bc b73d 2537 d73d
000002c0: 9e68 0cbd 9142 493d 86bf 883d d274 ad3d
000002d0: 30e6 1dbd f1bb a63d 00c7 a9ba f738 a83d
000002e0: d700 51bc b988 443d a3ed 9f3c df4d b7bd
000002f0: 1901 8abd e728 dd3d 75c6 dbbd 2a92 9ebd
00000300: 732d 4c3d 8f2d 1dbd 331b 8d3d da06 503d
00000310: 1571 c83d 46e7 2f3d 99ec 823d 22cc 29bc
00000320: 89fb d33d c88e 293b 5531 943d c634 953d
00000330: 07e5 123c 8a0e 9fbc 61bc a2bd e812 acbb
00000340: ee30 9d3d ff2d 85bd 0e9f eb3d 80cc 1fbc
00000350: 42b2 fa3c 32a7 babd 1014 95bd 3dd8 5d3d
00000360: 42b2 a2bd 88ff a2bd 6af8 eb3d 8dbc 933d
00000370: 31a3 eb3d 49e6 89bd 85d0 843a 9b9f 7d3d
00000380: 4e36 e1bd 393d 66bd e3e6 f63d 65a9 26bd
00000390: e1d9 043e ee0d 4abc d346 ac3d 7f94 35bc
000003a0: 6d2c 063d dcc2 0abd 2d9c bb3d 0cff 903d
000003b0: 308b 92bd 42f1 a83d 56ea b53d f9f4 78bd
000003c0: e1f6 313c 5774 d4bd 72df d33c e445 7b3d
000003d0: 4a78 9ebc 772d 9bbd 436a c9bd 70ec e33d
000003e0: 3bbd 863c 1f9e 95bd e976 20bd dd01 a63b
000003f0: 6870 e93d 639c b83d 2c89 1d3c dd63 ec3d
0.0042641703 -0.08135844 0.047235243 0.12106782 -0.11648133 0.09412654 0.044407975 0.027859736
-0.021120155 0.02220147 -0.06809942 -0.04440532 -0.085003175 -0.04517533 -0.11458037 -0.07885719
-0.0891748 0.053710826 -0.07491297 -0.09292203 0.11169907 -0.013747776 0.097974755 -0.088022426
0.110615075 0.0063565937 -0.12113526 0.063435376 0.054496422 0.11075538 -0.039135866 -0.05048547
-0.069000326 0.03172543 -0.0019963381 -0.09476705 -0.0050272983 0.060100358 -0.037029862 -0.09085905
0.017904915 0.05384315 0.07628122 0.049722243 0.045691162 -0.096748844 -0.011103346 0.01935405
-0.000519867 0.046059553 0.105119444 -0.022562383 -0.04443497 0.075077325 0.095280744 -0.11652649
0.04564664 0.12052336 -0.048502266 0.09602297 -0.049178768 -0.026717838 -0.010418239 0.116323926
0.09285325 -0.0074030804 0.050747953 0.040591735 -0.030637976 -0.1031763 0.058301084 0.051236726
0.09388506 -0.04466446 -0.11533455 0.094191656 -0.1097107 0.022974137 0.025208458 -0.01952312
-0.02218524 -0.060034778 -0.058023162 -0.0765623 -0.11209285 0.09775135 0.0035001612 0.093110755
-0.086981475 -0.08333734 0.11963291 -0.0457401 -0.10930623 -0.0755414 -0.0983229 -0.07053138
-0.09397173 0.018524325 -0.031502925 0.03791385 0.025909185 0.019395541 -0.012966703 -0.08174808
0.08964864 0.06853305 -0.08655847 -0.09364112 0.039884325 0.093244806 0.10664609 0.11499995
-0.0272794 0.038903356 0.031602178 -0.11858477 0.115302645 -0.02022483 -0.01153484 0.08538475
0.1050734 -0.11221309 0.04606249 0.008341246 0.095718734 -0.067181125 -0.0027312387 -0.049030814
-0.03328107 -0.121939406 0.100321874 0.061176576 -0.014046501 0.08429359 -0.02141668 0.07013543
0.09622628 -0.026457947 0.033574305 0.020628223 -0.029547788 0.11281408 0.027112376 0.099943735
-0.019912483 -0.09959305 0.09806965 0.11954951 -0.09445041 -0.060832653 -0.020102669 -0.0697861
0.06348676 0.009598128 0.09572937 0.06762744 -0.06541331 0.0763113 -0.0841227 0.010683132
0.051150654 0.011130715 -0.115013205 -0.04999521 0.021333888 0.0790903 -0.10860226 -0.009729098
-0.09769703 -0.0825519 -0.04841244 0.046580818 -0.11615331 -0.06662402 0.0897148 0.10508565
-0.03427946 0.04913575 0.06677155 0.08469547 -0.038549602 0.08141316 -0.0012952983 0.0821399
-0.012756548 0.04798195 0.019522494 -0.089503996 -0.067384906 0.10798817 -0.10731212 -0.07742722
0.04984803 -0.038373526 0.068899535 0.050787784 0.09787194 0.04294517 0.06392784 -0.01036361
0.10350711 0.0025872458 0.07235972 0.07285456 0.008965737 -0.019416112 -0.07946087 -0.0052512772
0.07675348 -0.06502914 0.11504947 -0.009753346 0.030602578 -0.09113921 -0.07279217 0.0541613
-0.07944156 -0.07958895 0.115219906 0.072136976 0.11505736 -0.067333765 0.0010132944 0.06191979
-0.10996686 -0.05621073 0.12055757 -0.04068889 0.12973739 -0.012332423 0.08411946 -0.0110827675
0.03275721 -0.03387724 0.091606475 0.07079896 -0.07155454 0.08249141 0.08882587 -0.0607805
0.010862083 -0.103737526 0.025863383 0.06134595 -0.019344468 -0.07577031 -0.09834721 0.11129081
0.016447654 -0.0730555 -0.0391759 0.00506614 0.11398393 0.090142034 0.009615224 0.11542485

actor.0.bias f4 [128]
00000000: 4375 743c f566 ccbc 5937 b5bd ec5e df3b
00000010: e182 bcbd ac85 ccbd 2e6e ba3d f784 e23c
00000020: 6a23 513d 6538 84bd dd9b 7f3c 1a35 903d
00000030: 0fff 51b9 d113 e5bd 3446 013d 8551 efbd
00000040: 3377 2ebd 48f1 e83c 36fa 0f3d 8bee af3d
00000050: 48e8 b03d 45f8 c53d f220 683c 4b63 39bd
00000060: b7e8 eabd 7385 d3bd e73d a0bd 2c0b e23d
00000070: bcc1 6abc 7720 b93d 2be7 e63d 8cac 00bc
00000080: b691 70bd f8d5 d83d e5a3 003d 0515 e1bd
00000090: fc47 9f3d b28b d13d 80d5 b03d e0bf e9bd
000000a0: 2777 cfbd b6a0 1a3d 3b70 efbc e00d 3ebd
000000b0: 1840 92bb 1b4c 7a3d 6bde b6bd 3984 c93d
000000c0: 8c52 6a3d 3d17 703d 363b f7bc e183 1f3d
000000d0: 7241 b2bd e9be 90bc 55a8 153d 8142 70bd
000000e0: f111 90ba a923 d03c 7164 20bd cac2 d13d
000000f0: 3b51 063d a5b0 70bd c076 8dbd 1c1e b93d
00000100: b907 873d 37c0 05bc 7f54 243d b9f9 94bd
00000110: fd85 eebc 67a9 7c3d a1b0 2cbd e07c 7d3d
00000120: 1fa0 bdbb 4991 96bd 4310 f73b 995b 833c
00000130: aa5d 7f3c 2f1f 85bd 2463 8c3d e89d 52bd
00000140: ffff 623d d5a3 eb3c 707a 873d 4ee6 bcbd
00000150: 5bf8 47bd 70db b43c 5e8f 213b 457c 76bd
00000160: e89b fa3c d0fa d0bd 7b6f 8b3c b94e c53b
00000170: 1ac1 f73d 2d05 8f3d b072 273b 612b 17bd
00000180: 3e74 f73d e494 b23d 2352 c03d 9bb7 babd
00000190: 6fc7 1c3a e7c8 e03d 946e db3d 2b8e e23d
000001a0: 0f7f 61bb 42d2 de3d d5e3 173c b197 c13c
000001b0: 6751 2b3c ea23 1ebd 99f8 a13d 6b0a debc
000001c0: dc0a 873d 9b96 8f3d ff2e b33d 7a12 c9bd
000001d0: fb5b 0ebd 7583 933d 6a15 a4bc 1a34 cebd
000001e0: ce7e 8ebb 117c fd3d bb02 9cbd 49e4 193b
000001f0: 7c9e f83d c4be bd3c b282 373d caab c43d
0.0149205355 -0.024951437 -0.08848447 0.0068167355 -0.09204651 -0.099864334 0.09103046 0.027651293
0.051059164 -0.06456069 0.015601126 0.07041378 -0.0002002681 -0.1118542 0.03156109 -0.116854705
-0.042594146 0.028435364 0.03515073 0.0859042 0.08638054 0.09666494 0.014168011 -0.04526071
-0.11470168 -0.10328188 -0.07824307 0.11037287 -0.014328416 0.09039395 0.112745605 -0.007853638
-0.05873271 0.10587686 0.031406302 -0.10990337 0.07777402 0.10231723 0.08634472 -0.114135504
-0.101301484 0.037750922 -0.02922832 -0.04639995 -0.004463207 0.061107736 -0.089291416 0.098396726
0.05720763 0.05861591 -0.030179601 0.03894413 -0.08703889 -0.017669158 0.036537487 -0.058657173
-0.0010991675 0.02540763 -0.03915829 0.10242231 0.03279231 -0.05876221 -0.069074154 0.09038946
0.0659327 -0.008163503 0.040119644 -0.07274193 -0.029116625 0.061684992 -0.042160634 0.06188667
-0.00578691 -0.0735193 0.0075397803 0.016034888 0.015586296 -0.065000884 0.06854847 -0.051420122
0.05541992 0.028764645 0.0661515 -0.09223615 -0.048820835 0.022077292 0.0024652104 -0.060177106
0.03059192 -0.10204089 0.017020931 0.0060213474 0.12097378 0.06983409 0.0025550537 -0.036906604
0.12082718 0.08719805 0.09390666 -0.09117051 0.00059806457 0.10975819 0.107144505 0.11062273
-0.0034408008 0.10879947 0.009270628 0.023631902 0.01045642 -0.03860847 0.07908744 -0.027104577
0.06593868 0.070111476 0.08749198 -0.09817977 -0.03475569 0.07202808 -0.020029742 -0.10068531
-0.0043486124 0.123771794 -0.07617708 0.0023482016 0.121396035 0.023162253 0.044802375 0.09603079

actor.2.weight f4 [128, 128]
00000000: a2b9 6b3c 8a3d a0bd 130d 963d b77f bbbd
00000010: c158 ba3c 9628 c33d 9bb8 17bd a9c3 f6bc
00000020: 2cf9 81bd 453e 54bc 8e98 163c 5edd 0bbd
00000030: 07ea 4abd 6002 843d 1d80 1c3d e549 08bd
00000040: 498c 3d3d e7cc 8d3d c2d5 90bd a681 973d
00000050: 5e70 5d3b 02c3 5fbd f78c 1ebc 9e72 8bbc
00000060: ce8f 02bd 421e 6b3d 0236 15bb 2708 30bd
00000070: 1630 5bbc 6d75 b33c 79dd 133c 8bd2 d8bc
00000080: afac 91bc 5d2b 91bd 0d60 83bb a7c9 d03c
00000090: 9b0f 77bd f80f 81bb 2f7e 37bd 1e20 81bd
000000a0: a449 6e3d f9e9 9cbd 3c69 21bd e3d9 34bd
000000b0: 14a1 01bd 13c1 b3bd b63a 6bbb 3e3f 263d
000000c0: a4bc 433d d9f3 81bd 32cd 9cbd 270d 65bd
000000d0: 244d 813d 0645 b83d 8d87 483d 296e 543d
000000e0: 0b19 78bd 3464 1d3d 306a 11bc a301 91bc
000000f0: b257 973c 99e8 52bd ce15 a03c 4ccf 873d
00000100: 77a6 953d b881 82ba 0d6e 4bbd 06b7 96bd
00000110: 3ac5 873d be1c 443d 5f8e 8a3c 3bcb af3c
00000120: feed fbbc 8843 8d3d efc4 6dbd 217c 80bd
00000130: c4d8 84bd 8ed6 60bd 98cd ae3c 221d 693d
00000140: e50d 6e3d 74d9 973b e181 b7bc efa0 6ebd
00000150: 38c4 c23c 4509 7e3c a103 15bd b0e6 c9bb
00000160: b437 963d 78c4 91bc f0d4 a53d b699 a63d
00000170: 2726 a7bd 7736 503d bd77 583b a91b 88bd
00000180: bbe3 813d faae 913d 03d3 983c 79c9 4bbd
00000190: 3b29 253d 3ed4 333d 9242 4abd a640 51bd
000001a0: 935b 383d d084 ba3d 8ea3 013d 3412 b63b
000001b0: af31 313d 8ce9 19bd cc54 dfbc d7d3 b93c
000001c0: e167 233d 6f51 dcbc 94c5 cabc 280b fabb
000001d0: 9ab1 e3bc 4ef6 70bc bc08 033d e4f4 a33d
000001e0: b66d fdbc 3f90 99bb 42ff fc3b 0da7 913d
000001f0: e462 66bc 2ee3 13bd 8dd7 a83d 502b 65bd
00000200: a4b2 b53c da59 05bd add0 6c3d 9405 863d
00000210: 9c1e 963c 4e70 863d c9b9 273d 4dd7 86bd
00000220: 1271 c3bc ddd1 5f3d e262 f9ba 44b0 613d
00000230: fac8 93bd 37c7 673d 13d9 2f3c c3c7 1bbd
00000240: da4b a8bd 771d 1abd b7b4 463c a94c 9e3d
00000250: b073 a63d 84ae 72bd aedc 433d 5ade a3bd
00000260: 3876 bdbd 6e50 a9bd eb66 deba ed46 4bbd
00000270: 4c9c 03bd edad 893d c13b 6c3c 1ac1 7e3d
00000280: 5656 a1bd 8535 a73c afa6 76bd a44a 4d3d
00000290: 41f0 4d3c 567a 443d 9421 883d fe80 373d
000002a0: 7307 5bbc 6cef 133c 5bf4 b7bc 37d1 5b3d
000002b0: 09ac b83d bfe5 f53b d7b8 1abd 54dc 0d3d
000002c0: 3eaa b6bb bd6a f13c c653 77bc 78c7 803d
000002d0: 7b23 8cbd af4b a13c 482e 6a3d 506e 9ebc
000002e0: bc37 92bd 7065 bdbd 71bc 603b ab7d 36bc
000002f0: 07bd 92bb bbfc 83bd b1c4 0b3d ce1f 243d
00000300: 64b2 c43c e196 56bd d55e 353d 66f8 843b
00000310: 9f77 88bd 5c80 8dbd d082 643c 8635 a23d
00000320: 62e4 553d bab0 6dbd c433 d7bc 2d40 2abb
00000330: b9af b0bd 9d5f 76bc fd96 913c c525 903d
00000340: c7b2 2c3d 3d22 0abc 02b5 94bd d474 42bd
00000350: 3c62 273d 5573 a8bd 661a e73c afde 623d
00000360: 3a65 5dbc f178 9cbc ab94 71bd 2dee 903d
00000370: 83d0 8ebc 5501 b8bc 42bf 71bc 0231 c2bc
00000380: 8f16 05bd ccbc d8bc 1b37 acbd f085 0c3d
00000390: 4d54 25bd b8ee e2bc 432a a4bc c621 97bd
000003a0: f196 99bd 4b3c 023c 7b85 8fbd a725 aebd
000003b0: 6f60 acbc 4193 823d e7f1 0a3d 1d35 213d
000003c0: e52c 6b3d 2b1f 92bc b0ac 6dbd 5bdb 863d
000003d0: c3a4 8abd 874a b63d 56f6 9fbc e898 503d
000003e0: b5ad 9d3d 7250 25bd 48f9 20bb 85ec 9d3d
000003f0: a232 9ebc d9d7 a63d a3d9 dabb f19b e8bc
0.01438752 -0.07824238 0.073267125 -0.09155219 0.0227474 0.095292255 -0.037041288 -0.030122595
-0.06346354 -0.012954299 0.009191645 -0.03414666 -0.049539592 0.064457655 0.038208116 -0.033273596
0.046276364 0.06923848 -0.07072021 0.07397775 0.00337889 -0.054629333 -0.009677163 -0.017022427
-0.031875424 0.057401903 -0.0022767787 -0.042976525 -0.013378164 0.021906579 0.009024971 -0.026467582
-0.017782537 -0.07088349 -0.004009253 0.02548678 -0.060317617 -0.003938671 -0.044798072 -0.06304954
0.058175698 -0.07661814 -0.039407 -0.044153105 -0.031647757 -0.0877706 -0.0035893149 0.040587656
0.047787324 -0.063453384 -0.076563254 -0.055920746 0.063135415 0.0899754 0.048957396 0.05186287
-0.060570758 0.03842564 -0.008875415 -0.017700976 0.018474434 -0.051491354 0.019541647 0.066313356
0.07307141 -0.0009956872 -0.0496655 -0.07359128 0.06629415 0.047878973 0.016913591 0.021459213
-0.030753132 0.06897646 -0.05804914 -0.06273676 -0.06486657 -0.054892115 0.02133827 0.05691255
0.05811872 0.0046340767 -0.022400798 -0.058258947 0.023775205 0.01550514 -0.036380414 -0.0061615333
0.07334843 -0.017793879 0.08097255 0.08134787 -0.08161574 0.05083319 0.0033030354 -0.06645901
0.06342264 0.07113452 0.018655306 -0.049752686 0.040322524 0.04390358 -0.049379893 -0.051087044
0.045009207 0.09107363 0.03165012 0.005556369 0.043260273 -0.037576243 -0.027262114 0.02268402
0.03989399 -0.0268943 -0.024752416 -0.0076307245 -0.027794648 -0.014707161 0.03199075 0.080056936
-0.030936103 -0.004686385 0.007720859 0.071119405 -0.014061663 -0.036105327 0.08244238 -0.05594951
0.022179909 -0.032556392 0.057816196 0.06544033 0.018325143 0.06564389 0.040948663 -0.06584034
-0.023857627 0.0546435 -0.0019026662 0.05509974 -0.072160676 0.05658647 0.010732907 -0.038032304
-0.082175925 -0.037625756 0.012128047 0.077294655 0.081275344 -0.059248462 0.04781788 -0.080013946
-0.09251064 -0.08267294 -0.0016967928 -0.049628187 -0.03213148 0.06722627 0.014418543 0.062195875
-0.078777954 0.020411262 -0.060217556 0.05012001 0.012569488 0.04796823 0.066470295 0.04480075
-0.013368475 0.009029251 -0.022455385 0.05366632 0.09017188 0.0075041945 -0.037773933 0.03463395
-0.0055744937 0.029469842 -0.015095657 0.06288046 -0.06842705 0.019689409 0.057173043 -0.01933971
-0.07139537 -0.09247863 0.0034292007 -0.01113836 -0.0044781 -0.06444689 0.034123126 0.040069394
0.024010845 -0.052389983 0.044279892 0.0040579317 -0.06663441 -0.06909248 0.013947204 0.07920365
0.052219756 -0.058029868 -0.026269801 -0.0025978193 -0.086272664 -0.015037444 0.017772192 0.07038454
0.042162683 -0.008431015 -0.07261087 -0.047474697 0.040865168 -0.08225123 0.02821083 0.05538815
-0.013512904 -0.019100638 -0.05897967 0.070766784 -0.01743341 -0.022461573 -0.014755072 -0.02370501
-0.032492217 -0.026457213 -0.08408948 0.03430742 -0.0403636 -0.02770172 -0.020039683 -0.07379489
-0.07499493 0.007948945 -0.07007881 -0.08503275 -0.021042077 0.06375743 0.033922102 0.039357293
0.05741586 -0.017837128 -0.058026016 0.065848075 -0.06769707 0.08900934 -0.019526642 0.050927073
0.076991476 -0.04035992 -0.0024562646 0.07711128 -0.019311253 0.081466384 -0.0066787763 -0.028394671

actor.2.bias f4 [128]
00000000: 960a 0d3d 6351 1b3d be5d 34bd 33cb 6e3d
00000010: c4ac 223d dcfb b1bd ffe7 70bd e17e 623d
00000020: 4e3a b03d ccb8 a73d a041 d93c cc4f af3c
00000030: 5d2e a73d 01d6 853d 0866 963d 8cc2 d6bc
00000040: aa20 933d 55cc 91bd 4bb4 59bd 4937 ae3d
00000050: 3e3a 4c3d 8124 5cbd c1e1 f03c 6ef1 a13d
00000060: 5fd6 2d3d 0809 61bd 3754 e33c 813d 94bc
00000070: d445 44bd 829f 18bc 43a8 9ebd be0a 103d
00000080: 715c 713d 25a0 bdbc 7e26 bebb ec7c 58bd
00000090: cca0 183d 9dd5 a3bc 9f2b e63a a329 aebc
000000a0: 7a18 2a3c 908c 323d 4b4d 8dbd d5d1 783d
000000b0: 13af 8c3c f2b5 93bd 35ee 713c 573d 8f3d
000000c0: 27fb 853c 74e9 abbd f76e 01bc 0bed 86bd
000000d0: f80e 00bd 60b7 d83c 3f32 943d 50f7 47bd
000000e0: 4b0c 95bd abd0 cbbc a8cc 8a3b 8fa2 9c3c
000000f0: 34e1 b5bc acce 523c d2d8 a23d 08c5 65bd
00000100: 4e8b 893d 71c2 fabb d2fe 2c3c ca55 8cbd
00000110: 839d 89bb 5369 863d 631c 353d e41b 78bc
00000120: 7d5a 71bc 9a81 643d a633 bb3c 3839 2e3c
00000130: 4249 843d 477c 843d f13a 5d3d 534e eebc
00000140: bfc5 c63b 24ce 383b 0123 c4bc c871 943d
00000150: 3c4e 503b 14cc be3c 5a30 b6bd 0bf4 b0bd
00000160: 26ab b33c d4b1 72bd 9ee5 2e3d 7761 173d
00000170: df5c d8bb b84f 84bd fc40 2e3d b499 f5bc
00000180: e180 693d ec82 893d bc99 083d ff06 c3bc
00000190: b4d7 41bc e86c 9ebc e636 7a3d c593 5fbd
000001a0: f72b 5dbd a870 603d 2dc2 6dbd 7edc 913d
000001b0: af7c ba39 2410 ffbb 4576 d8bc dd6f 1f3d
000001c0: bac5 b4bb 1fe6 31bd 369b 84bd 1a6f 123d
000001d0: cda2 ae3d 8307 43bd 375a fdbc 7472 3bbc
000001e0: 1b35 dfbc c0c7 28bd 1069 bc3d 3743 50bc
000001f0: 15a7 0b3d 86f0 0abd cfda 963d dec6 893d
0.034433924 0.037919413 -0.044034712 0.058299255 0.039715543 -0.086906165 -0.058815 0.055296782
0.08604871 0.08189544 0.02652055 0.021400355 0.0816314 0.06534959 0.0734368 -0.026215814
0.071839646 -0.07119051 -0.053150456 0.085066386 0.04986023 -0.05374575 0.029404523 0.07907377
0.04244077 -0.054940253 0.027750118 -0.018095734 -0.047918156 -0.009315373 -0.07746937 0.035166495
0.05892605 -0.023147652 -0.0058029285 -0.05285351 0.037262723 -0.01999932 0.0017560608 -0.021260088
0.010381812 0.043591082 -0.06899508 0.060746986 0.017173326 -0.07212438 0.014766266 0.069941215
0.01635511 -0.08394137 -0.007899991 -0.06588181 -0.031264275 0.026454628 0.07236146 -0.04881984
-0.07277735 -0.024879774 0.0042358227 0.019120483 -0.022202112 0.012866657 0.079515114 -0.056096107
0.067160234 -0.0076525738 0.010558801 -0.068523005 -0.004199685 0.06563058 0.044216525 -0.015143368
-0.014731047 0.05578766 0.022851776 0.010633759 0.06459285 0.064690165 0.05401129 -0.029090082
0.0060660536 0.0028199041 -0.023942472 0.072482646 0.0031784913 0.023290671 -0.08895941 -0.086402975
0.021932196 -0.05925162 0.04269945 0.036958184 -0.006602868 -0.06460518 0.042542443 -0.029980518
0.057007674 0.067144245 0.033349738 -0.023807047 -0.011831213 -0.01933904 0.06108751 -0.054584283
-0.053997006 0.054794937 -0.05804651 0.07122134 0.0003556958 -0.0077839065 -0.026423583 0.03892504
-0.005516735 -0.04343235 -0.06474917 0.035750486 0.085271455 -0.047614586 -0.030926807 -0.011440862
-0.027247002 -0.04120612 0.091997266 -0.012711338 0.03409489 -0.033920787 0.07365953 0.06727384

actor.4.weight f4 [128, 128]
00000000: 2b6b 883d 9d6d 703c e209 b43d 8d53 f1bc
00000010: da65 fe3c c724 9bbd ff99 a03d 5015 523d
00000020: de69 8ebd 62b1 a6bd 8f89 a7bb e00b 9a3d
00000030: 37e2 753c dab8 b4bc 7901 07bc 4c89 0e3c
00000040: e6ca 00bd c58d c93c 00d8 f8bc 5a4e 2f3d
00000050: 57b1 9b3d f124 52bd 3955 8ebd 4ed1 b439
00000060: e49a 263d c766 f53c 8928 64bd afcf 083d
00000070: 4e71 ddbc 2930 803d d526 0ebd 810e 76bd
00000080: fb41 8e3c 3aac a5bd fbb9 2f3c a732 dd3b
00000090: 8184 37bd 19ab a43c 2b6e 35bd d37e 9a3c
000000a0: 573a 92bb d035 633d 94a2 99bd 5933 2c3d
000000b0: ab5d 76bd addc 5b3d 71cc 3e3d 99e1 6c3d
000000c0: bf46 4b3c a0c2 7a3c ec7d 8e3d 366b 943d
000000d0: fbf9 7dbd 7a9a 273d c423 523d 8340 573d
000000e0: 1e14 093d 08fd 183d d2f3 ae3b 9abc 9bbc
000000f0: ee49 ea3c 21c7 183d 60d0 53bd 06d6 913d
00000100: 6d54 b0bc e44d 0bbd 213a d9bc 3e4e 49bd
00000110: 57f4 c1bc eb26 2a3d ceb2 a53d 98e9 7e3d
00000120: 431f cf3c 3808 3dbd 78e0 333d 7b32 40bd
00000130: 5ebd 843d 6f6d e33c 6c8e 4fbd 2b8c 1f3c
00000140: e198 213b ae32 94bd 8347 2dbd d429 0a3d
00000150: c753 2bbd f8a7 133b e8cd ab3d 08dd acbd
00000160: 70b6 903d 4a4b 573c 4306 55bd bad1 49bc
00000170: cbbc 8b3c abc1 13bc e6f4 8dbd a833 fc3c
00000180: 59c6 38bc 9c05 03bb 0109 ac3c 26be 853c
00000190: 3512 9cbd 6553 85bd 2b89 fbbc 1fb5 44bc
000001a0: 91cd 2fbc a8b1 943c b1cf 5fbc 02c7 c83c
000001b0: cb76 373d aab2 b73c 618d 11bd 421a 843d
000001c0: a06c 8bbc c3b6 463d 96a1 adbd f80e 88bd
000001d0: b870 23bc 1b2c 7bbd 29a3 f3bc 8409 bc3b
000001e0: f1f3 ccbc 9ffa 0ebd 126b 323d 5926 b23b
000001f0: 6c8c 993c 75c8 033c 4a82 7d3d d7c7 9d3d
00000200: 4319 2e3d 24b8 7ebd ea4b c2bc 5603 5e3d
00000210: 7232 a4bd 8bb3 be3d fb64 0ebd f685 fdbc
00000220: ec33 94bd 0802 31bc 6fe6 debb 19fe 7e3d
00000230: d3c9 133d baa6 5fbd 0447 993c 0d78 8bbc
00000240: 842d 103d db19 613d 3af5 d8bc ecca 5c3d
00000250: 530e 283d 5600 49ba 7394 8dbd 9290 453d
00000260: a9a5 80bc 8e7f a4bd 53a9 80bd f0e5 5b3d
00000270: 9708 963d df70 94bd 378a ac3d b2b7 253d
00000280: 3d7d 6c3d 05e8 a0bc 6215 513d 9efe 5abd
00000290: 26ac 43bc dcac 97bd 6ca5 213c 77e4 cebc
000002a0: a76e 27bd acf7 73bb 7880 49bd 8bdd 8bbd
000002b0: 28c1 dabb 2d27 b9bd 683c 57bc 65d1 813c
000002c0: 441d c3bb ccb1 e5bc d022 4fbd 5133 9dbd
000002d0: bef1 0bbd c70b c53c 9e3a 55bd 142d 99bd
000002e0: 9596 f8bb 5dcc 5a3c d105 17bd ed5a a23d
000002f0: 2066 6dbd 9215 67bd 8b1e 14bd 7f3f 62bd
00000300: 52ea 1a3d e371 5f3d 3496 a1bd 1f66 d9bb
00000310: be95 febc 6d7b ba3c 99b4 803d 4ec1 a53d
00000320: 179c 563d 5de8 49bc 73d1 253a c400 783d
00000330: 8dbe a0bc cdb0 b73d b7c4 bb3d a1e7 923d
00000340: f294 89bd b421 9ebd bdcc 5f3d 6ef0 353d
00000350: c91a 92bd 55f9 6ebd 09a9 173c e77c d63c
00000360: c9dc a43b 60bb 13bd 3df4 45bd 47bb 0cbd
00000370: e66b a6bd b3ca a5bd 7667 a5bd a5c4 64bc
00000380: 0317 28bd b527 6bbd 8c3c 97bd 8eef a5ba
00000390: 6752 a3bd 938b 27bc ddf5 403d ec61 5dbd
000003a0: 56f1 66bd b468 65bd 23b0 a4bd 985a 753d
000003b0: 4c56 42bd 2209 d93b cf74 41bd 8a55 903d
000003c0: e890 8cbd 4baa 73bd b6cd 783c 33a9 afbd
000003d0: a0aa 803d 25c2 a63d eea4 423d a09f aabd
000003e0: cc75 91bd 2b3d 653d a61c 83bd 607c 6bbd
000003f0: 53e3 72bc 0979 8d3d 6178 923d c9d3 893d
0.06661066 0.014674571 0.087909475 -0.029458785 0.031054426 -0.07575374 0.078418724 0.051289856
-0.06953786 -0.08139302 -0.005112834 0.07521796 0.015007547 -0.0220608 -0.008240097 0.008699726
-0.0314435 0.024603734 -0.030376434 0.04279933 0.07602184 -0.05130476 -0.06949849 0.0003448822
0.04067506 0.029956235 -0.05570272 0.033401188 -0.027031567 0.06259186 -0.034705 -0.060072426
0.017365446 -0.0808949 0.010725494 0.006750423 -0.0448041 0.020101117 -0.044294517 0.018859303
-0.004462521 0.05547124 -0.075017124 0.042041156 -0.060147922 0.05367725 0.04658169 0.057832334
0.012407004 0.015305191 0.069576114 0.07247011 -0.062005978 0.040918805 0.05130364 0.052551758
0.03346645 0.037350684 0.0053391242 -0.01901083 0.028599706 0.03729928 -0.051712394 0.071209
-0.021524632 -0.03400983 -0.026516976 -0.049146883 -0.02367608 0.04154102 0.08090745 0.06223449
0.025283461 -0.046150416 0.043915242 -0.046923142 0.064814314 0.027762143 -0.050672933 0.0097380085
0.0024657773 -0.07236229 -0.042304527 0.033731297 -0.041827943 0.0022530537 0.08388883 -0.08440596
0.07066047 0.013140509 -0.052007925 -0.012318069 0.017057797 -0.009018342 -0.06931476 0.03078635
-0.0112777585 -0.0019992357 0.021000387 0.016326021 -0.0762066 -0.06510047 -0.030705055 -0.012006073
-0.010730163 0.01815112 -0.013660357 0.024508957 0.044791024 0.02242406 -0.03553522 0.06450321
-0.01701957 0.04851414 -0.08478086 -0.0664348 -0.009975605 -0.06132136 -0.029740887 0.005738439
-0.025018664 -0.03490698 0.04355914 0.0054367003 0.018743716 0.008043398 0.06189183 0.07704132
0.04250456 -0.06218733 -0.02371784 0.0542024 -0.08017434 0.09311589 -0.03476427 -0.030947667
-0.07236466 -0.010803707 -0.006802372 0.062254045 0.036081146 -0.054602362 0.01871062 -0.017025018
0.035199657 0.0549563 -0.02648412 0.05390446 0.041029286 -0.00076675916 -0.0691308 0.048233576
-0.015703993 -0.080321416 -0.06282296 0.053686082 0.07325857 -0.07248091 0.084248 0.04045839
0.057736624 -0.019641886 0.051045783 -0.053465478 -0.011942899 -0.07406017 0.0098661 -0.025255425
-0.04087701 -0.0037226481 -0.049194783 -0.06829365 -0.006675858 -0.09040675 -0.013136961 0.015846917
-0.0059544165 -0.028038882 -0.05057031 -0.076758035 -0.03416609 0.024053467 -0.052057855 -0.07479301
-0.00758631 0.013354388 -0.03687078 0.07927499 -0.057958722 -0.056417055 -0.03616194 -0.055236336
0.03782112 0.05455197 -0.07889977 -0.0066344882 -0.031077262 0.022763932 0.06284446 0.080935106
0.052394953 -0.012323466 0.0006325461 0.060547605 -0.019622112 0.08969269 0.0916838 0.07173086
-0.06717862 -0.07721272 0.054638613 0.044418745 -0.07134015 -0.05834325 0.00925661 0.026182605
0.0050312025 -0.036067367 -0.048328627 -0.03435829 -0.08126049 -0.080953024 -0.08076374 -0.013962899
-0.04103757 -0.057410914 -0.07384595 -0.0012659894 -0.079747014 -0.010226148 0.047109473 -0.054048464
-0.0563825 -0.056008056 -0.08041408 0.05990085 -0.04744558 0.006623403 -0.047230538 0.07047565
-0.06863576 -0.059488576 0.015185764 -0.08577194 0.06282544 0.08142499 0.04752057 -0.08331227
-0.07102546 0.055966537 -0.06401949 -0.05749166 -0.014824706 0.06907851 0.07151867 0.06729848

actor.4.bias f4 [128]
00000000: dc1a e43b b9cb 9b3d bf0e 883c 7cf1 8e3d
00000010: 6ed0 8fbc 815d 4e3d bf55 883d 9b3c 993d
00000020: b3b8 61bd 832a 1dbd 89c2 923d d14d 203c
00000030: 2b63 a5bd 5269 c23c 9305 94bd 5a0a 52bd
00000040: 1359 3a3d 4b3d 1ebd 8d1d 64bd f6cc 513c
00000050: 563c 91bd a989 f0bb aae6 3fbd 88d9 ca3b
00000060: 42db 84bd 2d1c 2fbc cb4c 65bd 5b22 2b3d
00000070: ec52 523d db12 c33c cb1e 06bd 39c9 b03c
00000080: b291 073d 62ae 4fbd 7746 d1bc 9ec8 7b3d
00000090: 0986 24bd 5af6 7dbc 211b a73b ac32 a23d
000000a0: e38b 76bd 759a bcbb df50 92bd e0b8 6c3d
000000b0: dd22 603c c9d4 9abd 003f a63d b8e1 4ebd
000000c0: 373b 06bd 7c42 fd3b 6c5b 963d 708d cd3c
000000d0: 1d06 833d ad84 95bd 4d5f 81bb c442 dabc
000000e0: b982 d3bb 438d 08bd 0c4f 813d a432 8cbd
000000f0: d6cb bdbd d374 40bd 6239 143d b76c b7bc
00000100: 33c0 02bd b309 2cbd 04eb 42bd 4cf5 75bd
00000110: 5627 70bd 1af6 18bd fd51 70bd 0a63 b13d
00000120: dab9 fe3b 824f 43bd 2db3 abba 6c57 5dbd
00000130: 581d 643d a0e6 66bd c525 8bbc 2902 b4bd
00000140: ea11 71bd 3d1f f43b 7ff1 44bd e445 97bd
00000150: 5e6d 8f3d 431a e63c 660d 6abd 7528 33bd
00000160: 8b53 bc3d c0ef b0bc 68a9 783c 629d 20bc
00000170: 9c65 9bbd c9b3 ec3c bd5b 27bc 196d 21bc
00000180: 1dc6 c63c 993e 4f3d ac9b 1ebc 73d2 2d3d
00000190: 5c1e adbc 6511 0a3d ba0c 6ebb 35cd 50bd
000001a0: dc14 e3bb 055c ad3d 6676 30bd 2c43 bbbd
000001b0: 32ad 97bc dc69 973b dd76 abbd 8bfd 103c
000001c0: 1f55 65bd c9a1 903d d149 39bd 72e2 6abd
000001d0: 3bda b13b 1c69 61bd c058 a9bd b0a9 663d
000001e0: cb88 573d 7b08 3ebc 9b3d 7ebd d189 023d
000001f0: c306 443d 3f7c c03b 2c33 5ebd 3a41 98bc
0.0069612097 0.076072164 0.016608594 0.06979653 -0.017555442 0.05038214 0.0665698 0.07482263
-0.055107784 -0.03837062 0.07166011 0.009784178 -0.080755554 0.023731861 -0.07227626 -0.051279403
0.045495104 -0.038632672 -0.055692244 0.012805214 -0.07091586 -0.007340629 -0.046850838 0.0061904825
-0.064871326 -0.01068787 -0.05598144 0.04178081 0.05134861 0.023812702 -0.03274421 0.021580325
0.03309793 -0.050703414 -0.025546296 0.06147062 -0.04016689 -0.015500629 0.0050996696 0.07919821
-0.060192 -0.0057557174 -0.07144331 0.057793498 0.013680187 -0.07560117 0.08117485 -0.05050823
-0.032771315 0.007728873 0.07341656 0.025091857 0.063976504 -0.073006965 -0.0039481283 -0.026643164
-0.0064547923 -0.033337843 0.06313905 -0.068455964 -0.09267394 -0.046986412 0.036187537 -0.022390706
-0.031921577 -0.042001437 -0.04758741 -0.060048386 -0.058631264 -0.037344076 -0.05867194 0.08661468
0.00777362 -0.047683246 -0.0013099663 -0.05403845 0.055692047 -0.056372285 -0.016985783 -0.087894745
-0.058854975 0.007450013 -0.04808187 -0.073863775 0.07003282 0.028088694 -0.057141684 -0.043739755
0.09195622 -0.021598697 0.015177108 -0.009803148 -0.0758774 0.028894322 -0.010214743 -0.009852671
0.02426439 0.050596807 -0.00968067 0.04243703 -0.02113264 0.033707995 -0.0036323504 -0.05097695
-0.006929977 0.08464817 -0.043081664 -0.091436714 -0.018515203 0.0046207737 -0.08372281 0.008849512
-0.05598938 0.07062108 -0.045236412 -0.05734486 0.0054276264 -0.05503188 -0.08268881 0.05631417
0.05262069 -0.011598702 -0.06207047 0.031869713 0.04785801 0.0058741863 -0.05424802 -0.01858579

actor.6.weight f4 [5, 128]
00000000: 560c 98bb 6812 89bd cbfb a73d bc58 51bd
00000010: a303 e9bc 40ce 2d3d b562 fb3c 993c 91bd
00000020: 86d8 773d 5103 fc3a 5792 853d a8ad bfbb
00000030: 39e3 973d dd86 b73c 992e 7f3d 493a 68bd
00000040: 8f48 80bd d5c8 b23d 5610 473d f728 983d
00000050: eddd b73c 9bf5 b23c 7632 29bd 1267 02bd
00000060: 0737 d5bc e22b 75bd 7697 0abc b285 70bd
00000070: 56dd 75bd b2bf b839 4421 8d3c be29 253d
00000080: cf5e 08bd 3220 9f3d 5740 533a df47 8b3d
00000090: 3ba0 3c3d 52f6 1bbc a48c 8fbc 7dca 053d
000000a0: dcf6 7d3d 3e22 14bd c487 3a3d c449 533d
000000b0: 163e d23b 83b4 a83d 4edc b9bb 67f6 c43c
000000c0: 65c7 99bd 93b8 6ebd 7cf5 d93a fcb2 bcbc
000000d0: 6e5f 2ebd 77b2 3fbd 5bf9 39bc 8c0e 383d
000000e0: f416 b1bd aa17 833d 2991 103d 3ced 3d3d
000000f0: be6c a6bc 02f8 1e3d 4388 0b3d d0bf 0e3d
00000100: d07c 013d 1787 723d eb7a 1ebc bb28 063c
00000110: e5aa 613d dc5f 3a3c 11d5 b03d 0b3f 6cbd
00000120: e17b 943c 673c b4bb 962d 0ebd 2346 1cbd
00000130: 3510 0a3d ff1c 7dbd 9ffc 18bd 3792 ba3d
00000140: dfe0 703c 6831 65bd 3197 99bd b277 e43c
00000150: a36d a8bc 4431 bc3b 0b74 8bbb f6c3 0d3d
00000160: 586c c63c 098b 94bc a657 403d 0542 8dbd
00000170: 3ec2 94bd 8192 a03b 8605 61bd 7077 a23d
00000180: 687c 82bd 5b83 93bd e216 5a3d d67a 14bd
00000190: f4b3 8f3d fc85 adbd 5b60 5c3d 77f7 893d
000001a0: 8e04 813d 2a2f c43c 62a5 463c 76fe 813c
000001b0: 92f3 003c 701c 333d 1eed 95bc 1bc4 e23b
000001c0: 0318 93bd 59eb 273d 0913 22bc 3061 94bd
000001d0: f408 8c3d 3482 443d ec86 85bd 52d9 743c
000001e0: c94c afbd 4125 663d 9654 c33d 7f85 14bc
000001f0: 919d 613d f25d e9bb c275 8a3d e7a5 513d
00000200: fe8b 26bc 47a0 a8bd bc14 433d 3fc7 123b
00000210: a221 c4bb 53bc 0d3d ffad a8bd 5710 8fbc
00000220: bb2f ec3b 4528 1d3d 7739 46bd 6446 91bd
00000230: 0891 b4bd fe4e 40bc f571 84bd 9fa5 2abd
00000240: 6f76 a83d 50c7 753d 82d7 aebc e127 043d
00000250: b5c1 7f3d 683a db3c bc61 8dbd 17a3 5cbd
00000260: 1c8b 9a3d 3628 633d d94c cebc dab1 7c3d
00000270: 5069 483d 9ee3 23bd 7037 9a3d 4e3f 07bd
00000280: c4dd 8cbd a0cf 923d 2248 743c 9a12 83bd
00000290: f07b 4f3c f8ee 2c3d 509f 37bd 20e4 8bbd
000002a0: 60a4 58bd 148d 62bc 919f 963c f5e6 5e3d
000002b0: 182e eb3b dee3 98bc 7fef d4bc 4e44 ed3c
000002c0: 83a7 87bd 938e 9d3d a6c9 533c e4e6 233d
000002d0: 01d4 233d a329 febb 32ea 8bbd 1877 f23c
000002e0: b109 87bd 5b74 7a3d 3c61 f33b 4042 293d
000002f0: 53a1 8cbd 1c07 b4bd 3ef9 043c 207c 8f3d
00000300: fc2a cfbc 067a aabd 7c65 64bd 1a9b 25bd
00000310: 751b a8bd 8b64 5bbd 1e57 4cbd 6d38 413b
00000320: dfd5 1f3d 5637 02bc 1f15 abbd 4a54 3bbc
00000330: 76fa eb3c c160 4c3c 85aa 1cbc c562 913d
00000340: 1250 323c df06 863d d1bd d33c 3834 b23c
00000350: 76ee 95bd acff 0cbd b864 92bd ff27 603d
00000360: 2a7c 273d d12b 8e3d 1b2c 6ebd 745e 04bd
00000370: 8eb4 b5bd c766 3fbd 0eae 97bd 2d17 823d
00000380: 1304 a1bc 6f4a 4e3c da4e b9bc 58a1 9f3d
00000390: 7932 d6bc 25e0 603d c4b4 ef3b 52a3 393c
000003a0: 855c 49bd 4632 1cbd ab7b d7ba a518 c4ba
000003b0: f129 a83d 3cd2 413d ade1 043d 4d6f 90bd
000003c0: a2fe f1bc a29f 5c3d df6b 503d a5a3 aabd
000003d0: 201d 17bd 51b8 3c3c 7393 133c 18c3 8c3d
000003e0: 0188 8bbd 8186 393d 892b 11bd 397f 23bc
000003f0: 155f 323d d52c e93c 50f1 aa3d 0e22 623c
-0.0046401424 -0.06692964 0.082023226 -0.051110014 -0.028444117 0.042433023 0.030686716 -0.07091636
0.060509227 0.0019227063 0.06522053 -0.005849559 0.07416386 0.022403175 0.0623003 -0.05669621
-0.062638395 0.08729712 0.048599564 0.074296884 0.02244469 0.02184563 -0.04130789 -0.031836577
-0.026027216 -0.059856303 -0.008458963 -0.05872125 -0.060025536 0.0003523804 0.017227776 0.04032301
-0.03329354 0.07769813 0.00080585986 0.06800818 0.046051245 -0.009519177 -0.017523117 0.03266381
0.062003 -0.03616547 0.045539632 0.05158402 0.0064160926 0.08237555 -0.0056720143 0.024043275
-0.075087346 -0.058281492 0.0016628946 -0.023034565 -0.042571478 -0.046801057 -0.011350955 0.044935748
-0.08646956 0.06400998 0.035294686 0.046368822 -0.020315524 0.038810737 0.034065496 0.034850895
0.03161317 0.059210863 -0.009672861 0.008188422 0.05509462 0.011375394 0.08634389 -0.05767731
0.018125476 -0.0055003646 -0.034711443 -0.038152825 0.033706862 -0.06179523 -0.037350293 0.091099195
0.014702051 -0.05595532 -0.074995406 0.027889106 -0.020560091 0.0057431776 -0.0042557768 0.03461071
0.024221584 -0.018132703 0.046958588 -0.06897358 -0.07263611 0.004900277 -0.05493691 0.07932937
-0.06371385 -0.072027884 0.05324448 -0.036249958 0.07016745 -0.08472821 0.05380283 0.06736653
0.06299697 0.02394827 0.012124391 0.015868407 0.007870572 0.043728292 -0.018301543 0.0069203502
-0.07182314 0.04099593 -0.009892234 -0.072450995 0.06837645 0.047975734 -0.06519875 0.014944391
-0.085595675 0.05618787 0.09537618 -0.009065031 0.055081908 -0.007121795 0.06760742 0.051183607
-0.010165213 -0.082336955 0.047627196 0.0022396592 -0.0059854547 0.034603428 -0.08236312 -0.017463846
0.0072078384 0.038368482 -0.048394646 -0.07093504 -0.08816725 -0.011737583 -0.06467048 -0.041661855
0.082257144 0.060004532 -0.021342997 0.032264594 0.062440593 0.026761249 -0.06903407 -0.053866472
0.07546064 0.05545827 -0.025183128 0.06169305 0.04892856 -0.040011995 0.07530105 -0.033019356
-0.06878236 0.071685076 0.014909776 -0.06400032 0.012663826 0.042220086 -0.044829667 -0.06830621
-0.052891135 -0.013827581 0.018386634 0.054419477 0.0071771257 -0.018663343 -0.025993107 0.028963234
-0.06623747 0.076932095 0.012926495 0.040015116 0.039997105 -0.0077564283 -0.068317786 0.029597804
-0.06593645 0.06114612 0.0074273627 0.041322947 -0.06866708 -0.087904185 0.008116065 0.07006097
-0.025289051 -0.083240554 -0.055760846 -0.04043112 -0.08208362 -0.053562682 -0.04988777 0.0029483095
0.039022323 -0.007947763 -0.08353638 -0.01143367 0.028805953 0.01247424 -0.009562139 0.07098917
0.010883348 0.06544279 0.025847347 0.021753415 -0.073208734 -0.034423515 -0.07148117 0.054725643
0.040889896 0.06941951 -0.05814753 -0.03231664 -0.08872329 -0.046728875 -0.07406245 0.06352077
-0.019655263 0.012590989 -0.022620607 0.07794446 -0.026147114 0.05490126 0.00731525 0.0113304425
-0.0491605 -0.038133882 -0.0016440054 -0.0014960958 0.08211125 0.047319636 0.032441784 -0.07052479
-0.029540364 0.053863175 0.050884124 -0.08331994 -0.03689301 0.011518554 0.009007323 0.06873149
-0.0681305 0.04529429 -0.03544191 -0.009979063 0.04354771 0.02846376 0.08346808 0.013802065

actor.6.bias f4 [5]
00000000: 7453 7d3d df1b 3bbd 8194 163d 9c22 3cbd
00000010: ee35 22bd
0.061847165 -0.045680877 0.036762718 -0.045931444 -0.039602213
