ippo_algorithm/checkpoints/ppo_actor_None_lumberjacks.pth (torch, 165860 bytes, 8 tensors)

actor.0.weight f4 [128, 53]
00000000: 3c0c c03d 600b 7b3c 922d c83d 13cb 00be
00000010: 7f4e 113d e5f0 3fbd 3444 6ab9 00f1 b8bc
00000020: 616a ecbd 0d5c 09bc a338 ecbc 43de 62bd
00000030: a012 94bd 776d 00be f0ed 9abc d5df fd3d
00000040: 1278 a0bc 0ef9 993d 168f b1bd 0c71 1dbc
00000050: 6fe6 0ebc 8ba0 463d 3e2f 8d3d f743 353d
00000060: 1c42 b33d 7796 013e 0195 063e 0bd5 01be
00000070: 637b c43d 3966 f4bd a88d 4b3d 9e64 98bc
00000080: 8c31 c43d f558 46bc f9d2 a13d a48c fcbd
00000090: 8ac8 c2bc 843d bcbb 2696 b1bd a0d1 a83d
000000a0: bcc9 3a3d 3864 483d 6156 f2bd a501 d3bd
000000b0: 4bc3 97bd cf8e e0bd 9d0b 96bd 0efe f13d
000000c0: a27f 62bd 7c37 6e3c da08 d03c d154 c93d
000000d0: 5d16 593d ebdb dabd d5ac c63c cd52 e03d
000000e0: 6bfa 5d3d 4b91 94bd be1a 333d 8705 ae3c
000000f0: da1b eabd 855b f63d 37b7 f4bd 8f58 073d
00000100: 8411 d93d b966 25bd a60c cf3d 5479 04be
00000110: 2565 6e3d 97cf e53d 677b 96bd 7026 7a3d
00000120: 38eb 673b ccaf fb3d f0f2 b8bd 342c f03c
00000130: 6504 efbb 79d0 593d d166 d9bd 9f24 6c3d
00000140: 2868 ae3d 1975 023d 8f86 123d ea35 a43d
00000150: 45e0 c73d 0a75 17bd a990 94bd 20d5 06be
00000160: 4c5d 1e39 86f3 8e3d d017 cebc 8307 4bbd
00000170: 3011 96bd 84e9 d53c 7a32 cbbd 7edb 133e
00000180: f9a5 0fbc aae6 653d 538f 1bbb f3e7 153e
00000190: e354 ad3d 5d10 cdbd 1f78 51bd 73a9 723d
000001a0: 6088 f4bd c778 433d e392 063e 287d 3abc
000001b0: c373 05bd 1a6f 81bc a746 853d 7dc1 febd
000001c0: d586 c3bd a275 8e3c 464e 99bd 0d78 43bd
000001d0: 3b91 64bd b417 bcbd 60d5 e1bc 3e54 d6bd
000001e0: a760 bc3d a13f 58bc 90cc be3c 9a89 c53d
000001f0: b195 0abe 3d4f 8f3d 9701 c9bd dd8d b8bc
00000200: bdd0 133d 3a36 083d 3dbb a3bd 1148 b13c
00000210: 4735 36bd 5e2c bb3d 6c99 c83d da42 b2bd
00000220: 017f e6bd b7bc ee3d 6b13 90bd 3a8e d8bd
00000230: fc06 a5bd bcb6 e3bd 0461 5ebc 64cb 003c
00000240: 373b 47bb 14bf b33d 9809 023e 2aba 5c3d
00000250: 660d 9d3d c380 6b3d f515 0d3e 971c 8ebc
00000260: 0947 89bc 615e bf3d 4438 3fbd a27a 903c
00000270: 548c 8fbd 4b1e 643d a6f8 973d 39d1 a2bd
00000280: f1e5 0cbe f197 0f3d 6d5b bbbc 4922 5ebd
00000290: 8b6d 6e3d 67fe 983d 4bea df3c d8d3 c13d
000002a0: bd95 fa3d 37a0 94bd 9221 d13d 72dc 14be
000002b0: 67dd c03d 70df 8bbc f65e 813d f973 08be
000002c0: bf44 1bbd 26ca 193e e3c0 ff3c dfdf 45bd
000002d0: eb26 d4bd 65e4 9bbb db89 e93d cf23 e23c
000002e0: b3f7 c03d c500 053e 0a6c c2bd 8c0e c2bd
000002f0: f03b 7e3d 3eb5 023d cb36 633c 82f4 00be
00000300: 2a10 153e 9463 86bd d3f7 983d 0683 7b3d
00000310: b75d 863d 1a3a 773d 7606 813d 583f bfbc
00000320: bbf8 1f3e 9b37 973c d546 cebd e252 033e
00000330: 9ef4 c5bc 40a9 843d 6eb5 f1bd bf23 913c
00000340: 2688 82bc 149f a43d 9239 ecbd a201 023e
00000350: 679b 05bd 1850 783d 9dc1 2d3d 13ec dc3c
00000360: 491e 9abd 97eb 5b3c d8d4 b6bd 915d 293d
00000370: 216c 13be 71af 493b a011 fd3d d328 833d
00000380: 5963 eb3a a0e7 b83d b04c 193e 5699 69bd
00000390: d4cf c23d 2419 b1bc a6d9 09bd 2b5c 0ebd
000003a0: 27f3 86bc c235 b4bd f5d3 923d 60b9 01be
000003b0: dad4 71bd a27e 03be ca05 e7bc 2ba0 763d
000003c0: 36d8 973d 394e 01bd 9339 843d e4f6 12be
000003d0: b55f 4bbc 8929 8d3d ede1 9cbb ccea bfbd
000003e0: a943 f13d f981 1b3d 09a7 9bbd 4c7d b3bd
000003f0: 081e f33d 6222 b8bd 6e8f f4bc 3c0e 533d
0.093773335 0.015322536 0.09774317 -0.12577467 0.03547525 -0.046860594 -0.00022341387 -0.022575855
-0.11543728 -0.008383763 -0.0288356 -0.055387747 -0.07230115 -0.12541758 -0.018912286 0.12396208
-0.019588504 0.075182065 -0.086698696 -0.009609472 -0.008721932 0.04849295 0.06893776 0.04425427
0.08752844 0.12655054 0.13142778 -0.12678926 0.09593847 -0.1193356 0.04969564 -0.018602666
0.09579763 -0.01210617 0.07901568 -0.123315126 -0.023777265 -0.005744638 -0.08671217 0.08243108
0.045602545 0.0489237 -0.11832882 -0.10303048 -0.07410296 -0.109647386 -0.07326434 0.11816035
-0.0552975 0.014539596 0.025394846 0.098306306 0.052999843 -0.10686477 0.024252335 0.10953293
0.054193895 -0.07254275 0.043726675 0.02124287 -0.114310935 0.12029175 -0.11949008 0.03304344
0.10599044 -0.040381167 0.101098344 -0.12936908 0.058201928 0.11221235 -0.07347756 0.061071813
0.0035388004 0.1228939 -0.09030712 0.029317953 -0.007294225 0.05317733 -0.10615314 0.057652112
0.0851596 0.031849954 0.035772856 0.08018096 0.09759573 -0.03697685 -0.07254154 -0.13167238
0.0001510281 0.06980042 -0.025157839 -0.04956771 -0.07327497 0.026112325 -0.09921737 0.14439198
-0.008767598 0.05612818 -0.002373655 0.14639263 0.084634565 -0.10012887 -0.051139947 0.05924363
-0.11940074 0.047722604 0.1314197 -0.011382379 -0.032581102 -0.015800048 0.065076165 -0.12439249
-0.095472015 0.017390076 -0.074856326 -0.04772191 -0.055802565 -0.091842085 -0.027567565 -0.10465287
0.091981225 -0.013198764 0.023290902 0.09645386 -0.13533665 0.069975354 -0.09814756 -0.022528583
0.03608774 0.03325484 -0.07994697 0.02164081 -0.044484403 0.09139322 0.09794888 -0.08704157
-0.11254693 0.11657088 -0.07034954 -0.105740026 -0.08057973 -0.11118838 -0.013572935 0.007860992
-0.0030400285 0.0877668 0.12698972 0.053888477 0.07668571 0.057495844 0.13777907 -0.017347617
-0.016757505 0.09344173 -0.04668452 0.0176366 -0.07009187 0.055692952 0.07420473 -0.07950062
-0.1375959 0.035057012 -0.022870744 -0.054231916 0.058209937 0.074703984 0.0273334 0.09464234
0.122355916 -0.07257121 0.10211481 -0.14537218 0.09417229 -0.017074317 0.063169405 -0.1332549
-0.03790736 0.1501852 0.031219905 -0.048309203 -0.103589855 -0.0047574514 0.11403247 0.027604965
0.09422245 0.12988575 -0.09493263 -0.09475431 0.06206888 0.031911127 0.013868044 -0.12593272
0.14556947 -0.06561962 0.07469144 0.06140425 0.065608434 0.060358144 0.063000605 -0.023345634
0.15622227 0.018459132 -0.10072104 0.12824586 -0.024164494 0.064775944 -0.11802183 0.01771724
-0.015934061 0.08038154 -0.11534418 0.12695935 -0.032618906 0.06062326 0.042420972 0.026968038
-0.07525308 0.013422868 -0.089273155 0.041348998 -0.14396717 0.0030774737 0.12356877 0.06404271
0.0017958685 0.09028554 0.1497066 -0.057031 0.09512296 -0.021618433 -0.03365483 -0.034755867
-0.016473366 -0.08799316 0.07169334 -0.12668371 -0.05904088 -0.12841275 -0.028201003 0.06021134
0.07414286 -0.03156874 0.06456294 -0.14351994 -0.012412955 0.06892688 -0.0047876746 -0.09370956
0.11780483 0.03796575 -0.07600219 -0.08764133 0.118709624 -0.08990933 -0.029853549 0.051527247

actor.0.bias f4 [128]
00000000: 530a e1bd a98c f3bd fbbf 99bd 3389 fb3d
00000010: 7124 c2bd 8c3a 04be f8c5 503d 72d0 49bd
00000020: fd85 cebd ff07 b63d 98db 33bc 6d2d c739
00000030: 7108 c9bd 7cf4 953d 7d06 e5bd 25bd 79bd
00000040: 100d 94bd f7ac 4ebd bb7f 0bbe d691 df3d
00000050: 35d2 07bd 4514 c93d 7eb7 5dbc 79cb 1b3c
00000060: 4681 d4bd e6e8 993d f94a 403d 27b5 943d
00000070: 2646 053e 1b5e 693d 54fc afbc 724d 8e3d
00000080: b95b 97bb c035 023d 7539 c33d dbdf 813d
00000090: 4db5 203d b85d 1ebc 2075 59bd cc08 04bd
000000a0: a284 cf3c 2f6c b1bc 473f 43bd 7cf1 123c
000000b0: 7972 88bc 382e 2c3c 5e21 163e b1e9 243d
000000c0: 31bc dcbd e90c 4cbc 9691 98bc 49db 0b3d
000000d0: 7506 8b3d 99b7 0f3e ab4e 66bd a696 be3d
000000e0: d78f a9bd 5f44 01be 9266 eabd 3b90 f2bd
000000f0: 89e9 5d3d 4f81 4a3d d7f1 573d 7da4 8ebd
00000100: 0a20 4a3d a23b 0c3d 3b74 99bc be3e 993d
00000110: 6328 7d3d c517 b93d 86f8 033e 9308 bebd
00000120: 270b a2bd cc63 24bd b592 c93d e93c 9dba
00000130: bce0 acbd d599 433d eaba 0cbe bbf2 2b3d
00000140: 07cf dabc 68f5 75bd 20b7 173c d484 c63d
00000150: 1981 033c aff3 4d3d a766 703d 5dd2 3439
00000160: beda 8d3d d724 e63c 7157 0a3e 52ba f93d
00000170: 157b d73d 3ca5 053e 2c4d ccbd 11a3 3bbd
00000180: 6a9f f9bd 79a4 f03d 96c6 813a 7e1e 7ebd
00000190: 7b9a e2bd 80b0 b1bd 1cd0 873d b753 33bc
000001a0: 4dcb a03d eb02 d23d 5ab5 c2bd 2ebe 04bd
000001b0: cd6a dc3c 8007 02be a3c3 04be 8233 e43d
000001c0: a933 2fbb ce51 1c3c 28ef d53d 3a66 243d
000001d0: 6312 57bc e970 763d c459 08bc 01e1 e13d
000001e0: 26ad 043e 4699 0a3e 5109 883d 0745 4e3d
000001f0: 729b f33d 86de f7bd 5f08 833d 11f8 263d
-0.10988297 -0.11892063 -0.075073205 0.12282028 -0.09479607 -0.12912959 0.050970048 -0.049271055
-0.1008415 0.08888244 -0.010977648 0.00037990083 -0.09816063 0.07322022 -0.11182878 -0.060971398
-0.07229054 -0.05045792 -0.13622944 0.10916488 -0.033159453 0.09818319 -0.0135325175 0.009508961
-0.103762195 0.07515125 0.0469465 0.072611146 0.13015041 0.05697451 -0.021482624 0.06948365
-0.0046190885 0.03178954 0.095324434 0.06341525 0.039235402 -0.009665899 -0.053090215 -0.03223495
0.025331799 -0.021658031 -0.047667768 0.008968707 -0.016656147 0.010509066 0.14661166 0.040261928
-0.10778082 -0.01245425 -0.018624108 0.034144673 0.06788341 0.1403488 -0.056227367 0.09306078
-0.082793884 -0.12623738 -0.11445345 -0.11843916 0.054177795 0.049439725 0.05272087 -0.069649674
0.04934696 0.034236558 -0.01873218 0.0748267 0.061806094 0.09037737 0.12887773 -0.09278979
-0.079122834 -0.040134236 0.09842435 -0.0011996302 -0.08441302 0.047754128 -0.13743177 0.041979533
-0.026710046 -0.06004849 0.009259969 0.09693304 0.008026385 0.050281223 0.058691647 0.00017244504
0.069264874 0.028093738 0.13509919 0.12193741 0.10521523 0.13051313 -0.09975657 -0.04580981
-0.12188609 0.11750121 0.0009901102 -0.0620408 -0.11064621 -0.08676243 0.066314906 -0.010945252
0.078512765 0.10254463 -0.09507246 -0.032407932 0.026906395 -0.12698174 -0.12965254 0.11142637
-0.0026733673 0.009540988 0.10446006 0.040136553 -0.013126942 0.060166273 -0.008322183 0.11029244
0.12956676 0.13535032 0.06642402 0.0503588 0.11894883 -0.1210299 0.06398081 0.04076392

actor.2.weight f4 [128, 128]
00000000: 1ac9 6f3d 247b 073c 660a 203d 102d c53b
00000010: 5e8c 193d 270b 9bbd d389 893d 1d1b 8f3d
00000020: c128 6a3d 6ef1 2bbd ca04 56bd bcbe 08bd
00000030: a847 2ebd fbad 6bbd 95ae cf3b f9ca 64bd
00000040: 40ac f8bb 99b1 8ebd 8a82 e23c ad07 223c
00000050: 2f1a 703d 7bc8 20bd 8832 f9bb e23f 823d
00000060: e160 96bd 55ca 413d c199 07bb 3d78 813b
00000070: eacb 9cbc 4187 f9bb fe72 e43b 8eff a93d
00000080: 8142 353d 1032 eb3c feff 893d 44ed 473c
00000090: bbe4 603c eee5 cdbc 285c e0bb 1ab9 4c3c
000000a0: 990d 9d3d 2e00 a4bd 5c00 e3bc 8f48 2fbd
000000b0: 48df 2e3d 971d 5b3c 2f1f 81bd d3c4 8e3d
000000c0: 93a2 c23d 5652 c23c fb1c 2a3d 7078 7e3d
000000d0: 59e0 5dbd 6856 75b8 1737 6dbd 1b58 783d
000000e0: b07b 223d f0a9 23bd 8b65 3d3c 339d 16bc
000000f0: b2a9 8d3d 2a50 413d 0dd1 6abd 3a99 8cbd
00000100: d9f5 a23d 9ed3 a6bd 1e1d 3cbd 475b 933d
00000110: 4fed 7fbd a7ec 80bd 3b68 943d ba13 893d
00000120: 8af7 913d 936c 8abd 1f48 4a3d 29a9 a63c
00000130: f759 c4bd 0df4 433d 36d3 093d d892 793d
00000140: b5ce 7d3d d4b8 fdbc a086 76bd 87d1 6e3d
00000150: 9cf5 d3bd cf50 823a 5b3c b3bd 0260 533c
00000160: 32c2 113d ab22 933d c0ec c4bd 20c2 27bd
00000170: 446d 91bd f653 94bd 007b 4f3d ef96 203c
00000180: 46a2 9dbd 48c3 5bbd 4e7c 723d 8e68 bbbb
00000190: 6fc7 773d a9fa 85bd d664 f03c 6264 8bbc
000001a0: a070 113d be12 8dbd 9dfe 33bd c8d9 80bd
000001b0: 999d 5f3d d854 e8bc 41a7 4a3d ba82 693d
000001c0: 80c6 bd3d cf19 673d d3d3 4b3d 4fa5 20bd
000001d0: 3508 eb3c 7ab2 a2bc ae2b 5bbd 11d5 a6bd
000001e0: 9286 25bd 121e 583d 1c5c 9fbd 5682 a5bd
000001f0: 59ab 353d 1f14 a73d 9a1a 0c3d 81b8 d4ba
00000200: 81c9 6f3c df14 a0bc 0fda dd3b ad82 213d
00000210: 45ba 3b3c 7f89 2cbd 5e8d c23c 7a7f 8dbd
00000220: e36a cdba 71b4 9b3b 2625 983d bdb0 8ebd
00000230: 677a bebd 675c 9bbd 5e2c 763d f5e6 91bd
00000240: 02d6 333d 9ef4 afbc 7dc3 6a3d 83ef 4f3d
00000250: f98f baba 5475 88bb 36c0 303c 5a58 843d
00000260: 0506 06bc 21a1 58bb 84aa 4a3c 0055 e7bc
00000270: 8b52 a03d 4dd4 afbd 1ad2 873d 78f4 c03c
00000280: 4aa6 81bc 9bc8 8dbd 5f19 0f3d 2447 4ebd
00000290: ca82 273d c03d 223d 98c3 5f3d 300c a6bd
000002a0: 8dce 803d fe6a 85bd e307 353d 6f90 f7bc
000002b0: d70b 08bd 1ac4 4bbd d97a 633c 8faf 7cbd
000002c0: b742 a1bd b028 af3d 8453 503d dc3f 0b3c
000002d0: 9402 67bd 20eb 713d 58f2 b1bc e9a7 a93d
000002e0: 2ec9 ab3c 3038 9e3d 2072 123d 7e27 febb
000002f0: e145 b2bd 6af8 42bd 9ffe 5b3d bfde 433d
00000300: 6dbd 853d c3b3 96bd eee8 2f3d 58e1 4c3c
00000310: 9217 09bd 0375 9b3d bb19 3d3d 7fc0 e8ba
00000320: 8284 073d bb6f aabc 2fec ab3c 1193 9cbd
00000330: f18e 1dbc b6fb 64bb 425c 5ebd cd7c e7bb
00000340: 8433 3db9 8555 2bbc fe47 a5bd 2fd7 7c3d
00000350: e8a2 9bbd 60c4 833d 1252 c53c a96f 95bd
00000360: f07e 95bd d425 8dbd 900d 3bbc 2a67 0dbd
00000370: 922d 16bd f1a0 2cbd 9bfb 643d 3a6a 503c
00000380: 82f8 20bd a804 373d 5cbb fb3c 26c3 c5bd
00000390: 6ce9 2abd 054d 893d 595e 97bd 71cd 963d
000003a0: 6de1 40bd 2c08 c93c e537 9cbc fff6 bcbd
000003b0: a312 38bd da25 67bd 044d 33bd 5e67 4ebd
000003c0: 3288 63bd fd6b 71bc ccee f03c 2469 163d
000003d0: cb0a ca3c 758c 1abd 4f48 d7bc 4042 6dbd
000003e0: e711 a33d 5b80 6abd 3410 64bd 2648 3c3d
000003f0: 01a1 273d 51ae 16bd 9f8d e13c 6510 803d
0.058541395 0.008269105 0.039072417 0.0060173348 0.03748738 -0.075704865 0.06715741 0.06987593
0.057167772 -0.041978292 -0.05225066 -0.033385023 -0.042548805 -0.057538968 0.0063379505 -0.055857632
-0.007588893 -0.06967468 0.027650137 0.009889525 0.05861872 -0.039253693 -0.0076049007 0.06359841
-0.07342697 0.0473121 -0.002069101 0.003951101 -0.019140203 -0.0076150005 0.006971716 0.08300696
0.044252876 0.028710395 0.0673828 0.012202565 0.013726409 -0.025134053 -0.0068469234 0.0124953035
0.07668609 -0.08007847 -0.027710132 -0.042793807 0.042693406 0.013373754 -0.06304776 0.06971135
0.09503665 0.023720901 0.041531544 0.062126577 -0.054169033 -5.8493024e-05 -0.057913866 0.0606309
0.03966874 -0.039956987 0.011559854 -0.009192753 0.069171324 0.04719559 -0.057328273 -0.06865163
0.07957048 -0.081458315 -0.045926206 0.07195144 -0.062482174 -0.06295138 0.07246443 0.06693216
0.071272925 -0.0675899 0.049385186 0.020344334 -0.09587472 0.047840167 0.033648692 0.060931057
0.06196471 -0.030971922 -0.060186982 0.05830529 -0.10349581 0.0009942296 -0.08751746 0.012901308
0.03558559 0.07184347 -0.09615469 -0.040956616 -0.07100919 -0.07242577 0.05065441 0.00980161
-0.07696967 -0.05365303 0.059200577 -0.005719251 0.06049293 -0.0654195 0.029344957 -0.01701564
0.0355078 -0.068883404 -0.04394399 -0.062915385 0.054593656 -0.02836077 0.049475912 0.057009436
0.092663765 0.056421097 0.04976256 -0.03922015 0.028690437 -0.019860495 -0.053508453 -0.08146108
-0.04041154 0.052763052 -0.0778124 -0.080815 0.044352863 0.08158135 0.034205057 -0.0016229303
0.014635445 -0.019541202 0.0067703794 0.039431263 0.011457984 -0.042123314 0.02374905 -0.0690908
-0.0015672114 0.004751735 0.074289605 -0.06967304 -0.0930069 -0.07585984 0.060100906 -0.0712413
0.043905266 -0.021478947 0.05731534 0.050765526 -0.0014233581 -0.004164377 0.010788014 0.06462164
-0.008180146 -0.0033055025 0.012369756 -0.028238773 0.07828244 -0.08585415 0.066318706 0.023554072
-0.015826363 -0.06923028 0.034936305 -0.050360814 0.040896215 0.03960967 0.054629892 -0.08107793
0.062893964 -0.06514548 0.044196974 -0.030220238 -0.033214416 -0.049747564 0.01388427 -0.061690863
-0.07874053 0.085526824 0.050860897 0.008499112 -0.056398943 0.059062123 -0.021722004 0.082839794
0.020969953 0.07725561 0.03575337 -0.0077561727 -0.087047346 -0.047600187 0.053709622 0.04781985
0.06530271 -0.073585056 0.04294675 0.012504898 -0.033469744 0.075906776 0.046167117 -0.0017757564
0.033085354 -0.02080523 0.020986645 -0.07645238 -0.009616599 -0.003494007 -0.054287203 -0.007064438
-0.00018043636 -0.010457401 -0.08070372 0.061728653 -0.07599431 0.0643394 0.024086986 -0.07296688
-0.07299602 -0.06891981 -0.011416808 -0.034522213 -0.036664553 -0.042145673 0.055904012 0.012720639
-0.039299496 0.044682175 0.030728988 -0.09656362 -0.041726515 0.067041434 -0.07391042 0.073634036
-0.047089983 0.02454003 -0.019069621 -0.09226798 -0.04493965 -0.056432582 -0.04377462 -0.050391547
-0.055549808 -0.014735219 0.029410742 0.036721364 0.02466335 -0.037731607 -0.026279597 -0.05792451
0.07962399 -0.057251316 -0.055679515 0.045967244 0.04092503 -0.036787335 0.02753335 0.06253127

actor.2.bias f4 [128]
00000000: 4982 1d3c 577c 59bd 32f6 f63c 6008 56bc
00000010: 1bd8 2c3d 6306 da3c 81aa 5fbc a5ce b83c
00000020: 6cdf 92bb 5200 5e3d 13db 9c3d bfd2 a53d
00000030: 1668 9f3c 1995 9e3d 548c 873c e54a 8dbd
00000040: 0b6b a1bd 4990 13bd be4f 29bd 641c a6bd
00000050: a660 083c 9c41 0ebd 3dd3 14bd 688e fdbb
00000060: fd8a 903c 62fa fc3a 76cd a93c 9253 4a3d
00000070: 6bfb 88bc 98f7 6f3d 4937 83bc 225b 543c
00000080: 5761 853d 4fb9 833d 56b2 f7bc fc4d bcbd
00000090: 7414 383c e458 1abd fcad 26bc 9780 00bd
000000a0: 5747 81bc 06ee 0a3d e1cc 483d 6dea 69bd
000000b0: 35a7 87bd 4c31 2bbd 6483 1abd afde 883c
000000c0: 4dbd 84bc dc11 133d 42b9 173c fb9e a73d
000000d0: 1ce3 82bd 6123 0cbd 583f 2fbd 1441 113d
000000e0: 6a41 35bd acf0 963d 9e2b 7b3c 1b0a 9bbc
000000f0: 5898 5cbd d73e b03c f625 c1bc 9845 8fbc
00000100: d6d2 503d 6958 c93c 4d25 48bd f3c8 d7bc
00000110: 973b d83c c8da c6bd 47c3 89bc 7470 06bd
00000120: 47dc 9d3c b9cf 943d 88c7 2a3d d6c7 7c3d
00000130: 72a8 a8bd 36a8 a73c bc9f 51bd 7237 1ebd
00000140: 1da2 a13d 3780 5a3d cbea 0f3d 4a29 a93d
00000150: e3ee f33c a8bd f3bc 05c3 943c 35cb 91bb
00000160: 024e b43d 99e3 813c a431 abbd 637b 84bd
00000170: 62ab c6bb 96ad c9ba 7fd7 69bd da36 903d
00000180: 09ae 82bd 3fda 1c3d 142e 7bbb 55ca 8bbb
00000190: 4b60 daba 2657 a0bd 75b8 25bd 0d44 9fbd
000001a0: 8b54 83bc ce9e 46bc 7a00 a73c b2a6 c7bc
000001b0: 5b7c 91bd 81d0 863d 0fb8 7cbd 5703 403d
000001c0: 8abd 5f3d c6d6 7ebd c0c9 5b3d 116e 833d
000001d0: c942 b0bd 2232 25bd 6aa3 cebc 81ff 013b
000001e0: 9906 77bd 40b1 173d fe55 88bc bc79 dabc
000001f0: 5b51 4dbc 0e7c 9b3d ef48 633d e6b5 e53c
0.009613582 -0.053097095 0.030146692 -0.01306352 0.04219828 0.026614374 -0.013651491 0.022559473
-0.0044822004 0.054199524 0.076589726 0.08096837 0.019458812 0.07743282 0.016546406 -0.068990506
-0.07881745 -0.036026273 -0.041335814 -0.08110884 0.008323824 -0.03473054 -0.036334265 -0.0077379234
0.0176444 0.0019300694 0.020727854 0.049396105 -0.016721448 0.058585733 -0.016017573 0.012961181
0.06512707 0.06431829 -0.030236404 -0.09194562 0.011235345 -0.03768243 -0.010173317 -0.031372633
-0.015781088 0.033918403 0.049023513 -0.05710833 -0.06623689 -0.04179506 -0.03772296 0.016707746
-0.016203547 0.035905704 0.0092604775 0.0818462 -0.06390974 -0.034213427 -0.04278502 0.035462454
-0.044251837 0.07370123 0.015330223 -0.018925717 -0.053856224 0.02151434 -0.023577671 -0.01748924
0.05098232 0.02457829 -0.048863698 -0.026340937 0.026395602 -0.09709698 -0.016816748 -0.032822087
0.019270075 0.072661825 0.041694194 0.061714016 -0.082352534 0.020465951 -0.051177725 -0.038627096
0.07892249 0.05334493 0.035136025 0.082598284 0.029776996 -0.029753521 0.018159399 -0.004449273
0.08803941 0.015855597 -0.083590776 -0.06468847 -0.006062911 -0.0015386816 -0.05709028 0.07041712
-0.06380851 0.038294073 -0.0038327025 -0.004266063 -0.0016660778 -0.07829122 -0.040459115 -0.077766515
-0.016031524 -0.012122823 0.02038597 -0.024371479 -0.07103797 0.06582738 -0.06169897 0.046878185
0.054624118 -0.062216543 0.0536592 0.06417478 -0.08606488 -0.040331014 -0.025224406 0.001983613
-0.060309026 0.037034273 -0.016642567 -0.026669376 -0.012531604 0.07592021 0.055489477 0.028040837

actor.4.weight f4 [128, 128]
00000000: 4237 51bd beae 433d 8899 713d 2ee7 cf3c
00000010: 8ed6 c1bd eda3 9a3c 4389 ac3c e330 3e3c
00000020: 1777 c0ba 31df 793d d2c1 223d 20a2 583d
00000030: 7f7e 2f3c 902c 0cbd 2d61 b93d ec9d 87bc
00000040: 560c fb3c a3df 09bb e51b 2fbd 8b1f 673c
00000050: 26a8 b5bd cc3e 313d c259 5cbd b6e0 9c3c
00000060: 9945 32bd 936e 8ebd 2ea1 2ebd 1d83 9bbd
00000070: b58a 36bd 94e5 60bd 0e76 6b3d ab5a 99bd
00000080: b21f 873d daf0 f9bb a42c a1bd 4fd0 55bc
00000090: bbfc a1bb e3c1 9e3d d5e1 893d 7bc6 b1bc
000000a0: cc51 3abc 029f 993d f955 81bd b750 18bd
000000b0: 3844 8b3d 1554 653c 5aeb 413d e195 e83c
000000c0: 742c 903d 3ca9 8abd ddc9 663c 9066 59bd
000000d0: 22dd 95bd b959 823d e169 a0bd ced0 13bd
000000e0: a071 8f3d 7a3b 8bbc 351e a3bc d36c 673d
000000f0: 8678 b3bd e8e0 a6bd 891b 513d 1f75 0dbd
00000100: 164f b7bd cbc8 3f3d ef7f 8ebd 1cec a33c
00000110: 2fdf 2c3d 5ab6 bebd 3af8 3e3d 991a ae3d
00000120: 18a4 ee3b 87d9 983d f568 54bd f4fa dc3b
00000130: e280 a53c 7516 83bd e24f a83d 3d92 a43b
00000140: bf5e 543d d492 68bd 14c3 513d 8671 913d
00000150: 5708 b3bb a8b6 5fbd 2419 6fbd 748c a33c
00000160: 1010 543d 8410 5bbd c74c 4ebd cb74 c73d
00000170: c596 0ebc 6353 823d 9164 863d 28bb 9cbd
00000180: daef 88bd efbc 913d 1074 973d 2494 af3d
00000190: 47ac 80bd c83f ec3c 744c 8cbd 1495 013d
000001a0: e989 963d 0f7f 933d 0505 c83b d173 01bd
000001b0: 2c8d 463a 4e3b 8e3c b6b0 983d 5868 38bd
000001c0: 5e45 453d c2e1 c1bc 69d9 103d 5a12 c7ba
000001d0: 7b54 d13b 684d a93d 664a 973c e4f6 f53b
000001e0: 3372 a5bc b8ba e83b 3953 bd3d 348a ecbc
000001f0: 456f d8bb efdd 84bd f7ad 653c 0076 073c
00000200: 944a febc f9d2 573d 1f29 7e3d c1f1 aabc
00000210: d0e5 ebbc 718c 8b3d 4a34 1bbc ef05 a8bc
00000220: 84a6 8ebd c488 313b cc41 443c 6e69 3a3d
00000230: f802 b33d 303d ba3c 1285 763d ddbb 75bd
00000240: 4d92 883d e011 ba3c eac3 86bd 5d66 57bd
00000250: e6bc cc3c d063 bfbd 46bc 96bc ca34 98bd
00000260: b946 05bb be08 8cbc 60a4 0ebd 587d 58bd
00000270: 051d 5bbd ca7d 7abd ba61 813d cc3c e43c
00000280: 2ca2 b5bd 2ffa 803d 4b4e 8cbd 2473 28bc
00000290: e970 35bb 89ad b8bd 25a4 5bbd 5fd1 2abd
000002a0: 7c3a 873d a871 f5bc 065b 003d 4467 ed3b
000002b0: e023 eb3c 2e44 11bc 156e 9cbc 54f5 a5bd
000002c0: 627d 253c 9588 88bd 162e 08bd 84ef 99bd
000002d0: 5172 1cbd 4e21 7bba d077 c5bc b30c a4bd
000002e0: dd72 b4bd a2ab 343d 4e2e 54bc c346 40bd
000002f0: 6452 46bd b0a6 863c 8bec ab3c 6b7b 88bd
00000300: 710b c03d 5ac5 a53d 7a6a ad3c fc92 993d
00000310: 537b 853d a304 cc3d 88b9 5ebc bf2a 3b3d
00000320: b643 423d 8c4d 26bd 0b43 193d d89d 813d
00000330: b40b 18bd 364e 7dbc 72f3 793b 6272 bd3c
00000340: 4256 29bd 7ad7 b6bc a183 d1bd c50a 78bd
00000350: 4ef6 c0bc 57be 87bd acd1 dd3a 0436 76bb
00000360: a661 47bd 1b7f 8b3d 4f24 ec3b 0f21 2bbd
00000370: 26de 213b 48b5 093d 6011 a83d 3076 943b
00000380: 1641 46bc 61f1 bdbd 1479 633d ac3e 28bd
00000390: d8b2 ba3b 1a44 0a3d 5098 863c e88e 89bd
000003a0: 23de 853c 70a7 e5bb 813b f3bc ba68 973d
000003b0: 58f2 813d 6cbc 20bd 7138 8f3d 4e2c 073d
000003c0: b6f2 d73c 58b2 19bd b843 b6bd 3cd7 a2bd
000003d0: d1a5 fdbc 7f09 463d ae35 8f3d 88b0 793c
000003e0: 1afc 9bbc 8b75 b2bd e84c 8d3d 4d8b 8bbd
000003f0: cfdd 89bd 8c24 b13d 9939 a0bd a501 3dbc
-0.05107809 0.04777407 0.05898431 0.02537879 -0.09464751 0.018876994 0.021061545 0.011608335
-0.0014683929 0.061003868 0.039735623 0.05288899 0.010711311 -0.034222186 0.09051738 -0.016554795
0.03064553 -0.002103784 -0.04275121 0.0141066415 -0.088699624 0.04327278 -0.053796537 0.01915012
-0.043523405 -0.06954684 -0.04263418 -0.07593367 -0.044565875 -0.054906443 0.057485633 -0.07487997
0.06597842 -0.0076275887 -0.07869843 -0.013050153 -0.004943458 0.07751825 0.06732527 -0.021701088
-0.011372041 0.075010315 -0.06315226 -0.03718635 0.06800121 0.0139970975 0.04734359 0.02839178
0.07039729 -0.0677056 0.014086214 -0.053076327 -0.07317568 0.063647695 -0.07832695 -0.036087804
0.07004094 -0.016996134 -0.019911865 0.056500267 -0.087632224 -0.08148366 0.05105165 -0.034535524
-0.08950631 0.04682235 -0.06957995 0.020010047 0.042205032 -0.093121246 0.046623446 0.08501167
0.007282745 0.07463365 -0.051857907 0.006743783 0.020203058 -0.06400768 0.082183614 0.005022316
0.05184817 -0.05678065 0.05121143 0.07101731 -0.0054636407 -0.054617554 -0.058373585 0.019964434
0.05177313 -0.053482547 -0.05036619 0.09739073 -0.008702938 0.06363561 0.0656215 -0.07652885
-0.06686373 0.07116114 0.07395184 0.085731775 -0.06282859 0.028839007 -0.0685052 0.031636313
0.07350523 0.07201969 0.006104114 -0.03160459 0.0007574137 0.017362263 0.0745558 -0.045021385
0.048161857 -0.02366722 0.03536359 -0.0015187964 0.0063882447 0.08266717 0.018468093 0.0075062383
-0.020196056 0.0071023367 0.09244389 -0.028874494 -0.0066050612 -0.06487643 0.014018527 0.0082678795
-0.031041421 0.052691434 0.062050935 -0.02086723 -0.028796107 0.068138964 -0.009472916 -0.020510642
-0.06965354 0.0027089575 0.011978578 0.0455107 0.087408006 0.022734255 0.0601855 -0.059993614
0.0666853 0.022713602 -0.065803364 -0.052587856 0.024992418 -0.093452096 -0.018400323 -0.07431944
-0.0020336343 -0.017094012 -0.03482473 -0.052853912 -0.053494472 -0.061155118 0.06317468 0.027861021
-0.088688225 0.06297719 -0.06850871 -0.010281358 -0.0027685708 -0.09017474 -0.053623337 -0.041703578
0.06602952 -0.029961422 0.031336807 0.0072449762 0.02870363 -0.008866353 -0.01909546 -0.08103433
0.010100694 -0.06666676 -0.033247076 -0.07516387 -0.038194958 -0.0009579853 -0.024104983 -0.08010235
-0.08810971 0.044108994 -0.012950493 -0.046942484 -0.048418418 0.016436905 0.020986816 -0.06664165
0.09377182 0.080942824 0.021168936 0.07498738 0.06517663 0.09961822 -0.013594039 0.045695063
0.047427855 -0.0406013 0.037417453 0.063289344 -0.037120536 -0.0154605415 0.003813949 0.023125831
-0.041342027 -0.022319544 -0.10230184 -0.060557146 -0.023554947 -0.06628101 0.0016923449 -0.0037568817
-0.04867711 0.06811353 0.0072064768 -0.041779574 0.0024699061 0.03362015 0.08206439 0.0045306906
-0.012100479 -0.09274555 0.05553539 -0.041075394 0.0056975894 0.033756353 0.01643005 -0.0671671
0.016341275 -0.0070084855 -0.02969146 0.07393022 0.063450515 -0.039242193 0.06993187 0.033001237
0.02636085 -0.037523597 -0.08899635 -0.07951209 -0.030962856 0.0483489 0.069926605 0.015239842
-0.01904111 -0.08713826 0.06899434 -0.06813679 -0.0673176 0.08649549 -0.07823486 -0.011536037

actor.4.bias f4 [128]
00000000: 9ab1 e3bc 5dee aebd 9518 83bc 6c72 8fbd
00000010: 6d5f f53c cc96 2abd e23b 873d a3da 8e3c
00000020: c839 15bd 38b8 733d 37f7 723d bd8c 913d
00000030: 6610 8dbc 9708 bdbc 55c2 12bd 469b b13d
00000040: b0c8 a13c f46b af3d 1bbf 923d e037 4abd
00000050: b91a fbbc ed6b 863d b06c 523d 16c0 aabc
00000060: a3fd 9bbc 85ee cdbc 514b 00bd 0513 43bd
00000070: 93ba 73bd b521 ab3c 47e6 9dbd 6158 50bd
00000080: b1f2 27bd 28c8 2bbd 55da 85bd 72c2 ef3c
00000090: fec9 0bbc 4c1f 863c 825e edba 8da1 77ba
000000a0: 4538 4d3d b223 793a abfc 8d3d c440 d9bc
000000b0: 1a65 8b3d 6f59 2d3c 755c a9bd 4ab5 753d
000000c0: 6362 d33c ce7e 863c 170a 1ebd 3fb8 a0bc
000000d0: 0ebf b33d 7bb6 6b3d f6d8 1abd 054c 7cbd
000000e0: 83c0 abbc d3de b13d da23 46bd 144d 873d
000000f0: 74ea 123d 65d8 173d c2b1 a73b b868 59bd
00000100: 3dec a5bc adf8 07bc efdf 5fbd 2dc6 883c
00000110: 2f43 87bd 9199 733c b9e5 063c d9dc 473d
00000120: 5877 a6bc 466a 563d 25b2 99bd cbd8 533d
00000130: 3c2a a13d 9e02 cabc 5d5d 4d3d b8d1 333b
00000140: c993 363c 2291 8d3d 6ed2 0dbd 5daf 913d
00000150: 0da9 14bd 919f 86bc 3390 3f3d 9939 82bd
00000160: abd2 8abd 755d 353c 6e21 25bc 080c b03d
00000170: 71ac a33c ef82 45bb 39bb 20bc 39c6 223b
00000180: 21f5 c1bb d943 9ebd 0506 af3d 03dd 8c3d
00000190: 095f 95bd 3c37 74bd cd7a 74bd f2e7 2ebd
000001a0: 442a a1bd 1163 94ba 5b16 04bc 36ca 973c
000001b0: d544 5b3d f601 893d 4c80 6d3d 9b19 963d
000001c0: 5db4 3f3d c8f2 fcbc 5886 bf3c 3f16 873d
000001d0: ca71 1a3d 2edf 8ebd 1fcc a9bd d31e 2cbd
000001e0: f3cb 683d d3e3 023c 98f5 eb3c 3a31 123d
000001f0: cc0f 16ba 945c d03c 3255 a43d 2ff3 debc
-0.027794648 -0.08541558 -0.016002933 -0.07004246 0.02995273 -0.041647717 0.066032186 0.017438238
-0.036432058 0.059501857 0.059317794 0.07106922 -0.017219733 -0.023075385 -0.03582986 0.08672194
0.019749016 0.08565512 0.07165357 -0.049369693 -0.03065239 0.06563554 0.051373184 -0.020843547
-0.019041842 -0.025138149 -0.031321827 -0.04762556 -0.059504103 0.020890096 -0.077099375 -0.050865535
-0.041002933 -0.04193893 -0.06535784 0.029267523 -0.008532045 0.016372345 -0.001810983 -0.0009446375
0.05010249 0.0009503915 0.06932958 -0.02652014 0.06806393 0.010580405 -0.08269588 0.059987344
0.02580375 0.016417887 -0.03858384 -0.019619105 0.08776675 0.057547074 -0.037804566 -0.061595935
-0.02096582 0.086850785 -0.048374034 0.06606498 0.035868123 0.037071604 0.005117626 -0.053078383
-0.020254249 -0.008299035 -0.05465692 0.01669606 -0.06604611 0.014868156 0.008233481 0.0487946
-0.02032058 0.052347444 -0.075046815 0.05172042 0.07869384 -0.024659451 0.050137866 0.0027438235
0.011143633 0.069124475 -0.03462451 0.07113526 -0.036294032 -0.016433509 0.04676838 -0.06358642
-0.06778463 0.011069645 -0.010078771 0.08596045 0.019979687 -0.0030137857 -0.009810262 0.0024837388
-0.005919114 -0.07727785 0.0854607 0.06878092 -0.07293517 -0.059622988 -0.059687424 -0.04270167
-0.0786939 -0.0011321028 -0.008061971 0.018529039 0.05353244 0.06689827 0.05798368 0.073291026
0.046802867 -0.030877486 0.02337949 0.0659604 0.037706174 -0.06976162 -0.08290886 -0.042021584
0.056835126 0.007988888 0.028803632 0.035691477 -0.00057244 0.02543477 0.08024062 -0.027215568

actor.6.weight f4 [5, 128]
00000000: 0ec2 1c3d 52cb b2bb 58de 883d 18fc 70bd
00000010: f928 22bd 21dc 4c3d dfae 2d3d 9881 f2bc
00000020: 8f7a 113d 1756 acbc f61e a0bd 2d4e 96bd
00000030: 7c4e 3dbb 716e 823d 4ad2 6abd a573 443d
00000040: 3ecd 51bc 54af 7dbd 3daa be3c 4762 713c
00000050: 07e0 3f3d cf01 bcbc 6c03 5b3d 3a64 15bd
00000060: 73b4 89bd 8d29 96bd 895c 9f3d f996 eb3c
00000070: c166 9a3d cd34 2a3c c2f6 f3ba cc8d 823d
00000080: ea1b 2ebd 8cba 313d e12b a83c 14c2 32bd
00000090: ea1a 543d 3205 dcbc cc4b afbc 4976 83bd
000000a0: 9754 43bd 834e 67bc e337 f03c 331c 35bd
000000b0: 2022 c13c f159 07bd 8ad9 bebc a2e7 813c
000000c0: 74d3 e13c 69b0 59bd 0979 a43c dc11 c4bd
000000d0: da49 90bd aec8 143d 23ae babc 9a8f 99bd
000000e0: 8d41 98bd 20eb 9fbd 4f42 fabc 6bc3 053b
000000f0: e290 823d 841d 033d 8356 d03c 092d 973d
00000100: 0a2a 3dbd 693a a1bd e279 d7bb d289 953c
00000110: a8c2 603d 64cf 633d 708f 913d 9b5c adbd
00000120: 51f4 cabb 90ef 163d 3c8b 94bd 3c04 56bd
00000130: 8c4e a5bd 89e5 f83c ae34 81bc 579d 683d
00000140: 005f 4e3d 7503 f4bc d33a 123d 21f6 a63d
00000150: 15b3 073c 9ca2 353d a276 4c3d 9b9c 7ebd
00000160: a514 f9bc e78f 2cbc 29be 56bd 3eaf a2bd
00000170: b0c0 0d3d f48a 0a3c 3228 5dbd 70fa 5ebc
00000180: 84c4 ee3c 5d67 803d 4414 acbc 0054 dbbc
00000190: 227b adbd c849 393c 765e 98bd ba9d 443d
000001a0: 048e 14bd d1d5 a63d 10ab a73d d4fa d8bc
000001b0: ce01 86bd 45b4 c83c ba22 9e3b 4a9c a23c
000001c0: 3df0 4c3d 2584 993c 69c6 95bd 5332 b23b
000001d0: bc9d 87bd 4940 19bc ef94 973d 0dcb 003c
000001e0: ad44 00bd 1f23 7a3d 6c61 f23b 69bc 6e3d
000001f0: 5928 bdbc 5ad4 273d 8ca1 d0bc 9ae8 a83c
00000200: 9bd0 9cbd 0fc8 0c3d ffcc 203c 9538 813c
00000210: 2e52 453d 86fb 743c 037c 09bd c02d 09bd
00000220: 26ab 1fbd 8124 36bd 50d3 0c3d 7089 8f3d
00000230: e213 48bd faa7 a7bd 5d2d 0fbd 8333 9bbd
00000240: 8ecd 85bd 855d 39bd b715 bdbc 73ed 11bc
00000250: c7b3 5abb a127 28bd 0577 94bd 48c2 11bd
00000260: eff2 65bc 5b40 0fbd b46d a8bc 8da4 8e3d
00000270: 0c70 8c3d bcbc 73bd 0676 2d3b 3040 1a3d
00000280: 6747 cb3c e6d0 503d 285a 943d 6f4b cebc
00000290: 838e 143d 2314 12bd bf4c c2bd 03c6 883d
000002a0: 4552 5fbd 6022 423d f9e9 97bd bcd8 38bd
000002b0: 5709 a03d 26cf a13d 6e3a d4bc 8bb2 bfbc
000002c0: 792d 9fbd c4ae 233d 128c 143c 74ff aa3a
000002d0: 5cb8 8bbd a041 aa3d 5560 6c3d 8024 adbd
000002e0: a748 86bd 0ded 303c a0ae b0bd e6bb 793d
000002f0: 2721 4fbd f14f 13bd 0925 473d 0bfc dcbc
00000300: a050 18bd 0b86 b2bc b723 dabc de7e 1a3d
00000310: 0a56 143d f036 3dbd 0797 a2bd d334 093c
00000320: d061 753d 5ee3 983d 321d 5d3d 4c35 babb
00000330: bc46 8dbd 516c b5bd 6fd4 06bd 1bf6 9abc
00000340: e2d5 a63d a1d7 4a3d 2baf cd3c f9f0 55bd
00000350: ef2d 1fbd 57c7 093d cca4 663d 6d34 a0bd
00000360: b429 e0bc 95a5 e13c e86f 403d dba0 493d
00000370: cfab 323d 891f 15bd 1470 b0bd 9796 913d
00000380: 230e 5cbd cb5c 3ebd f724 bebd 77c7 b9bd
00000390: c6e6 73bc f6fd 6b3c 4a63 a9bc b016 16bd
000003a0: 7e65 9bbb cc9e 80bd 074a f03c d8f3 0abd
000003b0: 7ab8 f13b a179 3c3d a581 a53c ff6f 033d
000003c0: 7a0e 91bc e7ee 613d d3d6 4bbd 93b3 97bd
000003d0: 140f 5bbd 573f 4ebd b9c2 113d f4d5 3d3d
000003e0: 20c7 bcbd 3381 af3d ca81 4e3d 37d8 67bb
000003f0: cca4 a23d 044a 63bd f6c9 9f3d 1652 77bd
0.038271002 -0.0054563666 0.06683034 -0.058834165 -0.039589856 0.05001462 0.0424031 -0.02960281
0.03551727 -0.021037145 -0.07818405 -0.073391296 -0.0028885892 0.06368721 -0.057329454 0.04796185
-0.012805281 -0.061934784 0.023274535 0.014732904 0.04684451 -0.022950081 0.05347006 -0.036472537
-0.06723871 -0.07332144 0.077813216 0.028758513 0.0753913 0.010388565 -0.0018612968 0.06374702
-0.04250709 0.043390796 0.020528736 -0.04364212 0.05178348 -0.026857946 -0.021398447 -0.064190455
-0.047688093 -0.01411784 0.029323524 -0.044216346 0.023575842 -0.03304476 -0.02329709 0.015857521
0.027566649 -0.053146753 0.020077245 -0.09573719 -0.07045336 0.036324196 -0.022788113 -0.07498093
-0.07434378 -0.078085184 -0.030549197 0.0020410668 0.063752905 0.03201057 0.025431877 0.07381637
-0.04618267 -0.07872469 -0.006575809 0.018254194 0.05487314 0.055617705 0.07107437 -0.08464929
-0.0061936756 0.03684956 -0.07253119 -0.052250132 -0.08071622 0.030382888 -0.01577219 0.056790676
0.050383568 -0.029786805 0.03570063 0.08152414 0.008282443 0.04434453 0.049917825 -0.06216107
-0.030405352 -0.010532356 -0.052427445 -0.07943581 0.03460759 0.008455981 -0.05399341 -0.013609514
0.02914644 0.06269715 -0.021005757 -0.026773453 -0.08470751 0.011309095 -0.07439892 0.048001982
-0.03626825 0.08146251 0.081869245 -0.026486792 -0.06543313 0.024500022 0.004825917 0.019849915
0.050033797 0.01873977 -0.07313234 0.005438128 -0.06621882 -0.009353706 0.07401454 0.007860911
-0.031315494 0.06106865 0.0073968675 0.05828515 -0.023090528 0.040974 -0.025467657 0.020618726
-0.07656976 0.03437048 0.0098145 0.01577405 0.048174076 0.014952546 -0.033565532 -0.033490896
-0.03898158 -0.044468407 0.03438121 0.07008636 -0.048847087 -0.08186336 -0.03495537 -0.075781845
-0.06533347 -0.045255203 -0.023081644 -0.00890671 -0.0033371316 -0.041053418 -0.07249264 -0.03558567
-0.014034971 -0.034973484 -0.020560123 0.06964979 0.06857309 -0.059506163 0.0026468053 0.03765887
0.02481432 0.05098047 0.072437584 -0.025182454 0.036268722 -0.035663735 -0.094872944 0.06678393
-0.054521818 0.047396064 -0.074176736 -0.04512857 0.078142814 0.079008386 -0.025906768 -0.023400566
-0.07772345 0.03996159 0.0090665985 0.0013046102 -0.06822273 0.08313298 0.057709057 -0.084542274
-0.06556826 0.010798705 -0.08627057 0.06097021 -0.050568726 -0.03596491 0.048619304 -0.026975652
-0.037186265 -0.021792432 -0.026628358 0.037718646 0.036214866 -0.04619497 -0.079389624 0.008374411
0.059907734 0.07465242 0.05398292 -0.005682623 -0.06898257 -0.0885855 -0.032917436 -0.01891618
0.08146264 0.049522046 0.02510794 -0.052231763 -0.038862165 0.03363737 0.056309506 -0.078224994
-0.027363636 0.027544776 0.046981722 0.04922567 0.04362088 -0.036407027 -0.08615127 0.07108801
-0.05372442 -0.046475213 -0.09284394 -0.09071248 -0.014886564 0.014403811 -0.020677228 -0.03664273
-0.0047423234 -0.06280288 0.029332174 -0.033923954 0.0073767276 0.046014432 0.02020342 0.03208923
-0.017707098 0.055159476 -0.04976542 -0.07407298 -0.053481176 -0.050353374 0.035586093 0.04634662
-0.092176676 0.08569565 0.050416745 -0.0035376677 0.07941589 -0.05549051 0.07802193 -0.060381018

actor.6.bias f4 [5]
00000000: 1659 db38 5240 963d 03d7 85bd a549 8b3d
00000010: 46db a63c
0.00010459327 0.07336487 -0.06535151 0.06801156 0.02036823
