catmouse_experiments/checkpoints/ppo_critic_simple_spread.pth (torch, 22642 bytes, 5 tensors)

critic.0.weight f4 [64, 10]
-0.26520795 -0.054523584 0.213263 -0.20040013 -0.059523888 0.13986522 -0.26841864 0.18237875
-0.30932784 -0.11099936 0.27411076 -0.015506141 0.27317855 -0.20449999 -0.16884632 -0.15271579
-0.016328786 -0.2193175 0.01181527 0.11162736 -0.09947498 -0.19860795 0.28922585 0.3106565
-0.08901674 0.13922036 0.13527027 -0.30832195 0.2000717 -0.16690618 -0.10253229 0.018729258
-0.037085313 -0.22195946 0.13909535 0.29259112 -0.26455134 0.14526258 0.2662471 -0.23523223
-0.07809219 0.0662242 0.0053894324 -0.12911163 -0.10134466 0.29033577 0.122869074 -0.0016392878
0.16922095 -0.26862702 -0.26402318 -0.10716058 0.014636405 -0.23908536 -0.29164228 0.22993436
0.02861387 0.030411068 0.24443942 -0.03396522 -0.21269047 0.30093035 0.024130806 0.2495798
-0.19553189 -0.26845962 -0.074622385 0.06299536 0.27799618 -0.09138418 0.28202915 -0.2760947
-0.022640219 0.13013908 0.109799 0.030389858 -0.11507811 -0.28534535 -0.17323418 0.23715891
-0.28389516 0.23827383 -0.2534261 0.27761933 0.07265374 -0.14800824 0.17158166 0.24706917
0.2842387 0.21378323 0.22728458 0.02540149 -0.30031157 0.16011295 -0.039914012 -0.31255093
-0.26390156 -0.029601043 -0.27042603 0.2547346 -0.08577729 0.088002086 0.10715263 -0.13170592
-0.00040414554 0.24857472 -0.10205966 0.21692353 0.03125493 0.0845457 -0.27902183 -0.065581225
-0.15130398 0.08855212 -0.19340676 -0.14604518 -0.05293953 -0.20505624 0.19256623 -0.081615984
0.09718865 0.21035998 -0.1855515 0.2115412 -0.23799275 0.2018148 -0.30391023 0.08110167
0.25356215 -0.068339564 0.1994619 -0.14645445 0.27205044 0.2352562 -0.26257566 0.084747575
0.20177639 0.17000647 -0.25151968 0.26784822 0.027700743 0.2910373 -0.016732825 0.077985525
0.09785096 0.24377154 -0.17625839 -0.2799938 0.19148445 -0.07626832 0.042952973 -0.27492526
-0.18894269 0.2444467 0.29813743 0.30306047 -0.0651846 -0.21954744 0.11755503 0.17179008
-0.07926548 0.22900261 0.26884407 0.1809424 0.2190954 0.106847666 0.3125941 0.21258263
0.2542075 -0.0014700434 0.18666731 0.08597965 0.13735108 -0.108149335 -0.017699162 -0.2948392
-0.010374698 -0.2728764 -0.048348382 -0.24669275 -0.2896416 -0.28008145 -0.09536328 -0.04157047
0.13570683 0.064949796 -0.049033448 0.21277532 0.2774315 0.2884381 0.26358745 -0.29980898
0.19547689 -0.17343363 0.08147795 -0.17418264 0.19847815 0.007962802 -0.2416857 0.085769586
-0.21990405 0.16052051 -0.21323198 -0.105603546 0.25894445 0.12347871 -0.08429233 -0.24848402
0.18098377 -0.09457167 0.22514285 0.2697649 -0.18846421 0.18957332 -0.2237352 0.1684644
-0.22221746 -0.13131836 0.032940827 -0.06496147 -0.09086278 -0.29899547 -0.104018874 0.06000868
0.2539522 -0.2521492 -0.23648454 0.1287195 -0.2530462 -0.17818359 0.18243359 -0.032723274
-0.03934131 -0.1883648 0.09456441 -0.008633308 -0.1897392 0.05873366 0.16595843 0.07719198
-0.2177679 -0.00943552 0.072491914 -0.015027658 0.21911307 -0.28804755 0.31189266 0.14804421
0.029233566 -0.28078452 -0.18926106 0.290556 -0.050864685 -0.09232553 -0.046080317 -0.06962474
00000000: 56c9 87be 1f54 5fbd 9e61 5a3e b135 4dbe
00000010: 52cf 73bd d438 0f3e 2b6e 89be 7fc1 3a3e
00000020: 3860 9ebe a253 e3bd 3f58 8c3e 780d 7ebc
00000030: 0fde 8b3e 7268 51be 0de6 2cbe 8761 1cbe
00000040: f2c3 85bc c494 60be d694 413c e39c e43d
00000050: 8ab9 cbbd e25f 4bbe 6915 943e 5e0e 9f3e
00000060: 694e b6bd c88f 0e3e 4a84 0a3e 60dc 9dbe
00000070: 99df 4c3e 74e9 2abe 73fc d1bd 1a6e 993c
00000080: c5e6 17bd 5749 63be 036f 0e3e 81ce 953e
00000090: 4673 87be b7bf 143e 8a51 883e b8e0 70be
000000a0: ccee 9fbd 8ea0 873d d699 b03b d735 04be
000000b0: ca8d cfbd e4a6 943e c8a2 fb3d 5fdd d6ba
000000c0: 4248 2d3e 7b89 89be 0c2e 87be 0277 dbbd
000000d0: 88cd 6f3c cbd2 74be 2352 95be ea73 6b3e
000000e0: a267 ea3c a220 f93c 544e 7a3e 1d1f 0bbd
000000f0: 88cb 59be 8b13 9a3e f8ad c53c d991 7f3e
00000100: 8339 48be 8a73 89be 9fd3 98bd b603 813d
00000110: 8455 8e3e a127 bbbd 2066 903e 495c 8dbe
00000120: fb77 b9bc 2e43 053e 4cde e03d 27f4 f83c
00000130: 12ae ebbd c918 92be 4d64 31be c9d9 723e
00000140: b55a 91be 0efe 733e 11c1 81be 1f24 8e3e
00000150: 7ccb 943d 798f 17be 1ab3 2f3e b3ff 7c3e
00000160: bc87 913e fee9 5a3e 4abd 683e c916 d03c
00000170: 70c2 99be a6f4 233e e07c 23bd ad06 a0be
00000180: 1b1e 87be e37d f2bc 4875 8abe 936c 823e
00000190: 01ac afbd 703a b43d d772 db3d ebdd 06be
000001a0: 7fe3 d3b9 5f8a 7e3e a804 d1bd 3421 5e3e
000001b0: 2b05 003d 4c26 ad3d f3db 8ebe 734f 86bd
000001c0: 6eef 1abe d05a b53d 6c0c 46be de8c 15be
000001d0: 1fd7 58bd 43fa 51be 1530 453e 4826 a7bd
000001e0: d80a c73d 9b68 573e 3601 3ebe 429e 583e
000001f0: 5fb4 73be 8aa8 4e3e 1f9a 9bbe a218 a63d
00000200: e6d2 813e 9df5 8bbd be3f 4c3e 28f8 15be
00000210: 324a 8b3e 00e7 703e 5170 86be 2390 ad3d
00000220: 789e 4e3e 2d16 2e3e 30c7 80be 6723 893e
00000230: abec e23c d702 953e 4713 89bc e0b6 9f3d
00000240: 1666 c83d 3f9f 793e 147d 34be 595b 8fbe
00000250: 8014 443e 9132 9cbd 75ef 2f3d 01c3 8cbe
00000260: 317a 41be 3c50 7a3e 78a5 983e be2a 9b3e
00000270: 817f 85bd 0bd1 60be b1c0 f03d bde9 2f3e
00000280: f155 a2bd a97f 6a3e eea5 893e f748 393e
00000290: 8b5a 603e f3d2 da3d 550c a03e 43af 593e
000002a0: 7c27 823e 79ae c0ba b725 3f3e 1916 b03d
000002b0: c3a5 0c3e 667d ddbd d5fd 90bc 2af5 96be
000002c0: a3fa 29bc 75b6 8bbe f408 46bd 069d 7cbe
000002d0: e74b 94be d666 8fbe d34d c3bd cc45 2abd
000002e0: bbf6 0a3e 6604 853d 4cd7 48bd c6e1 593e
000002f0: 800b 8e3e 29ae 933e eff4 863e 9080 99be
00000300: 182b 483e 9698 31be e9dd a63d ef5c 32be
00000310: db3d 4b3e 6a76 023c 757c 77be f7a7 af3d
00000320: 872e 61be 7d5f 243e 7c59 5abe ac46 d8bd
00000330: 5e94 843e 68e2 fc3d 75a1 acbd 9872 7ebe
00000340: cf53 393e cbae c1bd d98b 663e a01e 8a3e
00000350: c3fc 40be 821f 423e d71a 65be ef81 2c3e
00000360: f98c 63be 5278 06be f6ec 063d 850a 85bd
00000370: 4416 babd ef15 99be d907 d5bd a9cb 753d
00000380: 0606 823e b319 81be 0129 72be 0bcf 033e
00000390: 468f 81be c275 36be dfcf 3a3e d708 06bd
000003a0: 5a24 21bd b4e2 40be fcaa c13d b872 0dbc
000003b0: fe4a 42be b592 703d 02f1 293e d416 9e3d
000003c0: 8cfe 5ebe 7097 1abc a476 943d 9136 76bc
000003d0: 2d5f 603e f87a 93be 65b0 9f3e e798 173e
000003e0: 3b7b ef3c fdc2 8fbe a7cd 41be c2c3 943e
000003f0: 7d57 50bd 2b15 bdbd b7be 3cbd 6a97 8ebd

critic.0.bias f4 [64]
0.2163963 -0.0835307 0.080471836 -0.22681394 -0.11677211 -0.12304663 0.22354446 -0.15514502
-0.19986865 0.25108373 0.054407883 -0.28189406 0.16424103 -0.10568043 0.170303 -0.28035358
-0.11688317 0.15112208 -0.1889928 -0.15254514 -0.057689272 -0.27998856 0.26395792 0.12540852
-0.2915263 -0.27920178 -0.025379568 0.10520005 0.30361664 -0.23142491 -0.26821184 0.11982342
0.28525397 -0.02471737 -0.299717 0.21410616 0.1317643 -0.25572547 -0.2454115 0.29289326
-0.2203287 -0.023020731 0.095908016 0.21612824 0.28833526 -0.10207301 0.18462798 0.18204948
0.27407208 0.12362065 -0.14199114 0.1950762 0.3089621 -0.018393457 -0.23715587 0.14210628
-0.08024296 0.18309769 0.002646061 -0.07054918 -0.016805906 0.13297057 -0.20301718 -0.14626639
00000000: fe96 5d3e 2512 abbd 6bce a43d ea41 68be
00000010: 3726 efbd dfff fbbd d7e8 643e 56de 1ebe
00000020: 5eaa 4cbe 0c8e 803e cdda 5e3d 6b54 90be
00000030: cd2e 283e fb6e d8bd e963 2e3e 818a 8fbe
00000040: 7260 efbd bfbf 1a3e 5487 41be cb34 1cbe
00000050: 964b 6cbd a95a 8fbe 7e25 873e 176b 003e
00000060: ef42 95be 89f3 8ebe d0e8 cfbc 2073 d73d
00000070: a473 9b3e a7fa 6cbe 1053 89be fb65 f53d
00000080: cf0c 923e 157c cabc 8274 99be a53e 5b3e
00000090: 38ed 063e 73ee 82be 274d 7bbe 1bf6 953e
000000a0: d99d 61be f995 bcbc 6c6b c43d b950 5d3e
000000b0: aea0 933e a70b d1bd 1e0f 3d3e 2e6b 3a3e
000000c0: 2d53 8c3e d32c fd3d 2066 11be 0ec2 473e
000000d0: 4830 9e3e e0ad 96bc fdd8 72be 4f84 113e
000000e0: 6c56 a4bd f67d 3b3e 8969 2d3b 177c 90bd
000000f0: 8aac 89bc 7029 083e bce3 4fbe dbc6 15be

critic.2.weight f4 [64, 64]
0.101492584 -0.07908818 0.032553133 0.005001649 -0.10625206 -0.056078713 -0.119956575 0.092707604
-0.08535523 0.10885944 0.06295212 -0.03702647 0.07543112 -0.12105081 -0.080588184 0.122108325
0.038460013 -0.101132266 0.08161037 -0.07757354 -0.036466 -0.012079136 0.04808196 0.030022457
0.08511333 0.07827441 0.07446875 -0.103793524 -0.06005703 0.00018487024 0.04760388 0.09110754
0.06055496 0.04784974 -0.09049637 -0.11585735 -0.013673689 0.06859871 -0.039624512 0.03124502
0.010628698 0.05519921 -0.077775165 0.028032223 -0.08320837 -0.107620776 0.11716124 -0.10471806
-0.0023878878 -0.049499936 0.0977914 0.0048355414 -0.12831165 0.068234794 -0.056129802 0.051030606
0.01426142 0.10068965 -0.07444481 0.047864903 0.098776765 -0.1054163 0.021963306 0.019843822
0.06415071 0.0301819 0.06876852 -0.09133106 -0.10406305 0.06574643 -0.098003484 -0.018391447
0.08413739 -0.093012884 0.08692577 -0.07993415 -0.08407938 -0.06251681 0.050367586 0.068668745
-0.05940908 0.093778 -0.08859447 0.03323789 0.109304324 0.10380758 0.10474107 0.11599784
-0.061856475 0.0925676 0.029024176 0.023636974 -0.11613655 0.119584315 0.008052935 -0.116670504
-0.07711497 -0.099579975 -0.07824321 0.068979084 0.120299935 -0.065192245 -0.08454598 0.10002722
0.049078893 0.03590825 0.046079475 -0.058662128 0.10778253 -0.10042667 -0.03464669 0.012238688
-0.10688951 -0.023623176 0.090971164 -0.049770642 -0.100321606 0.06383882 0.034233738 0.10067172
-0.003048619 -0.03506992 0.03256598 0.07774466 -0.0505972 -0.016351705 -0.080850005 0.014610948
0.01621065 -0.07427012 -0.11314087 0.1010117 -0.03467046 0.014889764 0.1075277 -0.08054401
-0.051120944 0.03638727 0.08496893 0.09518896 -0.0054175765 0.09883804 0.07152051 -0.01756974
0.00044684514 0.12907165 0.07639641 -0.024710428 -0.073382854 0.018482385 -0.059405588 0.027400522
0.063849665 0.046889946 0.098218866 -0.11099534 -0.018363053 0.06020239 0.12040474 -0.010475022
0.0805019 0.046320338 0.032425385 -0.024727255 -0.062272258 0.070527434 0.107278086 -0.10655433
0.10828385 -0.07375597 0.00959319 0.058916017 -0.10021507 0.04545856 0.015799718 -0.094075516
0.06475781 -0.11809742 -0.076601855 -0.0746034 -0.111225456 0.07886841 0.053705603 0.07669896
0.006092565 -0.045014553 -0.05526412 -0.012960308 0.015768306 0.03272212 0.10576047 -0.122938454
-0.094985686 0.08600694 -0.042554334 0.09845535 -0.08475619 -0.035808813 0.10469634 0.023702893
0.12134475 0.109838374 -0.07277391 0.002119931 -0.03845818 0.07054766 -0.029329937 0.020535264
0.12934282 -0.002422803 -0.09937154 -0.11275909 -0.013472559 0.046507202 0.030312235 0.09647663
-0.029619414 -0.07562989 -0.11597769 -0.07777996 0.05941415 0.11794456 0.03654089 -0.087164976
-0.028651018 0.060175736 0.0055480963 0.012236419 -0.028992001 0.0017988775 -0.06680023 -0.07471786
0.118932135 -0.004991359 -0.051209457 0.119640835 0.08763966 -0.0011786718 -0.10661649 0.08331338
-0.030464126 0.056576096 0.06529213 0.026109574 -0.10105906 -0.10952375 0.07535948 -0.027813612
-0.07980666 0.08298049 0.012617658 -0.02451902 -0.003201107 -0.02037565 0.08077567 -0.042948905
00000000: 58db cf3d fcf8 a1bd 6f56 053d dfe4 a33b
00000010: ae9a d9bd cbb2 65bd cbab f5bd 7cdd bd3d
00000020: b9ce aebd b3f1 de3d 0bed 803d 11a9 17bd
00000030: a27b 9a3d 7de9 f7bd 6b0b a5bd ee13 fa3d
00000040: 3f88 1d3d 6f1e cfbd 5623 a73d e0de 9ebd
00000050: 5f5d 15bd 92e7 45bc 97f1 443d a8f1 f53c
00000060: e64f ae3d 554e a03d 1283 983d b391 d4bd
00000070: 5cfe 75bd bad9 4139 49fc 423d 9796 ba3d
00000080: 7a08 783d 17fe 433d 2956 b9bd 9e46 edbd
00000090: 9c07 60bc 7b7d 8c3d 504d 22bd 8ef5 ff3c
000000a0: fe23 2e3c 9118 623d 9648 9fbd d5a3 e53c
000000b0: 2669 aabd 4868 dcbd 3bf2 ef3d 6c76 d6bd
000000c0: 1c7e 1cbb 72c0 4abd dc46 c83d 7673 9e3b
000000d0: 2164 03be afbe 8b3d 5de8 65bd 7805 513d
000000e0: bba8 693c 6036 ce3d 8576 98bd fd0d 443d
000000f0: 794b ca3d 80e4 d7bd 64ec b33c 838f a23c
00000100: 7361 833d 0840 f73c 83d6 8c3d c70b bbbd
00000110: 021f d5bd 10a6 863d 0db6 c8bd a9a9 96bc
00000120: 3950 ac3d 8a7d bebd 2306 b23d 84b4 a3bd
00000130: cf31 acbd d008 80bd 3e4e 4e3d 33a2 8c3d
00000140: ef56 73bd ae0e c03d 0471 b5bd 7424 083d
00000150: f2da df3d 1299 d43d 7c82 d63d 4790 ed3d
00000160: 375d 7dbd 1594 bd3d 1cc4 ed3c 54a2 c13c
00000170: 00d9 edbd 9fe8 f43d 75f0 033c f2f0 eebd
00000180: 74ee 9dbd 96f0 cbbd fa3d a0bd e844 8d3d
00000190: d05f f63d 8383 85bd 7126 adbd 12db cc3d
000001a0: f306 493d 8714 133d d5bd 3c3d b347 70bd
000001b0: 16bd dc3d 7fac cdbd b0e9 0dbd c784 483c
000001c0: e3e8 dabd 6485 c1bc 174f ba3d 4ddc 4bbd
000001d0: 6a75 cdbd edbd 823d ad38 0c3d fa2c ce3d
000001e0: 57cb 47bb 7aa5 0fbd e863 053d 9838 9f3d
000001f0: 023f 4fbd 03f4 85bc b094 a5bd c262 6f3c
00000200: 32cc 843c ef1a 98bd 67b6 e7bd 39df ce3d
00000210: 9d02 0ebd 32f4 733c 7c37 dc3d 42f4 a4bd
00000220: 3264 51bd d10a 153d 3104 ae3d 6ef2 c23d
00000230: ed85 b1bb 996b ca3d 5879 923d 6aee 8fbc
00000240: 8a46 ea39 5c2b 043e b975 9c3d 866d cabc
00000250: c049 96bd 5f68 973c 4653 73bd 0f77 e03c
00000260: 9dc3 823d ac0f 403d f926 c93d 8651 e3bd
00000270: 1d6e 96bc c896 763d c396 f63d 6d9f 2bbc
00000280: 2ede a43d 65ba 3d3d 7bd0 043d d090 cabc
00000290: 3211 7fbd b070 903d 9db4 db3d 2839 dabd
000002a0: ecc3 dd3d 5f0d 97bd c12c 1d3c ec51 713d
000002b0: 8f3d cdbd c132 3a3d 696e 813c aaaa c0bd
000002c0: be9f 843d 0fdd f1bd 6fe1 9cbd abc9 98bd
000002d0: 2cca e3bd c385 a13d 68fa 5b3d 5814 9d3d
000002e0: 24a4 c73b 2e61 38bd a15c 62bd 7957 54bc
000002f0: 892c 813c a107 063d f298 d83d 28c7 fbbd
00000300: db87 c2bd 6824 b03d 744d 2ebd f5a2 c93d
00000310: a794 adbd 43ac 12bd 096b d63d 922c c23c
00000320: 9983 f83d f1f2 e03d 7d0a 95bd 8aee 0a3b
00000330: 5386 1dbd 4b7b 903d 5645 f0bc 9239 a83c
00000340: 7272 043e e4c7 1ebb 4e83 cbbd 3dee e6bd
00000350: 02bc 5cbc 567e 3e3d 5d51 f83c 8a95 c53d
00000360: 6aa4 f2bc d8e3 9abd b685 edbd 1a4b 9fbd
00000370: 405c 733d eb8c f13d e6ab 153d 8d83 b2bd
00000380: 8ab5 eabc d57a 763d cecc b53b 437b 483c
00000390: a280 edbc 50c8 eb3a 8fce 88bd ad05 99bd
000003a0: b192 f33d 8e8e a3bb 02c1 51bd 4106 f53d
000003b0: 6c7c b33d aa7d 9aba bf59 dabd 35a0 aa3d
000003c0: e78f f9bc 56bc 673d e1b7 853d bfe3 d53c
000003d0: 0df8 cebd fd4d e0bd 1256 9a3d 5fd9 e3bc
000003e0: ad71 a3bd adf1 a93d 4bba 4e3c 1ddc c8bc
000003f0: aac9 51bb d6ea a6bc b76d a53d 31eb 2fbd

critic.2.bias f4 [64]
0.114207156 0.08630074 0.017873438 0.029647194 -0.009240098 -0.0096703805 0.08132496 -0.09712823
-0.016402358 0.0715533 -0.00744587 0.04723047 0.07190194 -0.10093998 -0.0463244 0.033043236
-0.06364162 -0.03455449 -0.03820874 -0.11175458 -0.12547408 -0.058113243 -0.09966179 -0.10792284
-0.0934815 -0.0047278064 -0.08731455 0.06578041 0.103733905 -0.11029052 0.07311709 0.08466158
-0.07668235 -0.021180578 0.11160974 -0.040880438 -0.071223624 -0.04883596 -0.0083696125 -0.050625857
0.12050037 0.06304895 0.08455909 -0.0018413088 0.06798879 0.100739636 -0.03607755 -0.058902185
-0.058812495 0.09024704 -0.057879686 -0.08992136 0.07988251 0.049482025 0.010152878 -0.016441988
-0.0020137131 0.07377593 0.08619302 0.07589252 -0.034622267 -0.033253882 0.11068418 -0.014502043
00000000: 71e5 e93d 71be b03d 516b 923c acde f23c
00000010: c863 17bc 8470 1ebc b38d a63d 2aeb c6bd
00000020: 3d5e 86bc 898a 923d 7cfc f3bb bd74 413d
00000030: 5341 933d 9fb9 cebd a7be 3dbd 5858 073d
00000040: 8a56 82bd 0289 0dbd c580 1cbd 96df e4bd
00000050: 477c 00be 2708 6ebd 7b1b ccbd a606 ddbd
00000060: 3b73 bfbd b7eb 9abb f9d1 b2bd e1b7 863d
00000070: 7172 d43d ffdf e1bd 6abe 953d 0d63 ad3d
00000080: a30b 9dbd e482 adbc a693 e43d 3f72 27bd
00000090: b1dd 91bd 3708 48bd b320 09bc 0f5d 4fbd
000000a0: e6c8 f63d cf1f 813d 512d ad3d 1258 f1ba
000000b0: b53d 8b3d 9550 ce3d 0ec6 13bd 6b43 71bd
000000c0: 5fe5 70bd 71d3 b83d 4013 6dbd b128 b8bd
000000d0: 7199 a33d aaad 4a3d 4258 263c 59b1 86bc
000000e0: 80f8 03bb d617 973d f785 b03d 8a6d 9b3d
000000f0: 14d0 0dbd 3935 08bd 63ae e23d fa99 6dbc

critic.4.weight f4 [1, 64]
0.009468488 0.074839845 0.08125011 -0.087224446 0.004855939 0.1283568 -0.09060076 -0.053556494
-0.07170897 0.018949868 -0.094554506 0.014653256 -0.03941934 0.033180352 0.06291375 0.06580599
-0.10233822 -0.018195499 0.11048485 0.041047625 0.08393795 0.05393124 0.027915025 -0.0443297
0.083031446 0.072830565 0.06276176 0.10821477 -0.037754882 0.121824205 0.058962468 0.00035255865
0.02601807 -0.0022913152 -0.002491999 -0.0031888287 -0.053152792 0.06703437 0.031058947 -0.087358855
-0.042344958 -0.10586972 0.098877795 -0.053171493 -0.040219914 0.069813184 0.055781137 -0.033751447
-0.07427574 -0.11365704 -0.12355569 0.01538581 0.09779883 0.09417349 -0.112114206 0.06890587
0.00045110798 0.012347094 0.0069195153 -0.05014509 -0.04955875 -0.044240993 -0.07962738 0.08007485
00000000: b821 1b3c a245 993d 7566 a63d bba2 b2bd
00000010: 921e 9f3b f76f 033e e48c b9bd 0e5e 5bbd
00000020: 27dc 92bd c13c 9b3c cba5 c1bd 3614 703c
00000030: 2d76 21bd 1fe8 073d edd8 803d 4ac5 863d
00000040: b396 d1bd ba0e 95bc e245 e23d 8e21 283d
00000050: a9e7 ab3d 01e7 5c3d 0dae e43c 0f93 35bd
00000060: 640c aa3d 3128 953d 3d89 803d b59f dd3d
00000070: dda4 1abd f87e f93d a182 713d 9fd7 b839
00000080: d923 d53c e429 16bb ce50 23bb abfb 50bb
00000090: beb6 59bd 5149 893d 556f fe3c 33e9 b2bd
000000a0: e871 2dbd 39d2 d8bd 7180 ca3d 5aca 59bd
000000b0: a3bd 24bd 37fa 8e3d c37a 643d f53e 0abd
000000c0: e11d 98bd 06c5 e8bd c40a fdbd c414 7c3c
000000d0: c14a c83d 08de c03d 229c e5bd 851e 8d3d
000000e0: b082 ec39 774b 4a3c 1abd e23b f064 4dbd
000000f0: 1efe 4abd 0b36 35bd ae13 a3bd 48fe a33d
