mappo_algorithm/checkpoints/mapppo_actor_simple_spread.pth (torch, 26246 bytes, 12 tensors)

fc1.weight f4 [64, 18]
0	0xbe17bc89	-0.14818014
1	0xbe6bd84d	-0.23031731
2	0xbe736856	-0.2377027
3	0xbe1c1551	-0.15242507
4	0x3eba0a64	0.36336052
5	0x3e27150f	0.16316627
6	0xbd86ee0a	-0.06588371
7	0x3e48c145	0.19604976
8	0x3dc78125	0.09741429
9	0x3d1c3be2	0.038143046
10	0x3e47166b	0.19442146
11	0xbe810d88	-0.25205636
12	0xbe49c1a3	-0.19702773
13	0x3e479c88	0.19493306
14	0xbb06b0e1	-0.0020552205
15	0x3e015bf3	0.12632732
16	0x3d433130	0.04765433
17	0xbc38f917	-0.011289856
18	0xbe00ae23	-0.12566428
19	0xbea65931	-0.32489923
20	0xbdb16e43	-0.08663609
21	0xbd57a556	-0.05264791
22	0xbd1b9235	-0.03798123
23	0xbd36d1bd	-0.044633616
24	0xbf27b95c	-0.6551721
25	0x3e35ba67	0.17746888
26	0x3e6e4664	0.2326904
27	0xbbbef0cb	-0.0058270446
28	0xbb48d72b	-0.0030645828
29	0xbe14fb6e	-0.14549038
30	0x3e76108b	0.24029748
31	0x3e750428	0.23927367
32	0xbdac2131	-0.08404768
33	0x3cc0d577	0.023539288
34	0xbe8ea7f6	-0.2786252
35	0xbddb83fd	-0.10718534
36	0xbb2abfd2	-0.0026054275
37	0x3dee41a4	0.11633614
38	0xbd903b28	-0.07042533
39	0x3d2861e3	0.041108977
40	0x3dbb11b4	0.09134236
41	0x3e9226f0	0.28545332
42	0x3ec65512	0.38736778
43	0x3e5998c0	0.21249676
44	0xbf5451ec	-0.829375
45	0xbf0f7767	-0.5604157
46	0xbe30b7d7	-0.1725763
47	0xbe845787	-0.25848028
48	0xbe8ed6bc	-0.27898204
49	0xbd48a79e	-0.048987977
50	0xbe18e7c2	-0.14932159
51	0x3dedf533	0.11619034
52	0xbd8f5f67	-0.070006184
53	0x3d7745d4	0.060369328
54	0xbd360b7a	-0.04444454
55	0xbc81e23c	-0.015854947
56	0x3e166ee0	0.14690733
57	0xbe45b3b5	-0.19306834
58	0x3dc61677	0.096722536
59	0x3d7a3f36	0.06109544
60	0xbf14ef9b	-0.5817811
61	0x3f4a4357	0.79009
62	0x3de38aa5	0.11110429
63	0xbddd3ee3	-0.1080301
64	0xbc2c9441	-0.010533393
65	0x3d1980af	0.037476238
66	0xbd8d2a1c	-0.06892797
67	0xbd1e670d	-0.038672496
68	0x3d591433	0.05299778
69	0xbe14bca4	-0.14525086
70	0xbe3e494d	-0.1858265
71	0xbc279c2d	-0.010230106
72	0xbe344335	-0.17603762
73	0xba630721	-0.0008660425
74	0xbc38839a	-0.011261845
75	0x3e254665	0.16140135
76	0xbd2c6b81	-0.04209471
77	0xbf1a0dbb	-0.601772
78	0xbd1bc1df	-0.038026687
79	0x3e0a6735	0.13515933
80	0xbbacedb6	-0.005277361
81	0x3e946f15	0.28991
82	0xbd8a6a37	-0.0675854
83	0x3eb7da4e	0.3590874
84	0x3dcc4a0d	0.099750616
85	0xbef51b75	-0.4787251
86	0xbd02da17	-0.031946268
87	0xbe05fdc8	-0.13085091
88	0x3d300026	0.04296889
89	0x3d3f9044	0.04676844
90	0xbd6760a2	-0.05648864
91	0xbd3fc82d	-0.046821762
92	0xbe29ff61	-0.16601326
93	0x3ab2adb1	0.0013632086
94	0x3dafcc6c	0.08583912
95	0xbd28d547	-0.041219022
96	0xbd892f17	-0.06698435
97	0x3f9e1a9f	1.2351874
98	0xbe855896	-0.26044148
99	0xbe160490	-0.14650178
100	0xbd83e0d4	-0.06439367
101	0x3e1e7b1f	0.15476654
102	0xbe3c3f32	-0.18383482
103	0xbe126b99	-0.14298858
104	0xbe3e8142	-0.18603995
105	0xbd9480db	-0.0725114
106	0xbc31f914	-0.0108626075
107	0x3e68e862	0.22744897
108	0xbd1765df	-0.036962386
109	0x3e8a522f	0.27015826
110	0xbe075929	-0.13217606
111	0xbd82f43f	-0.063942425
112	0xbe78e9a1	-0.24307872
113	0xbefd962c	-0.49528635
114	0x3e89083e	0.267641
115	0x3ed2e95d	0.41193667
116	0xbe258bf0	-0.16166663
117	0x3e8620bf	0.26196858
118	0xbd831af3	-0.064016245
119	0xbd9d1ab5	-0.076711096
120	0xbe985bfa	-0.29757673
121	0x3e846df6	0.25865144
122	0x3cb60aab	0.022221884
123	0xbb36067e	-0.0027774866
124	0xbe97d040	-0.2965107
125	0x3b6b9e20	0.0035952404
126	0x3e5952d6	0.21223006
127	0x3ee8fb39	0.45504168
128	0xbdc237ba	-0.09483285
129	0x3e17aab8	0.14811218
130	0xbe3b3e73	-0.18285541
131	0xbe3b6530	-0.18300319
132	0xbf0eee97	-0.5583281
133	0xbe9eba9b	-0.31001744
134	0x3e2d3257	0.16913734
135	0x3e2c3194	0.16815788
136	0xbe9a60bf	-0.30151936
137	0xbe1d4681	-0.15358926
138	0xbe0de507	-0.13856898
139	0x3da37169	0.07980616
140	0xbccccd27	-0.025000168
141	0x3d0551ce	0.03254872
142	0xbdd23b9a	-0.10265274
143	0x3d8f20e6	0.06988697
144	0x3dd2e511	0.10297597
145	0xbeea840e	-0.45803875
146	0xbd85b2a5	-0.06528214
147	0xbe53ac82	-0.20671275
148	0xbcb3dceb	-0.021955928
149	0xbcd56330	-0.026048273
150	0x3db25862	0.08708264
151	0xbd2d6dbf	-0.04234099
152	0xbee70ec9	-0.45128468
153	0x3fb3a8a0	1.4035835
154	0xbe45c064	-0.19311672
155	0x3e10c11c	0.14136165
156	0xbd3598b4	-0.044335082
157	0xbd502601	-0.050817493
158	0xbd7dbe64	-0.06194915
159	0xbe1635f7	-0.14669023
160	0xbe33a157	-0.17542015
161	0xbd61caec	-0.055125162
162	0x3e902a3d	0.28157225
163	0xbdfcb1ec	-0.123386234
164	0xbec50a99	-0.38484648
165	0xbd44d841	-0.0480578
166	0xbeb1551c	-0.34635246
167	0xbdf96662	-0.12177731
168	0xbcfa79e3	-0.030575698
169	0xbb37ac5d	-0.002802632
170	0x3ed38967	0.41315767
171	0xbeb28f18	-0.34874797
172	0xbdaa73c5	-0.083228625
173	0xbe0ac536	-0.13551793
174	0xbe07fe21	-0.13280536
175	0xbe294282	-0.16529277
176	0xbd01600e	-0.031585746
177	0x3bab7f4e	0.0052336818
178	0xbe101552	-0.14070633
179	0x3d4ef986	0.050530933
180	0xbdf78822	-0.12086512
181	0xbe98f566	-0.29874724
182	0xbe10f7e7	-0.14157067
183	0xbe0f4bc8	-0.13993752
184	0x3dde0d9d	0.1084244
185	0xbdf69d94	-0.120417744
186	0xbd8a2322	-0.06744982
187	0xbdd292f4	-0.10281935
188	0x3e8d0251	0.2754083
189	0x3eed794e	0.4638161
190	0x3e995577	0.29948017
191	0x3d6eb48d	0.058277655
192	0xbf01e307	-0.5073704
193	0x3d91a19e	0.07110904
194	0x3d9528eb	0.07283195
195	0x3d787279	0.060656045
196	0x3de0ffd1	0.10986293
197	0x3d9d3dd9	0.07677812
198	0xbaf3683f	-0.0018570496
199	0xbd43819e	-0.047731034
200	0x3e37be7b	0.17943756
201	0xbdf40f9a	-0.11917038
202	0x3d0c4005	0.03424074
203	0x3e52f29c	0.2060036
204	0xbe87a185	-0.26490417
205	0x3d5dfae0	0.05419433
206	0x3c05ee52	0.008174496
207	0xbec2ade9	-0.38023308
208	0xbf5b0819	-0.8555923
209	0x3ea1821f	0.31544587
210	0x3daef5e4	0.08542994
211	0xbd0b5e19	-0.034025285
212	0xbd04ebab	-0.032451313
213	0x3d2e2229	0.042513046
214	0x3d618eb2	0.055067725
215	0x3c2cf7f6	0.010557165
216	0x3dfa834a	0.12232073
217	0x3d8b9233	0.06814995
218	0x3c875e91	0.016524585
219	0xbdd0813e	-0.10180901
220	0xbe10ef6f	-0.14153837
221	0xbe831797	-0.25603935
222	0xbe55dae9	-0.20884289
223	0x3bb8bc75	0.0056377
224	0x3d45e589	0.048314605
225	0xbe8851a3	-0.26624784
226	0xbf1a817d	-0.60353833
227	0xbee98265	-0.45607296
228	0xbe4ef098	-0.20208967
229	0xbea2f55c	-0.3182782
230	0xbdc5f3ff	-0.09665679
231	0x3cce7667	0.025202943
232	0xbe29c702	-0.16579822
233	0xbdbd1767	-0.09232979
234	0x3e52e47c	0.20594972
235	0xbd992f54	-0.0747973
236	0xbe136409	-0.14393629
237	0xbd81861f	-0.0632441
238	0xbf00569f	-0.50132173
239	0xbf00b507	-0.50276226
240	0x3e265f3e	0.1624727
241	0x3e790de2	0.24321702
242	0x3e30b6ea	0.17257276
243	0xbceb2ff3	-0.028709387
244	0xbe5c1900	-0.21493912
245	0xbe99845c	-0.29983795
246	0xbd49ffc5	-0.049316186
247	0x3e37b197	0.17938839
248	0x3c81045e	0.015749153
249	0xbe9461b4	-0.28980792
250	0x3e4cb66d	0.19991465
251	0xbdbe4cb4	-0.09291974
252	0x3e01f5f0	0.12691474
253	0x3de93c45	0.113884486
254	0x3dcf2814	0.10115066
255	0xbe7c0411	-0.24610926

fc1.bias f4 [64]
0	0xbd525ba0	-0.05135691
1	0x3d573074	0.052536443
2	0xbd895431	-0.06705511
3	0x3da3826f	0.079838626
4	0xbdb21654	-0.08695665
5	0xbcaf8448	-0.021425381
6	0x3d8e4e45	0.069485225
7	0xbbd93843	-0.0066290214
8	0xbd715c75	-0.058926065
9	0x3c76d9b5	0.015066554
10	0xbbdadd64	-0.006679224
11	0x3de52680	0.11188984
12	0x3d74b29b	0.059740644
13	0x3c15c904	0.009142164
14	0x3d42cd01	0.04755879
15	0x3d89812c	0.06714091
16	0xbcfa8d0c	-0.030584835
17	0xbdfcc5c1	-0.12342406
18	0xbd9731e9	-0.073825665
19	0xbb1fc84c	-0.002438086
20	0xbd4c6385	-0.049899597
21	0xbcca3cb3	-0.024687147
22	0x3d9f654e	0.07782994
23	0xbe01943f	-0.12654208
24	0xbcbddeaa	-0.023177464
25	0xbdbeeac6	-0.09322123
26	0xbdaa9f80	-0.083312035
27	0xbcff6b7f	-0.031179188
28	0xbd474adc	-0.048655376
29	0x3d732123	0.059357774
30	0x3c890c02	0.016729359
31	0x3c167218	0.0091824755
32	0xbd82b956	-0.06383006
33	0x3de99630	0.11405599
34	0xbc558cef	-0.0130340895
35	0xbd873f28	-0.06603843
36	0x3e073101	0.13202287
37	0x3e003919	0.12521781
38	0xbd7011b5	-0.058610637
39	0xbb4c8fdd	-0.003121368
40	0xbd7a1f32	-0.061064906
41	0xbe18a6d3	-0.14907388
42	0xbd7bf465	-0.06151237
43	0xbd5308c7	-0.051522043
44	0x3cd0b6e9	0.025477843
45	0x3d026dac	0.031842873
46	0x3df13402	0.11777498
47	0x3d0aed07	0.033917453
48	0x3c703d64	0.014663074
49	0xbd3af974	-0.045648053
50	0x3caa3cb5	0.0207809
51	0xbc34804a	-0.011016915
52	0xbcc67029	-0.024223404
53	0x3bfd5f58	0.007732313
54	0x3d9a1ed1	0.07525409
55	0xbdc14b90	-0.094382405
56	0xbc62759d	-0.0138219865
57	0xbd1d2cb9	-0.03837273
58	0x3bd43190	0.006475635
59	0x3db93749	0.09043748
60	0x3bb89ec4	0.0056341607
61	0x3dfa25a4	0.12214211
62	0xbe2aa643	-0.16664986
63	0xbd262f9e	-0.040572755

fc2.weight f4 [64, 64]
0	0xbdaea1b0	-0.08526933
1	0x3e286acb	0.16446988
2	0x3e2155ad	0.15755339
3	0xbdbda8a8	-0.09260684
4	0xbdb9cf5e	-0.09072755
5	0x3e8d5388	0.27602792
6	0x3e55a083	0.20862012
7	0x3de6ae64	0.11263731
8	0xbe0d65e6	-0.13808402
9	0x3d42e0b3	0.04757757
10	0xbe27acea	-0.16374555
11	0x3e8bf738	0.2733705
12	0x3d3fa4d9	0.04678807
13	0xbcbbef8a	-0.02294137
14	0xbce7509e	-0.028236683
15	0x3e1ba1ec	0.15198487
16	0x3dacea56	0.084431335
17	0x3e3c79c8	0.18405831
18	0xbbd223f0	-0.0064129755
19	0x3e9ebb20	0.3100214
20	0x3e275729	0.16341843
21	0x3e40e1eb	0.18836181
22	0xbcd6aee8	-0.026206449
23	0xbd7e187a	-0.06203506
24	0xbe5c6605	-0.21523292
25	0x3d92a675	0.071606554
26	0xbd5ca72a	-0.053870358
27	0xbd6f891f	-0.05848038
28	0x3e1d40d2	0.15356758
29	0xbe9a10d6	-0.3009097
30	0xbde27f2b	-0.110594116
31	0xbeac1116	-0.33606786
32	0x3eaee4e3	0.34159002
33	0x3d3c3282	0.045946606
34	0xbe0a1899	-0.13485946
35	0xbed7a70e	-0.4211964
36	0xbb22e14a	-0.002485352
37	0xbdae9749	-0.08524949
38	0x3d1f89cc	0.038949773
39	0xbec7c854	-0.39020026
40	0x3eb6906d	0.35657063
41	0xbec44494	-0.3833357
42	0xbdf50dfa	-0.119655564
43	0x3e97517c	0.29554355
44	0x3dd0939c	0.10184404
45	0x3d0e46e1	0.034735564
46	0xbda4f65d	-0.080548026
47	0x3df8c423	0.12146785
48	0xbb9d46d7	-0.0047997045
49	0xbd98ed63	-0.07467153
50	0x3e87b00c	0.265015
51	0x3e5cfd23	0.21580939
52	0xbdad9d4c	-0.084772676
53	0x3d8a1a09	0.06743247
54	0xbda9202d	-0.0825809
55	0xbe55d23f	-0.20880984
56	0xbdadf67e	-0.0849428
57	0x3e999bd3	0.30001697
58	0xbe75aa3a	-0.23990718
59	0xbddd70b8	-0.10812515
60	0x3ebda856	0.37042493
61	0xbe0178f4	-0.12643796
62	0x3ca06142	0.019577626
63	0xbe395d1c	-0.18101925
64	0xbe02d742	-0.12777427
65	0xbd9dfeb7	-0.077145986
66	0xbe692a8b	-0.22770135
67	0x3e74ce1a	0.23906747
68	0xbe840837	-0.25787517
69	0xbe2a9a58	-0.1666044
70	0xbe236834	-0.15957719
71	0x3d038a9b	0.032114606
72	0x3eab9ab6	0.33516473
73	0xbd0f4260	-0.03497541
74	0x3db8f84e	0.09031735
75	0xbd915c92	-0.070977345
76	0x3d37d307	0.044878986
77	0xbdad834d	-0.08472309
78	0x3e1484ce	0.14503786
79	0xbd8838c4	-0.06651452
80	0x3e55df4c	0.20885962
81	0xbe7d2c0c	-0.24723834
82	0xbeaf2321	-0.3420649
83	0xbe767dbc	-0.24071401
84	0xbd5a505b	-0.05329929
85	0xbda5ea6a	-0.081013516
86	0xbcdb169c	-0.02674418
87	0xbea8005f	-0.32812783
88	0xbe1af617	-0.15132938
89	0xbe57b36b	-0.21064536
90	0x3d2d299b	0.042276006
91	0x3e0efdc7	0.13963996
92	0x3cc37118	0.023857638
93	0xbba01d10	-0.004886277
94	0xbc99e632	-0.018786523
95	0x3de3825f	0.11108851
96	0xbdb388f9	-0.0876636
97	0x3d52e74b	0.05149011
98	0x3e9e6e7b	0.30943665
99	0x3df3d670	0.11906135
100	0x3e88c82d	0.26715222
101	0x3ed9a7ce	0.42510837
102	0xbd9e64e2	-0.077340856
103	0xbe6d198d	-0.23154278
104	0xbe81d447	-0.25357267
105	0x3df01cd2	0.11724247
106	0x3cd74a58	0.026280567
107	0xbe1d3be0	-0.15354872
108	0xbea5f267	-0.324115
109	0xbe82fcc1	-0.2558346
110	0x3ecbe8a0	0.39825916
111	0xbccaf235	-0.024773696
112	0xbd46102d	-0.04835527
113	0x3e360fb9	0.17779435
114	0xbdd27d5e	-0.10277818
115	0x3b34d6df	0.0027593893
116	0x3e2d7951	0.1694081
117	0x3e3b55f9	0.18294515
118	0xbe2c49dd	-0.16825052
119	0x3e65b2a2	0.22431424
120	0x3e4ac514	0.19801742
121	0xbe00d457	-0.12581001
122	0xbd2afe2e	-0.04174631
123	0x3d23cc5c	0.039989814
124	0x3c0122ca	0.0078818295
125	0x3ec598b9	0.3859308
126	0xbdaada49	-0.08342416
127	0xbdad152c	-0.08451304
128	0xbcc80996	-0.024418633
129	0xbefe5d4f	-0.49680564
130	0x3d54a6d5	0.051916916
131	0xbe9bd815	-0.30438295
132	0x3e3662f9	0.17811193
133	0x3e469039	0.19390954
134	0x3eaf8ca7	0.34286997
135	0x3e354496	0.17701945
136	0xbe89e30d	-0.26931038
137	0xbe14e610	-0.14540887
138	0xbe06e689	-0.1317388
139	0xbd2b5c58	-0.041836113
140	0xbd1eb40a	-0.038745917
141	0x3e329a2f	0.17441629
142	0x3d326123	0.043549668
143	0x3eab5737	0.33464977
144	0xbe73529d	-0.23761983
145	0xbc3d3561	-0.011548371
146	0x3ef1cd20	0.4722681
147	0x3d4a1fba	0.049346663
148	0xbea67326	-0.32509726
149	0xbae67276	-0.001758172
150	0xbd3c8ad3	-0.04603083
151	0xbdb1a150	-0.08673346
152	0x3e426cc3	0.18986802
153	0x3c317e28	0.010833301
154	0xbea41fc4	-0.32055485
155	0xbd40cec5	-0.04707219
156	0xbd7b8fcb	-0.06141643
157	0x3dab6a9f	0.08369946
158	0xbdb0db87	-0.086356215
159	0xbe67b48c	-0.22627467
160	0x3e34ddf8	0.176628
161	0x3dc2cfff	0.09512328
162	0x3e874dad	0.2642645
163	0xbcc59d9f	-0.024123011
164	0x3d9443de	0.07239507
165	0xbe39fc1c	-0.18162578
166	0x3e50a998	0.20377195
167	0xbe20263e	-0.15639588
168	0xbd38221c	-0.044954404
169	0xbe8b988d	-0.27264825
170	0x3e68840c	0.22706622
171	0xbe821c8a	-0.254124
172	0xbe85075c	-0.25982177
173	0x3d8b34a8	0.06797153
174	0xbe4726d0	-0.194484
175	0xbe0e9f32	-0.13927916
176	0xbe2506c1	-0.16115858
177	0xbe95d6a0	-0.29265308
178	0xbe2d5d10	-0.16930032
179	0x3e8005b0	0.2500434
180	0xbd91ee43	-0.07125523
181	0xbd367ebb	-0.044554453
182	0xbe7d65f2	-0.2474592
183	0x3e63e5a1	0.22255565
184	0xbd47d355	-0.048785526
185	0x3e5a316f	0.2130792
186	0x3ec17ed7	0.37792084
187	0x3ebbe47d	0.3669776
188	0xbdcf8aaa	-0.1013387
189	0x3d1bfe79	0.03808448
190	0xbda8a065	-0.08233718
191	0x3dc2da97	0.09514349
192	0xbd5947fe	-0.053047173
193	0xbf0ccdad	-0.55001336
194	0x3db93e7a	0.090451196
195	0x3e0763db	0.13221686
196	0x3e807b59	0.25094107
197	0x3edd19b2	0.43183666
198	0x3de4f5d7	0.11179703
199	0xbd9222f9	-0.07135577
200	0x3e715b5d	0.23570009
201	0x3ea1dec1	0.3161526
202	0x3ed2b471	0.4115329
203	0x3e195abb	0.14976017
204	0x3ea49569	0.3214524
205	0xbe2ddb07	-0.16978084
206	0xbee57c50	-0.44821405
207	0x3cef1af4	0.029187657
208	0xbf399e19	-0.7250686
209	0x3e91a871	0.28448823
210	0x3e5c46ec	0.2151143
211	0x3f0fee2e	0.5622281
212	0x3abbc421	0.0014325419
213	0xbebfc7e7	-0.374572
214	0x3e1f590f	0.15561317
215	0xbe526887	-0.20547687
216	0x3f0d083e	0.550907
217	0x3f0db0da	0.5534798
218	0xbea55679	-0.32292536
219	0x3e3a6dc8	0.1820594
220	0x3c8170cf	0.015800862
221	0x3dcf2530	0.10114515
222	0xbe1d90fe	-0.15387341
223	0xbdf09b8c	-0.11748418
224	0xbf02fc77	-0.5116648
225	0xbe80866c	-0.25102556
226	0xbf3a9474	-0.7288277
227	0xbda22ec8	-0.07919079
228	0xbe51aa90	-0.2047522
229	0xbde9b5f6	-0.114116594
230	0x3c0fe435	0.008782436
231	0xbf53137f	-0.82451624
232	0xbe7e6a9d	-0.24845357
233	0x3d157afd	0.036494244
234	0x3ea141de	0.31495565
235	0x3c86689d	0.016407305
236	0xbe3f7389	-0.18696417
237	0x3dd3ceb4	0.1034216
238	0x3d944354	0.07239404
239	0xbea1ddfe	-0.3161468
240	0xbc8a5ae0	-0.016889036
241	0x3e7e2fb1	0.2482288
242	0xbe90323f	-0.28163335
243	0xbe3f5604	-0.18685156
244	0xbea339cc	-0.31880033
245	0x3ea9c03c	0.33154476
246	0x3ee675c3	0.4501172
247	0x3e5bf0bb	0.2147855
248	0xbdfe2a64	-0.12410429
249	0xbe1d1a3a	-0.15342036
250	0xbcb2b7d5	-0.021816174
251	0x3e85a577	0.26102802
252	0x3dd2133a	0.102575734
253	0x3e9a68cd	0.30158082
254	0x3e99f39d	0.30068675
255	0x3e5dfe0f	0.21678947

fc2.bias f4 [64]
0	0x3c48c884	0.012254838
1	0x3e0b0464	0.13575894
2	0xbc486b83	-0.012232664
3	0x3c61df0d	0.01378609
4	0x3e3c928f	0.18415283
5	0x3e26923b	0.1626672
6	0xbe15b661	-0.14620353
7	0x3d94b09a	0.072602466
8	0xbdc4734b	-0.09592303
9	0xbde21167	-0.110384755
10	0xbc43a097	-0.011940143
11	0xbe18a914	-0.14908248
12	0x3e3d186c	0.18466347
13	0x3d0494c7	0.032368448
14	0xbd7fc875	-0.06244703
15	0xbb29226c	-0.002580787
16	0xbd6ec212	-0.05829055
17	0xbc832cd3	-0.016012585
18	0xbd7e5a44	-0.062097803
19	0xbd48648a	-0.048924007
20	0xbddb9972	-0.10722627
21	0xbd506655	-0.05087884
22	0x3ce06a08	0.02739431
23	0xbc8f8e56	-0.017523926
24	0xbdc84faf	-0.097808234
25	0xbbc1ac17	-0.0059104073
26	0x3d15afc6	0.036544584
27	0xbda6f4ce	-0.081521615
28	0xbd2f112c	-0.042740986
29	0xbdecc64a	-0.11561258
30	0x3c2006b8	0.009767227
31	0xbc5515eb	-0.013005714
32	0x3d92c1ec	0.07165894
33	0xbe483a60	-0.19553518
34	0x3d2f0ac9	0.042734895
35	0x3dd159be	0.10222195
36	0xbd4d8c89	-0.050182853
37	0x3d8d4c83	0.06899359
38	0x3c6d0c94	0.014468331
39	0x3d9694dc	0.073526114
40	0x3cca758d	0.024714256
41	0x3d271b45	0.04079749
42	0x3bdaca2f	0.006676934
43	0xba5d715a	-0.00084473717
44	0x3e2eb781	0.17062189
45	0x3d6c97f0	0.057762086
46	0x3d084bbe	0.03327536
47	0x3d8fa3c2	0.07013656
48	0xbd2fccdf	-0.04291999
49	0xbd408371	-0.047000352
50	0x3c246fe7	0.010036445
51	0xbb88b8e4	-0.0041724313
52	0x3da79eb3	0.08184566
53	0xbdd794f3	-0.10526457
54	0xbd2d5440	-0.042316675
55	0xbc34f779	-0.01104533
56	0xbcdc4017	-0.02688603
57	0xbca84876	-0.020542365
58	0xbd9ab2c1	-0.07553626
59	0xbe1fdcbf	-0.15611552
60	0xbd22457f	-0.039617058
61	0xbd7ab4a7	-0.06120744
62	0xbba9a9eb	-0.0051777265
63	0xbe2e597f	-0.17026328

fc3.weight f4 [5, 64]
0	0xbd97f0a1	-0.07418943
1	0x3c80e203	0.01573277
2	0x3d949ce8	0.0725649
3	0xbc993d47	-0.018705977
4	0x3d9d6434	0.07685128
5	0xbcfa86ca	-0.03058185
6	0xbd3beaea	-0.04587833
7	0x3d4791bb	0.048722964
8	0xbd17d763	-0.037070643
9	0xbcebe2a0	-0.028794587
10	0xbdad957a	-0.08475776
11	0xbc863d43	-0.016386634
12	0xbc9b78a1	-0.018978419
13	0xbd72538e	-0.059161715
14	0xbcc05a33	-0.02348051
15	0x3c0d9d39	0.008643442
16	0x3b0ad2dc	0.002118281
17	0xbc5b4a9c	-0.0133844875
18	0x3d8c06db	0.06837245
19	0x3c25ac8c	0.010111939
20	0xbd2640a2	-0.040588982
21	0x3d3e2ca6	0.0464293
22	0xbc009ce7	-0.007849908
23	0x3d4b80f8	0.04968354
24	0x3d016a13	0.0315953
25	0x3d14d1b4	0.0363328
26	0x3e013586	0.12618074
27	0xbd6d8f9a	-0.057998277
28	0x3caeb24f	0.021325259
29	0x3985478d	0.00025421046
30	0xbcedde09	-0.029036539
31	0xbd6d611a	-0.05795393
32	0x3cf75093	0.030189788
33	0xbe38ad0b	-0.1803476
34	0x3d5bceda	0.053664066
35	0x3daf004d	0.08544979
36	0x3cb59e53	0.022170221
37	0x3d9aca73	0.075581454
38	0xbc8a3617	-0.016871495
39	0x3d896dd1	0.06710399
40	0x3e08fbcb	0.13377301
41	0xbd9524be	-0.07282399
42	0x3db50437	0.088386945
43	0xbca31683	-0.019908195
44	0x3d8e2922	0.06941439
45	0xbc36a478	-0.011147611
46	0x3d570c85	0.052502174
47	0xbc3b4b89	-0.011431583
48	0x3d4181c3	0.04724289
49	0xbd71dd9b	-0.05904923
50	0x3c79e93b	0.01525336
51	0x3cc21219	0.02369027
52	0x3cd1824e	0.02557483
53	0x3d82b586	0.06382279
54	0xbd203510	-0.039113104
55	0xbda0ce9d	-0.07851908
56	0xbd8b811c	-0.06811735
57	0xbcf2c1eb	-0.029633483
58	0x3d73d4d8	0.059529155
59	0xbdbd3b48	-0.092398226
60	0x3d09444f	0.03351241
61	0xbd6830e9	-0.05668727
62	0x3d36b3fa	0.044605233
63	0xbdf25f27	-0.11834555
64	0xbe0e52a1	-0.13898708
65	0x3e24b29d	0.1608376
66	0x3e0fb4d7	0.14033829
67	0xbe898eee	-0.2686686
68	0xbda4ef83	-0.08053496
69	0x3d74669e	0.059668176
70	0xbe7a6d79	-0.24455823
71	0xbd314a58	-0.04328379
72	0x3db1ec46	0.08687644
73	0x3dd3cd6b	0.10341915
74	0x3e3a1d15	0.18175156
75	0xbe128b64	-0.14310986
76	0xbe5f13cf	-0.217849
77	0x3ec1fd85	0.37888733
78	0x3ee5b180	0.44861984
79	0xbe7eb07d	-0.24872012
80	0xbd835ad7	-0.06413811
81	0xbad57397	-0.0016285059
82	0x3ec327e7	0.3811638
83	0xbe1d5f9f	-0.15368508
84	0x3dbecf6c	0.09316906
85	0xbdbeca2b	-0.09315904
86	0x3ebe7fc2	0.37206846
87	0x3da7dff4	0.081970125
88	0xbe24331c	-0.16035122
89	0xbe059e92	-0.13048771
90	0x3eb54c82	0.35409933
91	0x3dfe2de5	0.124110974
92	0xbc518bf0	-0.012789711
93	0x3dbadff6	0.091247484
94	0x3eb23d57	0.34812424
95	0xbe92a3d5	-0.2864062
96	0x3e5cffa2	0.21581891
97	0xbd54791f	-0.051873323
98	0x3e5e8d21	0.21733524
99	0x3dbfe980	0.093707085
100	0xbeb1e7bf	-0.3474712
101	0xbd7d05a3	-0.061772954
102	0x3e3a69b4	0.18204385
103	0xbe9f6e49	-0.31138828
104	0xbdcab232	-0.09897269
105	0x3edd86ce	0.4326691
106	0x3dae3c1c	0.08507559
107	0xbe10b38e	-0.14130995
108	0xbe665268	-0.22492373
109	0xbe40eff2	-0.18841532
110	0xbdaf667a	-0.08564468
111	0xbe64d02a	-0.22345033
112	0xbdfb8f15	-0.1228315
113	0x3ecf0c43	0.40439042
114	0x3df56f3d	0.11984108
115	0xbe217b3e	-0.1576967
116	0xbd131c00	-0.035915375
117	0x3e1073e1	0.14106704
118	0xbe584175	-0.2111872
119	0x3dec321a	0.115329936
120	0x3eb61406	0.35562152
121	0x3a27badd	0.0006398389
122	0x3e14b5f8	0.1452254
123	0xbe6b31a6	-0.22968158
124	0xbe26d3f5	-0.16291793
125	0x3db0f62d	0.08640704
126	0x3d922a94	0.071370274
127	0x3d92c8e8	0.07167226
128	0x3e88cc9b	0.26718602
129	0xbd5af5b2	-0.05345697
130	0xbe782c72	-0.24235705
131	0x3e94e2f3	0.290794
132	0x3d83869f	0.06422161
133	0xbca7418c	-0.020416997
134	0x3e89900b	0.2686771
135	0xbd384720	-0.044989705
136	0xbdc4029b	-0.095708095
137	0xbdcb47b4	-0.09925786
138	0xbdd91f2b	-0.10601648
139	0x3e0ee135	0.13953097
140	0x3e61ebb3	0.22062568
141	0xbea872f9	-0.32900217
142	0xbed29b82	-0.41134268
143	0x3e837934	0.25678408
144	0x3d25c7cf	0.040473755
145	0x3d91734b	0.071020685
146	0xbed8b4e7	-0.42325518
147	0x3e50001e	0.20312545
148	0xbd793e2a	-0.0608503
149	0x3e226f48	0.15862763
150	0xbea5f44d	-0.3241295
151	0xbe04b4bc	-0.1295957
152	0x3dbfa597	0.09357756
153	0x3e4ee089	0.20202841
154	0xbef29df3	-0.4738613
155	0xbdb7be15	-0.08971802
156	0x3d1df243	0.038561117
157	0xbe16c75c	-0.14724487
158	0xbead7bb6	-0.33883446
159	0x3eadc7a8	0.33941388
160	0xbe594795	-0.21218713
161	0x3e1f638d	0.1556532
162	0xbeb25963	-0.34833822
163	0xbdfdd5f0	-0.12394321
164	0x3e9f5411	0.31118825
165	0xbd7a909f	-0.061173078
166	0xbe24b379	-0.16084088
167	0x3e9e8b2d	0.30965558
168	0x3d931368	0.07181436
169	0xbeb12ecb	-0.34606013
170	0xbe4a9508	-0.19783413
171	0x3e0bb57e	0.13643453
172	0x3e1a53a4	0.15070969
173	0x3df4abe6	0.119468495
174	0x3de6cc8e	0.112694845
175	0x3e2fcdd5	0.17168362
176	0x3da00747	0.07813888
177	0xbe9cd4a9	-0.30630997
178	0xbe67368c	-0.22579402
179	0x3e4228b6	0.18960842
180	0xbd8c66f6	-0.06855576
181	0xbdf4f0cd	-0.119599916
182	0x3e61c109	0.22046293
183	0xbda8dd80	-0.08245373
184	0xbea5abab	-0.32357535
185	0x3c9dc2c4	0.01925791
186	0xbe09c9e4	-0.13455921
187	0x3e6ace7a	0.22930327
188	0x3e6ae84b	0.22940175
189	0xbd8ef12c	-0.06979594
190	0xbd9b603c	-0.075867146
191	0xbb5237cf	-0.0032076722
192	0x3b802ee9	0.003911842
193	0xbe824614	-0.2544409
194	0x3d937d9a	0.07201691
195	0xbef5ca6f	-0.48006007
196	0x3dd93d57	0.10607403
197	0xbe8095f0	-0.25114393
198	0x3dae2bd2	0.08504452
199	0xbe682a61	-0.22672416
200	0x3dd90ee5	0.10598544
201	0xbe49e945	-0.19717892
202	0x3e227108	0.1586343
203	0xbdb195f7	-0.08671182
204	0xbd4297a3	-0.047507893
205	0x3ed7d1e4	0.4215232
206	0xbddaaef4	-0.10677901
207	0xbe06985b	-0.13144056
208	0x3e62c1c6	0.22144231
209	0xbe9a5d52	-0.30149323
210	0x3ea8575b	0.32879147
211	0xbe52a91d	-0.20572324
212	0xbe4e2524	-0.20131356
213	0x3e332237	0.1749352
214	0xbe9a2808	-0.30108666
215	0x3eabc435	0.33548132
216	0xbe9cbe91	-0.3061414
217	0x3c7587fc	0.0149860345
218	0xbc2893e5	-0.010289167
219	0xbe690375	-0.22755225
220	0x3dc583fa	0.09644313
221	0x3df92884	0.12165931
222	0xbdb1bfbb	-0.08679148
223	0xbe32b4d9	-0.174518
224	0xbde38cbc	-0.11110827
225	0x3e0c43a4	0.13697678
226	0xbd1eaab2	-0.038737006
227	0xbe3b3f80	-0.18285942
228	0x3dae3d82	0.085078254
229	0xbd6b0f78	-0.0573878
230	0x3df0a3ae	0.117499694
231	0x3c6c17fb	0.014410014
232	0x3e501dbb	0.20323841
233	0xbebf97d0	-0.3742051
234	0x3ea5f942	0.3241673
235	0x3e96aef2	0.29430348
236	0x3e3370be	0.17523476
237	0xb9a26d9c	-0.00030980713
238	0x3e6dfcff	0.23241042
239	0xbe097dfb	-0.13426964
240	0x3e8e024f	0.27736136
241	0x3e7a486d	0.2444169
242	0x3a59f5ab	0.00083145004
243	0xbc932c2a	-0.017965395
244	0x3e8fca7e	0.28084177
245	0xbe556ea2	-0.20842984
246	0x3caf5db1	0.02140698
247	0x3d5cc26f	0.053896364
248	0xbe006235	-0.12537463
249	0xbed6ab52	-0.41927582
250	0x3e09baa5	0.13450105
251	0x3d984782	0.07435514
252	0xbe3ed1b7	-0.18634687
253	0x3e2f9bce	0.17149279
254	0xbcbaaded	-0.022788012
255	0x3dea83c0	0.114509106

fc3.bias f4 [5]
0	0xbbcfe4fa	-0.006344435
1	0x3b8fa70c	0.004383927
2	0x39bf1df4	0.00036452676
3	0x3d4d885b	0.050178867
4	0xbd0cf1b0	-0.03441018

actor.0.weight f4 [64, 18]
0	0xbe17bc89	-0.14818014
1	0xbe6bd84d	-0.23031731
2	0xbe736856	-0.2377027
3	0xbe1c1551	-0.15242507
4	0x3eba0a64	0.36336052
5	0x3e27150f	0.16316627
6	0xbd86ee0a	-0.06588371
7	0x3e48c145	0.19604976
8	0x3dc78125	0.09741429
9	0x3d1c3be2	0.038143046
10	0x3e47166b	0.19442146
11	0xbe810d88	-0.25205636
12	0xbe49c1a3	-0.19702773
13	0x3e479c88	0.19493306
14	0xbb06b0e1	-0.0020552205
15	0x3e015bf3	0.12632732
16	0x3d433130	0.04765433
17	0xbc38f917	-0.011289856
18	0xbe00ae23	-0.12566428
19	0xbea65931	-0.32489923
20	0xbdb16e43	-0.08663609
21	0xbd57a556	-0.05264791
22	0xbd1b9235	-0.03798123
23	0xbd36d1bd	-0.044633616
24	0xbf27b95c	-0.6551721
25	0x3e35ba67	0.17746888
26	0x3e6e4664	0.2326904
27	0xbbbef0cb	-0.0058270446
28	0xbb48d72b	-0.0030645828
29	0xbe14fb6e	-0.14549038
30	0x3e76108b	0.24029748
31	0x3e750428	0.23927367
32	0xbdac2131	-0.08404768
33	0x3cc0d577	0.023539288
34	0xbe8ea7f6	-0.2786252
35	0xbddb83fd	-0.10718534
36	0xbb2abfd2	-0.0026054275
37	0x3dee41a4	0.11633614
38	0xbd903b28	-0.07042533
39	0x3d2861e3	0.041108977
40	0x3dbb11b4	0.09134236
41	0x3e9226f0	0.28545332
42	0x3ec65512	0.38736778
43	0x3e5998c0	0.21249676
44	0xbf5451ec	-0.829375
45	0xbf0f7767	-0.5604157
46	0xbe30b7d7	-0.1725763
47	0xbe845787	-0.25848028
48	0xbe8ed6bc	-0.27898204
49	0xbd48a79e	-0.048987977
50	0xbe18e7c2	-0.14932159
51	0x3dedf533	0.11619034
52	0xbd8f5f67	-0.070006184
53	0x3d7745d4	0.060369328
54	0xbd360b7a	-0.04444454
55	0xbc81e23c	-0.015854947
56	0x3e166ee0	0.14690733
57	0xbe45b3b5	-0.19306834
58	0x3dc61677	0.096722536
59	0x3d7a3f36	0.06109544
60	0xbf14ef9b	-0.5817811
61	0x3f4a4357	0.79009
62	0x3de38aa5	0.11110429
63	0xbddd3ee3	-0.1080301
64	0xbc2c9441	-0.010533393
65	0x3d1980af	0.037476238
66	0xbd8d2a1c	-0.06892797
67	0xbd1e670d	-0.038672496
68	0x3d591433	0.05299778
69	0xbe14bca4	-0.14525086
70	0xbe3e494d	-0.1858265
71	0xbc279c2d	-0.010230106
72	0xbe344335	-0.17603762
73	0xba630721	-0.0008660425
74	0xbc38839a	-0.011261845
75	0x3e254665	0.16140135
76	0xbd2c6b81	-0.04209471
77	0xbf1a0dbb	-0.601772
78	0xbd1bc1df	-0.038026687
79	0x3e0a6735	0.13515933
80	0xbbacedb6	-0.005277361
81	0x3e946f15	0.28991
82	0xbd8a6a37	-0.0675854
83	0x3eb7da4e	0.3590874
84	0x3dcc4a0d	0.099750616
85	0xbef51b75	-0.4787251
86	0xbd02da17	-0.031946268
87	0xbe05fdc8	-0.13085091
88	0x3d300026	0.04296889
89	0x3d3f9044	0.04676844
90	0xbd6760a2	-0.05648864
91	0xbd3fc82d	-0.046821762
92	0xbe29ff61	-0.16601326
93	0x3ab2adb1	0.0013632086
94	0x3dafcc6c	0.08583912
95	0xbd28d547	-0.041219022
96	0xbd892f17	-0.06698435
97	0x3f9e1a9f	1.2351874
98	0xbe855896	-0.26044148
99	0xbe160490	-0.14650178
100	0xbd83e0d4	-0.06439367
101	0x3e1e7b1f	0.15476654
102	0xbe3c3f32	-0.18383482
103	0xbe126b99	-0.14298858
104	0xbe3e8142	-0.18603995
105	0xbd9480db	-0.0725114
106	0xbc31f914	-0.0108626075
107	0x3e68e862	0.22744897
108	0xbd1765df	-0.036962386
109	0x3e8a522f	0.27015826
110	0xbe075929	-0.13217606
111	0xbd82f43f	-0.063942425
112	0xbe78e9a1	-0.24307872
113	0xbefd962c	-0.49528635
114	0x3e89083e	0.267641
115	0x3ed2e95d	0.41193667
116	0xbe258bf0	-0.16166663
117	0x3e8620bf	0.26196858
118	0xbd831af3	-0.064016245
119	0xbd9d1ab5	-0.076711096
120	0xbe985bfa	-0.29757673
121	0x3e846df6	0.25865144
122	0x3cb60aab	0.022221884
123	0xbb36067e	-0.0027774866
124	0xbe97d040	-0.2965107
125	0x3b6b9e20	0.0035952404
126	0x3e5952d6	0.21223006
127	0x3ee8fb39	0.45504168
128	0xbdc237ba	-0.09483285
129	0x3e17aab8	0.14811218
130	0xbe3b3e73	-0.18285541
131	0xbe3b6530	-0.18300319
132	0xbf0eee97	-0.5583281
133	0xbe9eba9b	-0.31001744
134	0x3e2d3257	0.16913734
135	0x3e2c3194	0.16815788
136	0xbe9a60bf	-0.30151936
137	0xbe1d4681	-0.15358926
138	0xbe0de507	-0.13856898
139	0x3da37169	0.07980616
140	0xbccccd27	-0.025000168
141	0x3d0551ce	0.03254872
142	0xbdd23b9a	-0.10265274
143	0x3d8f20e6	0.06988697
144	0x3dd2e511	0.10297597
145	0xbeea840e	-0.45803875
146	0xbd85b2a5	-0.06528214
147	0xbe53ac82	-0.20671275
148	0xbcb3dceb	-0.021955928
149	0xbcd56330	-0.026048273
150	0x3db25862	0.08708264
151	0xbd2d6dbf	-0.04234099
152	0xbee70ec9	-0.45128468
153	0x3fb3a8a0	1.4035835
154	0xbe45c064	-0.19311672
155	0x3e10c11c	0.14136165
156	0xbd3598b4	-0.044335082
157	0xbd502601	-0.050817493
158	0xbd7dbe64	-0.06194915
159	0xbe1635f7	-0.14669023
160	0xbe33a157	-0.17542015
161	0xbd61caec	-0.055125162
162	0x3e902a3d	0.28157225
163	0xbdfcb1ec	-0.123386234
164	0xbec50a99	-0.38484648
165	0xbd44d841	-0.0480578
166	0xbeb1551c	-0.34635246
167	0xbdf96662	-0.12177731
168	0xbcfa79e3	-0.030575698
169	0xbb37ac5d	-0.002802632
170	0x3ed38967	0.41315767
171	0xbeb28f18	-0.34874797
172	0xbdaa73c5	-0.083228625
173	0xbe0ac536	-0.13551793
174	0xbe07fe21	-0.13280536
175	0xbe294282	-0.16529277
176	0xbd01600e	-0.031585746
177	0x3bab7f4e	0.0052336818
178	0xbe101552	-0.14070633
179	0x3d4ef986	0.050530933
180	0xbdf78822	-0.12086512
181	0xbe98f566	-0.29874724
182	0xbe10f7e7	-0.14157067
183	0xbe0f4bc8	-0.13993752
184	0x3dde0d9d	0.1084244
185	0xbdf69d94	-0.120417744
186	0xbd8a2322	-0.06744982
187	0xbdd292f4	-0.10281935
188	0x3e8d0251	0.2754083
189	0x3eed794e	0.4638161
190	0x3e995577	0.29948017
191	0x3d6eb48d	0.058277655
192	0xbf01e307	-0.5073704
193	0x3d91a19e	0.07110904
194	0x3d9528eb	0.07283195
195	0x3d787279	0.060656045
196	0x3de0ffd1	0.10986293
197	0x3d9d3dd9	0.07677812
198	0xbaf3683f	-0.0018570496
199	0xbd43819e	-0.047731034
200	0x3e37be7b	0.17943756
201	0xbdf40f9a	-0.11917038
202	0x3d0c4005	0.03424074
203	0x3e52f29c	0.2060036
204	0xbe87a185	-0.26490417
205	0x3d5dfae0	0.05419433
206	0x3c05ee52	0.008174496
207	0xbec2ade9	-0.38023308
208	0xbf5b0819	-0.8555923
209	0x3ea1821f	0.31544587
210	0x3daef5e4	0.08542994
211	0xbd0b5e19	-0.034025285
212	0xbd04ebab	-0.032451313
213	0x3d2e2229	0.042513046
214	0x3d618eb2	0.055067725
215	0x3c2cf7f6	0.010557165
216	0x3dfa834a	0.12232073
217	0x3d8b9233	0.06814995
218	0x3c875e91	0.016524585
219	0xbdd0813e	-0.10180901
220	0xbe10ef6f	-0.14153837
221	0xbe831797	-0.25603935
222	0xbe55dae9	-0.20884289
223	0x3bb8bc75	0.0056377
224	0x3d45e589	0.048314605
225	0xbe8851a3	-0.26624784
226	0xbf1a817d	-0.60353833
227	0xbee98265	-0.45607296
228	0xbe4ef098	-0.20208967
229	0xbea2f55c	-0.3182782
230	0xbdc5f3ff	-0.09665679
231	0x3cce7667	0.025202943
232	0xbe29c702	-0.16579822
233	0xbdbd1767	-0.09232979
234	0x3e52e47c	0.20594972
235	0xbd992f54	-0.0747973
236	0xbe136409	-0.14393629
237	0xbd81861f	-0.0632441
238	0xbf00569f	-0.50132173
239	0xbf00b507	-0.50276226
240	0x3e265f3e	0.1624727
241	0x3e790de2	0.24321702
242	0x3e30b6ea	0.17257276
243	0xbceb2ff3	-0.028709387
244	0xbe5c1900	-0.21493912
245	0xbe99845c	-0.29983795
246	0xbd49ffc5	-0.049316186
247	0x3e37b197	0.17938839
248	0x3c81045e	0.015749153
249	0xbe9461b4	-0.28980792
250	0x3e4cb66d	0.19991465
251	0xbdbe4cb4	-0.09291974
252	0x3e01f5f0	0.12691474
253	0x3de93c45	0.113884486
254	0x3dcf2814	0.10115066
255	0xbe7c0411	-0.24610926

actor.0.bias f4 [64]
0	0xbd525ba0	-0.05135691
1	0x3d573074	0.052536443
2	0xbd895431	-0.06705511
3	0x3da3826f	0.079838626
4	0xbdb21654	-0.08695665
5	0xbcaf8448	-0.021425381
6	0x3d8e4e45	0.069485225
7	0xbbd93843	-0.0066290214
8	0xbd715c75	-0.058926065
9	0x3c76d9b5	0.015066554
10	0xbbdadd64	-0.006679224
11	0x3de52680	0.11188984
12	0x3d74b29b	0.059740644
13	0x3c15c904	0.009142164
14	0x3d42cd01	0.04755879
15	0x3d89812c	0.06714091
16	0xbcfa8d0c	-0.030584835
17	0xbdfcc5c1	-0.12342406
18	0xbd9731e9	-0.073825665
19	0xbb1fc84c	-0.002438086
20	0xbd4c6385	-0.049899597
21	0xbcca3cb3	-0.024687147
22	0x3d9f654e	0.07782994
23	0xbe01943f	-0.12654208
24	0xbcbddeaa	-0.023177464
25	0xbdbeeac6	-0.09322123
26	0xbdaa9f80	-0.083312035
27	0xbcff6b7f	-0.031179188
28	0xbd474adc	-0.048655376
29	0x3d732123	0.059357774
30	0x3c890c02	0.016729359
31	0x3c167218	0.0091824755
32	0xbd82b956	-0.06383006
33	0x3de99630	0.11405599
34	0xbc558cef	-0.0130340895
35	0xbd873f28	-0.06603843
36	0x3e073101	0.13202287
37	0x3e003919	0.12521781
38	0xbd7011b5	-0.058610637
39	0xbb4c8fdd	-0.003121368
40	0xbd7a1f32	-0.061064906
41	0xbe18a6d3	-0.14907388
42	0xbd7bf465	-0.06151237
43	0xbd5308c7	-0.051522043
44	0x3cd0b6e9	0.025477843
45	0x3d026dac	0.031842873
46	0x3df13402	0.11777498
47	0x3d0aed07	0.033917453
48	0x3c703d64	0.014663074
49	0xbd3af974	-0.045648053
50	0x3caa3cb5	0.0207809
51	0xbc34804a	-0.011016915
52	0xbcc67029	-0.024223404
53	0x3bfd5f58	0.007732313
54	0x3d9a1ed1	0.07525409
55	0xbdc14b90	-0.094382405
56	0xbc62759d	-0.0138219865
57	0xbd1d2cb9	-0.03837273
58	0x3bd43190	0.006475635
59	0x3db93749	0.09043748
60	0x3bb89ec4	0.0056341607
61	0x3dfa25a4	0.12214211
62	0xbe2aa643	-0.16664986
63	0xbd262f9e	-0.040572755

actor.2.weight f4 [64, 64]
0	0xbdaea1b0	-0.08526933
1	0x3e286acb	0.16446988
2	0x3e2155ad	0.15755339
3	0xbdbda8a8	-0.09260684
4	0xbdb9cf5e	-0.09072755
5	0x3e8d5388	0.27602792
6	0x3e55a083	0.20862012
7	0x3de6ae64	0.11263731
8	0xbe0d65e6	-0.13808402
9	0x3d42e0b3	0.04757757
10	0xbe27acea	-0.16374555
11	0x3e8bf738	0.2733705
12	0x3d3fa4d9	0.04678807
13	0xbcbbef8a	-0.02294137
14	0xbce7509e	-0.028236683
15	0x3e1ba1ec	0.15198487
16	0x3dacea56	0.084431335
17	0x3e3c79c8	0.18405831
18	0xbbd223f0	-0.0064129755
19	0x3e9ebb20	0.3100214
20	0x3e275729	0.16341843
21	0x3e40e1eb	0.18836181
22	0xbcd6aee8	-0.026206449
23	0xbd7e187a	-0.06203506
24	0xbe5c6605	-0.21523292
25	0x3d92a675	0.071606554
26	0xbd5ca72a	-0.053870358
27	0xbd6f891f	-0.05848038
28	0x3e1d40d2	0.15356758
29	0xbe9a10d6	-0.3009097
30	0xbde27f2b	-0.110594116
31	0xbeac1116	-0.33606786
32	0x3eaee4e3	0.34159002
33	0x3d3c3282	0.045946606
34	0xbe0a1899	-0.13485946
35	0xbed7a70e	-0.4211964
36	0xbb22e14a	-0.002485352
37	0xbdae9749	-0.08524949
38	0x3d1f89cc	0.038949773
39	0xbec7c854	-0.39020026
40	0x3eb6906d	0.35657063
41	0xbec44494	-0.3833357
42	0xbdf50dfa	-0.119655564
43	0x3e97517c	0.29554355
44	0x3dd0939c	0.10184404
45	0x3d0e46e1	0.034735564
46	0xbda4f65d	-0.080548026
47	0x3df8c423	0.12146785
48	0xbb9d46d7	-0.0047997045
49	0xbd98ed63	-0.07467153
50	0x3e87b00c	0.265015
51	0x3e5cfd23	0.21580939
52	0xbdad9d4c	-0.084772676
53	0x3d8a1a09	0.06743247
54	0xbda9202d	-0.0825809
55	0xbe55d23f	-0.20880984
56	0xbdadf67e	-0.0849428
57	0x3e999bd3	0.30001697
58	0xbe75aa3a	-0.23990718
59	0xbddd70b8	-0.10812515
60	0x3ebda856	0.37042493
61	0xbe0178f4	-0.12643796
62	0x3ca06142	0.019577626
63	0xbe395d1c	-0.18101925
64	0xbe02d742	-0.12777427
65	0xbd9dfeb7	-0.077145986
66	0xbe692a8b	-0.22770135
67	0x3e74ce1a	0.23906747
68	0xbe840837	-0.25787517
69	0xbe2a9a58	-0.1666044
70	0xbe236834	-0.15957719
71	0x3d038a9b	0.032114606
72	0x3eab9ab6	0.33516473
73	0xbd0f4260	-0.03497541
74	0x3db8f84e	0.09031735
75	0xbd915c92	-0.070977345
76	0x3d37d307	0.044878986
77	0xbdad834d	-0.08472309
78	0x3e1484ce	0.14503786
79	0xbd8838c4	-0.06651452
80	0x3e55df4c	0.20885962
81	0xbe7d2c0c	-0.24723834
82	0xbeaf2321	-0.3420649
83	0xbe767dbc	-0.24071401
84	0xbd5a505b	-0.05329929
85	0xbda5ea6a	-0.081013516
86	0xbcdb169c	-0.02674418
87	0xbea8005f	-0.32812783
88	0xbe1af617	-0.15132938
89	0xbe57b36b	-0.21064536
90	0x3d2d299b	0.042276006
91	0x3e0efdc7	0.13963996
92	0x3cc37118	0.023857638
93	0xbba01d10	-0.004886277
94	0xbc99e632	-0.018786523
95	0x3de3825f	0.11108851
96	0xbdb388f9	-0.0876636
97	0x3d52e74b	0.05149011
98	0x3e9e6e7b	0.30943665
99	0x3df3d670	0.11906135
100	0x3e88c82d	0.26715222
101	0x3ed9a7ce	0.42510837
102	0xbd9e64e2	-0.077340856
103	0xbe6d198d	-0.23154278
104	0xbe81d447	-0.25357267
105	0x3df01cd2	0.11724247
106	0x3cd74a58	0.026280567
107	0xbe1d3be0	-0.15354872
108	0xbea5f267	-0.324115
109	0xbe82fcc1	-0.2558346
110	0x3ecbe8a0	0.39825916
111	0xbccaf235	-0.024773696
112	0xbd46102d	-0.04835527
113	0x3e360fb9	0.17779435
114	0xbdd27d5e	-0.10277818
115	0x3b34d6df	0.0027593893
116	0x3e2d7951	0.1694081
117	0x3e3b55f9	0.18294515
118	0xbe2c49dd	-0.16825052
119	0x3e65b2a2	0.22431424
120	0x3e4ac514	0.19801742
121	0xbe00d457	-0.12581001
122	0xbd2afe2e	-0.04174631
123	0x3d23cc5c	0.039989814
124	0x3c0122ca	0.0078818295
125	0x3ec598b9	0.3859308
126	0xbdaada49	-0.08342416
127	0xbdad152c	-0.08451304
128	0xbcc80996	-0.024418633
129	0xbefe5d4f	-0.49680564
130	0x3d54a6d5	0.051916916
131	0xbe9bd815	-0.30438295
132	0x3e3662f9	0.17811193
133	0x3e469039	0.19390954
134	0x3eaf8ca7	0.34286997
135	0x3e354496	0.17701945
136	0xbe89e30d	-0.26931038
137	0xbe14e610	-0.14540887
138	0xbe06e689	-0.1317388
139	0xbd2b5c58	-0.041836113
140	0xbd1eb40a	-0.038745917
141	0x3e329a2f	0.17441629
142	0x3d326123	0.043549668
143	0x3eab5737	0.33464977
144	0xbe73529d	-0.23761983
145	0xbc3d3561	-0.011548371
146	0x3ef1cd20	0.4722681
147	0x3d4a1fba	0.049346663
148	0xbea67326	-0.32509726
149	0xbae67276	-0.001758172
150	0xbd3c8ad3	-0.04603083
151	0xbdb1a150	-0.08673346
152	0x3e426cc3	0.18986802
153	0x3c317e28	0.010833301
154	0xbea41fc4	-0.32055485
155	0xbd40cec5	-0.04707219
156	0xbd7b8fcb	-0.06141643
157	0x3dab6a9f	0.08369946
158	0xbdb0db87	-0.086356215
159	0xbe67b48c	-0.22627467
160	0x3e34ddf8	0.176628
161	0x3dc2cfff	0.09512328
162	0x3e874dad	0.2642645
163	0xbcc59d9f	-0.024123011
164	0x3d9443de	0.07239507
165	0xbe39fc1c	-0.18162578
166	0x3e50a998	0.20377195
167	0xbe20263e	-0.15639588
168	0xbd38221c	-0.044954404
169	0xbe8b988d	-0.27264825
170	0x3e68840c	0.22706622
171	0xbe821c8a	-0.254124
172	0xbe85075c	-0.25982177
173	0x3d8b34a8	0.06797153
174	0xbe4726d0	-0.194484
175	0xbe0e9f32	-0.13927916
176	0xbe2506c1	-0.16115858
177	0xbe95d6a0	-0.29265308
178	0xbe2d5d10	-0.16930032
179	0x3e8005b0	0.2500434
180	0xbd91ee43	-0.07125523
181	0xbd367ebb	-0.044554453
182	0xbe7d65f2	-0.2474592
183	0x3e63e5a1	0.22255565
184	0xbd47d355	-0.048785526
185	0x3e5a316f	0.2130792
186	0x3ec17ed7	0.37792084
187	0x3ebbe47d	0.3669776
188	0xbdcf8aaa	-0.1013387
189	0x3d1bfe79	0.03808448
190	0xbda8a065	-0.08233718
191	0x3dc2da97	0.09514349
192	0xbd5947fe	-0.053047173
193	0xbf0ccdad	-0.55001336
194	0x3db93e7a	0.090451196
195	0x3e0763db	0.13221686
196	0x3e807b59	0.25094107
197	0x3edd19b2	0.43183666
198	0x3de4f5d7	0.11179703
199	0xbd9222f9	-0.07135577
200	0x3e715b5d	0.23570009
201	0x3ea1dec1	0.3161526
202	0x3ed2b471	0.4115329
203	0x3e195abb	0.14976017
204	0x3ea49569	0.3214524
205	0xbe2ddb07	-0.16978084
206	0xbee57c50	-0.44821405
207	0x3cef1af4	0.029187657
208	0xbf399e19	-0.7250686
209	0x3e91a871	0.28448823
210	0x3e5c46ec	0.2151143
211	0x3f0fee2e	0.5622281
212	0x3abbc421	0.0014325419
213	0xbebfc7e7	-0.374572
214	0x3e1f590f	0.15561317
215	0xbe526887	-0.20547687
216	0x3f0d083e	0.550907
217	0x3f0db0da	0.5534798
218	0xbea55679	-0.32292536
219	0x3e3a6dc8	0.1820594
220	0x3c8170cf	0.015800862
221	0x3dcf2530	0.10114515
222	0xbe1d90fe	-0.15387341
223	0xbdf09b8c	-0.11748418
224	0xbf02fc77	-0.5116648
225	0xbe80866c	-0.25102556
226	0xbf3a9474	-0.7288277
227	0xbda22ec8	-0.07919079
228	0xbe51aa90	-0.2047522
229	0xbde9b5f6	-0.114116594
230	0x3c0fe435	0.008782436
231	0xbf53137f	-0.82451624
232	0xbe7e6a9d	-0.24845357
233	0x3d157afd	0.036494244
234	0x3ea141de	0.31495565
235	0x3c86689d	0.016407305
236	0xbe3f7389	-0.18696417
237	0x3dd3ceb4	0.1034216
238	0x3d944354	0.07239404
239	0xbea1ddfe	-0.3161468
240	0xbc8a5ae0	-0.016889036
241	0x3e7e2fb1	0.2482288
242	0xbe90323f	-0.28163335
243	0xbe3f5604	-0.18685156
244	0xbea339cc	-0.31880033
245	0x3ea9c03c	0.33154476
246	0x3ee675c3	0.4501172
247	0x3e5bf0bb	0.2147855
248	0xbdfe2a64	-0.12410429
249	0xbe1d1a3a	-0.15342036
250	0xbcb2b7d5	-0.021816174
251	0x3e85a577	0.26102802
252	0x3dd2133a	0.102575734
253	0x3e9a68cd	0.30158082
254	0x3e99f39d	0.30068675
255	0x3e5dfe0f	0.21678947

actor.2.bias f4 [64]
0	0x3c48c884	0.012254838
1	0x3e0b0464	0.13575894
2	0xbc486b83	-0.012232664
3	0x3c61df0d	0.01378609
4	0x3e3c928f	0.18415283
5	0x3e26923b	0.1626672
6	0xbe15b661	-0.14620353
7	0x3d94b09a	0.072602466
8	0xbdc4734b	-0.09592303
9	0xbde21167	-0.110384755
10	0xbc43a097	-0.011940143
11	0xbe18a914	-0.14908248
12	0x3e3d186c	0.18466347
13	0x3d0494c7	0.032368448
14	0xbd7fc875	-0.06244703
15	0xbb29226c	-0.002580787
16	0xbd6ec212	-0.05829055
17	0xbc832cd3	-0.016012585
18	0xbd7e5a44	-0.062097803
19	0xbd48648a	-0.048924007
20	0xbddb9972	-0.10722627
21	0xbd506655	-0.05087884
22	0x3ce06a08	0.02739431
23	0xbc8f8e56	-0.017523926
24	0xbdc84faf	-0.097808234
25	0xbbc1ac17	-0.0059104073
26	0x3d15afc6	0.036544584
27	0xbda6f4ce	-0.081521615
28	0xbd2f112c	-0.042740986
29	0xbdecc64a	-0.11561258
30	0x3c2006b8	0.009767227
31	0xbc5515eb	-0.013005714
32	0x3d92c1ec	0.07165894
33	0xbe483a60	-0.19553518
34	0x3d2f0ac9	0.042734895
35	0x3dd159be	0.10222195
36	0xbd4d8c89	-0.050182853
37	0x3d8d4c83	0.06899359
38	0x3c6d0c94	0.014468331
39	0x3d9694dc	0.073526114
40	0x3cca758d	0.024714256
41	0x3d271b45	0.04079749
42	0x3bdaca2f	0.006676934
43	0xba5d715a	-0.00084473717
44	0x3e2eb781	0.17062189
45	0x3d6c97f0	0.057762086
46	0x3d084bbe	0.03327536
47	0x3d8fa3c2	0.07013656
48	0xbd2fccdf	-0.04291999
49	0xbd408371	-0.047000352
50	0x3c246fe7	0.010036445
51	0xbb88b8e4	-0.0041724313
52	0x3da79eb3	0.08184566
53	0xbdd794f3	-0.10526457
54	0xbd2d5440	-0.042316675
55	0xbc34f779	-0.01104533
56	0xbcdc4017	-0.02688603
57	0xbca84876	-0.020542365
58	0xbd9ab2c1	-0.07553626
59	0xbe1fdcbf	-0.15611552
60	0xbd22457f	-0.039617058
61	0xbd7ab4a7	-0.06120744
62	0xbba9a9eb	-0.0051777265
63	0xbe2e597f	-0.17026328

actor.4.weight f4 [5, 64]
0	0xbd97f0a1	-0.07418943
1	0x3c80e203	0.01573277
2	0x3d949ce8	0.0725649
3	0xbc993d47	-0.018705977
4	0x3d9d6434	0.07685128
5	0xbcfa86ca	-0.03058185
6	0xbd3beaea	-0.04587833
7	0x3d4791bb	0.048722964
8	0xbd17d763	-0.037070643
9	0xbcebe2a0	-0.028794587
10	0xbdad957a	-0.08475776
11	0xbc863d43	-0.016386634
12	0xbc9b78a1	-0.018978419
13	0xbd72538e	-0.059161715
14	0xbcc05a33	-0.02348051
15	0x3c0d9d39	0.008643442
16	0x3b0ad2dc	0.002118281
17	0xbc5b4a9c	-0.0133844875
18	0x3d8c06db	0.06837245
19	0x3c25ac8c	0.010111939
20	0xbd2640a2	-0.040588982
21	0x3d3e2ca6	0.0464293
22	0xbc009ce7	-0.007849908
23	0x3d4b80f8	0.04968354
24	0x3d016a13	0.0315953
25	0x3d14d1b4	0.0363328
26	0x3e013586	0.12618074
27	0xbd6d8f9a	-0.057998277
28	0x3caeb24f	0.021325259
29	0x3985478d	0.00025421046
30	0xbcedde09	-0.029036539
31	0xbd6d611a	-0.05795393
32	0x3cf75093	0.030189788
33	0xbe38ad0b	-0.1803476
34	0x3d5bceda	0.053664066
35	0x3daf004d	0.08544979
36	0x3cb59e53	0.022170221
37	0x3d9aca73	0.075581454
38	0xbc8a3617	-0.016871495
39	0x3d896dd1	0.06710399
40	0x3e08fbcb	0.13377301
41	0xbd9524be	-0.07282399
42	0x3db50437	0.088386945
43	0xbca31683	-0.019908195
44	0x3d8e2922	0.06941439
45	0xbc36a478	-0.011147611
46	0x3d570c85	0.052502174
47	0xbc3b4b89	-0.011431583
48	0x3d4181c3	0.04724289
49	0xbd71dd9b	-0.05904923
50	0x3c79e93b	0.01525336
51	0x3cc21219	0.02369027
52	0x3cd1824e	0.02557483
53	0x3d82b586	0.06382279
54	0xbd203510	-0.039113104
55	0xbda0ce9d	-0.07851908
56	0xbd8b811c	-0.06811735
57	0xbcf2c1eb	-0.029633483
58	0x3d73d4d8	0.059529155
59	0xbdbd3b48	-0.092398226
60	0x3d09444f	0.03351241
61	0xbd6830e9	-0.05668727
62	0x3d36b3fa	0.044605233
63	0xbdf25f27	-0.11834555
64	0xbe0e52a1	-0.13898708
65	0x3e24b29d	0.1608376
66	0x3e0fb4d7	0.14033829
67	0xbe898eee	-0.2686686
68	0xbda4ef83	-0.08053496
69	0x3d74669e	0.059668176
70	0xbe7a6d79	-0.24455823
71	0xbd314a58	-0.04328379
72	0x3db1ec46	0.08687644
73	0x3dd3cd6b	0.10341915
74	0x3e3a1d15	0.18175156
75	0xbe128b64	-0.14310986
76	0xbe5f13cf	-0.217849
77	0x3ec1fd85	0.37888733
78	0x3ee5b180	0.44861984
79	0xbe7eb07d	-0.24872012
80	0xbd835ad7	-0.06413811
81	0xbad57397	-0.0016285059
82	0x3ec327e7	0.3811638
83	0xbe1d5f9f	-0.15368508
84	0x3dbecf6c	0.09316906
85	0xbdbeca2b	-0.09315904
86	0x3ebe7fc2	0.37206846
87	0x3da7dff4	0.081970125
88	0xbe24331c	-0.16035122
89	0xbe059e92	-0.13048771
90	0x3eb54c82	0.35409933
91	0x3dfe2de5	0.124110974
92	0xbc518bf0	-0.012789711
93	0x3dbadff6	0.091247484
94	0x3eb23d57	0.34812424
95	0xbe92a3d5	-0.2864062
96	0x3e5cffa2	0.21581891
97	0xbd54791f	-0.051873323
98	0x3e5e8d21	0.21733524
99	0x3dbfe980	0.093707085
100	0xbeb1e7bf	-0.3474712
101	0xbd7d05a3	-0.061772954
102	0x3e3a69b4	0.18204385
103	0xbe9f6e49	-0.31138828
104	0xbdcab232	-0.09897269
105	0x3edd86ce	0.4326691
106	0x3dae3c1c	0.08507559
107	0xbe10b38e	-0.14130995
108	0xbe665268	-0.22492373
109	0xbe40eff2	-0.18841532
110	0xbdaf667a	-0.08564468
111	0xbe64d02a	-0.22345033
112	0xbdfb8f15	-0.1228315
113	0x3ecf0c43	0.40439042
114	0x3df56f3d	0.11984108
115	0xbe217b3e	-0.1576967
116	0xbd131c00	-0.035915375
117	0x3e1073e1	0.14106704
118	0xbe584175	-0.2111872
119	0x3dec321a	0.115329936
120	0x3eb61406	0.35562152
121	0x3a27badd	0.0006398389
122	0x3e14b5f8	0.1452254
123	0xbe6b31a6	-0.22968158
124	0xbe26d3f5	-0.16291793
125	0x3db0f62d	0.08640704
126	0x3d922a94	0.071370274
127	0x3d92c8e8	0.07167226
128	0x3e88cc9b	0.26718602
129	0xbd5af5b2	-0.05345697
130	0xbe782c72	-0.24235705
131	0x3e94e2f3	0.290794
132	0x3d83869f	0.06422161
133	0xbca7418c	-0.020416997
134	0x3e89900b	0.2686771
135	0xbd384720	-0.044989705
136	0xbdc4029b	-0.095708095
137	0xbdcb47b4	-0.09925786
138	0xbdd91f2b	-0.10601648
139	0x3e0ee135	0.13953097
140	0x3e61ebb3	0.22062568
141	0xbea872f9	-0.32900217
142	0xbed29b82	-0.41134268
143	0x3e837934	0.25678408
144	0x3d25c7cf	0.040473755
145	0x3d91734b	0.071020685
146	0xbed8b4e7	-0.42325518
147	0x3e50001e	0.20312545
148	0xbd793e2a	-0.0608503
149	0x3e226f48	0.15862763
150	0xbea5f44d	-0.3241295
151	0xbe04b4bc	-0.1295957
152	0x3dbfa597	0.09357756
153	0x3e4ee089	0.20202841
154	0xbef29df3	-0.4738613
155	0xbdb7be15	-0.08971802
156	0x3d1df243	0.038561117
157	0xbe16c75c	-0.14724487
158	0xbead7bb6	-0.33883446
159	0x3eadc7a8	0.33941388
160	0xbe594795	-0.21218713
161	0x3e1f638d	0.1556532
162	0xbeb25963	-0.34833822
163	0xbdfdd5f0	-0.12394321
164	0x3e9f5411	0.31118825
165	0xbd7a909f	-0.061173078
166	0xbe24b379	-0.16084088
167	0x3e9e8b2d	0.30965558
168	0x3d931368	0.07181436
169	0xbeb12ecb	-0.34606013
170	0xbe4a9508	-0.19783413
171	0x3e0bb57e	0.13643453
172	0x3e1a53a4	0.15070969
173	0x3df4abe6	0.119468495
174	0x3de6cc8e	0.112694845
175	0x3e2fcdd5	0.17168362
176	0x3da00747	0.07813888
177	0xbe9cd4a9	-0.30630997
178	0xbe67368c	-0.22579402
179	0x3e4228b6	0.18960842
180	0xbd8c66f6	-0.06855576
181	0xbdf4f0cd	-0.119599916
182	0x3e61c109	0.22046293
183	0xbda8dd80	-0.08245373
184	0xbea5abab	-0.32357535
185	0x3c9dc2c4	0.01925791
186	0xbe09c9e4	-0.13455921
187	0x3e6ace7a	0.22930327
188	0x3e6ae84b	0.22940175
189	0xbd8ef12c	-0.06979594
190	0xbd9b603c	-0.075867146
191	0xbb5237cf	-0.0032076722
192	0x3b802ee9	0.003911842
193	0xbe824614	-0.2544409
194	0x3d937d9a	0.07201691
195	0xbef5ca6f	-0.48006007
196	0x3dd93d57	0.10607403
197	0xbe8095f0	-0.25114393
198	0x3dae2bd2	0.08504452
199	0xbe682a61	-0.22672416
200	0x3dd90ee5	0.10598544
201	0xbe49e945	-0.19717892
202	0x3e227108	0.1586343
203	0xbdb195f7	-0.08671182
204	0xbd4297a3	-0.047507893
205	0x3ed7d1e4	0.4215232
206	0xbddaaef4	-0.10677901
207	0xbe06985b	-0.13144056
208	0x3e62c1c6	0.22144231
209	0xbe9a5d52	-0.30149323
210	0x3ea8575b	0.32879147
211	0xbe52a91d	-0.20572324
212	0xbe4e2524	-0.20131356
213	0x3e332237	0.1749352
214	0xbe9a2808	-0.30108666
215	0x3eabc435	0.33548132
216	0xbe9cbe91	-0.3061414
217	0x3c7587fc	0.0149860345
218	0xbc2893e5	-0.010289167
219	0xbe690375	-0.22755225
220	0x3dc583fa	0.09644313
221	0x3df92884	0.12165931
222	0xbdb1bfbb	-0.08679148
223	0xbe32b4d9	-0.174518
224	0xbde38cbc	-0.11110827
225	0x3e0c43a4	0.13697678
226	0xbd1eaab2	-0.038737006
227	0xbe3b3f80	-0.18285942
228	0x3dae3d82	0.085078254
229	0xbd6b0f78	-0.0573878
230	0x3df0a3ae	0.117499694
231	0x3c6c17fb	0.014410014
232	0x3e501dbb	0.20323841
233	0xbebf97d0	-0.3742051
234	0x3ea5f942	0.3241673
235	0x3e96aef2	0.29430348
236	0x3e3370be	0.17523476
237	0xb9a26d9c	-0.00030980713
238	0x3e6dfcff	0.23241042
239	0xbe097dfb	-0.13426964
240	0x3e8e024f	0.27736136
241	0x3e7a486d	0.2444169
242	0x3a59f5ab	0.00083145004
243	0xbc932c2a	-0.017965395
244	0x3e8fca7e	0.28084177
245	0xbe556ea2	-0.20842984
246	0x3caf5db1	0.02140698
247	0x3d5cc26f	0.053896364
248	0xbe006235	-0.12537463
249	0xbed6ab52	-0.41927582
250	0x3e09baa5	0.13450105
251	0x3d984782	0.07435514
252	0xbe3ed1b7	-0.18634687
253	0x3e2f9bce	0.17149279
254	0xbcbaaded	-0.022788012
255	0x3dea83c0	0.114509106

actor.4.bias f4 [5]
0	0xbbcfe4fa	-0.006344435
1	0x3b8fa70c	0.004383927
2	0x39bf1df4	0.00036452676
3	0x3d4d885b	0.050178867
4	0xbd0cf1b0	-0.03441018
