checkpoints/mapppo_critic_lumberjacks.pth (torch, 42556 bytes, 5 tensors)

fc1.weight f4 [64, 88]
000000 90 8f b5 bd f7 0d 79 bd 8f 30 ac bd 22 a4 0a bf
       -0.08865273 -0.060804334 -0.08407699 -0.54156697
000010 da 02 c4 be 09 36 6c 3d 06 3f 31 3d ff 73 80 3e
       -0.38283426 0.05766872 0.043272994 0.25088498
000020 7e fa fa bd 35 bc fd 3d b1 65 f8 bd 23 60 00 3f
       -0.12254809 0.12389413 -0.12128771 0.50146693
000030 8b 7e 5e be 59 cd b3 3e 21 0e e6 3d cd 5e b8 bf
       -0.2172796 0.35117605 0.112331636 -1.4403931
000040 6d e0 9e be ee 24 7f 3e b5 0c c3 bd aa c5 9c be
       -0.31030598 0.24916431 -0.09523908 -0.30619556
000050 12 dd 90 be a7 4c bd 3d bc 01 17 3e 5a 19 b5 be
       -0.28293663 0.09243136 0.14746755 -0.35370904
000060 a4 f3 b0 3d 2f 1f ce be 72 cb 27 3e a4 de ef 3d
       0.08640221 -0.40258166 0.16386202 0.11712387
000070 87 80 79 3e 84 42 df 3d fa 56 6a be 43 85 ce 3d
       0.24365436 0.10901359 -0.22884741 0.100840114
000080 07 af bb bd ab 74 8a bd 58 73 15 be 63 fd 6c bd
       -0.09164243 -0.06760534 -0.14594781 -0.057858836
000090 70 4a 9d bd bc 52 cb be 76 81 ad be 88 9d 5f 3e
       -0.076802135 -0.3971156 -0.33887833 0.21837437
0000a0 1a f7 d5 bd 9f d7 02 3f b8 3a 83 be 22 31 80 3e
       -0.104475215 0.5111026 -0.25630736 0.25037485
0000b0 f0 c3 b0 3b c7 52 66 bb 1b 6b 14 bd be 53 3e bf
       0.0053944513 -0.0035144554 -0.036234956 -0.7434653
0000c0 3b ae d3 be 01 20 ae 3d 6b 81 f2 be fc d2 00 3f
       -0.41343865 0.08502198 -0.47364363 0.50321937
0000d0 9a fb fd be 5c 49 b5 3e 6d 7a aa be 81 b7 07 be
       -0.4960602 0.3540753 -0.33296528 -0.13253595
0000e0 6e d9 c0 bd d1 64 1a 3f 8f d3 e7 be 9a ea 70 be
       -0.094164714 0.60310084 -0.45278594 -0.23526993
0000f0 14 48 91 be f5 c5 73 be bf c4 9e be c8 0b 20 3c
       -0.28375304 -0.23805983 -0.3100948 0.009768434
000100 69 4d 29 bc 42 cc a1 3d ef 35 9a be 53 80 0d be
       -0.010333397 0.07900287 -0.30119273 -0.13818483
000110 32 bb a4 3d 5e 46 03 bf 41 24 59 be 84 e8 df 3d
       0.08043517 -0.51279247 -0.21205236 0.10933021
000120 ea 4e 55 be 37 f0 b0 3d 98 17 1e be 95 31 7f 3b
       -0.20830885 0.08639567 -0.15438688 0.0038939465
000130 74 31 b5 bd f5 6b b5 3e 01 00 8a be 0b b9 91 be
       -0.08847323 0.35433927 -0.26953128 -0.2846149
000140 f2 74 b4 3c ab f7 be 3e ea 8e a9 bd a7 1b 81 be
       0.02202842 0.3729833 -0.08279212 -0.2521641
000150 1c 9a 02 3d 28 27 c4 3d 2b f8 4a be 66 b5 17 bd
       0.03188525 0.09577781 -0.19821231 -0.03703823
000160 c8 44 ff bc e9 75 07 3d 62 3e 04 be 45 19 38 40
       -0.031160727 0.033071432 -0.12914422 2.8765423
000170 4b 61 45 3e ef 69 36 3c 13 6f e7 3e d9 1e 85 bc
       0.19275396 0.011133655 0.4520193 -0.01625006
000180 b5 1d c0 3e d8 43 44 3c 4d 1f bf 3e eb 02 21 3c
       0.37522665 0.011979066 0.37328568 0.009827356
000190 60 aa 3a 3d 45 3f 0e 3f 48 fd 57 bd 4e c0 96 bd
       0.04557264 0.5556529 -0.052731782 -0.07360898
0001a0 1a 0c 08 be 5c 04 fd bd 79 36 4d be 35 bb 09 bb
       -0.13285866 -0.12354347 -0.20040311 -0.0021016125
0001b0 18 25 0c be c5 35 49 bc 8c 0b c7 3d 8f ac 33 3d
       -0.13686025 -0.012280886 0.09718999 0.043865737
0001c0 1b 87 90 bd b1 49 36 40 42 0a e7 3c 99 4f 99 bb
       -0.07057019 2.8482478 0.028203133 -0.0046786782
0001d0 ef 71 b7 b8 be d9 d8 3c 9e 6e 99 bd ec 7d b1 bd
       -8.747342e-05 0.026471015 -0.07491802 -0.08666596
0001e0 7c 6e 10 3e a0 85 97 3c 36 7a 54 3d 0e 5c c7 bc
       0.14104646 0.018496335 0.051874362 -0.024335887
0001f0 91 e8 6f 3d 89 8b 07 be 20 8c dc 3d 66 f5 3e 3d
       0.058571402 -0.13236822 0.10768914 0.04662075
000200 59 12 99 3d 53 10 8a 3c 22 17 86 3e 29 d3 31 be
       0.07474203 0.016853487 0.26189524 -0.17365707
000210 b2 d5 db 3d f1 d1 a5 bc e3 c8 ad be f5 3b 35 40
       0.107341185 -0.02024171 -0.33942327 2.8317845
000220 fc 3c 65 bd 92 32 48 be 64 04 d5 3b d1 d4 87 3e
       -0.055966362 -0.19550541 0.0065007675 0.26529554
000230 1b 76 37 be a1 ca e3 3d c3 56 64 be 48 0f 09 3d
       -0.17916147 0.11122633 -0.22298722 0.03346184
000240 d7 6a ae bc 82 2e 0e 3d 52 4d 09 be 3b cd 2a 3e
       -0.02129118 0.034712322 -0.13408402 0.16679852
000250 f8 65 06 3d 94 71 db bd ed 85 e3 3d ce 5b 36 3e
       0.03281209 -0.10715023 0.11109529 0.17808458
000260 c7 48 1e be 0b 14 b4 bd ed 7a 56 ba 9e 22 29 bc
       -0.1545745 -0.087928854 -0.00081817695 -0.010323195
000270 76 06 6c 3e 01 87 33 40 f6 dd e0 3d b1 cb b7 3b
       0.2304934 2.805115 0.10979836 0.0056089987
000280 a0 bb d9 bd e5 b7 01 3e 66 af 56 3e 36 f9 84 bd
       -0.1063149 0.12667806 0.20965347 -0.06492846
000290 2d f4 c6 bc 03 5b d9 3d 1f 99 0a 3e 90 c7 c6 3a
       -0.024286354 0.10613062 0.13534974 0.0015165675
0002a0 34 3b 04 3f a4 34 04 be ba f5 42 3e 46 ad 98 bd
       0.51652837 -0.12910706 0.1903905 -0.07454924
0002b0 2d 49 04 3f 34 11 c9 bd d8 a2 9f 3e 17 63 6e bd
       0.5167416 -0.09817734 0.31178927 -0.05819997
0002c0 d9 ab 7e bd 9c 2e ef bd fe de 32 3c 3a 69 9d 3f
       -0.062175605 -0.11678812 0.010917423 1.2297738
0002d0 25 12 ba be bf 08 9f bd ed ec 97 3d 3e 5f c4 bc
       -0.36341968 -0.0776534 0.07418237 -0.023971196
0002e0 16 7d 18 be 2b 23 67 bd 69 72 9a 3d 41 ba eb bd
       -0.14891466 -0.056430023 0.07541353 -0.115101345
0002f0 35 80 ca 3d 06 58 46 bd 77 b1 b0 bd 6c d9 89 3c
       0.09887735 -0.04842379 -0.08627599 0.016827308
000300 dc a7 b0 be 87 59 24 bd 21 e4 97 be 49 c0 94 bd
       -0.34503067 -0.040124442 -0.29666236 -0.07263238
000310 05 19 20 3d 47 60 de bb fc 7d 49 3e 01 09 14 bd
       0.03908636 -0.0067863795 0.19676965 -0.0361414
000320 7b d8 60 bd 92 d2 9e 3f f2 4d c7 be 54 0e 51 bc
       -0.054893952 1.2408011 -0.38926655 -0.012759764
000330 52 f8 13 bd ea b2 8a bd 78 65 63 be b8 d9 89 bc
       -0.03612549 -0.067724064 -0.22206676 -0.01682745
000340 51 b7 96 bc e0 7a 1b bd 53 69 86 3d ba 1d 8e 3c
       -0.018397959 -0.03795898 0.06563058 0.01734816
000350 6b 2e a7 bd 3e 51 04 bc ec a6 a1 3d e0 cf 0b 3c
       -0.081631504 -0.00807601 0.07893166 0.008533448
000360 00 2a 1a 3e fc 67 89 bd c0 cc e3 3c 5d e3 f8 3b
       0.15055084 -0.067092866 0.027807593 0.007595463
000370 b6 3e 0a bd 1c 87 38 3e aa 44 d7 3d f6 f8 a4 3f
       -0.033751212 0.1802029 0.105111435 1.2888477
000380 54 fc 58 3d 61 53 22 3d d5 80 8c bd 27 02 9a bd
       0.052975014 0.039630298 -0.0686051 -0.07519942
000390 6b 9f a3 3e 23 1c 50 3c 96 2a 0e bc fd 69 8b bc
       0.31957564 0.012702021 -0.0086771455 -0.017018313
0003a0 f3 fc 2d be 6d a7 c3 3d 10 77 1c bd a1 83 80 3a
       -0.16991024 0.09553418 -0.038199484 0.0009804853
0003b0 db 2a 79 3d bf 86 40 3d e0 b6 67 3e de 97 a3 bd
       0.060831886 0.047003504 0.22628355 -0.07987951
0003c0 8c 17 c3 3e d4 54 84 3c cc 85 92 3d a2 d0 03 3e
       0.38103902 0.01615373 0.07154426 0.12872556
0003d0 92 20 29 bd a6 9e 97 3f 2d 5f 26 3e dc 51 7a 3c
       -0.041290827 1.1845291 0.16247244 0.015278306
0003e0 93 30 9c 3e 01 7d 26 3c de 1e d3 bd e5 fb e9 3c
       0.3050581 0.010161639 -0.10308622 0.028562495
0003f0 f9 4e 21 3e c1 1f fb bc 01 54 01 3e d5 cc 5b 3d
       0.15752782 -0.03065479 0.12629701 0.05366214

fc1.bias f4 [64]
000000 1f 0b 58 bd 56 e1 0a 3d d6 84 8b 3d 4b 2c 75 bd
       -0.05274498 0.033906303 0.06812446 -0.059856694
000010 49 06 3b 3d e5 37 c2 3d 23 c2 f9 bd 92 a2 f3 bd
       0.04566029 0.09483317 -0.12195232 -0.11896242
000020 e6 74 d8 bd 6f e9 16 be c4 a3 59 3d a4 1e d4 3d
       -0.105691716 -0.14737485 0.053134695 0.10357407
000030 bb 55 f5 bd 90 eb c5 bd ea d6 be 3d 2c 8c b4 bd
       -0.119792424 -0.096640706 0.09318335 -0.08815798
000040 d5 db 15 3e be 07 d6 bd 20 97 ab bc 0b 84 cc 3d
       0.1463464 -0.104506955 -0.020946085 0.09986123
000050 1a b3 de bd 60 ad 01 be de c0 e2 bd 10 33 3e be
       -0.10874005 -0.12663794 -0.11071943 -0.18574166
000060 28 36 03 be 73 ed c2 bc 8e 4e 1e 3e 3e 3f a1 bd
       -0.12813628 -0.023794865 0.15459654 -0.078733906
000070 0c fa 62 bd d0 bf b0 bd 43 31 d0 bc b0 95 09 3c
       -0.055414245 -0.08630335 -0.025414115 0.008397505
000080 c0 be de bd e1 43 9c bd 2a e2 9e bd 7e 20 18 be
       -0.108762264 -0.076301344 -0.07757981 -0.14856145
000090 0a 60 d8 3b 8a 1a 01 be f4 73 3e bd e0 cc 15 bd
       0.0066032456 -0.1260778 -0.0464973 -0.036572337
0000a0 1e ae d0 3d a8 fe a4 3d 37 4f 71 bd 37 ca b2 3d
       0.1018946 0.08056384 -0.058913436 0.08729976
0000b0 e3 30 5c 3d 4f b5 d6 bd fc c2 c3 bd 1f 5b f6 3c
       0.05375756 -0.104838006 -0.09558675 0.030072747
0000c0 44 45 c9 bd 65 ba 49 3e a6 79 25 bd 2b 27 92 bd
       -0.098276645 0.1970001 -0.040399216 -0.07136377
0000d0 a0 14 d8 3d a6 03 ca bd 0d 5a a7 3d eb 53 14 3e
       0.10550809 -0.09863977 0.08171473 0.14485137
0000e0 86 ba 01 3e 57 fe 03 be f0 a1 45 bd 80 5d d5 bc
       0.1266881 -0.12889992 -0.04825014 -0.02604556
0000f0 7c 05 be bb 62 f1 ee 3d bf b4 66 bd ad 7b 09 be
       -0.0057989936 0.11667134 -0.056324717 -0.13426085

fc2.weight f4 [64, 64]
000000 5f bf 8b be fd 6d 68 3e 1e da 5b 3e f3 1f d5 bd
       -0.27294442 0.22698207 0.21469924 -0.104064845
000010 51 ac d0 3d 88 d4 79 3e a3 8a c5 be 7b bc 06 bf
       0.10189117 0.2439748 -0.38582334 -0.5263135
000020 f4 ff 32 3d 61 fa 1c bf c9 f6 cf 3d e9 23 74 3e
       0.043701127 -0.6131955 0.101544924 0.23841824
000030 d1 e6 38 be 8a 12 90 be 37 41 8c 3e f7 26 3f be
       -0.180568 -0.28139144 0.27393505 -0.18667208
000040 a0 d8 ed 3d 2d e6 d1 be c5 00 5d 3c 01 de 9e 3e
       0.116135836 -0.40995923 0.013488953 0.3102875
000050 07 ff 87 bd 56 c1 d8 be b6 67 85 be eb 0a a5 be
       -0.066404395 -0.42335004 -0.26055688 -0.32234892
000060 f2 3b 1b be 1b 8e b6 bd 75 7b 77 3d 92 03 d9 be
       -0.15159586 -0.08913823 0.060420472 -0.42385536
000070 45 2e 26 be 95 29 81 be 8f 89 8f be 54 fe 37 be
       -0.16228588 -0.25227037 -0.28034636 -0.17968112
000080 98 87 11 be 86 e7 dd bd a3 0f d8 be ef 78 66 3d
       -0.14211881 -0.10835175 -0.4219943 0.056267675
000090 e3 f7 3b bd 8e 1a 38 be 87 64 83 3d 8a b9 98 be
       -0.0458907 -0.1797888 0.064156584 -0.29829055
0000a0 b3 3e 8a 3e 33 b1 db 3e 27 92 13 be f2 e3 23 3e
       0.2700096 0.4290863 -0.14411221 0.16004923
0000b0 df 77 49 3e 47 17 83 be a4 cb 7c be ab c5 ae 3d
       0.19674633 -0.25603697 -0.24687058 0.08533796
0000c0 ec 98 6d be dc 3b 8c 3e 52 ca a1 3e 98 a2 7c be
       -0.23202866 0.2738942 0.3159967 -0.246714
0000d0 53 bd 84 3e 7c b3 24 be dd 11 8e 3e 41 86 f8 3c
       0.25925693 -0.16084093 0.27748004 0.030337455
0000e0 67 91 73 3d 7a 11 cc be e0 8f df 3d 2c 35 21 3e
       0.05946484 -0.39857084 0.10916114 0.1574294
0000f0 f7 32 ad bd dc 34 bb bd ed 76 f7 be fa e4 26 bd
       -0.084569864 -0.091409415 -0.4833292 -0.040745713
000100 fa e4 17 3e ad ef b7 bd f0 37 cc be dc 76 09 3e
       0.14833441 -0.089812614 -0.39886427 0.13424248
000110 6c 72 44 be 49 48 69 be 15 cd 60 3e d6 48 ad 3e
       -0.19184273 -0.22781481 0.21953233 0.33844632
000120 84 0d 15 3f 76 5d 38 3e 73 4f d0 3c e8 b0 2e be
       0.5822375 0.18004403 0.02542851 -0.17059672
000130 ed 39 e7 3d a9 2f 94 3e 2d 75 d8 be fd 34 63 3e
       0.11290345 0.28942612 -0.42276898 0.22188182
000140 60 a9 8a be b9 11 0f 3f 9c 8f e6 3c d7 be 67 be
       -0.27082348 0.5588642 0.02814465 -0.22631393
000150 bb 25 4a 3e 43 f9 95 3e 71 f8 11 3e 2e 93 b0 3e
       0.19740956 0.29291734 0.14254929 0.3448729
000160 4d 75 0f 3e 0c 3b 56 3e b6 fc 03 be ee 54 a6 3e
       0.1400959 0.20920962 -0.1288937 0.3248667
000170 c7 58 bb bd a4 49 73 3e f5 cf 7b bc 22 8c 40 be
       -0.09147792 0.2375856 -0.015369405 -0.18803456
000180 f8 c1 79 bc 56 6d 9d 3e 12 42 67 3e 5e 0f b4 3d
       -0.015244 0.3074748 0.22583798 0.087919936
000190 5f 57 52 bd 46 f3 74 3e 69 1b 25 3e 2a 37 cc 3e
       -0.051352855 0.23920926 0.16123737 0.39885837
0001a0 57 ad b2 be b5 17 70 be a5 2f 64 3e a0 bd a4 bd
       -0.34897873 -0.23446544 0.222838 -0.080439806
0001b0 22 0b 14 be 3f 5b 8e 3e 0e df 6d 3e f3 ce a3 be
       -0.14457372 0.2780399 0.2322962 -0.31993827
0001c0 41 c8 34 3e 97 0d b5 be 21 35 c6 be 73 78 0b 3e
       0.17654516 -0.3536193 -0.3871241 0.13620166
0001d0 b7 4b 8a be 93 34 77 3e 6a 7f 5a bd 44 53 fe bd
       -0.2701089 0.24141149 -0.053344168 -0.124182254
0001e0 f3 8b e8 be 6e 9f 80 3e 34 ed c2 3d 80 14 9c bb
       -0.45419273 0.25121635 0.09517899 -0.004763186
0001f0 82 ea 8b 3d 31 15 c5 3d 76 18 1d 3e 7f e6 ce 3d
       0.06831838 0.096231826 0.15341362 0.101025574
000200 61 3e ed 3c 7e 36 38 3e cd 4e 08 3e fd 94 8e 3e
       0.028960409 0.17989537 0.1331131 0.27848044
000210 57 d1 07 be ba 45 34 3e 7e aa 25 be 7d 95 a9 be
       -0.1326345 0.17604724 -0.16178319 -0.33121863
000220 c2 73 10 3e 9b 4f 31 be 03 da 05 3e a2 db c7 bd
       0.14106658 -0.17315523 0.13071446 -0.097586885
000230 87 ce 2b 3e be 4b b9 be d7 ee 32 3e 57 34 c0 bd
       0.16778003 -0.361906 0.17473923 -0.09384983
000240 25 af 41 be 68 20 ca be b9 e9 9f bd f1 d4 60 3e
       -0.18914469 -0.3947785 -0.07808251 0.2195623
000250 06 e0 a1 3e b5 71 5e be e8 11 d1 3d a5 be 2f 3d
       0.3161623 -0.21723063 0.102084935 0.042906422
000260 8a 54 b5 3d 9a 4f 8f 3d 47 27 8b bd e9 9c b0 be
       0.08854015 0.06997605 -0.06794601 -0.34494713
000270 64 c4 f4 bc 19 ee 54 3d 70 6c 35 3d ac 55 13 be
       -0.029878803 0.05198488 0.044292867 -0.1438815
000280 cb d5 8f 3e 5d 97 59 be 23 8c d9 bd 71 e1 cb 3b
       0.280928 -0.21249147 -0.10622432 0.006221943
000290 96 9b d7 bc 04 6a a1 be 91 a9 34 be ea f5 92 bd
       -0.026319306 -0.31526196 -0.1764281 -0.07175811
0002a0 23 36 c1 bb 62 65 89 3d a4 e3 af bc 4d 77 f6 3d
       -0.005896346 0.0670879 -0.021470852 0.120344736
0002b0 b8 54 4d bc a0 f9 52 be 29 66 2c be 6b 02 86 3d
       -0.012532406 -0.20603037 -0.16835846 0.0654343
0002c0 95 f5 e9 3d 36 71 84 3b 5c ed b1 be e3 c9 75 be
       0.11423794 0.004041816 -0.34751403 -0.24002795
0002d0 23 8f 23 3d 3c 7f d0 3d 98 62 a3 3c 67 6c 42 3e
       0.039931428 0.10180518 0.019944474 0.18986665
0002e0 69 7e 86 3e 63 e8 14 be 2b 9e 7e be df 36 b2 3d
       0.26268318 -0.14541773 -0.24865024 0.08701872
0002f0 cd 1b 45 be 72 b1 a3 be 62 63 22 be 73 a5 61 3e
       -0.19248886 -0.31971318 -0.15858224 0.2203577
000300 e5 18 2d 3e 7c 63 05 bf e8 36 05 be 85 38 98 bd
       0.16904028 -0.52104926 -0.13009226 -0.07432655
000310 b7 0d f8 bd 9e 9e 93 be a8 d2 81 3e 4c 65 a7 3e
       -0.12111991 -0.28831953 0.2535603 0.3269447
000320 58 0d e9 3e 78 10 06 3f 1a be 5b 3d 95 ee 7a be
       0.45517993 0.5236888 0.05364809 -0.24505074
000330 73 bc 9c 3c b0 6b 93 3e 7f 76 df be 15 c5 76 3e
       0.019132828 0.28793097 -0.43645093 0.24098618
000340 3a 54 84 be cf 83 8a 3e dc 33 36 3e 43 58 21 be
       -0.2584551 0.27053687 0.1779322 -0.15756325
000350 67 4d c0 3e d0 26 9e 3e 52 e7 b5 3d 6d 90 8c 3c
       0.37559053 0.30888987 0.088820115 0.017158711
000360 cc e9 a2 3d 60 d9 87 3e d9 cf dc bd b6 9a d9 3e
       0.079547495 0.2653303 -0.10781831 0.42500848
000370 cc 09 85 3b af bb ae 3e 9e ff d2 bc 7f f1 a5 bd
       0.004060006 0.34127566 -0.025756653 -0.08102702
000380 95 e3 01 3e b0 4a 1e 3e 27 45 f7 3e 85 f3 01 bd
       0.12684472 0.15458179 0.48294947 -0.03172638
000390 73 ba 90 3d 2b 14 89 3e 4a d2 2c 3e 53 29 08 3e
       0.07066812 0.267732 0.16877094 0.13297014
0003a0 7e 2d 79 be 8e 09 bc be 92 e0 ca 3e 19 36 8c bc
       -0.2433376 -0.3672604 0.3962446 -0.01711564
0003b0 f2 82 e4 39 fd 2b 20 3e 06 b4 b5 3e 50 31 39 be
       0.0004358511 0.1564178 0.3548891 -0.18085217
0003c0 32 81 8e 3d 6f 9e 6c be 17 8b 48 bd a6 95 8c 3e
       0.06958236 -0.23107313 -0.04896077 0.27457923
0003d0 67 39 3e be 1b d7 a7 3e bb 9b 3b be 50 ca b5 be
       -0.18576585 0.327813 -0.18321125 -0.35505915
0003e0 2c 58 03 bf e1 14 9a 3e 3f c0 a1 3d 76 4b cb bd
       -0.51306415 0.30094054 0.07897996 -0.099265024
0003f0 e9 a3 5c bd cd f5 8f 3d 0e 46 7c 3d 15 99 16 3e
       -0.053867254 0.07029305 0.061590247 0.14706834

fc2.bias f4 [64]
000000 9c c8 96 3e 4a 01 a4 be f2 7a e4 3d 1d ca 8c be
       0.29449928 -0.32032233 0.111562625 -0.2749795
000010 8e 55 e1 bd 97 98 70 3e 43 df ac be f0 f6 99 bd
       -0.110026464 0.23495708 -0.33764085 -0.07517803
000020 6d bf fc bc a9 52 30 3d c2 5b 67 bd af d2 f4 bd
       -0.030852998 0.04304758 -0.05648399 -0.11954247
000030 42 bf f5 bd c6 18 e8 3d 0e 95 97 be 3f 1f 9a be
       -0.1199937 0.1133285 -0.29605907 -0.30101964
000040 ea 97 bd 3d dd 80 ba bd a2 d1 fe bd 1e d2 ef bd
       0.09257491 -0.0910661 -0.12442328 -0.117099985
000050 f6 11 15 be 06 cc e5 3d 21 ff 80 3e 51 12 75 3e
       -0.14557633 0.11220555 0.25194648 0.23932768
000060 39 01 a2 be 9c 3a cd bd d2 5d 9a 3e bf 96 8a 3e
       -0.31641558 -0.100209445 0.30149704 0.27068135
000070 8a c3 50 3e d5 7e 25 3e c6 5b b4 3d 46 29 9f bd
       0.20387092 0.16161664 0.08806567 -0.07771544
000080 56 7b 97 3d 89 95 8b 3e 00 13 1e 3e 81 a3 fe bd
       0.07396571 0.27262524 0.15436935 -0.1243353
000090 1c f1 3c be c3 37 d5 3d 1d ed 8c 3e 59 b2 94 be
       -0.18451351 0.10411026 0.27524653 -0.29042318
0000a0 d6 bf f4 bb df 6b 79 be 7d fa f5 bd 71 ef 80 3e
       -0.0074691577 -0.24357556 -0.120106675 0.2518268
0000b0 16 3a b7 3d 92 40 04 3e d4 d0 e7 bd ad b1 84 3e
       0.08946626 0.12915257 -0.11319128 0.25916806
0000c0 c1 39 fb 3d 3c ba 8c bd 0f 87 b0 bd 8a 87 ec 3d
       0.12266875 -0.06871459 -0.086195104 0.115492895
0000d0 c1 a7 a9 bd 4e 4c 82 3e ed ae f2 bd 44 b4 05 3e
       -0.0828395 0.2544884 -0.11849771 0.13057047
0000e0 a0 fe 27 3e ee 51 90 3e f1 19 bc bc ca 93 ed bd
       0.16405725 0.28187507 -0.022961589 -0.11600454
0000f0 b2 61 fb 3d 9d 86 7a bd 84 6e 94 bd 1c 83 78 bd
       0.12274493 -0.061163533 -0.07247642 -0.06067191

fc3.weight f4 [1, 64]
000000 76 db 86 be ec c0 72 3e 61 7c 84 be 02 2f d3 3e
       -0.2633931 0.23706406 -0.25876144 0.41246802
000010 b0 08 bc 3e 95 1d 96 be 42 e6 91 3e ed cb c5 3e
       0.36725378 -0.29319444 0.28495985 0.38632146
000020 6f 38 a4 3e 15 1e b8 be 7a c9 e9 3e 04 4d 89 3e
       0.32074305 -0.3596045 0.45661527 0.2681657
000030 78 49 1e 3f 6f e3 0b bf 41 8b ab 3e 77 2a b8 3e
       0.61830854 -0.5464391 0.3350468 0.35969898
000040 1e 24 ac be fb 3f fa 3e 8e f6 e0 3e 8f 66 cc 3e
       -0.33621305 0.48876938 0.43938106 0.39921996
000050 a4 5a dd 3e 38 59 89 bf 79 48 af be a2 fd 06 bf
       0.43233216 -1.0730352 -0.3423498 -0.5273076
000060 0c 57 8e 3e 61 4d 20 3f 47 a7 91 be e7 af f6 be
       0.27800786 0.6261807 -0.28447935 -0.48181078
000070 4e 2e 9c be 53 86 3c bf 0d 74 44 bf 14 e8 a9 3e
       -0.30504078 -0.7364246 -0.7673958 0.33184874
000080 98 f2 dc be e9 85 b0 be fa c5 93 be 54 ab 91 3f
       -0.43153834 -0.34477165 -0.28861982 1.138041
000090 23 a4 c9 3e 27 dc e5 be 36 7d f0 be cb 69 98 3e
       0.3938304 -0.44894525 -0.46970528 0.29768214
0000a0 ff 7c b1 3e b7 ee be 3e dd 0c 79 3e cd 5b 8c be
       0.34665677 0.372915 0.24321313 -0.27413788
0000b0 a0 0d a4 be 67 ea 94 be 4b 65 0c 3f d4 87 ea be
       -0.32041645 -0.29085085 0.5484206 -0.45806754
0000c0 f0 84 ab be c4 bb ba 3e bf 01 e8 3e 10 c7 20 bf
       -0.3349986 0.3647138 0.45313832 -0.62803745
0000d0 c8 ad 9e 3e 28 c9 8e be 97 b8 ed 3e e5 2e fe be
       0.3099196 -0.27887845 0.46429893 -0.49645153
0000e0 fd a7 87 be 1b fa 8f be 4e 94 df 3e f7 45 9d 3e
       -0.26495352 -0.28120503 0.43667835 0.3071744
0000f0 92 5c c6 be 31 5a 9b 3e da af dc 3e 29 90 d2 3e
       -0.387425 0.30342248 0.43102914 0.4112561
