tmp2/critic_torch_ppo_0.pth (torch, 102134 bytes, 5 tensors)

critic.0.weight f4 [128, 63]
000000 16 90 9d 3d 18 bc f9 bc 9a b1 a6 3c ed e7 f8 bd
       0.07693498 -0.030485198 0.020348359 -0.12153611
000010 a4 30 9c 3d 4f f2 33 be 72 3e 8d bd 38 a0 7d 3d
       0.07626465 -0.17572902 -0.06896676 0.061920375
000020 09 ef 45 bd cc 16 29 bd 1b 9a 67 bd e4 e3 9a bd
       -0.048323665 -0.041281506 -0.05654345 -0.07562998
000030 14 07 7b 3d 9d 9e 5b 3d 0a f1 03 bc dd 91 51 be
       0.061286047 0.053618062 -0.008053074 -0.20465799
000040 7c d0 14 be ed 7c 0e be 51 60 62 bd fc 47 f0 ba
       -0.14532655 -0.13914843 -0.055267636 -0.0018332
000050 f5 0c 80 bd 81 c3 fb bd 83 f6 e4 3c 21 ed fe bd
       -0.06252471 -0.12293149 0.027949577 -0.124475725
000060 b4 87 4d bd f4 5e 22 be 20 c8 e3 3b 76 2b 2d 3c
       -0.050178245 -0.15856534 0.006951347 0.010569444
000070 fe 3a 11 bd 2e 4c b5 3d 35 5e 35 bc 71 81 68 bd
       -0.03545665 0.08852421 -0.011069824 -0.05676407
000080 b2 5f 34 be 81 bc bb 3d b8 ec 84 3d 60 8e a5 3d
       -0.1761463 0.09166814 0.06490463 0.080837965
000090 52 aa d8 bb 95 3b a1 3d 61 ea df bc 7a 1a 5d 3d
       -0.0066121006 0.078726925 -0.02733344 0.05398033
0000a0 02 e1 37 3e 28 06 62 3c 89 c5 18 bd d2 0e f1 3b
       0.17956927 0.013795413 -0.03729776 0.007356503
0000b0 d0 40 eb 3c 08 7e 6b 3b 7b ec 6f bb fc 29 4e bd
       0.028717428 0.0035933275 -0.003660946 -0.05033301
0000c0 c0 f1 cb bd aa c4 ed 3c 9c 47 b5 bb eb f2 ae 3d
       -0.099582195 0.02902444 -0.005532218 0.08542427
0000d0 dd f7 7d 3c e1 2e 82 3d 3e 5c 8b be 7d 08 49 be
       0.01550099 0.06356598 -0.27218813 -0.19632144
0000e0 d4 cf 74 be bc da 81 be 48 96 af be 4c 4b 4a be
       -0.23907405 -0.25362194 -0.34294343 -0.19755286
0000f0 95 30 49 be 95 a3 57 be 9d 17 32 be 73 f0 ba bd
       -0.19647439 -0.21058495 -0.1739182 -0.09127893
000100 5b 51 ca bd fc 29 89 bd 6e 86 b2 bd ba e5 a8 bd
       -0.098787986 -0.06697461 -0.08717047 -0.08246942
000110 12 83 fb bd 84 85 2f be a9 74 e3 bc 99 6a 44 be
       -0.12280859 -0.17140776 -0.027765589 -0.19181289
000120 48 80 88 bd ea b1 ff bd 2a 8d 4d be f4 8f 92 bd
       -0.06665093 -0.12485106 -0.20073381 -0.07156363
000130 56 7f 10 be 3f 56 a9 bb 60 62 4c be 54 0e 83 3d
       -0.14111075 -0.005167752 -0.19959402 0.06399217
000140 87 7c 57 3c d5 35 bc bd 65 83 d6 bd 7a 06 d2 bd
       0.013152248 -0.09189955 -0.1047428 -0.102551416
000150 c3 56 4f 3c e3 e0 ab 3c 8c 75 13 be c5 6b 44 be
       0.012654963 0.020981258 -0.1440031 -0.19181736
000160 82 4e 4d bd 1c 04 ce 3c d7 f9 f7 bd 09 01 80 bd
       -0.0501237 0.025148444 -0.121082 -0.062501974
000170 18 1e 55 bd e3 9e dc bd 01 90 26 3d e4 c8 d3 bd
       -0.052030653 -0.10772493 0.040664677 -0.10341051
000180 c2 df ab bd e0 f9 4d bd 9c 6d 7d bd b6 c3 9c 3d
       -0.08392288 -0.050287127 -0.06187211 0.076545164
000190 b5 5b 66 3b 34 09 84 bd 8b e0 0a bd 5b a7 1c bd
       0.0035149876 -0.06447068 -0.033905547 -0.03824554
0001a0 5b 47 99 3d fe 15 84 3d ae 4a db 3d 62 c7 87 3d
       0.07484313 0.06449507 0.107076034 0.06629826
0001b0 d9 0c 15 bb a8 8f 9a bd e4 48 3a bd 3f df c7 3d
       -0.0022743254 -0.075469315 -0.04547967 0.09759378
0001c0 d0 2e f4 bc a6 f4 1f bd 5b 34 31 bd fb 60 3a 3d
       -0.029807478 -0.039051674 -0.04326282 0.045502644
0001d0 ed 11 4c 3e cc 57 c5 be 23 4c 3e be 4e 15 1c be
       0.19928713 -0.38543546 -0.18583731 -0.15242502
0001e0 51 d8 93 be fc 8d 33 be 5a 47 88 be 62 16 32 be
       -0.28875974 -0.17534631 -0.26616937 -0.17391351
0001f0 27 a9 35 be 1e 84 4d be ac 53 14 3e 74 12 90 3d
       -0.17740308 -0.2006993 0.14485043 0.0703477
000200 2f 32 df 3d ed c7 85 3c 1f 64 fe 3d 9b 05 38 3e
       0.10898244 0.016330684 0.1242144 0.17970888
000210 1f c4 19 3c 79 10 53 3c 45 a3 f4 3d e7 ca 96 bc
       0.009385138 0.012882345 0.11945204 -0.018407298
000220 73 b0 36 3d 09 14 9d 3d 7e 22 f6 3d de ec 93 bd
       0.04460187 0.07669837 0.120182976 -0.07222913
000230 2c 84 d1 3d 91 0f 38 bd 26 af 43 3e 98 14 4a bb
       0.10230288 -0.04493672 0.19109783 -0.0030835029
000240 b7 7e 24 3e 5d 05 11 3c 22 24 2d 3d 4a fa 4e bd
       0.16063963 0.008851376 0.042270787 -0.050531663
000250 fe f7 5e bc ce 82 01 3e 25 ba 89 bb c7 3d 82 3d
       -0.013608931 0.12647554 -0.0042030984 0.06359439
000260 05 8f 23 3c 44 e2 05 3e 85 49 d4 3c bd db 18 3e
       0.009982829 0.13074595 0.025913963 0.14927574
000270 37 86 a6 3d 22 12 f9 3d 3b 6f 32 3e 47 bf 17 3e
       0.08131068 0.12161662 0.17425244 0.1481906
000280 35 90 08 3d 77 c5 8f 3d 07 d6 12 3d 8d 56 70 bd
       0.03334065 0.07020085 0.035848644 -0.05867629
000290 47 a4 3b 3d ba f4 a5 bd 2f c8 61 bc 1d 8b 16 3d
       0.045810964 -0.081033185 -0.013780638 0.036753763
0002a0 ec ef f3 bc 4e 51 e1 3c de fb c9 3d 1d 95 50 3e
       -0.02977749 0.02750459 0.09862493 0.20369382
0002b0 5b 55 c6 3d 07 2a a9 3d 20 bc f9 3b 37 40 2a 3d
       0.09684249 0.08259969 0.007621303 0.041565146
0002c0 e0 d7 1a be a4 ed 28 bc 4a 55 ac bb 9c ae b0 3a
       -0.15121412 -0.010310564 -0.0052591907 0.0013479772
0002d0 71 8b 1d 3e c4 1e 35 3d fe ed cf 3b 07 a7 9a 3d
       0.15385224 0.044218794 0.0063455096 0.07551389
0002e0 ab 97 01 3e 85 ff 34 3e d1 e4 6e bd a9 7b 40 3d
       0.12655513 0.17675598 -0.058323685 0.04699293
0002f0 07 a6 0a bd 76 bd 66 3d 9e 9b a8 3d 45 e3 75 3d
       -0.033849742 0.056333028 0.082328066 0.060031194
000300 97 52 99 3c 51 a0 2d 3c e3 18 5e 3d 69 17 46 3c
       0.01871614 0.010597304 0.054222953 0.012090542
000310 72 c5 b3 3c af 79 8a 3b b3 c8 d5 bc a5 80 58 3d
       0.021944735 0.0042259316 -0.026096677 0.05285706
000320 dc 91 bc 3d 4b 19 d3 3d d8 2d 26 3e f8 9f 02 3e
       0.09207508 0.103075586 0.16228426 0.12756336
000330 00 6a 47 bd 78 10 8a 3d 1e 0b 37 3d eb 24 18 3e
       -0.048685074 0.067414224 0.044688337 0.14857833
000340 44 14 be 3d 5b 92 25 3e 0b f6 03 3e 8d 58 e6 3d
       0.09281209 0.16169111 0.12886827 0.112473585
000350 48 59 fd 3d d7 47 28 3e 2c bc 42 bd f2 41 fb 3d
       0.12370545 0.16433655 -0.047542736 0.122684374
000360 f5 a6 1f 3e 07 91 09 3e d0 1a 67 bd 34 7c e7 bd
       0.15591033 0.1343423 -0.056422055 -0.11302987
000370 11 e6 7d 3c 2b 94 12 3e db e9 bb bd d3 b4 69 bd
       0.015496747 0.14314334 -0.09175464 -0.057057213
000380 a4 75 8e 3d d5 63 0f bc 14 c9 2f bd a6 6a 9e bc
       0.06956032 -0.008751829 -0.042916372 -0.019337963
000390 11 3c fe bd 4b 51 91 bc e1 c9 e8 bc e0 d6 30 3d
       -0.124138005 -0.017738959 -0.028416576 0.04317367
0003a0 e7 c7 85 3d 46 1d 03 3d 94 b6 1b be 6e 8b f8 bc
       0.06532269 0.03201034 -0.15206367 -0.030339923
0003b0 3e e3 88 bd b1 8b 93 bd 99 8e 89 3c b3 76 26 be
       -0.06683968 -0.072043784 0.016791629 -0.16256218
0003c0 e5 70 85 3d 7c 3e 9a bd fc bd 29 be a9 9f b8 3e
       0.065156735 -0.07531449 -0.1657638 0.3605931
0003d0 91 51 38 3e e8 75 eb 3c 7d 51 74 3e 65 c0 55 3e
       0.17999865 0.028742746 0.2385921 0.20874174
0003e0 79 99 dd 3d 77 b6 76 3d 91 75 50 3e f2 1e d2 3d
       0.10820288 0.060232606 0.20357348 0.102598086
0003f0 81 11 cc 3c 1a f4 ec 3d 70 ea 12 3e aa d2 fa 3d
       0.02491069 0.11569996 0.14347243 0.12247212

critic.0.bias f4 [128]
000000 96 c9 21 be 6b 49 e6 bd ee 48 aa 3d dc cf d8 3d
       -0.15799555 -0.11244472 0.083146915 0.10586521
000010 cd 5c 23 3d 6c 60 7f bb fc 56 0c be a0 9c ad 3d
       0.039883424 -0.0038967384 -0.13705057 0.084771395
000020 6a 76 17 be 60 82 00 be 02 11 b7 bd 22 0d d6 3d
       -0.14791265 -0.12549734 -0.08938791 0.10451724
000030 03 74 f2 bd f6 86 ab bd 68 b4 2a 38 11 d1 15 bd
       -0.11838534 -0.08375351 4.0699175e-05 -0.036576334
000040 1e 6d 5c bd 65 fd a5 bd 3b 29 0c 3e a2 d7 7d bb
       -0.053815 -0.08104972 0.13687603 -0.0038733264
000050 1a f3 c0 3d 7b 27 e8 3d e8 84 eb bb ac 19 bf 3c
       0.09421368 0.11335655 -0.0071874745 0.023327671
000060 8f 8c a8 3d cc b9 30 3e 90 bf b4 3d 36 2c 17 3d
       0.082299344 0.17258376 0.088256 0.036907397
000070 81 78 eb 3c a5 7d 46 be 4f 87 e3 bd 94 79 0f be
       0.028743984 -0.19383867 -0.111097924 -0.14011222
000080 e0 83 15 be 3a ab 24 3e b9 30 6d bc bd 7c af 3d
       -0.14601088 0.16080943 -0.014476948 0.08568714
000090 75 f8 bd bd df 00 41 3d 83 72 1a 3e f3 55 aa 3d
       -0.09275905 0.04711997 0.15082745 0.08317175
0000a0 6a ab 71 3d d0 62 8c bc 84 4d 52 ba 07 12 c6 3d
       0.059001364 -0.017136961 -0.0008022415 0.09671407
0000b0 40 74 15 be bf d3 0c 3e 41 7a ad bd 05 df ca bd
       -0.14595127 0.1375265 -0.08470584 -0.09905819
0000c0 18 31 ca bd 16 a7 c3 bd 7e 45 b6 3d ee fa 47 3d
       -0.09872645 -0.095533535 0.08899973 0.04882329
0000d0 51 11 17 3e 81 bb 2f 3d dd 76 0b 3e 7e 78 0b be
       0.147527 0.042903427 0.13619561 -0.13620183
0000e0 e5 a8 18 be ff 9f b4 3d e6 c4 bf 3d ee a5 95 3c
       -0.14908178 0.08819579 0.09363727 0.018267598
0000f0 9b 9c 01 3e 17 f6 ba 3d 71 b0 9b 3c fd 45 21 be
       0.12657396 0.09128969 0.019005032 -0.15749355
000100 1f 4d 19 be d8 d0 3d 3d bd c1 0b be ba f0 f6 bd
       -0.14970826 0.046341747 -0.13648124 -0.12057634
000110 8e 9e ad bd a1 35 20 3d 22 92 98 bd 65 94 2c 3e
       -0.084775075 0.039113645 -0.074497476 0.16853483
000120 e1 02 a5 3d 49 9e ef bc b4 ec 30 3e ec d8 7f 3c
       0.0805719 -0.029250281 0.17277795 0.015615683
000130 8b 64 de 3d 52 56 d1 bd 0c 55 16 be 43 1a c0 bd
       0.10859021 -0.102215424 -0.1468088 -0.09380009
000140 ef 2b 9a bb 21 ba ba 3c ec 37 ca 3d c3 20 9b 3d
       -0.0047049443 0.022793831 0.098739475 0.07574608
000150 3d b8 97 bd 1b 10 2e 3d 27 53 c0 bd 23 60 fb bc
       -0.074081875 0.042495828 -0.0939086 -0.03068549
000160 3b e4 fc bd 96 9c 0d 3e 7e c5 da 3d 0c ac ac 3d
       -0.12348219 0.13829264 0.106822 0.08431253
000170 0f 9e bc bd c6 36 14 3e 40 a0 a1 3d 9f 1c 43 3e
       -0.09209835 0.1447402 0.078918934 0.19053887
000180 a0 42 1c 3e 74 0e a7 bd 97 3b 12 3e 61 a4 19 be
       0.1525979 -0.081570536 0.14280544 -0.15004112
000190 d8 17 b4 bd b4 0a a8 3c a4 81 d8 3c 72 07 2a be
       -0.0879361 0.020512916 0.026429005 -0.16604403
0001a0 c2 64 c7 3d 31 7b e8 3c fe 17 28 be 49 83 21 be
       0.09736015 0.028379055 -0.16415402 -0.15772738
0001b0 ac 9a f4 3d ba 07 a3 3d 4f 1f 7f bd 15 e9 19 3e
       0.11943564 0.07960458 -0.062285718 0.1503032
0001c0 ec b4 dc 3d 7c bb 0e 3d 74 e1 9e bd e3 be 5d 3c
       0.107766956 0.034846768 -0.077578455 0.0135342805
0001d0 2e ea 0b 3e 69 9c 0e 3e 4f 94 19 3e 10 73 14 3d
       0.13663551 0.13926853 0.14997981 0.036242545
0001e0 ff 0f 5c bd c6 fc d7 3d af 57 81 3d 27 47 f9 3d
       -0.053726193 0.105462596 0.063155524 0.12171774
0001f0 d6 03 52 3d e8 ca 9f 3d d7 14 8b 3c 69 6d a7 3d
       0.05127319 0.07802373 0.01697771 0.08175165

critic.2.weight f4 [128, 128]
000000 f3 3c 59 bc 45 4f 9c 3d a0 13 8e 3b 08 c8 33 3d
       -0.01325916 0.07632307 0.0043358356 0.043891937
000010 4f dd 88 bd da d4 be bc 3d 32 8b bd a8 35 1b bd
       -0.06682836 -0.023294855 -0.067966916 -0.037892967
000020 14 d6 0e bd 7d 4c c7 bc a0 8d 85 3c 3d b8 69 3d
       -0.03487213 -0.024328465 0.016302884 0.05706047
000030 48 ec 5a bd a5 81 a6 3d d4 7c a1 bb e1 1f 47 3a
       -0.05344799 0.081301965 -0.0049282108 0.0007595998
000040 b5 e5 6f 3c 2b b6 33 bd 48 eb e2 3d 6a 3e 15 3d
       0.014642169 -0.0438749 0.110800326 0.036436476
000050 9b 54 e5 3c 16 c8 62 3c f2 0a 8b bb f4 ca e5 3d
       0.027994445 0.0138416495 -0.004243248 0.11220351
000060 f8 cb e2 3c 2d 7a 5c 3d 6f c1 09 3d 84 08 5e bd
       0.02768515 0.053827453 0.03363174 -0.05420734
000070 a8 5f a3 3c d2 0e 35 bc 74 d4 aa bc b7 31 a0 bd
       0.019943073 -0.011050897 -0.020853259 -0.07821982
000080 35 3e 99 3d 57 ee e0 3d 40 91 04 3d 2b be 15 3d
       0.07482568 0.1098296 0.032365084 0.03655831
000090 19 58 f3 bc 05 4f fa 3d ea 3b 0a bd 2a 84 d2 3d
       -0.029705094 0.12222103 -0.033748545 0.102791145
0000a0 49 41 c2 bc 10 d3 76 3c 10 f1 97 bc e7 b1 ab 3d
       -0.023712771 0.01506497 -0.018547565 0.083835416
0000b0 3a 35 65 bd d7 e6 39 3c 6d 84 5e 3a f9 5c aa bd
       -0.055958964 0.01134654 0.0008488361 -0.083185144
0000c0 87 ad 79 3c 13 95 0b bd b8 ce d5 bc 2d e1 e9 bb
       0.015239126 -0.034077715 -0.026099548 -0.0071374387
0000d0 79 ab df bc b9 3c c9 3d 16 62 a9 3c 65 98 3c bd
       -0.027303444 0.09826035 0.020676654 -0.046043772
0000e0 b9 77 26 bb 9e 16 bf bd 39 ea 72 bd e5 f1 9d 3d
       -0.002540095 -0.09330486 -0.059305403 0.07712153
0000f0 b8 57 53 3d 08 7e 7f bd f3 ff e5 bc 10 a7 f9 bb
       0.051597327 -0.062376052 -0.028076148 -0.0076187924
000100 16 15 e1 bc c3 94 ca 3c 8e d8 8b bd 1b e7 88 bc
       -0.027475875 0.024729138 -0.06828414 -0.016711762
000110 bc 55 9c bc 46 d9 4f 3c 25 f7 89 bd 8c f5 46 bd
       -0.01908385 0.012686079 -0.06736592 -0.048574015
000120 56 1a 38 3d a1 91 da bb a4 13 49 3d 5d bf 3a bd
       0.04494699 -0.0066701923 0.049090996 -0.045592654
000130 a0 d0 95 3d 9b 1e 53 3d 41 79 65 bd b6 93 b1 bd
       0.07315183 0.05154286 -0.05602384 -0.08670752
000140 28 ea 39 bd 7e 89 89 3d d6 56 00 3d 27 90 f7 3c
       -0.045389324 0.06715678 0.031332813 0.030220104
000150 7c 38 dd 3c eb e4 e8 3d 01 8b 8c bd 05 ea 02 3d
       0.027004473 0.11371788 -0.068624504 0.03196146
000160 7c 34 74 bd f0 7b 82 bd 26 44 61 bd 20 ca 82 bd
       -0.059620366 -0.063712955 -0.054996632 -0.063862085
000170 d9 26 90 bd a8 f4 9c 3d 74 ca 8c 3d ef 6a 8f 3d
       -0.070386596 0.07663852 0.06874552 0.07002818
000180 12 6a e6 3d 6a 05 c6 bc 0a 68 b2 3d 6e 1b 2e 3d
       0.112507 -0.024172504 0.0871125 0.042506628
000190 78 93 8d bd 28 36 d6 3d c0 5d c9 3d fb 90 96 bb
       -0.06912893 0.10459548 0.098323345 -0.0045949197
0001a0 67 98 ea ba 7e 71 7a 3d 75 15 80 ba d6 1e 6e 3d
       -0.0017898203 0.06114339 -0.000977202 0.058134876
0001b0 67 86 5c bc 30 eb 15 bd d4 01 b5 3b 1f 8f 3b bd
       -0.013459778 -0.036601245 0.0055238996 -0.045790788
0001c0 47 47 1b bd 63 e4 8a bd 66 48 21 bd 9f f0 20 3d
       -0.037909772 -0.067818426 -0.039375685 0.039291974
0001d0 d1 bb b1 3c 4f f4 81 bd 1d bb 6f bd 1f ef d1 bc
       0.021696003 -0.06345426 -0.058528055 -0.025626717
0001e0 89 9f 7c bd 4e f8 ee 3d 14 13 b5 bd f6 c5 bc 3d
       -0.061675582 0.11668454 -0.088415295 0.092174456
0001f0 3e 8f a0 3c dd f4 d8 bc c7 35 99 bc 5c 97 cd bc
       0.019599553 -0.026483947 -0.0187024 -0.025096588
000200 b0 56 60 3d eb d2 a4 bd bb fb b5 3a 8f a2 d0 3c
       0.05477017 -0.08048042 0.0013884226 0.025468139
000210 1e 08 47 bd ed 22 c5 3d 4e 6d 72 3d 5c 8c f2 3c
       -0.048591726 0.09625802 0.059186272 0.029607944
000220 3f 72 20 3c 05 3a 6b bb a3 3c 89 3d 4d 8c 0a 3d
       0.009792863 -0.0035892737 0.06701019 0.033825208
000230 99 41 f1 3d 37 4d c1 3c 4b da a9 bd a5 50 6c 3d
       0.1178009 0.02359639 -0.08293589 0.057694096
000240 43 dc 39 3d 7b 9d 69 bc 46 3d 30 bd ea 3a 9c bd
       0.045376074 -0.014258738 -0.043027185 -0.076284245
000250 1e 09 ca bd be 1b 9e bd 47 00 a3 3d 19 8c 77 bd
       -0.0986502 -0.07720135 0.07959037 -0.060436342
000260 9a 05 a6 bd d7 1b 3d bc 82 87 77 3d 9b c3 4f 3d
       -0.08106537 -0.011542282 0.060431965 0.050723653
000270 61 33 0e 3e 68 bc 2b bd 5f fa 71 bd ce 84 91 3d
       0.13886787 -0.041927725 -0.059076663 0.071054086
000280 9c b3 2a bc b5 4d 0a bd 68 cb ee 3a ab 87 49 bc
       -0.010418799 -0.033765513 0.0018218579 -0.012300412
000290 4b 84 a3 3c ab 62 e4 3c a0 20 e2 bc 9c 79 4f 3d
       0.019960543 0.02787908 -0.027603447 0.050653085
0002a0 48 9a b6 bd 39 a2 0c bd 08 19 a6 bd 6e 70 12 bd
       -0.089161456 -0.034334395 -0.08110243 -0.035751753
0002b0 11 80 c9 3d 1a c8 42 bc 70 c4 1d bd 25 a9 95 3d
       0.0983888 -0.011888528 -0.038517416 0.073076524
0002c0 30 44 81 bd 99 1b 8c 3d b1 b3 31 bb 6d 3f 69 3d
       -0.06311834 0.06841201 -0.002711516 0.056945253
0002d0 f5 59 82 bd 92 b6 a1 3c 33 1c 9b bd b0 05 23 3d
       -0.06364814 0.019740377 -0.07573738 0.039800346
0002e0 a3 15 9d bc 4a c3 e7 bc bb 07 30 bd cb 8a 8d 3d
       -0.019175356 -0.028291363 -0.042976122 0.06911238
0002f0 a6 d5 1f bb 09 98 88 bd dc 90 d5 bd fe 07 d0 bc
       -0.002438882 -0.066696234 -0.1042802 -0.025394436
000300 f2 9b b3 3d 28 a5 a6 3c e7 c1 96 3d 5f 66 11 bc
       0.087699786 0.020342425 0.07361203 -0.008874505
000310 a6 50 63 bb 91 bb f8 3c 6d ca af 3d 42 5c 31 bd
       -0.0034685521 0.030362876 0.085835315 -0.043300875
000320 a8 46 60 3d fd 7f 3c bd bb b9 1b 3d 7e 41 ae bd
       0.054754883 -0.046020497 0.038018923 -0.085085854
000330 1e 79 2d 3d bf 18 8f 3d 25 61 49 3d 8a 1f 89 bc
       0.042351834 0.06987142 0.04916491 -0.016738672
000340 3e 23 3d 3d 3c 1f 75 3b 77 1e 1d bd 69 4e 9f bd
       0.046176188 0.003740265 -0.03835913 -0.077786274
000350 34 8d a4 bd 7b 1b 87 bd c4 e4 79 bd db c6 84 3d
       -0.08034745 -0.06597038 -0.061009184 0.06483241
000360 4d cc 2f bd 57 0a 28 bd 85 15 00 bd d2 93 6e bc
       -0.042919446 -0.041025486 -0.031270523 -0.01456161
000370 6c d8 38 3d c4 93 91 bd 63 33 c7 3c df e0 6e bc
       0.04512827 -0.07108262 0.024316495 -0.014579981
000380 2e fa ad 3a 30 df 2f 3b 92 d9 8f bd f3 7b 0f 3d
       0.0013273412 0.002683591 -0.0702392 0.035030317
000390 bc cc 5d 3d 4e af 9f bd c6 05 c6 bc 1d bf b6 3d
       0.054150328 -0.077971086 -0.024172675 0.08923171
0003a0 e7 b6 6d bd cf 54 39 3d c1 9c 86 bd 23 13 6d bd
       -0.058035757 0.045246895 -0.06572867 -0.05787958
0003b0 39 ac f2 3c 19 f1 68 bc 12 e6 20 bd c4 e5 b7 3c
       0.029623138 -0.014217638 -0.039281912 0.022448428
0003c0 eb f6 ad bc 14 62 85 3d 4b 89 8d bc 76 d9 60 3d
       -0.021235904 0.065128475 -0.01727738 0.054894887
0003d0 5a 73 ce 3b 5c 24 15 bb 2c cb a1 3d 55 34 cf 3c
       0.006300372 -0.0022757268 0.0790008 0.025293509
0003e0 62 29 b8 3d 93 dc fd bd b1 7d 92 3d 0d 9d ff 3a
       0.08992268 -0.12395587 0.0715288 0.0019501761
0003f0 a4 f7 ab bd f2 22 b2 3c cd 92 f3 bc 31 89 1e bd
       -0.08396843 0.021745179 -0.029733086 -0.038705055

critic.2.bias f4 [128]
000000 29 fa 29 ba 71 76 16 3c a0 97 88 3d 2a 51 6e 3d
       -0.0006484115 0.009183512 0.06669545 0.058182873
000010 f7 45 d9 bb 4b 54 99 3c cc 53 ad bd 5a e2 75 bd
       -0.006630655 0.018716952 -0.084632486 -0.06003032
000020 bf 19 3b bd 4e 8d b8 3d a1 c3 79 bd 25 6e 3e bd
       -0.04567885 0.09011327 -0.060977582 -0.04649176
000030 df e9 9a 3c a1 d7 3b 3d 16 1e 7e 3d 23 a3 cb 3d
       0.018910347 0.045859937 0.06204041 0.09943225
000040 e1 6f 39 3d df 52 79 bc 9b 3b a4 3c 4a 1e 4f 3d
       0.04527271 -0.015217512 0.020047953 0.050565995
000050 d1 09 97 bc d6 ec ac ba fd 55 30 bd 05 a4 39 bd
       -0.018437298 -0.0013193141 -0.043050755 -0.045322437
000060 b8 7b 93 bc 97 ad ad bc 4b fc 81 3d 8c 01 74 3d
       -0.01800333 -0.021200938 0.06346949 0.059571788
000070 d5 66 28 bd ed a9 9b bc c5 49 42 3c db 2b 55 3d
       -0.041113693 -0.019001925 0.011858408 0.052043777
000080 f5 bf 8b 3d 1b 0c 2a bc 00 00 00 bd c9 c5 16 3d
       0.06823722 -0.010378863 -0.03125 0.036809716
000090 22 6e b2 3c 6c 1d 46 bc 5e 08 2a bd ee 38 a2 ba
       0.021781031 -0.012091976 -0.041511886 -0.0012376586
0000a0 b9 a3 c9 3c 2b a0 69 bd 4a 36 74 3d ac fb 91 bd
       0.024614202 -0.057037514 0.059622087 -0.07128081
0000b0 42 e3 ca bc 50 c1 1c bd 40 dd b5 bd 62 8b 37 bd
       -0.024766568 -0.038270295 -0.08880091 -0.04481066
0000c0 e5 f3 02 bb 9d ed b7 3d b1 3b 97 3d ab 40 28 3d
       -0.0019981798 0.08980868 0.07384432 0.041077297
0000d0 46 61 09 bc 49 d5 59 bd fc e0 1a 3d 7a dc 4f 3d
       -0.008385008 -0.05318192 0.037812218 0.050747372
0000e0 86 f0 44 bc 0c 66 aa bd dd 05 a0 3c 2a 1b 7d 3c
       -0.012020236 -0.08320245 0.019534046 0.015448371
0000f0 0e a6 b5 3d c9 b9 52 3d 98 e1 28 bd db 77 17 3c
       0.08869563 0.05144671 -0.041230768 0.009244884
000100 ee 26 83 bd 9b 55 70 bd bc b1 6b bd 39 d2 a4 bc
       -0.064039096 -0.05867539 -0.057542548 -0.020119773
000110 8c 5e d1 3c 01 b8 28 bd 5f 0d 18 bc 86 c7 67 bd
       0.025557779 -0.041191105 -0.009280532 -0.056586765
000120 04 67 75 3d 87 1e ae 3d c3 4a 09 3d 55 89 87 3d
       0.059912696 0.085019164 0.033518564 0.06617991
000130 74 f5 43 bd 60 e6 42 3d 27 77 24 bd c6 b5 73 bd
       -0.047841504 0.047582984 -0.040152695 -0.059499525
000140 35 3b d9 3b e3 46 6a 3b 40 95 26 3d d9 3c ba bd
       0.0066293725 0.0035747818 0.04066968 -0.09093637
000150 3f 13 82 bd 2a 82 6f bd c0 cb 49 3d 43 3e b5 bc
       -0.06351327 -0.058473743 0.049266577 -0.022124415
000160 44 79 bf bd ca 6e 1b 3d 64 8b 1e bc d0 c1 de 3c
       -0.093493015 0.037947454 -0.009676788 0.027192026
000170 69 81 f2 ba c8 15 71 bd a2 6c 77 3d 58 6b 8e 3d
       -0.0018501702 -0.058858663 0.060406335 0.06954068
000180 d6 9b 16 bd a4 58 22 3b 08 9d 74 bd 46 31 95 bb
       -0.03676971 0.0024772072 -0.05972007 -0.004552993
000190 b3 49 85 3d fe fc 1b bd 9d fc 88 bd b8 cc 4e 3d
       0.06508198 -0.03808307 -0.06688807 0.050488204
0001a0 1f 13 aa bd 1f 16 99 3d ea b5 8a 3c da 2a c6 bd
       -0.08304428 0.074749224 0.016932447 -0.09676142
0001b0 88 ff 59 3d f1 07 12 bc 59 52 40 bc 41 53 85 3b
       0.05322221 -0.008913026 -0.011738383 0.0040687625
0001c0 ad af 9c bd fb ed 6e bc f3 98 0d bd 9e 8e de bc
       -0.07650695 -0.014583106 -0.034569692 -0.027167615
0001d0 1e d1 68 bd 78 40 e3 bc 21 1f 48 bd 41 73 32 bd
       -0.056840055 -0.027740702 -0.04885781 -0.043566946
0001e0 47 d0 9d 3d 8b 49 83 3d ed 23 10 bd 53 f4 5b bd
       0.077057414 0.064105116 -0.03519051 -0.053699803
0001f0 43 bd 77 bd 8c 86 67 bd 57 34 b6 3d 66 91 ee bc
       -0.06048323 -0.0565248 0.08896702 -0.029122066

critic.4.weight f4 [1, 128]
000000 e9 2e 90 be c5 d4 70 3e d1 66 88 be 3c 91 8f be
       -0.2816079 0.23518665 -0.26640943 -0.28040493
000010 bc 6f 98 be e6 04 8b 3e a3 5c 8e be 76 b5 87 3e
       -0.29772747 0.27152175 -0.2780505 0.2650563
000020 24 56 88 3e 69 dc 7c be 55 11 93 be fc ce 89 3e
       0.2662822 -0.24693455 -0.2872416 0.2691573
000030 8b d3 89 be 7a 97 97 be 52 a8 82 be fd f1 8d be
       -0.26919207 -0.29607755 -0.25519043 -0.27723685
000040 7c 41 83 be 81 5a 9f 3e 75 fe 81 be 79 15 9f be
       -0.25635898 0.31123737 -0.25389448 -0.3107107
000050 30 c5 9f be 3a fa ad 3e 4d 78 8e be d0 e9 88 3e
       -0.3120513 0.3397997 -0.27826157 0.26740885
000060 b5 35 83 3e e3 86 99 3e f4 46 88 be 39 25 9a 3e
       0.25626913 0.29985723 -0.26616633 0.30106524
000070 f1 1a 84 be b6 75 a7 3e 6a 10 a4 3e cc ab 95 3e
       -0.25801805 0.32706994 0.32043773 0.29232633
000080 ef 61 93 3e a9 61 82 3e 77 ce 85 3e fc c2 98 be
       0.28785655 0.25465134 0.26134083 -0.2983626
000090 e1 01 b4 3e 39 f7 80 be 48 a2 a0 be 30 ac 82 be
       0.35157683 -0.25188616 -0.3137381 -0.25521994
0000a0 ce 40 90 be ee 1f 99 3e fc 76 94 3e 49 e0 a4 be
       -0.28174442 0.29907173 0.28997028 -0.32202366
0000b0 06 26 7e 3e f2 1e 8f 3e e2 7f 9d 3e 90 b5 87 3e
       0.24819192 0.27953297 0.3076163 0.2650571
0000c0 b7 61 89 3e b2 2a 80 be ea 6e 9b 3e 99 19 84 be
       0.26832363 -0.25032574 0.30358058 -0.2580078
0000d0 23 dd 8a be 33 7a a6 3e be ee 8e 3e 33 c3 7e 3e
       -0.2712184 0.32515106 0.2791652 0.2487915
0000e0 f3 5b 8c 3e c5 d0 98 3e d8 5a 8b be 7d a4 7f be
       0.27413902 0.2984678 -0.27217746 -0.24965091
0000f0 94 1e 96 be fa bf 93 be 8d de 85 be 38 82 95 be
       -0.29320204 -0.28857404 -0.26146355 -0.29200912
000100 ec 70 9b be 48 d1 a9 be 92 5f 86 3e 32 3c 8f be
       -0.3035959 -0.3316748 0.2624479 -0.27975613
000110 0d c5 a5 be 81 63 8d 3e 48 cd 87 be 59 b4 9e 3e
       -0.323769 0.27614978 -0.26523805 0.3099697
000120 9e e4 a3 be c5 b1 8c 3e 0c 4f a5 be 48 54 95 be
       -0.3201036 0.27479377 -0.3228687 -0.29165864
000130 e5 ed a3 3e 72 ba 73 be 32 30 97 be 23 30 ab 3e
       0.32017437 -0.23801592 -0.29528958 0.33435163
000140 a7 10 8d be af bf a3 3e 7e 93 92 be 68 66 96 3e
       -0.27551767 0.3198218 -0.28628153 0.29375005
000150 85 5c 9a 3e ac 65 7f 3e 5a 7c a0 be f9 cc a2 3e
       0.30148712 0.24941128 -0.31344873 0.31797007
000160 14 cb 8e 3e c2 a8 88 be 90 ef 7f 3e 45 31 8e 3e
       0.2788931 -0.26691252 0.2499373 0.27771965
000170 b2 c2 6f be 0a 75 a4 3e dd 93 7b be 17 73 8e be
       -0.23414114 0.32120544 -0.24568124 -0.27822182
000180 58 f7 8e 3e a0 0c 9b 3e bf ea 98 be ce 0d a5 3e
       0.27923083 0.3028307 -0.29866597 0.32237095
000190 3b 6f 9e 3e 48 7f 7a be d6 90 98 be 5a 2f 6e be
       0.30944237 -0.24462616 -0.29798 -0.2326025
0001a0 2f c5 96 3e 2a 98 a4 be 13 c3 8a be 0b 38 80 3e
       0.29447314 -0.32147342 -0.27101955 0.25042757
0001b0 4d 17 9d be c9 80 95 3e b6 41 98 3e 7d ec 90 3e
       -0.3068184 0.29199818 0.29737633 0.28305426
0001c0 5c f1 8e 3e b8 c4 80 3e 93 33 99 be cb 54 8e 3e
       0.27918518 0.25150084 -0.2992216 0.27799067
0001d0 d0 80 6f 3e 32 8f 9f 3e a5 f7 82 be ed 51 9d be
       0.23388982 0.31163937 -0.25579563 -0.30726567
0001e0 fa ef 7c be 3b ec 83 be 5a a0 a9 3e 6f cd 99 3e
       -0.24700919 -0.25766167 0.3313015 0.30039546
0001f0 f0 ac 90 3e 6b 8a 9d 3e 40 e1 88 be 83 55 76 be
       0.2825694 0.30769667 -0.26734352 -0.24056058
